saved_models/A2C/using_trueskill_for_matchmaking/model0.pth (torch, 48436 bytes, 7 tensors)

0.weight f4 [64, 84]
000000 21 4e 6f bd 06 bb 2c bc 0d 00 c6 3c 99 5c 8d bb
       -0.05842412 -0.010542637 0.024169946 -0.004314017
000010 4b 07 99 bc e5 58 20 bd c1 d7 1b bd fe 70 af bd
       -0.018680235 -0.039147276 -0.038047556 -0.085664734
000020 74 14 2b be d4 c5 59 be fe 69 96 be 56 fc 20 3e
       -0.16707021 -0.21266872 -0.2937774 0.15721259
000030 71 1e 5c 3e 2e d3 3d 3e 5f f5 87 3e 7d 70 11 3c
       0.21495987 0.1853759 0.2655439 0.008876917
000040 05 00 a8 3e 54 4e b7 3d 3b cd 7e be 1b 72 82 bd
       0.32812515 0.08950487 -0.24882977 -0.0636942
000050 9d 3f dd 3d 4a 09 2b bd e7 0e e1 bd 7c 3f 86 3e
       0.10803149 -0.041756906 -0.109891705 0.2622031
000060 df a7 f7 bd e2 4a ad 3d 65 fe 61 3d ac a7 f6 bd
       -0.12092566 0.084615484 0.05517425 -0.120436996
000070 9a 93 5d bd 74 e8 36 be 1b 06 46 3e 6c 92 07 3e
       -0.054095842 -0.17862111 0.19338267 0.1323945
000080 1c c2 a3 be 9b 92 cb 3d ab ff 54 3d 92 4f 80 3e
       -0.3198403 0.09940072 0.052001636 0.25060707
000090 54 4b 55 3d 5d 1a 90 bd d1 a5 bd 3d 91 85 b9 bd
       0.05207379 -0.070362784 0.092601426 -0.09058679
0000a0 54 50 c7 bd 75 d6 41 3e a9 10 8d be 15 6b c9 3c
       -0.09732118 0.18929465 -0.27551773 0.024587194
0000b0 a6 ad 9a bc 24 f7 b0 bd 40 02 71 b9 f0 d6 d7 bc
       -0.01888163 -0.08640888 -0.00022984389 -0.026347607
0000c0 0e b4 6f 39 42 de 3a bd 4c 1a 0f bc 22 76 46 be
       0.00022859892 -0.045622118 -0.008734297 -0.19381002
0000d0 5a 80 08 be dd 95 14 bd 80 fd 1c be 86 94 1a 3e
       -0.13330212 -0.036275733 -0.15331078 0.1509572
0000e0 69 49 c9 bd 35 23 09 be 48 1f 7e 3e 24 7a b1 3e
       -0.09828455 -0.13392337 0.2481662 0.34663498
0000f0 19 02 b6 3e a9 50 29 bd 15 70 57 be 7b 0e 45 be
       0.35548475 -0.04133669 -0.2103885 -0.19243805
000100 5c e8 f1 bd 55 90 a0 3b 38 c2 22 be ae ab 56 3e
       -0.11811897 0.004900018 -0.15894401 0.20963928
000110 9c c3 c2 3d 1c 3f c0 3d 1a 49 7a 3e d6 2b 84 bd
       0.09509966 0.09387037 0.24441949 -0.064536735
000120 e2 af d2 3d 78 60 64 bc 0a 19 59 3e 3a 1d a1 be
       0.10287453 -0.013939016 0.21200958 -0.3146761
000130 97 5b b8 3c 8b 88 77 3e d1 62 89 bd e1 f6 4e be
       0.022504611 0.24173181 -0.06708301 -0.20211364
000140 08 3f 76 bd f1 91 c0 bc 9c 57 2a 3e 82 3d 57 bb
       -0.060118705 -0.02350709 0.16634983 -0.0032843058
000150 82 66 de 3d bd d3 86 bd 1f 33 37 be 7a f6 bf 3d
       0.108593956 -0.065833546 -0.17890595 0.093731835
000160 70 24 10 bd 7b 39 02 3e 6d d4 27 be b9 13 06 3d
       -0.035191 0.1271724 -0.16389628 0.032733653
000170 f9 8f 2b 3e 1f a0 e6 bd 7c 49 9f bc 17 6a d7 bd
       0.1675414 -0.112610094 -0.01944422 -0.10518282
000180 39 cb 8c bc 18 71 34 be 9b 4b b4 bd 70 f8 b4 3a
       -0.017186748 -0.17621267 -0.08803483 0.001380695
000190 71 be 12 be 45 cd 74 3c ee 7e a9 bd 53 2d 88 bc
       -0.1433046 0.014941518 -0.08276163 -0.016623175
0001a0 be b3 92 3d 41 91 20 be 3b 5c 24 be 26 1b 0d be
       0.07163189 -0.1568041 -0.16050808 -0.13779888
0001b0 93 74 11 bd 4f cc 6b bd fe 07 3e be 31 b7 89 3d
       -0.035511564 -0.05756789 -0.18557736 0.06724394
0001c0 e5 c2 b2 3c f1 90 61 be f8 b7 47 be a8 97 2a 3d
       0.021821449 -0.22027947 -0.19503772 0.041648537
0001d0 c7 8a 43 be 9c b1 d1 bc 35 e7 a5 3e be 1f 7e be
       -0.19095908 -0.025597386 0.3240296 -0.24816796
0001e0 7d 9e 8e 3d 25 bf 9a 3d f7 1d a7 3c 9f 85 81 be
       0.06963823 0.07555989 0.02040003 -0.25297257
0001f0 2f 18 5d be 62 3b 76 be b0 96 74 3c b9 58 5a bd
       -0.21591257 -0.2404609 0.014928505 -0.05330727
000200 34 2b e3 3d 48 e5 df bc a4 dd 15 3e 9d a0 fe bc
       0.11092225 -0.02733101 0.1463533 -0.031082446
000210 2b 3d 91 bc 2c 78 1e be d3 12 ff 3b 62 9b 5d 3d
       -0.017729362 -0.1547553 0.0077842264 0.054103263
000220 f4 e9 cf bd 12 a3 ce 3e 80 53 b5 bd 32 6c fb bd
       -0.10152045 0.40358788 -0.08853817 -0.12276496
000230 dd 79 fc 3d ff ed b9 bc c2 8c 52 be 3a 5f 76 3d
       0.12327931 -0.022696493 -0.20561507 0.06014941
000240 0a d9 71 3d e3 33 8d 3d c1 b8 da bd 6b 96 31 3c
       0.059044875 0.06894662 -0.1067977 0.010839085
000250 3b 90 5c be 64 20 59 be 59 26 28 3d d0 dd 05 be
       -0.21539395 -0.21203762 0.041052196 -0.13072896
000260 bc 13 a2 be be 31 38 3e e2 3f a2 bd 55 ca 4f 3e
       -0.3165568 0.17987725 -0.07922341 0.20292027
000270 2a c8 b9 3d d2 9f 32 be 6f de 20 be c8 9f b9 be
       0.090713814 -0.17443779 -0.15709852 -0.36254716
000280 db c7 90 bd 17 ea 33 3e d8 db 40 3e ac ed 15 bd
       -0.070693694 0.17569767 0.18833864 -0.036603615
000290 a2 ae 99 3c 84 00 6c 3d 95 0f 63 bc 9f a4 09 bf
       0.01876003 0.05761768 -0.0138586955 -0.53766817
0002a0 47 1a e1 3d 1c 2d a9 be ae 3a 04 3b d6 22 62 bd
       0.1099134 -0.33042228 0.0020176577 -0.055209003
0002b0 6d ec 06 be b5 bd 32 3d f1 10 f0 bd e7 1c 50 bd
       -0.13176127 0.04363795 -0.11721981 -0.050808813
0002c0 14 b0 f2 bd 8c 9c 1a 3e dc ee cd bd 3f ee 1f be
       -0.118499905 0.1509878 -0.100553244 -0.15618227
0002d0 8e ab 3d be 63 cb 32 be 93 bc 09 be fb 40 6b bd
       -0.18522474 -0.17460398 -0.13450842 -0.057435017
0002e0 a8 0b 24 3e 58 ce 22 be 33 44 63 be 2b 98 c1 bd
       0.16020072 -0.15899026 -0.22193985 -0.09452852
0002f0 48 19 7d 3e 77 75 7a 3c 0a 30 e6 bd 88 38 ef 3d
       0.24716675 0.015286795 -0.112396315 0.11680704
000300 5d 77 2f 3e 92 8b 01 be 8b c8 ba 3d 0e 06 73 be
       0.17135377 -0.12650898 0.09120282 -0.23732778
000310 5f 48 ac 3d 7f f7 04 bc 11 db ba 3d 3a 27 c7 bd
       0.08412241 -0.008115648 0.09123815 -0.09724279
000320 b5 a1 32 be c1 d1 3e be 85 fc 73 bd 9c f3 37 bd
       -0.17444499 -0.18634702 -0.059566993 -0.04491006
000330 88 b6 74 3c 62 84 aa bd b9 91 2f 3e 1a 57 74 3e
       0.014936097 -0.08326031 0.17145433 0.23861352
000340 c7 15 50 be b1 13 5d 3d a9 ea ef bd a1 7c 59 bd
       -0.20320807 0.053973857 -0.1171468 -0.05309737
000350 e6 a1 bf 3d e7 33 43 3e 44 7e 5b bd 21 0d 9d bc
       0.093570516 0.19062768 -0.053587213 -0.0191713
000360 2e 31 31 3e 34 e6 ce 3e 1c b2 e0 bd 89 7e 03 3e
       0.17303917 0.40410006 -0.10971472 0.12841238
000370 6c d0 11 3e c8 f5 b3 3e eb 98 98 3d e5 d5 ff bd
       0.14239663 0.35148454 0.07451042 -0.12491969
000380 f5 59 75 be 30 36 e1 3c ca de fc 3d 75 b1 a2 bc
       -0.23960097 0.027491659 0.12347181 -0.019860009
000390 85 66 4a 3e 70 74 2f be 4a df d6 3d 71 ca f6 bd
       0.1976567 -0.17134261 0.10491808 -0.120503314
0003a0 2d 17 80 3d 68 81 4f 3c 0d ed c2 3c 43 0b 06 be
       0.062544204 0.01266513 0.023794675 -0.13090234
0003b0 8b d1 58 bd 32 5c 6e be f7 cd 83 bd b3 1b 42 3e
       -0.05293421 -0.23277357 -0.06435769 0.18955879
0003c0 bf 82 86 be 3a f2 d3 3d d2 ff 7b bd 8f 7a 38 3e
       -0.26271626 0.103489354 -0.061523266 0.18015502
0003d0 75 8d 04 bd 68 2f 53 3e d7 26 95 be c0 73 82 3e
       -0.032361466 0.20623553 -0.29131195 0.25478935
0003e0 14 10 0b bd 28 a0 18 3e ae 78 90 3e 70 68 4f 3c
       -0.03395088 0.14904845 0.2821707 0.012659177
0003f0 b9 c2 fd be 4e 6d 88 bc ab 1b c2 3d d5 48 17 be
       -0.49562624 -0.016653683 0.094779335 -0.14773877

0.bias f4 [64]
000000 70 27 8d 3d fe f4 1e 3c d6 e7 b0 3c 8f ba eb bc
       0.06892288 0.009701965 0.021594923 -0.028775482
000010 b9 fb 34 3b 2b 79 10 bd 77 73 18 3d d7 84 5d 3d
       0.0027615859 -0.035271805 0.03721949 0.054081764
000020 46 ce a8 3d 4c c0 6e 3a d7 a5 77 3d 16 3d 28 ba
       0.082424685 0.0009107634 0.06046089 -0.0006417794
000030 7f 12 2b 3d 57 ea bd bc a3 ad 2d bd 53 77 76 3d
       0.041765686 -0.023183031 -0.04240192 0.06017239
000040 dc 58 00 bc be 26 4e bd b5 af c7 bc fb 6f 68 bc
       -0.007833686 -0.050329916 -0.024375776 -0.0141868545
000050 92 9d c6 bc 7e 1a 0a 3c 6e fc dd 3b 44 72 9e 3c
       -0.024245057 0.008429168 0.0067744767 0.019341595
000060 e4 86 aa 3d 6a b9 04 bc 07 a0 28 3d 77 4a 6c 3d
       0.083265096 -0.008100847 0.04116824 0.057688203
000070 a9 32 b1 bc 20 5e 0a bd 85 58 93 bc 8d 6b 0e 3d
       -0.021630602 -0.03378117 -0.017986545 0.034770537
000080 89 e6 36 3c 96 9a 6e bd dd ff ec bc 72 1f 32 bc
       0.011163362 -0.058252893 -0.028930599 -0.010871755
000090 98 a9 71 3c 17 81 04 3c ad a1 7f bc 3d 1e be bc
       0.014749907 0.008087418 -0.015602511 -0.023207778
0000a0 c3 50 fa 3c ec 8e 8b 3d 38 6a 99 3d 54 7c ba bc
       0.030556088 0.068143696 0.07490963 -0.022764362
0000b0 f1 55 dc bc 43 e7 40 3d dd ad 90 bc 84 e0 27 3d
       -0.026896449 0.04709555 -0.01766103 0.0409856
0000c0 45 af bd ba 26 6d 3d bd 1c 8d 76 3d 12 b7 63 3c
       -0.001447179 -0.04624667 0.060193166 0.013898628
0000d0 92 fa 54 bc 6e 09 5b 3c 0b 1f 45 3d da f4 83 3d
       -0.012999194 0.013368947 0.048125308 0.06443186
0000e0 2d c9 21 bc f3 9e 9b 3a a6 0d f4 3c f9 7f 01 3d
       -0.009874624 0.0011872932 0.029791664 0.031616185
0000f0 30 a0 c3 3c db 78 4b bd 1e 79 52 3d ab 9f c2 3c
       0.023880094 -0.049675804 0.051385038 0.023757776

2.weight f4 [7, 64]
000000 26 21 25 be ce 46 e2 3e b8 1b 5a be 51 7d 80 be
       -0.16125926 0.44194645 -0.21299636 -0.2509561
000010 db 82 36 3e b4 2c 90 be f6 07 b8 bb 0f aa 31 be
       0.17823355 -0.28159106 -0.0056161834 -0.17350028
000020 8a 55 1b bc cd 0f 62 be 71 49 cc 3d 4c 2a 35 bd
       -0.009480843 -0.2207634 0.09974945 -0.04422979
000030 30 0a bd be ed c1 3b be a3 73 67 3d 7d 1f 49 3c
       -0.36921835 -0.18335696 0.056506764 0.012275574
000040 a5 f1 3d 3d 17 6c ee 3d b2 01 51 be 8a d9 41 3e
       0.04637303 0.1164171 -0.20410803 0.18930641
000050 0c dc 31 bd 79 da 19 be ba a5 85 3e b1 a7 c7 be
       -0.043422744 -0.15024747 0.26103002 -0.38995126
000060 ab 65 3d 3e c1 55 12 be 7d af 0f bc 4e d2 84 3e
       0.18495815 -0.14290525 -0.008769867 0.259417
000070 25 b0 70 be e7 1a 2e bc ec f1 29 3d a3 5c 4f 3c
       -0.23504694 -0.010626531 0.04149048 0.012656364
000080 52 5b 60 be 3f bf 13 3d 2b 86 c5 bd 1e f9 c5 3c
       -0.21909836 0.03607106 -0.09644731 0.02416664
000090 3d 86 a2 3d 5c 30 09 be 7b 92 3e 3c 16 a3 99 be
       0.0793576 -0.13397354 0.011631603 -0.30007237
0000a0 d6 d1 73 be e0 fa 8d bd 14 9e 0d 3e 26 f1 7f bd
       -0.23810515 -0.06932616 0.13829833 -0.062485836
0000b0 6d bc 85 3e a8 0d 11 bd e0 b4 c2 3c b1 c6 2b 3e
       0.2612032 -0.035413414 0.023767889 0.16775014
0000c0 20 d0 15 be 4c 7f 60 3e 6e ba 14 be 85 25 17 3e
       -0.14630175 0.2192356 -0.14524242 0.14760406
0000d0 a6 7d 7c be 9d 25 5f 3e 7b 96 5d 3e 18 4e e2 ba
       -0.24657306 0.21791692 0.21639435 -0.0017265705
0000e0 37 94 dc bc c6 f0 09 be e3 4f b3 bd 05 c1 53 3e
       -0.026926143 -0.13470754 -0.087554716 0.206791
0000f0 d2 53 0b bd 23 43 a6 3d c1 8e 7c 3e 60 f7 82 be
       -0.034015484 0.08118274 0.24663831 -0.25579357
000100 98 53 db 3d c7 b4 a7 3d 06 43 1d 3e 00 0e f2 bd
       0.107093036 0.081887774 0.15357599 -0.118190765
000110 05 a6 2b be d1 02 13 bd 27 3d ff 3d 16 46 a8 3e
       -0.1676255 -0.035891358 0.12462836 0.3286597
000120 b8 38 c9 3e 13 f3 50 3e 86 8d 42 3e ea bd f2 3c
       0.39301085 0.20405225 0.189993 0.029631574
000130 5e c9 99 3e 15 9e dd bd b0 b9 84 bd 66 ea 8c 3e
       0.30036443 -0.108211674 -0.064807296 0.27522582
000140 51 b8 f1 b8 44 dd 88 bd 03 76 d2 bd 27 a6 37 be
       -0.00011526107 -0.06682828 -0.10276415 -0.17934476
000150 cb c6 75 bd 7d 27 9f bd 05 95 45 be 0b 51 20 be
       -0.060004037 -0.07771204 -0.19295128 -0.15655915
000160 fb 6e 72 3e 00 37 a1 bc 11 dc ce 3d ec cc 32 3e
       0.23675148 -0.019679546 0.10100568 0.17460984
000170 18 e4 91 be ae 31 5c 3c 3e 0a 0b be 6a 9b 2e 3e
       -0.28494334 0.013439579 -0.13578126 0.17051473
000180 3f af 6f 3c 4d 03 03 be d0 3b db bd 19 d7 11 be
       0.014629184 -0.12794228 -0.10704768 -0.1424221
000190 0c 1f f7 3c 37 26 66 3e 72 13 c2 bc dd fa 03 3e
       0.030166171 0.22475515 -0.023690913 0.12888665
0001a0 b1 b6 90 3e ed a1 a1 3e a4 34 9a 3e f2 f1 b2 bd
       0.28264382 0.31568852 0.30118287 -0.08737554
0001b0 a3 c0 e9 bd fc 15 2a 3e c3 1a c2 bd a3 a4 b1 3d
       -0.11413696 0.16609949 -0.09477761 0.0867398
0001c0 8b 54 45 3c d9 09 53 be 25 19 09 3f f4 17 02 3b
       0.012044082 -0.20609225 0.5355399 0.0019850703
0001d0 c8 91 43 be 6e 6e 40 3d 9e 0b 79 3e 9a ed aa 3e
       -0.1909858 0.046980314 0.24320838 0.333844
0001e0 f1 a8 86 3d e8 52 d2 3d 3f f2 a7 bb ae e6 3a 3e
       0.06575192 0.10269719 -0.0051253135 0.1825206
0001f0 55 6f 2e bd 1f 67 58 be 31 eb d4 3e bd 72 9a 3d
       -0.042586643 -0.21133088 0.41585687 0.07541416
000200 f2 4e ce 3d 2f ea 5d 3e 65 53 f9 bc 78 25 da bd
       0.100736514 0.21671365 -0.030435273 -0.10651678
000210 bf e5 ee be 71 8b de bd 75 78 1f be 4c 3b 35 bd
       -0.46659657 -0.1086644 -0.15573294 -0.044246003
000220 cd a2 67 be cb a9 24 be 2f 96 94 bd 71 5d 69 3e
       -0.22620697 -0.16080396 -0.07255208 0.22789551
000230 61 31 8b 3d d1 6d c6 3d 83 e3 7e be 4d 1c bf bd
       0.06796528 0.096889146 -0.24891476 -0.0933157
000240 e6 c5 06 3e 97 ec 0e 3e c4 95 33 bd 70 b9 15 3e
       0.1316143 0.1395744 -0.043844 0.1462152
000250 af 9a 0f 3e 20 46 df bd 1c fb f2 be c8 bd 91 3d
       0.14023851 -0.10902047 -0.47457206 0.07116276
000260 4a b2 b1 3d bd 50 3c 3e 16 da 89 3e 07 35 09 3c
       0.08676584 0.18390174 0.269242 0.008374459
000270 a2 33 0c be 79 00 a6 bc 17 75 58 bc 38 2f ea bd
       -0.13691571 -0.020263897 -0.01321151 -0.114347875
000280 d4 cb 15 3e 12 38 92 3d 7e 9b 1d bb e5 3a 7a 3d
       0.14628536 0.07139601 -0.002404898 0.061091322
000290 40 d1 87 be 33 94 9f bc ba 6b 98 bd d5 34 86 be
       -0.26526833 -0.019479847 -0.07442422 -0.26212183
0002a0 49 0d e9 bd 5d 53 15 bd d5 b1 0d ba 55 db b5 bd
       -0.11379487 -0.036456455 -0.0005405222 -0.08879725
0002b0 fb bf a3 3d 7b 65 0c be 1d 82 aa be 4d 9b 6d 3d
       0.07995602 -0.13710587 -0.33302394 0.058009434
0002c0 8c 65 96 3d 89 46 16 3e ac e6 c4 bc 0c 87 33 3e
       0.07343587 0.14675345 -0.024035774 0.17531985
0002d0 27 0b 84 3e 1e e8 a1 be bf 1b 1a be 43 3a a8 3e
       0.2578976 -0.31622404 -0.15049647 0.3285695
0002e0 87 32 bb 3d 43 d1 d5 3e 77 18 5e be cc 4f df 3d
       0.09140497 0.41761217 -0.2168902 0.10903892
0002f0 8b 2c fa 3c 1d 3c 5a 3e 2a c6 1e 3e 99 2b 25 3c
       0.030538818 0.21311994 0.15505281 0.010081195
000300 bb 4b c8 be da c2 f4 bc b7 63 e1 3c e1 e6 94 bd
       -0.39120278 -0.029878069 0.027513368 -0.07270599
000310 45 7c 48 be 22 d7 5f 3e bb 32 b4 3d d7 b0 f2 3d
       -0.19578655 0.2185941 0.087987386 0.11850136
000320 6c e3 22 be ea 65 a0 3d ca eb d2 bc 36 85 8f 3d
       -0.15907067 0.078319386 -0.025747199 0.0700783
000330 42 b6 5c 3e 39 a0 0b 3d e1 7a b9 3d 7a ad ea bd
       0.21553901 0.034088347 0.090566404 -0.11458869
000340 d3 e4 ff 3d ab 51 29 3e 15 16 ee 3d 64 a0 c8 bd
       0.12494817 0.1653506 0.116253056 -0.09796217
000350 a1 3b 28 3e 6e b3 a5 be dc 7f c1 bd 84 49 7c be
       0.16428997 -0.32363456 -0.09448215 -0.24637419
000360 2e fa 98 be b1 0e 1d be 7a bd 77 be 9e 5f 57 3c
       -0.29878372 -0.15337636 -0.24193373 0.0131453555
000370 3f 17 30 3e 00 c4 0a 3d c1 f2 00 be 87 2f d8 bd
       0.17196368 0.033878326 -0.12592603 -0.1055594
000380 52 59 be be d6 76 1e bd 10 bf fc 3d a4 21 c5 be
       -0.3717752 -0.03868755 0.1234113 -0.38502228
000390 e8 d8 a4 be ed f8 8f 3e 1b e7 a2 bc 5c 58 6e 3e
       -0.32196736 0.28119603 -0.01988559 0.23275894
0003a0 e6 7f 7b bd 2e 84 a6 be 81 60 e9 3a b3 19 5a bd
       -0.06140127 -0.3252272 0.001780525 -0.053247165
0003b0 f5 11 aa 3e 20 55 47 be 6b d3 bb 3d 26 0b ea bc
       0.33216825 -0.19466066 0.09171184 -0.02856977
0003c0 75 e4 30 be fd 8b 8e 3e 65 37 9d 3d cc 0d 70 be
       -0.1727465 0.27841178 0.07676581 -0.23442763
0003d0 54 a7 1c 3e 22 b8 02 3e 94 96 13 be 12 30 f5 3d
       0.15298206 0.12765554 -0.1441291 0.11972059
0003e0 94 66 25 bd 3e 0f 6d be 05 f6 04 be c7 03 24 3d
       -0.04038103 -0.23150346 -0.12984474 0.040042665
0003f0 0d d4 8c bd 25 d9 bf 3d 83 70 0a 3e d3 89 40 be
       -0.06876383 0.09367589 0.13519482 -0.18802576

2.bias f4 [7]
000000 bf f8 33 bb 51 43 b1 3d e5 29 9a 39 1d b1 69 bd
       -0.0027461497 0.08655418 0.00029404383 -0.057053674
000010 d0 8f c1 ba fe e8 29 bc 01 2a 35 bd
       -0.0014767591 -0.010370491 -0.04422951

0.weight f4 [64, 84]
000000 d7 da 28 be 9c 8a df 3e 5b 5c 46 3e 27 e4 99 3e
       -0.16489731 0.43660438 0.19371168 0.3005688
000010 d9 64 95 3b 03 d4 15 be b4 ae 44 3d 57 fd c9 bd
       0.004559141 -0.14631657 0.048018172 -0.09862774
000020 19 24 c1 bd 2a cc 5d 3d 55 0b e1 3d 20 8f 13 be
       -0.09430713 0.054149784 0.109884895 -0.14410067
000030 16 c6 19 be 22 06 7a 3e a1 8d 3a 3e e9 b3 8a 3e
       -0.1501697 0.24416402 0.1821809 0.27090386
000040 d2 b5 93 bd 7e 1f 49 3e 9e 24 12 3e 00 02 0d be
       -0.07212414 0.1964092 0.14271781 -0.13770294
000050 35 99 2f 3e 4c ab 7a 3d 39 8f 01 be ce 8c 13 3d
       0.17148288 0.061198518 -0.12652291 0.036022954
000060 55 a6 2e bd 47 ee 49 3e 78 40 f1 3c c3 c1 f5 3d
       -0.042639095 0.19719802 0.029449686 0.11999848
000070 31 6f f5 bb 78 d9 f0 3c 01 5d 26 3b 78 70 bd 3d
       -0.0074900617 0.029400572 0.0025385024 0.09249967
000080 6c a0 68 3c 2a a5 3a be 84 cf 85 3e e0 4f 90 bd
       0.014198404 -0.18227068 0.26134884 -0.07046485
000090 59 d7 1d bd 20 80 17 3d ed f4 e0 3e 5e c2 6b bc
       -0.03853545 0.036987424 0.43936864 -0.0143896025
0000a0 f1 b6 83 bd d3 22 43 3b 31 ac e3 bc 0b 7e a8 bb
       -0.06431378 0.0029775396 -0.027792068 -0.0051419786
0000b0 8e f1 92 3d b7 d9 94 bc 19 ff 26 be 1b 0c fc 3c
       0.07174979 -0.01817022 -0.1630825 0.030767491
0000c0 9e ea 14 be 62 c7 8f bd ba a5 d1 bc 2a 90 07 3e
       -0.14542624 -0.07020451 -0.02559172 0.13238588
0000d0 d6 97 aa bd af b6 6a bd 4a e6 50 be 7c db 92 3d
       -0.08329742 -0.057303127 -0.20400348 0.071707696
0000e0 0b e4 83 3d 36 55 46 3d 0e ec fe 3c fd 88 01 be
       0.0643998 0.048421107 0.031118419 -0.12649913
0000f0 18 5d 38 be 73 af cb 3d 5b 54 c3 3c e1 92 62 bb
       -0.18004262 0.09945574 0.023843935 -0.003457241
000100 b2 f0 3e 3e b4 98 ae bd a8 6a ba bd 35 34 2d bd
       0.18646505 -0.085252196 -0.09102374 -0.042286117
000110 40 df 95 3e c9 b3 14 be 75 29 ad bd 4d d4 d1 3e
       0.2927189 -0.14521708 -0.08455173 0.40982285
000120 1e d3 1e be 69 7f 36 be 2b ec e4 3d 75 8d 1a 3d
       -0.15510222 -0.1782204 0.11177858 0.03773256
000130 10 71 7f be a9 1a f8 3d a5 6f 11 be c5 a6 23 3c
       -0.24945474 0.1211446 -0.14202745 0.009988491
000140 75 6b 83 3e 95 ee 93 3d f7 9d 02 be 09 24 96 3e
       0.2566792 0.0722324 -0.12755571 0.29324368
000150 59 3f 98 bd da cc 9f 3e 2b 35 02 3e 5c 49 17 bd
       -0.074339576 0.31210977 0.12715594 -0.036935195
000160 04 5b fa bd 89 fb 4f 3e c1 48 56 be c7 e9 f2 bd
       -0.12224391 0.20310797 -0.20926191 -0.11860996
000170 24 8f b3 bd 8c a3 ab bd 90 09 e8 bd b1 e2 77 be
       -0.08767536 -0.083808035 -0.11329949 -0.2420757
000180 c2 28 3e be 55 31 1f be 80 96 80 bd e9 92 84 be
       -0.18570235 -0.15546162 -0.062787056 -0.25893334
000190 c8 12 1e be 35 5d af bb b0 2c c0 3d ef 47 67 be
       -0.15436852 -0.0053516873 0.093835235 -0.22586034
0001a0 93 e0 87 be 27 5e 52 3d b4 76 92 be 50 cd 66 be
       -0.26538524 0.051359322 -0.28606188 -0.22539258
0001b0 b1 e9 4a be a4 06 8f 3e 08 0e 6d 3d c9 70 29 3d
       -0.19815709 0.27934754 0.05787471 0.041367326
0001c0 81 e1 5e bd 70 f2 bb 3d ed a2 86 3e ff a4 21 be
       -0.054414276 0.09177101 0.26296178 -0.15785597
0001d0 50 36 43 be ea cd 11 bb 21 89 83 3d 05 e5 08 3e
       -0.19063687 -0.0022247978 0.0642264 0.13368614
0001e0 6b de 44 3e ca 99 b2 3d 20 f5 d2 bc c8 b2 b8 3d
       0.1922547 0.08720739 -0.02575165 0.09018475
0001f0 64 99 02 bd 71 2f 3d be 5f cf 86 bd 91 26 80 bc
       -0.031884566 -0.18475129 -0.06582522 -0.01564339
000200 4c a3 b7 bd 44 42 0d 3e 7a 89 ad be 33 59 4d bd
       -0.08966693 0.1379481 -0.3389395 -0.050133895
000210 f8 bc 5e 3d 77 ec b5 bc 77 8e 05 3d cf 5b 90 3d
       0.054379433 -0.022207482 0.03260657 0.07048761
000220 a4 91 e5 3e f9 ab 1b 3c 50 64 89 bd 08 ce bf 3d
       0.44837677 0.009501451 -0.06708586 0.09365469
000230 94 33 4f bd a3 0f c6 bd 11 ce 5c 3e 5a 7f 44 bc
       -0.050586298 -0.09670951 0.21562983 -0.011993254
000240 0e 3b 25 be 78 49 25 3e 0a d3 bf bd 76 e7 45 bd
       -0.16135809 0.16141307 -0.093664244 -0.04831644
000250 9a b9 47 bd 92 c6 f0 3d 58 39 a7 bd 9b 99 e4 3d
       -0.048760988 0.11756624 -0.08165234 0.111621104
000260 58 90 02 be 53 eb e0 3d 37 8e cf 3d 51 0c 27 be
       -0.12750375 0.109823845 0.10134547 -0.16313292
000270 4d 68 dd 3d e8 d1 64 3e 84 cf 96 be 6e 63 b3 bd
       0.108109094 0.22345698 -0.29455197 -0.08759199
000280 fa 62 c1 3d 8e 76 e3 3d a2 d2 b2 3d 28 0c 3c bd
       0.094427064 0.11106597 0.08731581 -0.04591003
000290 b5 bb a5 bb 97 0f b6 3d a9 c0 3b 3d e5 03 3f 3e
       -0.005057777 0.08889692 0.045838032 0.1865383
0002a0 67 5e ba bd 29 fe 29 be 75 82 79 be df e8 84 3e
       -0.09100037 -0.1660086 -0.24366172 0.25958917
0002b0 ea 6d 3f 3d 7e a2 24 be c5 f9 62 3d 7f 8f 74 3d
       0.04673568 -0.16077611 0.05541398 0.05970716
0002c0 88 33 47 be a0 45 c7 ba 6b 3e f8 bd 42 55 fe 3d
       -0.19453251 -0.0015203245 -0.1212128 0.124186054
0002d0 6b 3c 26 be 89 26 93 bd a9 5c 4a be ae dc ca 3e
       -0.16233985 -0.071850844 -0.1976191 0.3962149
0002e0 ed 6f 8a 3c 6b 4c 93 3d f5 da c2 3d d0 b5 9b 3e
       0.016899073 0.0719231 0.09514419 0.3041215
0002f0 a0 b0 28 be d7 37 d4 bc bf 1d b6 3d 48 e9 9b be
       -0.16473627 -0.025905533 0.08892392 -0.30451417
000300 62 0d d6 bd 35 b5 43 3d 8f e0 9b be 9a 22 c8 bd
       -0.10451771 0.047780234 -0.30444762 -0.09772225
000310 f6 00 3b bd 19 b8 12 bc e0 86 03 3e 29 72 c3 bd
       -0.045655213 -0.008955025 0.1284442 -0.09543259
000320 b5 a6 94 bd 23 95 30 be a0 5a 75 3e 70 f1 34 3e
       -0.07258359 -0.17244391 0.23960352 0.17670226
000330 86 f2 15 3d 86 3b a7 3e cf 3a 46 be 1e 52 cb bb
       0.03660824 0.326626 -0.19358371 -0.0062048575
000340 9d 65 15 be d6 d6 fb 3d bf 64 be 3c f6 69 ba 3d
       -0.14589544 0.12296836 0.023241399 0.09102242
000350 c3 95 e0 bd f2 f2 c0 3c 27 3b 43 be 66 dc 50 be
       -0.10966065 0.023553345 -0.19065534 -0.20396575
000360 14 4a 3f 3e e4 67 62 bd fd 3b 21 3d 24 38 8f be
       0.18680602 -0.05527486 0.03936385 -0.2797252
000370 4e ce 94 3d 2a 56 83 bd 4a ba aa 3d 13 da 35 3e
       0.07265912 -0.06412919 0.08336313 0.1775897
000380 25 fb 32 3e 27 9e 0c 3e 2e 2e 54 3d 1c 98 43 3d
       0.17478617 0.13732205 0.051801853 0.047752485
000390 a7 53 22 be a6 7e 70 bd 69 62 15 bc 2b a0 e6 3d
       -0.15852223 -0.05871453 -0.009117701 0.11261018
0003a0 44 d0 7a 3d 7f be 6c be c0 c2 08 be fc 19 b7 3c
       0.061233774 -0.23119543 -0.13355541 0.022351258
0003b0 c6 da c0 bc 01 ba 81 be d0 35 61 be ca 7a ac bd
       -0.02354182 -0.25337222 -0.21993184 -0.08421858
0003c0 cb 4e 8b 3e 49 63 73 bd 32 bd 89 bb 4c 9f a1 3d
       0.27208552 -0.059420858 -0.004203462 0.078917116
0003d0 c3 ac 67 be 0a c3 69 be 14 a8 7a 3d f2 bc c9 3d
       -0.22624497 -0.22828308 0.061195448 0.098504916
0003e0 40 80 b0 3d 52 b9 9a bd 56 45 42 bb 99 32 22 be
       0.08618212 -0.07554878 -0.0029643378 -0.15839614
0003f0 ff bd 52 3e 63 74 33 3e 3c dc 87 bd d9 9b 78 be
       0.2058029 0.17524867 -0.06633803 -0.24278201

0.bias f4 [64]
000000 23 4c bd bb 2b 1b 70 bc 8e 24 2b bd 0d 72 a2 bc
       -0.0057768985 -0.014654915 -0.04178291 -0.019829774
000010 bd 9b 29 bc 27 d0 90 3c df e9 b0 bc ef 45 6e bc
       -0.010352072 0.01767738 -0.021595893 -0.014543041
000020 f3 88 bc 3b 72 c9 c0 bc 22 d0 b6 3c e4 97 15 bd
       0.0057536303 -0.023533557 0.022316042 -0.036521807
000030 43 96 3b 3c 3e ad ec bc 41 bb 38 bc b9 27 35 bc
       0.011449399 -0.028891202 -0.011275114 -0.011056834
000040 c5 ec ef bc 00 ca 1b 3c b0 fa 2e 3c f1 69 71 3b
       -0.029287705 0.00950861 0.010679886 0.0036836828
000050 8b 6a 0b bd 72 46 e3 bc f7 32 9f 3c 3b 81 b0 bc
       -0.034037154 -0.027743552 0.019433482 -0.021545997
000060 3a d0 fc 3b 61 4d f2 ba b5 90 29 3b 8e f2 95 bc
       0.007715252 -0.0018486195 0.0025873606 -0.018304136
000070 49 66 9e bc 4f e2 77 3c 5a fa 8e bc 91 bc 32 3c
       -0.019335883 0.01512964 -0.017453361 0.010909216
000080 95 bc 7f bc d8 1e 43 bb 00 d5 43 bc 0b 7e f7 bc
       -0.015608926 -0.0029773023 -0.011952639 -0.03021147
000090 70 de c1 3c 79 c6 e9 bc 1d 25 bb bc 35 a0 8c bc
       0.023665637 -0.028537022 -0.022844845 -0.017166236
0000a0 cc 1f 9c bb 7c 4e d3 3a 52 d1 3c bb f4 82 a9 3c
       -0.0047645327 0.0016121413 -0.0028811288 0.020692326
0000b0 ee 10 54 bc 79 08 94 3b d6 6a 79 b9 e7 30 01 3b
       -0.0129434895 0.0045176116 -0.0002378629 0.0019712986
0000c0 1e a7 40 bd 39 91 f4 bc 84 c8 10 bd e6 2a dc 39
       -0.047034375 -0.029854404 -0.035347477 0.00041993632
0000d0 d1 b1 92 bb 3f 51 a1 bc 26 8f 46 bd ae 63 fc 3b
       -0.004476764 -0.019692061 -0.04847636 0.0077023124
0000e0 ef fd fa bb 4a 3d 3e 3b 0d bb 95 bb f3 ee 3e bc
       -0.007659666 0.002902823 -0.0045694173 -0.01165365
0000f0 41 3e d9 bc 11 6b 39 bd 47 e9 47 bc c8 4b 86 bb
       -0.026518943 -0.045268122 -0.012201614 -0.0040983893

2.weight f4 [1, 64]
000000 73 d7 2b bd e2 aa 14 3e 9e a8 1b 3e 62 47 8c 3e
       -0.041953515 0.14518312 0.15201041 0.2739821
000010 49 8f 5c 3d 25 97 8d bd e4 e3 ba 3d 6c 3f cc 3d
       0.053847585 -0.06913594 0.09125498 0.09973034
000020 67 a5 63 3d df 97 ab 3d 4e a1 4e 3d 1c d4 f7 3d
       0.05557766 0.083785765 0.0504468 0.121010035
000030 df 82 cf 3d b8 47 a2 be 0d 02 84 3d 2c 62 67 3e
       0.101323836 -0.31695342 0.06445704 0.22596043
000040 82 f0 8d 3d 49 21 e2 bd d6 53 85 3d ce 93 83 bd
       0.06930639 -0.11041505 0.06510131 -0.06424676
000050 01 f0 aa 3a 62 b8 21 3e 8e 7c 2c 3d 9c f2 ae 3d
       0.0013041497 0.15792993 0.042110972 0.08542368
000060 04 61 b2 bc 8f e6 2e 3d de 9f 9d bd d6 03 27 3e
       -0.021774776 0.042700347 -0.07696508 0.16310057
000070 f4 e5 1f 3d 38 7d db bd 75 5a 6b be cd 65 a4 bc
       0.03903766 -0.10717243 -0.22983725 -0.020068074
000080 89 ca 17 3e 16 79 4e be a2 4a 64 3d 4d 65 30 3c
       0.14823355 -0.20163378 0.055735238 0.0107663395
000090 88 14 21 bd 19 10 5c 3d 9c a5 a6 3e 3c bc 75 3d
       -0.03932622 0.05372629 0.32548225 0.059993967
0000a0 ec 70 52 be 4c 8e a3 3d f0 4c c2 bd 9d 55 b9 bc
       -0.20550889 0.07986125 -0.09487331 -0.022623831
0000b0 88 0a a3 be d9 6b 0b bd 59 4f 20 be 8b 07 d7 bc
       -0.31843972 -0.0340384 -0.15655269 -0.026248714
0000c0 e8 b5 f9 be 09 40 60 be c9 ef 18 be 0d e5 4d 3d
       -0.48771596 -0.21899427 -0.14935221 0.050267268
0000d0 a9 6b 06 3e e3 f9 5a be ef 1c 4d 3e b3 a6 25 3e
       0.13127007 -0.21384387 0.20030569 0.16176872
0000e0 e5 d6 31 be 70 84 1c 3e 05 f3 f0 3c 3c 36 3d 3d
       -0.17367132 0.15284896 0.029412756 0.0461943
0000f0 27 9b db bd 2a 1b 74 3e d2 86 6c 3d d4 cb f1 3c
       -0.10722952 0.23838487 0.057745762 0.029516138
