saved_models/A2C/using_trueskill_for_matchmaking/model13.pth (torch, 48448 bytes, 7 tensors)

0.weight f4 [64, 84]
0	0x3d986769	0.07441599
1	0xbd970d86	-0.07375626
2	0xbceb8a21	-0.028752388
3	0x3dd715b8	0.105021894
4	0xbd79ca79	-0.06098411
5	0x3d867c00	0.0656662
6	0x3de851a5	0.113436975
7	0x3d3c3061	0.045944575
8	0xbd7843c4	-0.0606115
9	0x3df8ac15	0.12142197
10	0x3e2b2653	0.16713838
11	0x3d6715eb	0.056417387
12	0x3c46ebb6	0.012141159
13	0xbded487c	-0.11586091
14	0xbd083c9e	-0.033260934
15	0xbdd9b211	-0.106296666
16	0x3d952e88	0.07284266
17	0xbd43e9aa	-0.04783026
18	0x3cc49790	0.023998052
19	0xbc51465a	-0.012773121
20	0xbe7b5a29	-0.24546112
21	0x3e36bd60	0.17845678
22	0xbd52886f	-0.051399644
23	0x3d77b4c0	0.06047511
24	0x3c3d3884	0.011549119
25	0x3e8c1926	0.27362937
26	0x3e2f0786	0.17092714
27	0xbe539d87	-0.2066556
28	0x3d35893c	0.04432033
29	0x3e0c4ada	0.13700429
30	0xbd8ff286	-0.070286795
31	0x3e36faf5	0.1786917
32	0xbd60355f	-0.0547384
33	0x3e0de561	0.13857032
34	0x3d036c97	0.03208598
35	0x3e1fe303	0.15613942
36	0xbd027a21	-0.031854752
37	0x3d2dc1a5	0.042421002
38	0x3d56900a	0.05238346
39	0x3de4d3c9	0.11173207
40	0x3d19eb2c	0.037577793
41	0x3d56ef99	0.052474592
42	0x3e34e2b9	0.17664613
43	0x3e65c2e1	0.22437622
44	0x3e095bd5	0.13413937
45	0x3e1f5170	0.1555841
46	0x3d1745cd	0.0369318
47	0xbcd97548	-0.026545182
48	0x3e668ed4	0.22515422
49	0xbe8a89ca	-0.2705825
50	0x3e6362ac	0.22205609
51	0xbe09b5b8	-0.13448226
52	0xbe94a98c	-0.29035604
53	0xbd6a4673	-0.05719609
54	0x3e85b867	0.2611725
55	0xbd04fc8b	-0.032467406
56	0xbc6a561c	-0.014302757
57	0xbda2804d	-0.07934628
58	0x3e330118	0.17480886
59	0x3e3f357f	0.18672751
60	0xbe7d0bd8	-0.2471155
61	0xbdf1ffef	-0.118163936
62	0xbce96020	-0.028488219
63	0x3e3eb48d	0.18623562
64	0xbcddb29a	-0.027062703
65	0xbda351c7	-0.07974582
66	0x3e0ad1ac	0.13556546
67	0x3e7debf5	0.24797042
68	0x3e234131	0.15942837
69	0x3e3d7347	0.18501006
70	0x3d2cd1ef	0.042192396
71	0x3deacde9	0.114650555
72	0xbdf6ac77	-0.12044614
73	0xbdc2a49e	-0.095040545
74	0xbe8de51a	-0.27713853
75	0xbd2ff0d4	-0.04295428
76	0xbe9fe5d4	-0.31230032
77	0x3d8e3a20	0.0694468
78	0xbe62bfe6	-0.22143516
79	0x3d517256	0.05113443
80	0xbc6f2843	-0.0145970015
81	0x3f0c95ce	0.54916084
82	0xbe764344	-0.24049097
83	0xbdd56c28	-0.1042102
84	0xbdc55b98	-0.09636611
85	0x3d274c97	0.040844526
86	0x3db696ce	0.089154825
87	0xbbaa69fb	-0.005200622
88	0xbe0c5213	-0.13703184
89	0xbc8f0103	-0.017456537
90	0xbdebbb86	-0.11510377
91	0x3ed213cd	0.41030732
92	0xbd85e5d1	-0.065379746
93	0xbd9a3690	-0.07529938
94	0xbe9b0014	-0.30273497
95	0xbdd11193	-0.1020843
96	0xbe9a2f4c	-0.3011421
97	0xbd95d136	-0.073152944
98	0x3bf6f693	0.007536718
99	0xbe988042	-0.29785353
100	0xbe1891f4	-0.14899427
101	0x3c2f8625	0.010713135
102	0x3e4c94a5	0.19978578
103	0xbd9e29ea	-0.07722838
104	0x3d2066eb	0.03916065
105	0x3ec9d7d4	0.39422476
106	0xbd0d48b1	-0.034493152
107	0x3d8f4eb2	0.06997432
108	0xbc8d4e78	-0.01724933
109	0xbd686e20	-0.05674565
110	0xbdd7e704	-0.105421096
111	0x3d95fd6f	0.07323729
112	0xbdc725bc	-0.09723994
113	0x3cc538f2	0.024075005
114	0x3de4bd80	0.11168957
115	0x3d05e6b5	0.032690722
116	0xbe4c28dd	-0.19937463
117	0xbe67524b	-0.22589986
118	0x3dbf6687	0.093457274
119	0x3e83803e	0.2568378
120	0xbe361f09	-0.17785276
121	0x3e5ef3e4	0.21772724
122	0x3dba3b15	0.090933
123	0x3de7072c	0.11280665
124	0xbe5e7b9c	-0.2172684
125	0x3cddb0c8	0.027061835
126	0x3daa5794	0.083174855
127	0x3d4b0967	0.049569514
128	0xbd92bc6b	-0.07164844
129	0x3d3fd766	0.04683628
130	0x3e5d4ddb	0.21611731
131	0x3c920c46	0.017828118
132	0x3e79205d	0.24328752
133	0xbdf4683d	-0.119339444
134	0xbdb099a8	-0.086230576
135	0x3e21b376	0.15791115
136	0x3e2556e5	0.16146429
137	0x3e76f6ba	0.24117556
138	0x3d1e82d6	0.038698994
139	0xbd54c641	-0.051946882
140	0x3d5d921f	0.05409443
141	0x3dfadfd6	0.122497246
142	0xbde40a78	-0.11134809
143	0xbd2a1eb4	-0.041533187
144	0x3d1a50a5	0.037674565
145	0xbe263f2f	-0.1623504
146	0xbe39a85d	-0.18130632
147	0x3e0a4f36	0.13506779
148	0xbe83a3f2	-0.25711018
149	0x3e1ac20b	0.15113084
150	0x3daf5570	0.08561218
151	0x3da0e670	0.078564525
152	0xbe17565f	-0.14779042
153	0x3daaef3a	0.0834641
154	0x3e025fc0	0.12731838
155	0x3e5fab25	0.2184263
156	0xbe1e2ace	-0.15446016
157	0xbab15c07	-0.0013531455
158	0xbcaa1f6b	-0.020766934
159	0xbc9e54dd	-0.019327575
160	0x3e0ebe2c	0.13939732
161	0xbede9cd6	-0.4347903
162	0x3e3a7a95	0.18210824
163	0x3e7b0674	0.2451418
164	0x3c7b7ae7	0.015349126
165	0xbdf77506	-0.12082867
166	0xbd6c9c4b	-0.05776624
167	0xbd3635ec	-0.044485018
168	0x3e8acb19	0.27108076
169	0xbc81d99a	-0.01585083
170	0x3d630cd4	0.055432156
171	0xbdd23bc4	-0.10265306
172	0x3c9c0774	0.019046523
173	0xbe0110ff	-0.1260414
174	0x3db0a4c7	0.08625179
175	0x3ac38a7c	0.0014918591
176	0x3e5a709e	0.21332023
177	0xbdcac257	-0.09900349
178	0xbde12d16	-0.109949276
179	0x3ddcb61b	0.10776921
180	0x3ce7aae9	0.028279739
181	0xbd677fbf	-0.056518313
182	0xbd16f9d5	-0.036859352
183	0x3cba96db	0.022777012
184	0x3eda6134	0.42652285
185	0xbda10f0c	-0.07864198
186	0xbe55b637	-0.2087029
187	0x3ce0aa38	0.027424917
188	0x3da0f406	0.07859044
189	0x3e8e4abb	0.2779139
190	0x3e9ce31f	0.3064203
191	0x3dd2cd02	0.102930084
192	0x3d06c6c9	0.03290442
193	0x3db678c2	0.089097515
194	0x3e4d2574	0.20033818
195	0xbe0dd53a	-0.1385087
196	0xbe6a619b	-0.22888796
197	0x3d5b19f5	0.05349155
198	0xbb89e0ba	-0.0042076977
199	0xbcf5dbdd	-0.030012066
200	0xbd77a6c0	-0.06046176
201	0xbe4f48f3	-0.20242672
202	0x3d54c6e3	0.051947486
203	0xbdccbeee	-0.099973544
204	0xbe0dd736	-0.13851628
205	0x3ebd154a	0.36930305
206	0xbe88f5e3	-0.26750097
207	0x3d39c072	0.045349546
208	0xbe3d4efe	-0.18487164
209	0xbda4dfae	-0.08050476
210	0x3dc1eaf0	0.09468639
211	0x3e3ab693	0.18233709
212	0xbe39ba0a	-0.18137375
213	0xbcadc9ab	-0.021214327
214	0x3cc13f0d	0.023589635
215	0x3df747b7	0.120742254
216	0x3e084c20	0.1331029
217	0x3e62a591	0.22133471
218	0x3e3eec07	0.18644725
219	0xbbe9b3b1	-0.0071320166
220	0x3d097768	0.03356114
221	0xbc0f14ca	-0.008732984
222	0x3e291cd8	0.1651491
223	0xbe6e6b0c	-0.23283023
224	0x3b335f41	0.0027370008
225	0xbca4147d	-0.0200293
226	0x3dcb73f9	0.099342294
227	0x3e9e9fde	0.30981344
228	0x3d886330	0.066595435
229	0x3dc2fc35	0.09520761
230	0x3e37be3a	0.1794366
231	0xbd9cca07	-0.07655721
232	0xbd314b13	-0.043284487
233	0x3dc77fe0	0.09741187
234	0x3daa981c	0.08329794
235	0x3b7f56be	0.0038961614
236	0x3e20939c	0.15681309
237	0x3d973e18	0.0738489
238	0xbe0a3486	-0.13496599
239	0x3c5c50a4	0.013446961
240	0x3ecd7af8	0.4013288
241	0x3dd22294	0.102605015
242	0x3ea2cf3b	0.3179873
243	0x3e81c2ec	0.25344026
244	0xbc8fda9f	-0.017560301
245	0x3dc7114b	0.09720095
246	0xbe471b3f	-0.19443987
247	0x3de0a600	0.10969162
248	0x3d8b5807	0.06803899
249	0xbe6cb6f3	-0.23116665
250	0x3d2fc2b2	0.042910285
251	0xbe49716e	-0.19672176
252	0xbe8532e9	-0.26015404
253	0xbd8422e5	-0.06451968
254	0xbe55b999	-0.20871581
255	0xbdecb3ec	-0.11557755

0.bias f4 [64]
0	0xbcca4670	-0.02469179
1	0xbb9d8641	-0.004807264
2	0x3c77253a	0.015084559
3	0x3d0c5aaa	0.03426615
4	0xbc72c7ff	-0.014818191
5	0xbd23e918	-0.040017217
6	0x3cdc3028	0.026878431
7	0x3bc6f96f	0.0060722153
8	0x3c409b76	0.011755815
9	0x3d3028b3	0.043007564
10	0x3c11ccf8	0.008898966
11	0x3d05c97a	0.032662846
12	0xbcbb3732	-0.022853468
13	0xbc088abb	-0.008333857
14	0xbd3a57be	-0.045493834
15	0xbbb1625c	-0.0054133367
16	0xbcda472d	-0.026645267
17	0x3c3e173b	0.011602218
18	0x3d110673	0.03540654
19	0xbcd1b5ca	-0.02559938
20	0x3cdc8832	0.026920412
21	0xbc8f5e57	-0.01750104
22	0x3cc97e97	0.024596496
23	0xbc60f727	-0.013730801
24	0xbc959d40	-0.01826346
25	0xbd371cae	-0.044705085
26	0x3c3c0f8e	0.011478318
27	0xba4c239f	-0.00077872904
28	0x3d7b536b	0.06135885
29	0x3aecf38c	0.0018077954
30	0x3ce30fcc	0.027717493
31	0x3d364720	0.044501424
32	0x3c2b0bc2	0.010439815
33	0x3d1fdf63	0.039031398
34	0x3cad7c95	0.02117757
35	0x3a76e593	0.00094183645
36	0x3c9f57a3	0.019450968
37	0xbc141fa6	-0.009040749
38	0x3d38cffe	0.04512023
39	0x3d3b978f	0.045798834
40	0x3ad3892e	0.0016138905
41	0x3d524c52	0.051342316
42	0x3d2c868f	0.042120513
43	0xbc3e2c24	-0.011607204
44	0xbc7490fc	-0.014927145
45	0xbcadf2f1	-0.021234008
46	0x3cc4c870	0.024021357
47	0xbcbcf404	-0.023065574
48	0xbb7da39b	-0.0038702253
49	0xbace2412	-0.0015727303
50	0xbbca88a5	-0.00618084
51	0x3bfdc26c	0.007744124
52	0x3a716642	0.0009208658
53	0xbb9e421e	-0.004829659
54	0x3cbf948b	0.02338626
55	0xbbee8461	-0.0072789644
56	0xbc665095	-0.014057298
57	0xbc0e4893	-0.008684295
58	0x3c3901b3	0.011291909
59	0x3d1c2980	0.038125515
60	0x3b55dc64	0.0032632584
61	0x3c18e85b	0.009332742
62	0x3c642da6	0.013926899
63	0x3bc56642	0.006024153

2.weight f4 [7, 64]
0	0xbe2e18c2	-0.17001632
1	0x3afaba96	0.0019129093
2	0x3db13bd0	0.086539865
3	0x3e3e08dc	0.18558067
4	0x3d9413b9	0.07230324
5	0x3dc5564f	0.09635603
6	0xbd5634bc	-0.052296385
7	0x3e6df354	0.23237354
8	0x3e336642	0.17519477
9	0xbd8b5058	-0.06802434
10	0xbe4f62c5	-0.20252521
11	0x3ea2d9a8	0.31806684
12	0xbd716f38	-0.058943957
13	0x3e1b515c	0.15167755
14	0xbe446499	-0.19179
15	0x3eac27d2	0.3362413
16	0xbe93d325	-0.28872028
17	0x3e49e4c3	0.19716172
18	0x3d939de1	0.072078474
19	0xbe03e0c3	-0.12878709
20	0x3d23a6e4	0.03995408
21	0x3e267f8f	0.16259597
22	0xbdc86982	-0.09785749
23	0x3ea8efe9	0.32995537
24	0xbd9082a8	-0.07056171
25	0xbccdad48	-0.025107041
26	0xbcb256f4	-0.021769978
27	0xbe8c3a04	-0.27388012
28	0x3ed6449b	0.41849217
29	0xbced67db	-0.028980186
30	0xbe6ded3f	-0.23235033
31	0x3e5b0f72	0.2139261
32	0xbca08729	-0.0195957
33	0xbe046a91	-0.12931277
34	0xbdc4b799	-0.09605331
35	0xbe584a59	-0.21122111
36	0xbe1ae537	-0.15126501
37	0x3db2a80d	0.087234594
38	0x3da13b53	0.07872643
39	0x3dae20c9	0.08502347
40	0x3e93fe9b	0.28905186
41	0x3e03dfa4	0.12878281
42	0xbe1ea907	-0.15494166
43	0x3dad7ffd	0.084716775
44	0x3d31dc78	0.043423146
45	0x3d0a6ad5	0.03379329
46	0x3e0b8925	0.13626535
47	0x3d2d2417	0.042270746
48	0xbe2c8d9f	-0.16850899
49	0xbe725446	-0.2366496
50	0xbe46f011	-0.19427516
51	0xbe697db2	-0.22801855
52	0xbcc044c2	-0.023470286
53	0xbe1af877	-0.15133844
54	0x3ea9898a	0.33112746
55	0x3e07e284	0.13270003
56	0xbd94d4b9	-0.07267136
57	0xbe27cff6	-0.16387925
58	0xbd1b0006	-0.03784182
59	0x3e3f501c	0.18682903
60	0xbe80ccbe	-0.25156206
61	0xbe8a184b	-0.2697166
62	0xbe4462b0	-0.19178271
63	0x3d2bf284	0.041979328
64	0x3ded6fb5	0.11593572
65	0xbdeeed5f	-0.11666369
66	0xbca23dba	-0.019804824
67	0xbe8c060c	-0.27348363
68	0xbdbdb2ed	-0.09262643
69	0x3e6be71c	0.2303738
70	0xbe252f00	-0.1613121
71	0xbe8d52cb	-0.2760223
72	0xbd8d4ca4	-0.06899384
73	0xbc8e22ed	-0.017350638
74	0xbdabd920	-0.08391023
75	0xbd989737	-0.07450717
76	0xbd2d5632	-0.04231853
77	0xbe170954	-0.14749652
78	0x3df2e7bc	0.11860606
79	0xbdd974cb	-0.106179796
80	0xbdc9aaa6	-0.09847002
81	0x3d78805d	0.06066929
82	0x3e10515c	0.14093536
83	0xbe7d0f4f	-0.24712871
84	0xbd54d98c	-0.05196528
85	0xbda07fdb	-0.078368865
86	0x3ccbd358	0.02488105
87	0x3d8e1e37	0.06939357
88	0xbca867dd	-0.020557338
89	0x3cbddf18	0.023177668
90	0xbdafca71	-0.085835345
91	0x3e097bc6	0.13426122
92	0xbe82dc8d	-0.25558892
93	0xbd859c5b	-0.06523963
94	0xbe3b510f	-0.1829264
95	0x3d8f2faf	0.06991517
96	0xbaed4443	-0.0018102009
97	0xbee7cbf2	-0.45272785
98	0xbd65988e	-0.05605369
99	0xbd559808	-0.05214694
100	0xbee5c30b	-0.44875368
101	0xbd971c96	-0.07378499
102	0x3dce7659	0.10081167
103	0xbdf4c236	-0.11951105
104	0x3d690c18	0.0568963
105	0x3e00703f	0.12542818
106	0xbeb86b35	-0.36019292
107	0x3d182121	0.03714097
108	0x3d825b29	0.06365044
109	0xbe6804c5	-0.2265807
110	0x3eab9d21	0.33518317
111	0xbd0dfd5b	-0.034665447
112	0xbe888a50	-0.26668024
113	0x3e7005f0	0.23439765
114	0x3d302039	0.04299948
115	0xbe3921a1	-0.18079235
116	0x3ec012d8	0.37514377
117	0xbdbc53d1	-0.09195674
118	0xbe3fd3dc	-0.18733162
119	0x3dbf740a	0.093483046
120	0xbe0ebe45	-0.1393977
121	0x3d7e386b	0.062065523
122	0xbf041790	-0.51598454
123	0xbe6bfcd5	-0.23045667
124	0x3e3f0b42	0.18656638
125	0xbc6188bf	-0.013765513
126	0x3df3b954	0.11900583
127	0x3e346bde	0.17619273
128	0x3b227f07	0.0024794952
129	0x3e7e9161	0.24860145
130	0xbda47a5a	-0.08031149
131	0x3d78032c	0.0605499
132	0x3e79246a	0.24330297
133	0x3ded0264	0.115727216
134	0xbe764135	-0.24048312
135	0xbd765e8c	-0.06014876
136	0x3d4de8bf	0.050270792
137	0xbebc52a3	-0.36781797
138	0x3e58f9c3	0.21189027
139	0x3e0fe4b4	0.14052087
140	0xbd29683d	-0.041359175
141	0x3e1f0336	0.15528569
142	0x3e60fcfa	0.21971503
143	0xbceb2646	-0.028704774
144	0x3e231b11	0.15928294
145	0xbd3572af	-0.044298824
146	0xbe2884eb	-0.16456954
147	0x3dd97d1d	0.106195666
148	0xbe2d2172	-0.1690729
149	0xbe7275bb	-0.23677723
150	0xbe16bbf3	-0.14720134
151	0x3dd3258e	0.10309897
152	0xbe445b9c	-0.19175571
153	0x3e515401	0.20442201
154	0xbe2b5353	-0.16731004
155	0xbe72319b	-0.23651735
156	0xbe3da547	-0.1852008
157	0xbe081306	-0.13288507
158	0x3e2e1145	0.16998775
159	0xbd4c43ec	-0.049869463
160	0xbeab226e	-0.33424705
161	0xbda881f3	-0.08227911
162	0x3e1ce05f	0.15319966
163	0xbd4c89f5	-0.049936254
164	0xbd5d2d62	-0.05399836
165	0xbe90d635	-0.28288427
166	0xbde6de26	-0.1127284
167	0xbe8604f3	-0.2617565
168	0xbd343d2a	-0.044003643
169	0xbe8d7214	-0.27626097
170	0xbd1dd572	-0.038533635
171	0xbd6dde70	-0.05807346
172	0x3e0f303a	0.1398324
173	0x3c6a55a8	0.014302649
174	0xbc64402e	-0.013931317
175	0x3d700f67	0.05860844
176	0xbd64cdcf	-0.055860337
177	0x3ea31977	0.31855366
178	0xbed81d75	-0.42209974
179	0x3dadf401	0.08493806
180	0xbd8f202d	-0.06988559
181	0xbd314665	-0.043280024
182	0x3ea5e5bd	0.3240184
183	0x3eb9e651	0.3630853
184	0x3d9c7168	0.07638818
185	0xbe682955	-0.22672017
186	0xbc37faf9	-0.01122927
187	0xbe813499	-0.2523544
188	0xbd83d355	-0.06436793
189	0x3d23a834	0.039955333
190	0x3deef83d	0.116684414
191	0xbdae1267	-0.08499604
192	0x3d9c6c5f	0.07637858
193	0xbea49cb3	-0.32150802
194	0x3d833df1	0.06408299
195	0xbd89f6db	-0.06736537
196	0x3cae9f76	0.021316271
197	0x3d249211	0.040178362
198	0x3cb881be	0.022522803
199	0x3db25171	0.0870694
200	0xbcd6f8be	-0.026241656
201	0xbcda9144	-0.026680596
202	0xbe697f51	-0.22802474
203	0xbe7c7aad	-0.24656172
204	0x3e9e40b5	0.30908743
205	0x3df9a92e	0.121904716
206	0x3e5bbbb2	0.21458319
207	0xbdc2c74a	-0.095106676
208	0xbd7ddce0	-0.06197822
209	0x3e6a6cf5	0.22893126
210	0xbcc6c2eb	-0.024262866
211	0x3c6648b2	0.014055418
212	0x3e1116cf	0.14168857
213	0xbb1d2a1b	-0.0023981396
214	0x3db6e48e	0.08930312
215	0xbd5f83de	-0.054569118
216	0x3d3cd7da	0.04610429
217	0x3e033ba1	0.12815715
218	0xbea0dc73	-0.3141819
219	0xbe3ec856	-0.1863111
220	0xbe717074	-0.23578054
221	0xbee413ba	-0.445463
222	0xbf0a5245	-0.54031783
223	0xbe0e1f75	-0.13879187
224	0xbc2cf0b2	-0.010555433
225	0xbddecd84	-0.10879043
226	0x3d826b62	0.06368138
227	0x3e06b553	0.13155107
228	0xbde1dda0	-0.110286
229	0x3d8d7714	0.06907478
230	0xbe5862db	-0.2113146
231	0x3cd1dd8e	0.02561834
232	0x3bfd629b	0.007732702
233	0x3d23905c	0.039932594
234	0xbedfc6c6	-0.4370634
235	0x3d3344f3	0.043766927
236	0xbde5eacb	-0.11226424
237	0x3d0c561c	0.034261808
238	0xbee8a4a4	-0.4543811
239	0xbd9343a6	-0.07190637
240	0x3e5a85c3	0.21340089
241	0xbd479da2	-0.048734315
242	0xbd5e7cd0	-0.05431825
243	0x3dee4b31	0.116354354
244	0xbeab85c1	-0.33500484
245	0x3e7b79ea	0.24558225
246	0x3da43cf5	0.08019439
247	0xbdbcfae2	-0.092275396
248	0x3dcceca6	0.100060746
249	0x3d2a56a6	0.04158654
250	0xbcc91868	-0.02454777
251	0xbe4e3d2c	-0.20140523
252	0xbe08cc87	-0.13359271
253	0xbdba28bd	-0.090898015
254	0x3dcaf23b	0.09909483
255	0xbc9d15fc	-0.019175522

2.bias f4 [7]
0	0x3ccc8f77	0.024970753
1	0xbca80b58	-0.020513222
2	0xbcfaecd4	-0.030630507
3	0xbd41f9b4	-0.047357276
4	0x3d4a829f	0.049440976
5	0x3c2b94e2	0.010472508
6	0xbc862ba8	-0.016378239

0.weight f4 [64, 84]
0	0xbde19d35	-0.11016313
1	0x3e3041dc	0.17212623
2	0xbdc0afdf	-0.09408545
3	0xbe5f84fa	-0.2182807
4	0x3e0b0923	0.13577704
5	0xbe969e55	-0.29417673
6	0x3d8debac	0.069297165
7	0xbbc6f17d	-0.006071268
8	0x3dd42a6f	0.10359656
9	0xbd3ed10a	-0.046586074
10	0xbe7b4b78	-0.24540508
11	0xbe7ce7c1	-0.24697782
12	0xbd08afe1	-0.033370856
13	0x3e3528d4	0.17691356
14	0xbe66e5b9	-0.2254857
15	0x3e331ad4	0.17490703
16	0x3c871baa	0.016492683
17	0xbec84450	-0.39114618
18	0x3e1d1dd8	0.15343416
19	0xbd3c865e	-0.04602658
20	0x3dccafe7	0.09994488
21	0x3dc9525c	0.09830162
22	0x3e7530dc	0.2394442
23	0x3dc1b417	0.094581775
24	0xbe3b3c6b	-0.18284766
25	0x3e1561dc	0.14588112
26	0xbe290b77	-0.1650828
27	0x3df24c55	0.118309654
28	0x3da159e2	0.07878472
29	0xbd464331	-0.048403922
30	0xbd930505	-0.07178692
31	0xbe0b8bc7	-0.1362754
32	0xbe35edda	-0.17766514
33	0x3d29b3ba	0.041431166
34	0xbe1f6c27	-0.155686
35	0x3e390294	0.1806739
36	0x3e98c4da	0.29837686
37	0x3e847c95	0.258763
38	0x3c1b8d10	0.009494081
39	0xbde3b801	-0.1111908
40	0xbdcc64a2	-0.09980132
41	0x3ddc5da5	0.10760049
42	0x3d820f29	0.06350548
43	0x3de2b7df	0.11070227
44	0x3cce2fdd	0.025169307
45	0x3d41b191	0.04728848
46	0xbe20b905	-0.1569558
47	0xbd29747c	-0.041370854
48	0xbeb25cc6	-0.34836406
49	0xbe288fa8	-0.1646105
50	0xba685e87	-0.00088641833
51	0x3de6f0ff	0.11276435
52	0x3e76655e	0.24062106
53	0xbe20cfa2	-0.15704206
54	0x3e2c9d69	0.16856922
55	0xbdc6c239	-0.09705014
56	0xbe0a19ed	-0.13486452
57	0x3df211b1	0.118197806
58	0x3af48137	0.0018654232
59	0x3de5df0a	0.11224182
60	0x3e6f9bc8	0.2339927
61	0x3db8b191	0.09018243
62	0xbe13dd7d	-0.1443996
63	0xbe1cb23f	-0.1530237
64	0xbe3e96f4	-0.18612272
65	0x3dc2ac8a	0.095055655
66	0xbe820d07	-0.25400564
67	0xbe0b2a52	-0.13590363
68	0x3e08c453	0.13356142
69	0x3e7ed194	0.24884635
70	0xbc3be71a	-0.011468673
71	0xbdba1905	-0.09086803
72	0x3c9cf5bc	0.019160144
73	0xbc48c72b	-0.012254517
74	0xbe45b7ae	-0.1930835
75	0x3ddf1af9	0.108938165
76	0xbe891b9f	-0.26778886
77	0xbdec0f0b	-0.11526307
78	0xbe394a88	-0.18094838
79	0xbd1d5285	-0.038408775
80	0x3e11d6fe	0.1424217
81	0x3c8d648d	0.01725986
82	0xbdeb238c	-0.114813894
83	0xbddd448d	-0.10804091
84	0xbd7bb752	-0.061454125
85	0xbd95a762	-0.07307316
86	0xbdcc5e3b	-0.099789105
87	0xbe021be8	-0.12705958
88	0x3e180283	0.14844708
89	0xbb4854de	-0.0030568163
90	0xbe0efbff	-0.13963316
91	0x3eb8f68d	0.36125603
92	0xbd3bc9c6	-0.045846723
93	0x3ddf9ba3	0.10918357
94	0xbe50e223	-0.20398764
95	0x3e74ad1d	0.23894162
96	0xbdbda560	-0.092600584
97	0x3e57f21f	0.21088456
98	0x3d5bcea3	0.05366386
99	0x3d941308	0.072301924
100	0xbdc308cc	-0.09523162
101	0xbe0a7011	-0.13519312
102	0xbdd5ac3b	-0.10433241
103	0xbe1589a7	-0.14603291
104	0xbe566415	-0.20936616
105	0xbd12ed7a	-0.035871007
106	0x3e75fd85	0.24022491
107	0xbe01b545	-0.12666805
108	0xbdc04260	-0.0938766
109	0xbe37a2f1	-0.17933251
110	0x3cad59e4	0.021161027
111	0xbea4ab6c	-0.32162035
112	0xbdd76467	-0.10517197
113	0x3c703158	0.014660202
114	0x3deb0f2c	0.11477503
115	0xbc181bd6	-0.00928398
116	0xbe1ea300	-0.15491867
117	0xbdcc2252	-0.099674836
118	0x3df6cb58	0.120505035
119	0xbd080fa9	-0.03321806
120	0x3e10e25a	0.14148846
121	0xbddf76e1	-0.10911346
122	0x3e3f7e49	0.18700518
123	0xbd8511a7	-0.064975075
124	0xbc5ac95c	-0.013353672
125	0xbd31a2c8	-0.04336813
126	0xbd89eb68	-0.06734353
127	0xbc440673	-0.011964428
128	0xbdf0e653	-0.11762681
129	0x3dac43d5	0.084113754
130	0x3dcfd8fc	0.10148808
131	0xbc051a4f	-0.008123948
132	0x3e3d9524	0.18513924
133	0x3e511ba9	0.20420708
134	0xbea9110b	-0.33020815
135	0x3e4685aa	0.19386926
136	0xbd45aa2d	-0.048257995
137	0xbda25ed0	-0.0792824
138	0x3e6c540a	0.23078933
139	0xbe72c98b	-0.23709695
140	0x3e65ce67	0.22442017
141	0xbe62a87f	-0.22134589
142	0xbe3588ca	-0.17727962
143	0xbe61eb35	-0.2206238
144	0x3d22e784	0.03977157
145	0x3e25ce60	0.16192007
146	0x3eb333cd	0.35000458
147	0xbdc7be61	-0.09753109
148	0x3d390e74	0.0451798
149	0xbdad426e	-0.08459936
150	0xbdc29792	-0.09501566
151	0xbdb2be3d	-0.08727691
152	0xb84b3579	-4.8448772e-05
153	0xbe845920	-0.25849247
154	0x3dab54fc	0.08365819
155	0x3e4c1db6	0.19933209
156	0x3d133404	0.035938278
157	0x3e1786b9	0.14797486
158	0xbd5ab422	-0.053394444
159	0x3ee608b7	0.44928524
160	0xbe14cb96	-0.14530787
161	0x3bd7ecdd	0.0065895156
162	0x3d0cab3b	0.034342986
163	0xbd798610	-0.060918868
164	0x3df15dc0	0.117854595
165	0x3e37f670	0.17965102
166	0x3df086fe	0.11744498
167	0x3cd4e015	0.025985757
168	0x3e3f7493	0.18696813
169	0x3b2fba9b	0.0026814106
170	0x3c9289bc	0.017887942
171	0xbe2a272a	-0.16616502
172	0xbe3b8d19	-0.18315543
173	0xbe8d64f6	-0.2761609
174	0xbe2ee8d5	-0.17081006
175	0x3e343dcc	0.17601699
176	0xbe0978e5	-0.13425024
177	0xbe442593	-0.19154958
178	0xbd67edfa	-0.056623437
179	0x3dfb74d2	0.12278141
180	0xbde018df	-0.10942244
181	0x3e2ff22b	0.17182223
182	0x3e505fca	0.2034904
183	0xbc40c468	-0.011765577
184	0x3d5ca33f	0.05386662
185	0xbc088b73	-0.008334029
186	0xbe20e308	-0.15711606
187	0xbc87f6a7	-0.016597105
188	0xbe48ca9d	-0.19608541
189	0xbcbe99d8	-0.023266718
190	0x3df926a0	0.1216557
191	0x3e1e7db7	0.15477644
192	0x3dd0ce63	0.10195615
193	0x3d7ef6cc	0.062247083
194	0xbe6eb2fd	-0.23310466
195	0x3da43812	0.08018507
196	0x3e207cf1	0.15672661
197	0xbec0138a	-0.37514907
198	0x3cffe375	0.03123639
199	0xbe052741	-0.13003255
200	0xbcb02573	-0.021502232
201	0xbe26f453	-0.1630414
202	0xbda1c064	-0.07898024
203	0xbdc0bc71	-0.09410942
204	0x3eb6a6b8	0.3567407
205	0xbd65e91f	-0.056130525
206	0xbbf01371	-0.0073265363
207	0xbd501524	-0.05080141
208	0x3da9fae1	0.082998045
209	0x3e0621f7	0.13098894
210	0x3ba8ef44	0.005155476
211	0x3e30d921	0.17270328
212	0x3ebded09	0.37094906
213	0x3cc5c6aa	0.024142582
214	0x3d2db4b2	0.042408653
215	0x3e436deb	0.19084899
216	0x3e3b2c1a	0.18278542
217	0xbe34d032	-0.17657545
218	0x3e094d01	0.13408281
219	0xbe513173	-0.2042902
220	0x3dcfbdec	0.101436466
221	0x3c2c7f6c	0.010528427
222	0xbdba28e3	-0.0908983
223	0xbe330a02	-0.17484286
224	0x3e0e951f	0.13924073
225	0x3dc90178	0.09814733
226	0x3d2a4806	0.041572593
227	0x3e33e4ce	0.17567751
228	0xbe2c14a1	-0.16804744
229	0xbe9ab3a1	-0.3021517
230	0x3d734708	0.059393913
231	0x3e46bade	0.19407222
232	0x3d106a97	0.035257902
233	0xbd74134f	-0.059588727
234	0x3de81f2b	0.1133407
235	0x3ea8d2e2	0.3297339
236	0xbd197827	-0.0374681
237	0xbe38c58b	-0.18044107
238	0x3e917e54	0.28416693
239	0xbe366795	-0.17812951
240	0x3d0ca967	0.034341242
241	0xbdd4d682	-0.103924766
242	0x3e268f83	0.16265683
243	0xbcad064d	-0.021121169
244	0xbe4511f2	-0.19245127
245	0xbe755830	-0.23959422
246	0x3d02e84a	0.03195981
247	0xbd9c8160	-0.07641864
248	0xbcee439b	-0.029084971
249	0xbdc02c0d	-0.09383402
250	0xbc3d8671	-0.011567698
251	0xbe580cff	-0.21098708
252	0xbde1f8b3	-0.11033764
253	0x3ea96035	0.33081213
254	0x3dbac7d0	0.091201425
255	0xbd55fa5b	-0.05224071

0.bias f4 [64]
0	0x3b505bc9	0.003179299
1	0x3bf2e721	0.0074128066
2	0x3ba9347f	0.0051637287
3	0xbc7b16ba	-0.015325243
4	0xbc719eb8	-0.014747314
5	0xbc97970e	-0.018504646
6	0x3c97dafb	0.018537035
7	0xbd16ef36	-0.036849223
8	0xbd1a27bb	-0.037635546
9	0x3a503621	0.0007942636
10	0xbc852d65	-0.016256997
11	0xba84edf6	-0.0010141719
12	0xbd07d583	-0.033162605
13	0xbcb88850	-0.022525936
14	0x3bb1d485	0.0054269456
15	0x3c68f239	0.014217907
16	0x3ae9bb65	0.0017832337
17	0xbcd9304c	-0.026512288
18	0x39037d79	0.00012539876
19	0x3c8a1c11	0.016859086
20	0x3c4160db	0.011802877
21	0x3c995e89	0.018721836
22	0xbc873d3e	-0.016508695
23	0xbc6b286f	-0.014352902
24	0xbc43b408	-0.011944778
25	0xbc5e9be1	-0.013586969
26	0xbb9a5691	-0.0047100266
27	0xbbe32e43	-0.006933005
28	0xbd0b781a	-0.034050085
29	0xbc86dc40	-0.016462445
30	0x3c943993	0.01809386
31	0x3beb1204	0.0071737785
32	0xbc9aa26e	-0.01887628
33	0x3bcfeed8	0.006345611
34	0x3b1f64fe	0.002432167
35	0xbc7ae46c	-0.015313249
36	0x3b98fe82	0.0046690116
37	0xbb1009fc	-0.0021978607
38	0xba180727	-0.00057994056
39	0xbbb5683b	-0.005536107
40	0xbc3e4986	-0.011614209
41	0xbad1eb1b	-0.0016015501
42	0xbc513d71	-0.012770996
43	0x3bdc6f7c	0.006727157
44	0x3b923442	0.004461796
45	0xbbd23fcf	-0.006416298
46	0xbbcaa4ab	-0.0061841807
47	0xbc0013fe	-0.0078172665
48	0xbd260f8f	-0.04054218
49	0xbd177732	-0.036978908
50	0x3b4faf1f	0.0031690074
51	0xbb01199f	-0.001969911
52	0x3b6585ec	0.003502245
53	0xbd53ab5f	-0.051677104
54	0x3d092ca5	0.033489842
55	0xbb61144b	-0.003434437
56	0xbbb90cb5	-0.0056472667
57	0x3b8e5559	0.0043436703
58	0x3c4706c9	0.012147614
59	0xbc34f24e	-0.011044098
60	0x3c0c7c44	0.008574549
61	0x3bf15b1f	0.007365599
62	0xbaf8ff67	-0.0018997014
63	0x3c6888fe	0.014192818

2.weight f4 [1, 64]
0	0xbd2487ea	-0.04016868
1	0x3d549c53	0.051906895
2	0xbcccf721	-0.025020184
3	0xbd1fd734	-0.039023593
4	0xbdeff8ab	-0.117173515
5	0x3d0e6e45	0.03477313
6	0x3e2a6623	0.16640525
7	0xbe783ef2	-0.24242762
8	0x3d91c9c7	0.07118564
9	0xbe606023	-0.21911673
10	0x3e911c6b	0.28341994
11	0xbe03c1de	-0.12866923
12	0x3e9615b0	0.2931342
13	0xbe719b0e	-0.23594305
14	0x3dfd533d	0.12369392
15	0x3de30a4b	0.110859476
16	0xbe48b847	-0.19601546
17	0xbea1ed3b	-0.31626305
18	0xbd73a1f2	-0.059480615
19	0xbda8119e	-0.08206485
20	0x3dd885cd	0.105723955
21	0x3daaf7a5	0.08348016
22	0x3ea4793b	0.32123742
23	0x3d1e4d4a	0.038647927
24	0x3dd80cdf	0.1054933
25	0x3e44a9d9	0.19205417
26	0x3d288d16	0.041150175
27	0x3d950fec	0.072784275
28	0xbea46608	-0.32109094
29	0x3d53ff44	0.051757112
30	0x3dbb3d0b	0.091425024
31	0xbdf3ea52	-0.119099274
32	0x3d823901	0.06358529
33	0x3defa352	0.11701073
34	0x3e805b45	0.25069633
35	0x3db7a24e	0.08966504
36	0x3e3f22f5	0.18665679
37	0xbe4b96f2	-0.198818
38	0xbe586012	-0.21130398
39	0x3ca5d6dd	0.020244056
40	0x3e3837d8	0.17990053
41	0xbe1e969b	-0.15487139
42	0x3cc7c33d	0.024385089
43	0x3dcd1309	0.10013396
44	0x3e09c97e	0.1345577
45	0xbe5c4c51	-0.21513487
46	0xbd725f5d	-0.059172977
47	0x3deaa36f	0.11456954
48	0xbe7aff17	-0.24511372
49	0xba95d2de	-0.0011430641
50	0xbd20e0b6	-0.0392768
51	0xbd5439eb	-0.051813047
52	0xbdf8e4fd	-0.12153051
53	0x3d963669	0.07334597
54	0x3d3c170b	0.045920413
55	0xbd956c74	-0.072960764
56	0xbdfb621c	-0.12274572
57	0x3c8f96e3	0.017528003
58	0x3e2b1527	0.16707288
59	0x3cf9bfe9	0.030487018
60	0x3e6958cc	0.2278778
61	0xbe591d10	-0.21202493
62	0x3e187468	0.14888155
63	0xbcecfe1c	-0.028929763
