saved_models/A2C/using_trueskill_for_matchmaking/model14.pth (torch, 48448 bytes, 7 tensors)

0.weight f4 [64, 84]
00000000: 3e01 2cbd 8fdc b13d fce0 7abd 3731 32be
00000010: 6e37 8fbe 2dae 5e3e d782 adbb 303e abbd
00000020: f669 ad3c 9147 50be c2a1 cc3b 846a 053e
00000030: d21b 92bc 74a3 8bbd 59d5 2e3e b938 9f3d
00000040: 9753 513e 8ea1 8dbd 8737 c13e b1de e13d
00000050: 9f91 2ebc f16d debd b749 02be cdb9 423e
00000060: 6dee 08be 94b6 a1be 06a2 983d 7df2 81bd
00000070: 6c25 5abd 939a 74be 2db3 81be 593b 373b
00000080: 1e17 053e 68b4 593b 6ed7 db3d 760c 5cbe
00000090: 7993 703e fa29 96bd 1b7d 17be 2d3f c4bc
000000a0: 8c86 27be 6ec6 a73e b91b a3bc b688 1f3d
000000b0: 158b 643b 556c 0a3d b644 3abc d67e 5d3e
000000c0: 676c 13be fa3d 3dbe e51b 65be d9d0 65be
000000d0: de1d 983e 6fda 58bd 2e47 8a3d 3757 ce3d
000000e0: a9e6 3abd e883 15be d451 5b3d ee5c 933d
000000f0: 9f5f 62be 9b84 ffbd 3447 dcbd bc6b eabc
00000100: fd95 ed3d c666 993e 946b 68be 5362 b3be
00000110: 9c32 373e c973 e03d 625a 833c b540 2dbe
00000120: 23b2 7f3c 81ff 963c 3bc7 20be 4a97 f23c
00000130: 87aa 723e d540 b8bd 1c88 fc3c eba6 713e
00000140: 55f7 6b3d cb96 b9bd dab6 95bc d74d f73b
00000150: 9b9c 93bc c88e d93d 2849 46be 8736 203d
00000160: f80b e73d 0a5d 33bd 6b1a 103e ed9d 4c3e
00000170: 8cb6 ca3e 9413 4d3d 4f7d a03d 1bde 04be
00000180: 4ad8 b9bd 3cea 2abe a9da 80bd 1fc2 293e
00000190: 46b9 a33d 8f8e 0f3e bac3 dabd d42b 80be
000001a0: 28da 34bd 8adc 643b c073 46be 3217 6f3d
000001b0: 3db9 43be b6c3 dc3d 75d0 043e 8a15 1f3d
000001c0: 452e b6bd dc0c 2abe 0190 513d 6f9a 153d
000001d0: b42e 9cbd ec06 02be 9942 3a3e 917c efbd
000001e0: b736 b33c 4746 0d3b 6d3e febd 11ed 15bc
000001f0: d6f0 f2bd bb76 46bc 3148 02bd 70f8 0c3e
00000200: d3da 72be 8872 86bc 7729 96be dde3 ceba
00000210: 1a2d ca3d 3841 92bd 5fea 72be f45a 2abe
00000220: 856a dbbd 45c7 25bc dc13 c5be c9f5 673d
00000230: cebc 06bf bf65 cb3c 693e e8bd 4333 093b
00000240: ce81 393c 727f 81bc 1b78 bb3c 6f20 943e
00000250: 5883 b9be fe78 b53c b894 10bd fd3b 373d
00000260: 6e88 d8bd d6ba 7a3e c74e 493e 6d2f 6f3e
00000270: ef53 46be 0612 13be 6a3a cf3d 31cd 35bb
00000280: 25cf 6bbe ad1a 783d ebf8 bb3d 742f 0b3e
00000290: 974d 9bbd 634e 1bbe 5e9d 94bd 0513 163d
000002a0: 8820 11bd 85c5 df3d ab0d fabd cbc2 f53c
000002b0: 8682 04bd 9f6f 8cbe c6f6 8bbd 0e74 81bb
000002c0: 6620 06bd 9de9 a1be 8d06 6b3e 9d1c 62be
000002d0: 67b0 49be 4806 80be 3c3f a83d 3d4f b03c
000002e0: 344f c4bd e7af 153e 3056 8b3c 9dbd 37ba
000002f0: b32b 91bd ea67 cebd 6391 b8bd 8c9c 0fbe
00000300: 27fe 5c3e 1d63 11bc d157 203e 676b 66be
00000310: 5333 d03d c2ed a23b 4562 03be 9cc7 37be
00000320: 2cd9 ab3b 7a97 57be 69e8 b3bd 5fec a03d
00000330: cf3c a63e 7175 a33c d7ed 7e3e 31d7 18be
00000340: 30ad bfbd 12dd 29be bf28 d33d 63dc fdbd
00000350: e590 63be f0d0 d03a b74b 16bd 08e5 4ebe
00000360: e6ee e5bc c458 2a3e ad94 f83d b9dc 013e
00000370: 7c51 4d3e 907e 493e 285b be3d ed20 58bd
00000380: d028 1cbe 653b 3cbe 25df 8f3d d5e1 ef3d
00000390: 2755 61be d753 15be 378d c0bc f217 403d
000003a0: 633b 41be cedd b13d d729 f0bd 2340 dbbb
000003b0: 7049 bcbd 5254 16be 62d3 e6bd 7a83 a33d
000003c0: 24dd 113e bed2 4d3b dc27 1bbe bf2f 8fbd
000003d0: ebd1 be3d c84d 88be f7d7 803d 95f3 d0be
000003e0: 54ca acbe 9e7d b33d ded3 a4be ff1f 283d
000003f0: 12e2 453e cf97 633e ab63 36be 14d5 efbd
-0.041993372 0.08684646 -0.061249718 -0.17401586 -0.27971977 0.2174613 -0.0052951383 -0.08361471
0.02116869 -0.203398 0.006244869 0.13028914 -0.017835531 -0.068182856 0.17073573 0.07774491
0.20442043 -0.0691558 0.37737677 0.11028803 -0.010654836 -0.108608134 -0.12723432 0.1901619
-0.13372202 -0.3158461 0.074527785 -0.06345079 -0.053258345 -0.2388709 -0.25332013 0.0027958958
0.129971 0.0033219103 0.10734449 -0.21489128 0.23493756 -0.07332225 -0.14793818 -0.023955906
-0.1635992 0.32768577 -0.01991068 0.038948737 0.0034872938 0.03379472 -0.011368921 0.21630415
-0.14396821 -0.18480673 -0.22373922 -0.2244295 0.29710287 -0.05294269 0.06751858 0.10075229
-0.04563013 -0.146011 0.053544834 0.07195459 -0.22106789 -0.12476464 -0.107557684 -0.028615825
0.116008736 0.29961222 -0.22697288 -0.35035953 0.178904 0.10959584 0.016034309 -0.16919215
0.015606436 0.01843238 -0.15701 0.029613156 0.23697864 -0.08996741 0.03082662 0.2359883
0.05760892 -0.090619646 -0.018275667 0.007547121 -0.018019011 0.106229365 -0.19363844 0.0391145
0.1128158 -0.0437899 0.14072578 0.19982119 0.39592397 0.0500675 0.07836401 -0.12975352
-0.09074457 -0.16690916 -0.06291706 0.16577958 0.079943225 0.14019226 -0.10681863 -0.25033438
-0.044153363 0.003492149 -0.19380093 0.05837173 -0.19113632 0.107795164 0.12970145 0.0388389
-0.08895544 -0.16606468 0.051162723 0.036524232 -0.076260954 -0.12697953 0.18189467 -0.11693681
0.021876676 0.002155678 -0.124142505 -0.009150759 -0.11862342 -0.0121132685 -0.03180713 0.13766646
-0.23716287 -0.016412035 -0.2932851 -0.0015784461 0.09871884 -0.07141346 -0.23722218 -0.16636258
-0.10713676 -0.01011831 -0.38491714 0.056630883 -0.52631843 0.02482879 -0.11340029 0.0020935095
0.011322452 -0.015807841 0.02288442 0.28930995 -0.3623302 0.02215242 -0.03529808 0.044734944
-0.10572897 0.24485335 0.19658957 0.23357935 -0.19367956 -0.14362344 0.101185635 -0.0027740712
-0.23028238 0.060572315 0.09178337 0.1359232 -0.075831585 -0.15166621 -0.07256578 0.036639232
-0.035431415 0.10926346 -0.12209638 0.030000111 -0.03235104 -0.2742891 -0.06834178 -0.0039506024
-0.03274574 -0.31623545 0.22951718 -0.22081228 -0.19696198 -0.25004792 0.08215186 0.021522159
-0.09585419 0.14617883 0.01700887 -0.00070091506 -0.07088413 -0.10078414 -0.09012105 -0.14024562
0.21581326 -0.008873728 0.156585 -0.22501908 0.10166039 0.0049721906 -0.12830456 -0.17947239
0.0052443948 -0.21053877 -0.08784563 0.07857584 0.32468268 0.019953461 0.24895416 -0.14925839
-0.09359205 -0.16588238 0.10310506 -0.12395551 -0.22223242 0.0015931409 -0.0366933 -0.20204556
-0.028068017 0.16635424 0.12137733 0.12681855 0.20050615 0.19677186 0.092947304 -0.052765775
-0.15249944 -0.18382032 0.07024983 0.11712996 -0.2200514 -0.14582764 -0.023504836 0.046897836
-0.1887031 0.08684884 -0.1172673 -0.0066909953 -0.091936946 -0.14680603 -0.11270787 0.079840615
0.14244515 0.003140613 -0.15151924 -0.06991529 0.093173824 -0.26621842 0.06291192 -0.40810838
-0.33748114 0.08764194 -0.32192892 0.04104614 0.1932452 0.22225879 -0.17811458 -0.11710563

0.bias f4 [64]
00000000: a2fe 69bc 73b6 c93c 59d4 233d 91cf cdbc
00000010: 7f5c 8ebc c7d1 52bc d2a7 26bc 42c7 933b
00000020: 3070 3a3d 0e07 14bc 1e5b 213a 7099 a2bb
00000030: 612a 8dbc 5947 803c 5f65 3e3c 935c 74bc
00000040: 125c 953c d2af f7bb bf0f 083d 79ee 103d
00000050: 4acf acbb aac0 14bd 777c b3bc bf9e 1c3c
00000060: 8647 99bb ef51 e1bc a1ae a1bc a697 9339
00000070: ac1d 873b 6cf9 193d 7348 4e3c a441 86bc
00000080: faaa 2bbb 30a6 15ba 10d6 e13c 3bd2 6f3c
00000090: 5242 e4bc aae0 abb9 9a1e ae3c 8e37 e0ba
000000a0: 1adf 1e3c 0ec6 32bc f654 afbb 3534 673d
000000b0: 54dd 4fbc dac5 893c d96b 70bc 3d37 e63b
000000c0: ffe8 27bc 7a07 0b3c 8a23 503c 9b49 bf3c
000000d0: b1f6 323d 0010 0d3c b453 dbbb abdb 16bc
000000e0: 607a cf3c c98b cb3c e06a 013d ff33 49bc
000000f0: f6da 313d 0f48 7f3c fe41 43bb e494 df3c
-0.014281901 0.024623131 0.039997432 -0.02512339 -0.01737809 -0.012867398 -0.010171847 0.0045098374
0.045517147 -0.009034885 0.000615524 -0.004962139 -0.017232122 0.015659021 0.011620848 -0.01491465
0.01823238 -0.007558801 0.03321814 0.035383675 -0.005273734 -0.03631655 -0.021909935 0.009559332
-0.0046777157 -0.02750489 -0.01973659 0.00028151012 0.00412341 0.037591383 0.012590515 -0.016388722
-0.002619444 -0.0005708663 0.027567893 0.014637525 -0.027863655 -0.0003278305 0.021254826 -0.00171064
0.009696746 -0.010911478 -0.0053507043 0.056446273 -0.012687046 0.016817976 -0.01467415 0.007025628
-0.010248422 0.008485669 0.012703786 0.023350528 0.043692295 0.008609772 -0.006693328 -0.009207646
0.025326908 0.024846928 0.031596065 -0.012280463 0.043421708 0.015581145 -0.0029793973 0.027292676

2.weight f4 [7, 64]
00000000: 0fb6 313e a8b1 87be 91b3 b83d 6fa7 2f3e
00000010: 73e4 5cbe f83e b6bd c8af d4bc d4b7 203e
00000020: d048 e3bd acef eeba 126a 9a3d ccf0 cfbd
00000030: 0b21 e53d 1dbc 87bc f379 7abb 4ae4 38be
00000040: e0c4 79bc 3c85 4a3d b667 4bbe e234 8abd
00000050: 30ac 2cbe 2310 8cbe c871 12be 248b ba3c
00000060: 35f1 58bd bf52 b2bc 3a2e 68be 8bf0 84be
00000070: 7281 003d bce2 bb3d 17a1 433c d41e 4a3e
00000080: 419b 58bd d392 563d b021 8c3e 4575 e0bd
00000090: 9aa6 8d3e a411 0b3e 8def b03e b604 9fbe
000000a0: 4ad6 d43d 6c3e db3d 1f3a 473c a4bb 6b3e
000000b0: bcc4 ad3e 3443 25be 22d8 75bd e4c3 3fbe
000000c0: 8325 2c3e 5e36 6dbe 081f 90bd 962c 4c3b
000000d0: 5f9c 343e cd20 8dbe 5426 033e a7ff a93e
000000e0: 85bd 8abe 5362 bf3d f0c7 a13e a870 a93d
000000f0: 6212 26bd bb7a c13e 2029 7e3d 540f 913e
00000100: f0da 243e 1287 00be 0155 aabd 650a c73e
00000110: dbd7 d23d d5a5 f9bd a901 4bbe 81cb b8be
00000120: d829 6abe 96e1 3bba 0a16 bcbd db16 dbbd
00000130: 05a5 89be ec2c aa3c 69be aabe 0408 80bd
00000140: a5a2 9cbd 8753 19be 4d14 07be 43d3 62be
00000150: e4de a63d bb1b 3c3e 729d 6bbd 2acd 633e
00000160: 3e61 113d 550a 97bd 4a3a 3bbd c512 0c3c
00000170: d469 0abc 4a57 5c3d 7a60 103e c2bf c33d
00000180: aafb c1be c077 c23d 6315 94be f379 69be
00000190: efa6 913d bc0c 843e f1e8 d8be 2c3d 8bbe
000001a0: 5844 c63d 23ec 113e 2b06 5abe ad1a 9cbe
000001b0: a8e3 4d3e 09ea a0bd 48cd c6bc 2ca7 243e
000001c0: 7c84 723c 36fe 2bbe fd7e 15bd 6112 19be
000001d0: bc46 60be f88b 2f3b d1df 75bd 1585 64be
000001e0: bcaf ef3d eafa 16be fc27 c6bc f734 883e
000001f0: e67d a8bd 90dc c1bd 9290 183c 21cd 593e
00000200: 0196 23bd 126d 1d3e 729f 9d3e eb43 623e
00000210: a619 45be 5578 483e aeb6 c83d 89cb ec3d
00000220: 69f4 f33d 257d 3bbe 2ef5 49be e254 aebe
00000230: e7f0 8ebe dd1a 1d3e e00c 4c3d c77b 813d
00000240: 8bb2 dd3d 584e a6be 16d4 c6ba 54d2 61bd
00000250: 2069 533d 2c4b 86be d891 36be 56de 1ebd
00000260: f15f 85bc 3a1a bfbd 3ff8 04be 5248 d03d
00000270: b9b2 193e 0df7 d53d 4ec5 53be acd4 183e
00000280: de5a 903e 916c a23e 8e1b af3e 0581 9dbd
00000290: 81bf 353e 6567 173e 385b b4be 62af 35be
000002a0: 447b f7bd 1eaa 643d 711d 76be ce44 3f3d
000002b0: 306b afbe 8aa3 18bc d1ea ccbd 7b31 163e
000002c0: 7449 043e f17c 9d3c b501 48be b249 7c3e
000002d0: b7b4 5ebd 079e 24bc 8393 0e3e 85cb ed3c
000002e0: e3e1 cf3c 2741 693e b2ae a5bd a8aa 9abc
000002f0: 791f 2e3e eff3 8fbe 2b65 fc3d b243 2cbe
00000300: 402f 483d 59de f93d f3f0 753d 7ab8 19bd
00000310: ee87 38bd 0263 bd3d 6008 82bc 5809 5b3e
00000320: 550e ccbd bebc b7bc 3298 fcbd f415 0d3c
00000330: f257 3ebd d596 37bd 7ec7 913d dbbf dd3d
00000340: 3fcb ff3e 64c3 13be 55dc 8d3e d78f 723c
00000350: a97e d9bd 2fb6 1fbb 323f ae3d 8631 833e
00000360: cdd7 14be 2e61 ab3d bdfd 6bbd 5a6a babd
00000370: 9056 d8bd 646b aebc 0522 6d3c e2f3 a23e
00000380: 519d 4fbe 1beb a13d 9a0c 7a3d 7945 9fbe
00000390: 1eb8 873e 5317 3dbe f8bd 78be 58ec b13e
000003a0: ccf6 113e 7c18 643d 723f 0ebe eb24 3cbe
000003b0: 8cb3 1c3e 4ee5 c23c 910e 05be 2cd9 f9bc
000003c0: 124b 033e 3299 da3d 5530 6a3e 7fdf a3bd
000003d0: 6299 cd3d b16f 0f3e f291 97bd 3b8f 43be
000003e0: 8e81 c63d 4ad9 acbd a4cf 163e ac4a e9be
000003f0: e2fb 83be dfc8 fd3e 348f d6bd b624 28be
0.17354606 -0.26502728 0.090186246 0.17153715 -0.21571521 -0.08898729 -0.025962725 0.15695125
-0.11097872 -0.0018229387 0.075397626 -0.1015335 0.11187943 -0.016569192 -0.003821966 -0.18055835
-0.015244693 0.04944347 -0.19863781 -0.06748368 -0.1686256 -0.2735606 -0.14301217 0.022771426
-0.052964408 -0.021767972 -0.22673884 -0.2596477 0.03137345 0.091741055 0.011940262 0.19738322
-0.052882437 0.052386116 0.27369452 -0.109598674 0.2766617 0.13580948 0.34557763 -0.31058282
0.10392435 0.107052654 0.012159853 0.23020798 0.3393916 -0.16138917 -0.060020573 -0.1872707
0.16811185 -0.2316527 -0.07037169 0.0031154505 0.17637776 -0.27564088 0.1280759 0.3320286
-0.27097717 0.09344926 0.31597853 0.082734406 -0.040544875 0.37788948 0.06205094 0.28332007
0.16099143 -0.12551525 -0.083169945 0.38875118 0.102950774 -0.12189833 -0.19824852 -0.3609276
-0.22867525 -0.0007167099 -0.09183891 -0.10697719 -0.26883712 0.020773374 -0.33348396 -0.06251529
-0.076482095 -0.1497327 -0.13191338 -0.22150902 0.08147982 0.18369953 -0.0575232 0.22246233
0.035493128 -0.073750176 -0.045709886 0.008549397 -0.008448083 0.053794183 0.14099303 0.09558059
-0.37887317 0.09495497 -0.28922567 -0.22800426 0.07111918 0.25790966 -0.4236522 -0.27195108
0.09681004 0.14250235 -0.21291415 -0.30489102 0.20106375 -0.07857139 -0.024267808 0.16079396
0.014802095 -0.16796193 -0.03649806 -0.14948417 -0.21901983 0.0026786309 -0.0600279 -0.22316392
0.117034405 -0.14744154 -0.024188988 0.2660291 -0.08227138 -0.09465897 0.009311812 0.21269657
-0.039937977 0.15373638 0.3078571 0.22096221 -0.19248065 0.19577153 0.098004684 0.11562259
0.11911852 -0.18309458 -0.19722435 -0.34049135 -0.2791817 0.15342279 0.049816966 0.06322437
0.1082507 -0.32481647 -0.0015169408 -0.055132225 0.051613927 -0.26229227 -0.17829072 -0.038786255
-0.0162811 -0.09331174 -0.12985323 0.10170044 0.15009584 0.10447512 -0.20680735 0.14924878
0.28194326 0.31723455 0.3420071 -0.07690624 0.17748834 0.14785536 -0.35225844 -0.17742684
-0.12084058 0.0558263 -0.24034669 0.046696477 -0.34261465 -0.0093163345 -0.10005725 0.14667313
0.12918645 0.019224616 -0.19531901 0.24637488 -0.05437156 -0.010047442 0.13923459 0.02902771
0.025376266 0.2277876 -0.08089961 -0.018880203 0.17004193 -0.28115794 0.12323984 -0.16822699
0.048873186 0.122006126 0.06004424 -0.037529446 -0.045051508 0.092474 -0.015873134 0.21390283
-0.09963671 -0.022428866 -0.123337165 0.008611191 -0.04647059 -0.04482158 0.07118128 0.10827609
0.49959752 -0.14430004 0.27707162 0.014804802 -0.10619862 -0.0024370064 0.08508147 0.2562372
-0.14535446 0.08368145 -0.05761503 -0.09102316 -0.105633855 -0.021291442 0.014473443 0.31826693
-0.20274855 0.07906171 0.061047174 -0.3110769 0.26507658 -0.18465929 -0.24291217 0.34750628
0.14254302 0.055687413 -0.1389139 -0.18373458 0.15302867 0.023790982 -0.12993838 -0.030499063
0.12821606 0.10673751 0.2287 -0.08001613 0.10039021 0.1400745 -0.07400884 -0.19097607
0.09692679 -0.08439882 0.14727646 -0.45564783 -0.2577811 0.49567315 -0.104765326 -0.16420254

2.bias f4 [7]
00000000: 7bce c139 a6c0 f0bc e197 3e3c 22ab 0d3c
00000010: 513b a4bc f637 01bd 2615 383d
0.0003696567 -0.029388737 0.01163289 0.008646758 -0.020047816 -0.03154751 0.044942044

0.weight f4 [64, 84]
00000000: a165 30bd 41d7 56bd 65a3 5cbe b252 073e
00000010: 9662 363d 23f8 e6bc ba26 023e 4d71 e03e
00000020: 7f8f 7dbe 3c50 c1bd 0005 0f3e e0ba 01be
00000030: afa0 66bd 2008 403e 38df 663c b3ff 2dbe
00000040: 0fb1 a3bd 64e7 9e3d 5d9f 12bd 5fc5 783d
00000050: 1a44 3d3e 9c72 20be 2f90 133e 97d1 3ebe
00000060: 7d54 3e3d 3b7e 2fbe 1057 163e f06f 053e
00000070: bd66 c03d 7b88 9c3c 179c 323b 6902 6a3e
00000080: 39ba 1cbe 9185 823e 4def f9bc b12e 04be
00000090: f2ae 93bd 6db2 83be 9dd6 9c3d d4a9 3dbd
000000a0: 11f5 053d ebdb 003e 0dcd 003e 6c75 0bbe
000000b0: 04f2 aabc f94b b4be 8c3f f73d 2741 8cbd
000000c0: 5f85 e2bd 172d b83d 3cbc f43d d331 1bbe
000000d0: 1c5d 0b3e 182c 2fbe ccab 023d ab4f b5be
000000e0: 859e 0f3e 2882 8bbd 5c3a ba3d 6613 b5be
000000f0: cc01 983d a8bf bf3d 47aa 5c3d c54b 9d3e
00000100: 2eb0 b2bd d1a4 bbbd 0568 3a3d 2b15 8e3d
00000110: 42bf d3bd 5f4d 073e f855 033e 2057 f9bc
00000120: 4567 76bd 1aa9 37bc b0ed 1e3d 6b39 5cbe
00000130: d757 5d3e bf7f 0cbe 8718 ebbc 9034 b73d
00000140: 510f 1f3e ff34 54be ad3f ae3c 1a02 a7be
00000150: e9a8 a43d a594 5abd e1b5 2abc 559c dfbd
00000160: 1881 9ebe 8b5b d93d 6f15 4b3d c982 293e
00000170: 6e10 55bd bea9 8f3c 9517 e8bc b059 0cbd
00000180: 4841 3bbe 9d01 943d 0fcc cc3d 7f4d 2abc
00000190: cd56 b63d 8636 3ebe 8931 d33e aeac be3d
000001a0: f9fb 66bd 3292 9cbe 622d 813c 8a0e 38bd
000001b0: 558e c93b cadc 68bd 6d71 0d3e 8327 1f3e
000001c0: 9217 94bd d45d 76bd 71b0 70be 41b0 33bc
000001d0: 6fac c13d 6aeb 8dbd e374 283e 82a3 093e
000001e0: 93e8 c33d 580f 1cbe e797 53be 2ec2 a0bd
000001f0: 1b8e 623d dbd5 35be 0a79 95be 1dad 19bd
00000200: fb0c 1e3d 248a 033b 0bcc 1b3e 5527 f03d
00000210: 0782 873d 9cf5 843d f030 84be 0070 4abd
00000220: f00a 093e 6afe 99bd ae5d d4bd da8a ca3c
00000230: 597a abbd bda8 7ebe 3cb8 2f3d 82b4 5bbd
00000240: bd03 acbc ebfa 6dbe e693 97be 4958 d4bc
00000250: 73af 3cbe 6697 0abe 98f0 ffbc 6334 d4bc
00000260: e330 ee3d beed e03e 73d2 8bbe af16 75bd
00000270: 09cb 35be 5b50 153d 1733 9abe 2b9c 353e
00000280: bbd1 d7bb 6df1 d9bb 5ba3 90be 0158 cabd
00000290: fb08 693d 80ba 9e3e f039 2ebe 8ce8 2cbd
000002a0: 7470 33bd 5eda f83c b5ec 563e 1211 c23d
000002b0: ed3b 473e 58c8 2bbe f29d 1c3e f47b 133d
000002c0: 71ae 28be ad29 8cbc f6cb 72be df3e 183e
000002d0: 35af 983e 6065 3dbe c5ba 033e cc1b 893e
000002e0: 0ac7 cc3d 3e42 1dbe 4212 8bbd 7096 563e
000002f0: aa1e 0abd 4f35 3cbe df53 e93c dd6c e1bd
00000300: f67a d83e 52f9 353e 8bc4 e1bd 65b7 eebd
00000310: 75c4 18be ce96 5fbe 1f11 c53d 6d82 c0bd
00000320: 3a67 1e3e e06f 9d3c 66ac 46bd 073a f0bd
00000330: 092f b63d 6262 313d e8fc 483d f1fb 92bd
00000340: 3f3c 0dbc b069 babd bcaf bdbd d2fe 23be
00000350: e641 c9bd d854 d5bd 73bf ed3d d926 adbb
00000360: b495 7c3d c5bf 3dbd 5e0b f83d 0413 f33d
00000370: 3f08 cd3d c832 27be 8cee 90be 0838 84be
00000380: 8eb4 703d 4db9 c43d 5603 e8bd 1de0 f1bb
00000390: 1d46 6fbe 8309 313e ab8c 5e3e 2d3e 243e
000003a0: 89ae 8cbd bd79 033e 9fe5 883d 5170 963e
000003b0: 87ee b6bc 17e9 fd3c a527 11bd dc1c f43d
000003c0: df6b 153e c1d9 243d 6514 86be a068 0cbe
000003d0: f479 81be b740 043e 11e6 673b e88b 34bd
000003e0: 7d4b b23d 277f af3e 0194 12bd 7e8c d13c
000003f0: 833a 463e 891b 17be 5b57 143e 21cf 35bd
-0.04306567 -0.052451376 -0.21546705 0.1321514 0.044527613 -0.028194493 0.12710086 0.43836442
-0.2476177 -0.094391316 0.13966751 -0.12668943 -0.056305584 0.187531 0.014091305 -0.16992073
-0.079927556 0.07758978 -0.035796512 0.060735103 0.1848301 -0.1566872 0.1441047 -0.1863464
0.046467293 -0.17137997 0.14681649 0.13030982 0.09394596 0.019108048 0.0027253681 0.22852482
-0.15305413 0.25492528 -0.030509615 -0.12908436 -0.072111025 -0.25722066 0.07658122 -0.04630454
0.032704417 0.12583892 0.1257822 -0.13619012 -0.020867355 -0.35214213 0.120726675 -0.06848364
-0.11060595 0.08992975 0.11949965 -0.15155725 0.13609737 -0.17106664 0.03190212 -0.35412344
0.14025314 -0.06811935 0.090931624 -0.35366362 0.07422218 0.093627274 0.053873327 0.3072187
-0.0872501 -0.091622956 0.045509357 0.06937631 -0.10339214 0.13213108 0.12825763 -0.030437052
-0.06015708 -0.011209751 0.038800895 -0.21506278 0.2161554 -0.13720606 -0.028698219 0.089455724
0.15533186 -0.20723341 0.021270597 -0.3261879 0.080400296 -0.053364415 -0.01041934 -0.1091849
-0.30957866 0.106131636 0.049580988 0.16553797 -0.05201762 0.017536994 -0.028331557 -0.03426522
-0.18286622 0.0722687 0.099998586 -0.010394453 0.08903275 -0.18575487 0.4124873 0.0931028
-0.056392644 -0.30580288 0.01576871 -0.04493574 0.0061510005 -0.056851186 0.138128 0.15542416
-0.07231058 -0.060148075 -0.23504807 -0.010967315 0.09456717 -0.06929667 0.16450839 0.1344128
0.095658444 -0.15240228 -0.20663415 -0.07849537 0.055311304 -0.1775736 -0.29193908 -0.03751861
0.038586598 0.0020071352 0.15214555 0.11726252 0.066165976 0.06492159 -0.25818586 -0.049423218
0.13383079 -0.07519229 -0.103694305 0.024724413 -0.08372945 -0.24869056 0.04290031 -0.053638943
-0.020997876 -0.23240249 -0.29605025 -0.025921004 -0.18426304 -0.13534316 -0.031242654 -0.025903886
0.11630418 0.43931383 -0.27308998 -0.059836086 -0.17753233 0.036453586 -0.30117103 0.17735355
-0.006586281 -0.0066510946 -0.2824963 -0.09880067 0.05689333 0.31001663 -0.17014289 -0.04221396
-0.043808416 0.030377563 0.20988734 0.09475912 0.19456454 -0.16775644 0.15294626 0.036006883
-0.16472794 -0.017109716 -0.23710617 0.14867733 0.29821172 -0.18495703 0.12864216 0.2677902
0.09998901 -0.153573 -0.06790592 0.20955825 -0.03372065 -0.1837971 0.028482376 -0.11007092
0.42281312 0.1777089 -0.11023816 -0.116560735 -0.14918692 -0.21834871 0.09622406 -0.09399877
0.15469065 0.019218385 -0.048504256 -0.11729818 0.0889569 0.043306716 0.049069315 -0.0717696
-0.008620321 -0.091021895 -0.09262034 -0.16015175 -0.09827022 -0.10416573 0.11608782 -0.005284172
0.061666206 -0.046325464 0.12111543 0.11868861 0.100113384 -0.16327965 -0.28306997 -0.25823998
0.05876594 0.09605656 -0.11328761 -0.0073814527 -0.2336659 0.17288785 0.21733348 0.16039343
-0.068692274 0.12839408 0.06684422 0.29382566 -0.022330536 0.030994935 -0.0354382 0.11919567
0.14591931 0.04024673 -0.26187435 -0.13711786 -0.25288355 0.12915312 0.0035384933 -0.044078737
0.087058045 0.34276697 -0.03578568 0.025579687 0.19358258 -0.14756598 0.14486448 -0.044386987

0.bias f4 [64]
00000000: fa05 efbb c025 23bd 50f8 02bc 9951 d43c
00000010: 03ac 873c e689 21bd 187b cbbb a1d5 c6bb
00000020: 7d88 b1bc 35c8 10bd aa81 f9bb 7e4e 81bc
00000030: 1c3e 2fbd 495a 9cbb 7149 2aba 9c54 c43b
00000040: 791e 303c 9ceb b93c 474f 2ebc fbcb 4ebb
00000050: 517e 643c 8821 4dbc 4a8b c63a c824 8abb
00000060: 53a4 85bc d2a2 3d3c 7aa2 8cbc 5b5a 6abc
00000070: 7f28 143c 3eb9 a0ba 3775 deba 43df 153a
00000080: 5838 c5bc 35d4 843b bbaa 81ba d573 0dbc
00000090: bdfe 4eb9 44e6 39bb fb8a 94bb 73c8 f4bc
000000a0: 21b0 aebc 4d40 1b3b 55bc 12bc a3a6 44bd
000000b0: 6e3d 9bbc 8349 c5bc 0d07 a039 2388 babc
000000c0: 48ba 44bd 8204 ba3c fcf7 963c 94e0 79bc
000000d0: b67f 223c 666a c8bb de22 abbb 9fb0 16bd
000000e0: 2c11 1ebc ec89 b4bc f5ba 47bc 0c15 2fbc
000000f0: 6bdd c5bc de2a f7bb 1052 7abc 6e52 eebc
-0.0072944136 -0.039830923 -0.007993773 0.025917815 0.016561514 -0.03943815 -0.0062097423 -0.006067947
-0.021671528 -0.035347182 -0.007614334 -0.015784498 -0.04278384 -0.004771505 -0.0006495929 0.0059915315
0.010749453 0.022695355 -0.010639018 -0.0031554687 0.013946132 -0.0125202015 0.0015147713 -0.0042158104
-0.016313707 0.011574464 -0.017167319 -0.014303769 0.009042858 -0.0012262238 -0.0016972189 0.00057171675
-0.024074718 0.0040536174 -0.0009892801 -0.008633574 -0.00019740588 -0.0028366009 -0.0045331693 -0.029880738
-0.02132422 0.002368945 -0.008956035 -0.04801048 -0.01895019 -0.024082905 0.0003052283 -0.022769993
-0.048029214 0.022707228 0.018428795 -0.0152512975 0.009918144 -0.0061161993 -0.0052226624 -0.036789533
-0.009647649 -0.022038423 -0.01219057 -0.01068617 -0.024153432 -0.007542952 -0.015278354 -0.02909204

2.weight f4 [1, 64]
00000000: 3c49 1abd 154b 9fbd 6a2b 38be 0635 963d
00000010: d109 b53c 3b59 68be 5a9b 3bbe 6654 243d
00000020: 74d9 d3bd 8672 f6bd 3c5c 83bc 287c 263e
00000030: 0eaa 353e 3462 3a3e a498 a73e 27f0 bc3c
00000040: 50d7 f23d aed6 7b3d ccaf e0bc 967f 0fbe
00000050: 38c4 01bd 2bda 71be e7cc 9d3b ae55 7d3b
00000060: 1557 3bbe 50f3 d03d 9e1e 26bd 7cec 17bc
00000070: 9b9d c63d c500 29be f733 84bd 3518 003d
00000080: ef6b 0fbe 1138 48bd cad5 fb3d 9577 b33d
00000090: 92ec 9abc 9a48 3e3e cebe 1c3c 5544 08bd
000000a0: 80ce 97be 628d 00be 66b9 66be 0085 9ebe
000000b0: 040d 5b3e b18f 08be 3b8d 143e 81c1 43be
000000c0: 2519 83be 0a2c 073d 2d86 363d eb9c 37be
000000d0: 8d2a cc3d 2e25 2c3e 0926 553d ca41 24be
000000e0: dcee 4b3d 7a11 853e 847f 773e 75ce ba3c
000000f0: 64e7 b53e 30e3 413d 0d4c 143e 1e77 12bd
-0.037667498 -0.07777993 -0.17985311 0.07334332 0.022099407 -0.22690289 -0.1832098 0.04011955
-0.1034421 -0.12033562 -0.016035192 0.162583 0.17740652 0.18201524 0.32733643 0.023063732
0.11857474 0.06148403 -0.027427576 -0.14013514 -0.03168127 -0.2361838 0.004815686 0.0038655805
-0.18294938 0.10202658 -0.040556543 -0.009272691 0.096980296 -0.165042 -0.06455224 0.031273086
-0.14006017 -0.048881594 0.122966364 0.08763043 -0.018911634 0.18582383 0.009566976 -0.03326829
-0.29649734 -0.12553933 -0.22531661 -0.30960846 0.21391684 -0.13336064 0.14507 -0.19116785
-0.2560512 0.033000983 0.044561554 -0.17930953 0.099690534 0.16811058 0.052038226 -0.16040722
0.04978834 0.25989896 0.24169737 0.022803525 0.355281 0.047335804 0.14482136 -0.03575813
