saved_models/A2C/using_trueskill_for_matchmaking/model3.pth (torch, 48436 bytes, 7 tensors)

0.weight f4 [64, 84]
000000 60 c2 d5 bd 64 20 37 3c 43 7a 84 3d 5f 0b 04 be
       -0.10437465 0.011177156 0.06468632 -0.12894963
000010 92 cc 4f 3d 87 47 92 3e 9f b7 44 3e ae 9a 0e be
       0.050732203 0.28570196 0.19210671 -0.13926193
000020 06 1c fe bd be 11 14 3e 6f ba 5e bd b0 4a ae 3c
       -0.12407689 0.14459893 -0.054377016 0.021275848
000030 92 16 af bd 43 8c c0 bd 21 56 b9 3d 9e 0e 87 bc
       -0.08549227 -0.09401753 0.09049631 -0.016486462
000040 38 9e e0 bd 0d a7 13 3d 4f 22 7c bc a0 ee e9 bc
       -0.10967678 0.036047984 -0.015389039 -0.028556168
000050 80 8a bb bd 19 d9 38 be 0c e8 be 3e db ce 29 be
       -0.09157276 -0.18051566 0.37286413 -0.16582815
000060 a6 f0 cd bd 3e bc 2f be 65 08 69 bc 47 d9 65 bd
       -0.10055666 -0.17161652 -0.014223193 -0.056115415
000070 87 ea 7e 3e 6e 01 8b 3d 57 a9 10 3e 02 0b 8d 3e
       0.24894153 0.06787382 0.14127098 0.2754746
000080 b6 fe 04 be 6a a1 94 bd 4e b3 63 3e 3e 29 23 3d
       -0.1298779 -0.0725735 0.22236368 0.039834253
000090 12 ab 4f be 95 7e 8a bd b1 88 0c 3d 85 17 c9 bd
       -0.20280102 -0.06762425 0.034310047 -0.09818939
0000a0 bc c7 6c 3d 85 6c 97 3d bf 38 a9 3c cb f2 18 be
       0.05780767 0.07393745 0.020656941 -0.14936368
0000b0 82 fa ec 3d ad 3b f7 3d c4 e1 0c bc 6a 17 8d be
       0.11571218 0.12071929 -0.008598749 -0.27556926
0000c0 30 a3 85 be 12 c2 f4 bc 2f e6 ec 3d cf cd 13 be
       -0.26101065 -0.029877696 0.115673415 -0.14433978
0000d0 ef c2 f5 3d dc e0 1b 3e 36 52 e7 bd 10 6f ad be
       0.12000071 0.15222496 -0.11294977 -0.33873796
0000e0 f8 db 03 3c ad df be bd 90 2f e2 3c 4a 37 ff 3d
       0.00804805 -0.093200065 0.02761057 0.124617174
0000f0 12 41 9b be c2 57 a9 3d 5f 63 cd 3c ea 01 15 3d
       -0.30323082 0.082686916 0.025071798 0.03637878
000100 4d 72 3b be f4 1b 4d bd b9 67 ad 3d d8 d5 a9 bd
       -0.18305321 -0.050075486 0.08467049 -0.082927406
000110 12 d6 47 3e 42 21 42 3a b8 ca 7e bd 9c 87 a5 be
       0.19515255 0.00074054685 -0.062205046 -0.32330024
000120 69 80 26 bc 8a 8d 0a be 6f 2d b6 be 39 37 f7 3c
       -0.010162451 -0.13530555 -0.35581538 0.0301777
000130 07 5f eb 3d 94 92 d1 3c 82 ff ae 3d 3f b8 f9 3b
       0.114927344 0.02558259 0.08544828 0.007620841
000140 95 d6 ae be 52 d2 3c be e5 4d 05 bd ac 18 c7 be
       -0.34148088 -0.18439606 -0.03254499 -0.3888601
000150 c3 57 00 be 04 a5 91 3e 00 65 ce 3d 74 40 ad 3d
       -0.12533478 0.2844621 0.10077858 0.08459559
000160 98 ae f8 bc 81 b8 82 bd 14 b3 ef 3d 47 6c d6 bd
       -0.03035669 -0.063828476 0.11704078 -0.10469871
000170 9e 20 c9 3d fe ed 2c 3e 80 a8 74 3e d7 11 3a 3e
       0.09820674 0.16887662 0.23892403 0.18170868
000180 be 9f 1e 3e 92 1b ff 3d 73 2d 95 3d b0 99 f7 3d
       0.15490624 0.124564305 0.072840594 0.120898604
000190 6a 98 91 be 54 6e eb bd b3 46 c6 3d 54 3e 4e 3e
       -0.28436595 -0.11495653 0.096814536 0.20140964
0001a0 31 f1 1f 3e dd 56 8d be a8 17 21 bc 38 cc 01 be
       0.15619351 -0.27605334 -0.0098323 -0.1267556
0001b0 6e ad 6f bd 60 23 25 be 2b 4f 26 bc e7 0c 21 3d
       -0.058515005 -0.16126776 -0.010150711 0.039318945
0001c0 44 14 e8 bd 5f a6 1c bd e6 5f 99 3d ba 34 5b be
       -0.1133199 -0.0382446 0.07488994 -0.21406832
0001d0 91 ac 8e 3c bc 56 1f 3e c9 b1 38 3d 87 35 ce 3d
       0.01741627 0.1556043 0.045091424 0.10068803
0001e0 7c dc 08 be c6 d1 af 3d 30 59 a1 bd eb e8 84 bd
       -0.13365358 0.08584933 -0.07878339 -0.06489738
0001f0 87 1c c6 3d 90 19 df 3d 06 65 b1 3d a1 3b cb 3d
       0.0967341 0.108935475 0.08661847 0.09923483
000200 cc 0b 12 3e a4 af c0 3e de 73 9d bb 02 e5 31 be
       0.14262313 0.37634003 -0.004805072 -0.17372516
000210 8d 91 e9 3c 78 de 0c 3e 36 6c ae bd 19 7f 35 3e
       0.028511787 0.1375674 -0.08516733 0.17724265
000220 63 13 14 3d 09 de 20 be 8e 24 42 be e1 37 2a 3e
       0.0361513 -0.157097 -0.18959257 0.16622879
000230 69 48 98 3b 3f e3 c3 be e5 b4 04 3e a6 a4 2f 3d
       0.004647304 -0.38259313 0.12959631 0.04288163
000240 77 63 48 3e c1 35 22 be 84 27 4d 3e 9a ab 02 3e
       0.19569193 -0.15840818 0.20034605 0.12760773
000250 9e b1 c1 3e d1 5d 09 be 15 d8 26 3e 55 b0 fb 3d
       0.37830824 -0.13414694 0.16293366 0.12289492
000260 6e 81 dd bd b4 2b 51 3e 53 fd a2 bd de 41 ac 3d
       -0.108157024 0.20426828 -0.07958474 0.08411001
000270 e4 4a 91 3c df a5 06 3d 82 76 f3 bd c2 38 07 be
       0.017735906 0.03287303 -0.11887838 -0.13205245
000280 75 d4 6b 3c 75 23 3e 3d d7 91 e2 be e6 be 85 be
       0.014393915 0.046420533 -0.44251892 -0.26122206
000290 3b f5 ac bb 42 e8 b0 3c 99 b4 f1 bd 01 20 5a bd
       -0.005278257 0.021595124 -0.118020244 -0.053253178
0002a0 cb 2e 80 bb 21 8c 1f 3d c7 8a b7 3d b5 f9 36 be
       -0.003911828 0.038951997 0.089620166 -0.17868693
0002b0 f6 b5 5f 3e f8 a0 e8 3d 16 32 3b 3d be 56 ed 3d
       0.21846756 0.11358827 0.045702063 0.115888104
0002c0 7d 80 b3 bd 93 88 a7 bd 83 7f 47 be f1 27 a5 3d
       -0.087647416 -0.08180346 -0.19482236 0.08064259
0002d0 65 2b 20 bd 0d 58 04 bd 79 ca 5a 3e 20 87 a4 3d
       -0.039103884 -0.032310534 0.213663 0.080335855
0002e0 aa 29 fb 3d 39 67 91 3d eb 86 80 3e e8 da 81 be
       0.12263806 0.07099766 0.25102934 -0.25362325
0002f0 0a 8a d9 3e 77 f2 06 be c1 c9 45 bd ed b5 ba be
       0.42488128 -0.1317843 -0.04828811 -0.36466923
000300 31 b2 09 3e ea f2 32 3e 93 86 64 bc cc 37 c6 bc
       0.13446881 0.17475477 -0.013948101 -0.024196528
000310 d0 3d 13 3d cf 3a 03 be d8 54 4f 3d 09 07 26 3e
       0.03594762 -0.12815402 0.050618023 0.16213621
000320 43 89 82 3e 68 0f e3 3b 59 3a 98 be 99 77 12 be
       0.25495347 0.006929327 -0.29732016 -0.14303435
000330 b5 94 04 3e ec 52 eb bd e5 aa c5 3b 23 9a e2 3d
       0.12947352 -0.114904255 0.006032335 0.110645555
000340 24 29 4e 3d df 5a 88 be 20 f2 36 bd 54 2f d5 3d
       0.050332204 -0.2663183 -0.044664502 0.10409418
000350 ae 39 8c bd bc ae 3b be 4f f2 72 be fc b2 ab be
       -0.06846939 -0.18328375 -0.23725246 -0.33534992
000360 21 6c d3 bd 15 fb b1 bd 59 c2 c2 3d 2c 01 95 3d
       -0.10323358 -0.08690468 0.09509725 0.07275614
000370 49 04 ce bd 09 ef f3 3d 62 b1 72 bd 9e 5c 22 3e
       -0.10059411 0.11910827 -0.059251197 0.15855643
000380 4b 42 97 be fe 85 e5 bb ca 51 aa 3d 0f 15 67 be
       -0.29542765 -0.0070044985 0.08316381 -0.22566627
000390 c0 ba 07 bd cd 5c 01 be e8 18 d0 bd c6 b4 e9 3d
       -0.033137083 -0.12633057 -0.101610005 0.11411433
0003a0 42 4d b1 ba 1b 0f 3c be 61 66 41 be c0 68 0a bd
       -0.0013527053 -0.18365137 -0.1888671 -0.033791304
0003b0 3f ac 1a 3e 63 a1 c3 bd 1e f5 90 3e ce 45 07 3d
       0.15104769 -0.095522664 0.2831201 0.033025555
0003c0 12 1f db 3d 10 cb 13 be 59 b6 59 3c 65 56 34 bd
       0.106992856 -0.14432931 0.013288104 -0.044027705
0003d0 ef 18 9a be 6e a3 62 3d e4 c8 72 be be 5b 0f be
       -0.30097148 0.05533164 -0.23709446 -0.1399984
0003e0 b9 73 95 bd 99 fb aa 3d 01 fd e8 bd 5a 46 9a bd
       -0.07297463 0.0834877 -0.11376382 -0.0753295
0003f0 c6 22 0d be 30 c8 3a bd 05 37 b1 bd 6c eb b1 bd
       -0.13782796 -0.04560107 -0.08653072 -0.08687481

0.bias f4 [64]
000000 8b d0 63 3d d1 6f 36 3d 00 fc 97 bc 85 a2 5d 3d
       0.055618804 0.04454023 -0.01855278 0.05411007
000010 6e fc 88 bc f4 ad 72 3b e0 37 d2 ba 48 f0 27 bb
       -0.01672193 0.0037029954 -0.001603838 -0.0025625397
000020 2d c4 89 bc 94 61 f6 bb 1c 54 bb 3c 31 4b 80 3d
       -0.016817177 -0.0075189564 0.022867255 0.062643416
000030 6b 00 29 bd 12 70 8e bd 9e 6d 92 3d b3 d5 8d bc
       -0.041260164 -0.069549695 0.07149814 -0.017313814
000040 21 56 f4 3c ed 33 dd 3a e8 51 ab 3d 6e 98 da bc
       0.029826226 0.0016876437 0.08365232 -0.026684012
000050 84 57 17 bd 1c 72 5c bc 8c 21 97 3d 4d de 50 3d
       -0.036948696 -0.01345494 0.073794454 0.050993253
000060 59 03 c1 bc aa 6e 4c 3c 5a d5 47 bd 37 bf 54 3c
       -0.023561167 0.012477556 -0.048787452 0.012985042
000070 c0 6a bc 3d 75 ec e0 bb 70 db c0 3c 49 ca 9d 3d
       0.092000484 -0.0068641254 0.023542136 0.077045985
000080 87 27 66 3d 90 d9 2e 3d b6 85 92 3c 7a 21 32 bc
       0.05619004 0.042687953 0.017886024 -0.010872239
000090 38 12 b2 bc ab 0f 23 3c 03 02 8d bc 3c 0e 0c bb
       -0.021737203 0.009952466 -0.017212873 -0.002137079
0000a0 1c ff a9 39 69 21 8e 3d e9 5e bb 3d fb df 48 bd
       0.00032424263 0.06939966 0.09148962 -0.04904173
0000b0 6f 8d 6d 3a 3f 23 00 bd a0 be 98 3d 4c 60 24 bc
       0.0009061908 -0.031283613 0.07458234 -0.010032725
0000c0 12 61 77 bb 77 fb 9c 3c ce 61 a9 3d 82 89 2a 3d
       -0.0037747067 0.019162877 0.08270608 0.041635044
0000d0 24 97 93 bc c4 b3 61 3d 2e 93 08 3c 43 28 90 bb
       -0.018016405 0.05510308 0.008335872 -0.004399331
0000e0 ee f5 a9 3d aa d0 43 bc 59 d7 2f 3c 35 80 28 3d
       0.082988605 -0.011951605 0.010732495 0.041137893
0000f0 7f ff 06 3c d3 e8 04 3d 89 50 4f 3d 95 ad 64 3d
       0.008239626 0.0324486 0.050613914 0.055829603

2.weight f4 [7, 64]
000000 3e 09 3f bd a5 bf 95 be 39 e1 5b 3e 96 46 4e 3e
       -0.046639673 -0.29247776 0.21472634 0.20144114
000010 86 46 1e 3e c8 64 53 3e 91 b1 0a be 32 d7 8f 3c
       0.1545659 0.20643914 -0.13544299 0.017558668
000020 19 23 f6 3d c5 56 f2 3d 0e 4b 69 3c 39 55 26 be
       0.12018413 0.11832956 0.014239086 -0.16243447
000030 94 7e e4 3d 99 fd 6a bd 76 87 c4 be a6 1c be bd
       0.11156955 -0.057370756 -0.38384598 -0.09282808
000040 0a 31 15 3e bf fc e1 bc 52 eb 0e be 88 02 d2 3c
       0.14569488 -0.027586339 -0.13956955 0.025635973
000050 dd f2 cd bd b5 c7 ed bd 28 aa 31 3e 91 ac 04 bf
       -0.10056088 -0.11610357 0.17350066 -0.51825815
000060 56 67 1b 3c 1d e0 6d be f1 e1 e2 3d 77 fd cc be
       0.009485086 -0.23230024 0.11078251 -0.40037128
000070 77 f0 a4 bd e7 34 c7 3e 4b f4 2e 3e 04 17 5f 3e
       -0.080536775 0.3890755 0.17085378 0.21786124
000080 5f b6 82 be 56 ed f2 bd dc 3e cf 3d 5f 83 6e 3d
       -0.25529763 -0.118616745 0.10119411 0.058230754
000090 92 09 74 3d a8 0f 74 be 50 d3 f5 bd b8 e9 c3 3d
       0.05957944 -0.23834097 -0.12003195 0.09566063
0000a0 0d 10 bf be c9 eb 40 be 93 1f 8e 3c 25 0f 10 3e
       -0.37316933 -0.18839945 0.01734904 0.14068277
0000b0 40 8c 57 be 93 06 47 3e b6 dd d5 3d 53 74 b6 3b
       -0.21049595 0.19436102 0.10442679 0.005568066
0000c0 74 99 06 be f2 02 70 be af 8b 08 bd b2 1b 27 3e
       -0.13144475 -0.23438624 -0.033336338 0.16319159
0000d0 10 d8 b9 be ec bd eb bd 55 69 9b bc 2c c4 93 3d
       -0.36297655 -0.11510834 -0.018971125 0.07215151
0000e0 68 79 ee bd c7 df 07 3e 4e f5 41 3e fd 89 9f 3d
       -0.1164425 0.13268958 0.18941233 0.07789991
0000f0 d0 f3 ba bc 27 62 94 bd 2a f7 ba bd bb 47 d4 bc
       -0.022821337 -0.072452836 -0.09129174 -0.02591311
000100 d5 c4 bb 3d 72 f8 a3 3c 3a 3e d5 bd 22 5f 36 bc
       0.09168402 0.020015929 -0.104122594 -0.01113108
000110 01 31 0c bd 65 9f 59 be 51 89 4f 3e 0c db 48 be
       -0.03422642 -0.2125221 0.20267226 -0.1961481
000120 b0 fe ad 3e 1c 0f 46 3e 68 a2 92 3e 2c f5 c2 3d
       0.33983374 0.19341701 0.2863953 0.09519419
000130 7b 81 89 bd 06 78 88 3d 70 a1 91 3e 93 d5 d4 bd
       -0.067141496 0.06663518 0.2844348 -0.103922985
000140 d5 a2 74 be 70 e3 20 3d f1 5b 97 be 10 d4 5f be
       -0.2389024 0.0392794 -0.29562333 -0.21858239
000150 31 fb d2 3d fb c4 45 be c1 43 0e 3d 42 e3 27 be
       0.10301817 -0.19313423 0.034732584 -0.16395286
000160 60 25 e7 bd 71 97 1f 39 10 ee 13 be 65 5f 59 be
       -0.112864256 0.00015219838 -0.14446282 -0.21227796
000170 c6 17 54 bd 08 3a 21 3d 3c a1 e2 bd 9d 5a 03 be
       -0.051780485 0.039361984 -0.11065909 -0.12827535
000180 7e 33 65 be 6a 4e 88 be 00 c9 24 be 4c 96 09 3e
       -0.22382924 -0.26622325 -0.160923 0.1343624
000190 c6 5e b7 bd 6c 36 5c bd f0 fe db bd ed ce ae 3b
       -0.089536235 -0.05376284 -0.10741985 0.005334726
0001a0 0d 43 1d 3e 8f 12 d2 bd 54 72 0e 3e 35 d1 93 3c
       0.15357609 -0.10257446 0.139108 0.018044094
0001b0 ac fa 81 3d af 9f 07 3e b3 99 ae 3e 41 fd 08 3d
       0.0634664 0.13244508 0.34101638 0.033444647
0001c0 7a fc b8 be 5c 96 7c 3e e0 70 55 bc 0c 90 58 be
       -0.36130124 0.24666733 -0.0130274 -0.211487
0001d0 5e 22 10 bc 61 53 ba be 0b 3f 2d bd cc c1 6e 3e
       -0.008797256 -0.36391738 -0.04229645 0.23316115
0001e0 2a 71 f0 bc b9 b7 86 be 57 77 8b bc cf f6 31 bd
       -0.029350836 -0.26312044 -0.01702468 -0.043448266
0001f0 e3 43 76 bd a1 0f a4 3d fe 8e d1 3e c3 e4 68 be
       -0.060123336 0.080107935 0.40929407 -0.22743516
000200 54 66 a1 bd c2 71 33 bd f8 fd c9 bd ca 51 4e be
       -0.07880846 -0.04380966 -0.09862894 -0.20148388
000210 49 df af 3d 76 93 6d 3d f7 22 fb 3d 61 10 86 3d
       0.0858751 0.058001958 0.122625284 0.06546093
000220 45 ff 91 3e 43 85 8b 3e 18 aa 24 be 00 97 a0 be
       0.28515068 0.27250108 -0.1608051 -0.31365204
000230 84 98 a1 3d 77 12 04 3d 42 71 9e bd 71 16 72 be
       0.07890418 0.032244172 -0.07736446 -0.23641373
000240 70 9c fa bd 70 58 6c bd 98 f8 7b bd 06 d1 33 be
       -0.12236869 -0.057701528 -0.061516374 -0.17560205
000250 3b 82 11 be 53 71 0b 3d 63 5f 76 be f9 1b 62 be
       -0.14209835 0.03404362 -0.24059825 -0.22080983
000260 69 f9 19 3e 9d 77 b8 bd c3 a6 4b 3e e5 ca d5 bd
       0.15036549 -0.090071894 0.19887833 -0.1043909
000270 82 9c 4a bd 7b 9a d4 3d 85 ac a9 be 8f 50 6d be
       -0.049465664 0.10381027 -0.33139434 -0.23175262
000280 94 80 90 3e d5 bb 94 3d 97 f6 6f be 7b 50 6c 3d
       0.28223097 0.072623886 -0.2343391 0.05769394
000290 b9 49 79 3e aa 1c 0b 3d 5b 49 e4 3c f8 ac c3 bd
       0.24344529 0.033962883 0.02786701 -0.095544755
0002a0 06 f2 f5 3d 7f 1f 3f 3e 6e b6 77 be 9d e7 71 3e
       0.12009053 0.18664359 -0.24190685 0.2362351
0002b0 ed c7 fc 3d 0a 56 6f 3e 27 c2 f5 bc 2f a1 f7 bd
       0.1234282 0.23372665 -0.029999806 -0.1209129
0002c0 6f dd ae 3e 2b 45 47 3d 46 39 0b 3d 85 cc ce be
       0.34153315 0.048649948 0.033990167 -0.4039041
0002d0 6a db 1d bd 6b e2 1d 3e cd 57 81 be e7 d2 33 3d
       -0.038539328 0.15418403 -0.252623 0.043902304
0002e0 5c c2 8b be 9f 14 47 be b3 24 45 3e e7 fd 51 3e
       -0.27296722 -0.1944146 0.19252281 0.20507012
0002f0 a3 07 6b 3e bc 40 53 be a6 07 5a be 5a 9c 04 be
       0.22952132 -0.20630163 -0.2129198 -0.12950268
000300 84 aa 61 3e af 3b a4 3e ed f7 7a 3d f7 13 77 3e
       0.22037703 0.32076785 0.061271597 0.2412871
000310 9d ca c2 3c 2e ed b8 3d 20 38 d9 bb f7 b8 e9 bd
       0.023778254 0.090296134 -0.006629005 -0.11412232
000320 f1 c5 41 3e 4b 57 41 bb c4 f4 bf bd 84 a8 ca 3d
       0.18923165 -0.0029501494 -0.09372857 0.09895423
000330 61 8c 86 be 65 c3 9f be f7 6e 3c 3e 2f 8f f5 bd
       -0.26278976 -0.31203762 0.18401705 -0.11990201
000340 2f cb 87 3c 6e 9e 1c 3d 3e 8a 98 3e 1d 5f b6 bd
       0.016576378 0.038237028 0.2979297 -0.0890486
000350 5b 80 be be 60 52 c3 bc a2 4b d2 3e 6c 62 87 3d
       -0.37207302 -0.02384299 0.41073328 0.06610569
000360 ca 23 ac 3d ea d8 4d 3d 15 de 39 be 36 f3 69 bd
       0.08405264 0.050255693 -0.18151124 -0.05711671
000370 de 44 12 3e 89 6e 0a bd fc 38 fa 3d db 7c 95 3e
       0.14284083 -0.03379682 0.122179 0.2919682
000380 4d 77 bd 3e 6b 9d 40 3e a2 80 4a be be a6 d0 3c
       0.37005082 0.1881005 -0.19775632 0.025470134
000390 60 07 67 3d 04 64 ff bd 1f 41 d2 bd 5c 7a 12 3e
       0.056403518 -0.12470248 -0.10266327 0.14304489
0003a0 ce 97 c7 3b eb 74 a2 3e fd b1 ac 3e 6d 84 8b bd
       0.0060910946 0.31729826 0.33729544 -0.068123676
0003b0 07 52 5d 3e c8 01 d1 bd ce 50 df 3e 47 ca 10 3e
       0.21613322 -0.10205418 0.43616337 0.14139663
0003c0 33 4a f3 3d 41 b8 7f bd 7d 51 d3 3e 6d 17 1a 3e
       0.11879387 -0.062431578 0.41273108 0.15047999
0003d0 37 0e 25 be 07 e0 92 3e 6b 83 37 3e af 05 44 3d
       -0.16118704 0.28686544 0.17921226 0.047856983
0003e0 04 ac ca 3d 96 8f 0c be b9 d1 56 3e 38 38 f2 3d
       0.098960906 -0.13726649 0.2097844 0.11827129
0003f0 c3 02 8d 3d fe 55 a9 3d c8 b3 99 3d cd 85 8b 3d
       0.068852924 0.08268355 0.07504994 0.0681263

2.bias f4 [7]
000000 6a 7c 1c bd 32 9e d3 ba e0 22 68 bd 05 c6 c2 3d
       -0.038204588 -0.0016145168 -0.056673884 0.095104255
000010 80 19 2a bd ed 0f f3 bc 11 5e 18 3d
       -0.041528225 -0.02967068 0.037199084

0.weight f4 [64, 84]
000000 f5 50 51 3d d6 7b 5d 3d 0f 91 36 bd 73 11 aa 3e
       0.051102597 0.054073177 -0.044571932 0.33216438
000010 86 b4 36 bd 6b f5 f3 bb f2 18 15 3e 2f 13 69 bd
       -0.044605754 -0.0074450276 0.14560297 -0.05690306
000020 4f 5f aa 3e 35 96 c3 bd 27 9b 16 3e 9d 81 b6 3d
       0.3327584 -0.09550134 0.14707623 0.089114405
000030 24 9b 05 3e 40 e4 d0 bd 78 8f 65 bd 9d e7 9a bd
       0.13047463 -0.10199785 -0.056045026 -0.07563708
000040 5c 6f 73 bd dc 74 49 3c a6 9e a6 3b 64 b1 03 3e
       -0.059432372 0.012295928 0.0050848303 0.12860638
000050 58 31 84 be 2c 30 50 be a2 33 a0 3e 33 34 ed bd
       -0.25818896 -0.20330876 0.31289393 -0.11582222
000060 53 e7 8b bb 55 a2 32 3e de c3 eb bc b5 03 30 3e
       -0.0042695194 0.17444737 -0.02877992 0.17188914
000070 43 6d 0d 3c 76 71 fa 3d ec 34 8d be ea 05 af bc
       0.008632007 0.12228672 -0.2757944 -0.021365125
000080 fd 64 ad 3d bc 4f 29 bd 8a 66 9d be b3 9a f2 bd
       0.084665276 -0.041335806 -0.30742294 -0.11845913
000090 17 57 4d be f8 2d ea 3e 85 5e 9c 3c 13 e0 db 3d
       -0.20052753 0.45738196 0.01908804 0.10736098
0000a0 d7 b2 3d 3e 54 14 50 3b 0a 46 18 3e 7b 94 48 3e
       0.18525253 0.0031750398 0.14870468 0.19587891
0000b0 d2 10 20 3e a1 8b 37 bc 6b 8a 52 bd ad aa a7 bd
       0.15631416 -0.011202724 -0.051401537 -0.08186851
0000c0 e8 48 2e 3d cf 87 29 be 6b b4 87 be ec 79 83 b9
       0.042549998 -0.16555713 -0.26504835 -0.00025077106
0000d0 5c f5 48 bd 90 87 71 3e ed 23 3d 3e c0 49 31 3d
       -0.049062118 0.23586869 0.18470736 0.043283224
0000e0 b1 60 1a 3e ca a0 df bd 1d d2 a2 bd 5e 58 07 3d
       0.15075947 -0.1091934 -0.07950232 0.033043258
0000f0 b4 0c a9 3c fa 57 41 be 9f 9c 1f be 09 64 7a bd
       0.02063594 -0.18881217 -0.1558709 -0.061130557
000100 d5 47 67 3e f0 f7 47 bb 6a b9 de 3d 77 73 9c bc
       0.22585995 -0.0030512773 0.10875209 -0.019098027
000110 35 74 1c bd 67 7c a7 3e 2a 90 82 bd 22 16 be 3d
       -0.03819676 0.327121 -0.06375153 0.09281565
000120 2f a2 e7 3c fb d3 d4 3d 6d 60 26 bd 38 c0 90 be
       0.028275577 0.103919946 -0.040619303 -0.2827165
000130 ba ef 30 3e b3 eb 1a 3e 86 ed c4 bd 2f f4 ec bd
       0.17278948 0.15128975 -0.096156165 -0.11570012
000140 38 7f b1 bd 3a 91 d9 bc 09 dc 1e 3e 36 8e 17 3e
       -0.08666843 -0.026558507 0.15513624 0.14800343
000150 64 92 39 be 41 c3 99 bd 0d 7d b2 bd 8a b7 9a be
       -0.1812225 -0.07507945 -0.08715258 -0.30218154
000160 db 7b b5 bd b5 4f 1e be 1d 75 94 3d 92 4a d6 be
       -0.08861514 -0.15460093 0.072489 -0.41853768
000170 6f 9f d6 bd 61 0f c7 bc 62 b9 bc bc 38 e1 54 3d
       -0.10479628 -0.024299325 -0.023037616 0.051972598
000180 88 ca db 3d a2 f0 19 be e4 c9 50 be 93 42 80 bd
       0.10731989 -0.150332 -0.20389515 -0.06262698
000190 ed ae ad bd 58 aa 11 bc f6 28 9e 3e cf 5a 9a bc
       -0.0848063 -0.008890711 0.30890626 -0.018842129
0001a0 92 10 c6 bd 56 63 c9 bd 02 90 93 3d c7 f3 20 3d
       -0.09671129 -0.098334 0.07205202 0.039294984
0001b0 15 2b 5b 3d 79 82 ac be d2 5c dc 3c 4d 26 ad bd
       0.053507883 -0.33693293 0.026899729 -0.08454571
0001c0 03 75 95 bb ba ab 16 3e 61 fb 9c 3d af 96 b1 3d
       -0.004561068 0.14713946 0.07665134 0.08671319
0001d0 af 6a c1 be 6e fa 8c 3d 1c d8 e4 3b 5e d5 71 be
       -0.37776706 0.06883703 0.00698377 -0.2361655
0001e0 6d 53 9d be 08 68 27 bd 49 b6 0d be 79 63 ad bd
       -0.3072771 -0.040870696 -0.13839068 -0.084662385
0001f0 ce 07 f1 bd e1 0a 0b bf 44 09 6f 3e 7b 9f 86 3d
       -0.11769067 -0.54313475 0.23343378 0.06573387
000200 28 7d 95 3e 1e c6 97 bd ad 5c 9b 3d 03 b7 9f 3e
       0.2919705 -0.07410835 0.07586036 0.31194314
000210 e5 26 48 be b9 bc 8e bd 7d 27 e2 3d 04 eb 3d 3e
       -0.19546087 -0.0696959 0.11042688 0.18546683
000220 02 65 0b 3e 93 67 e1 3d bc 91 2e be 42 57 c5 3d
       0.1361275 0.11006083 -0.17047781 0.09635784
000230 67 a8 b8 bc a4 03 34 bd f5 27 f4 3d 46 4e 4a 3e
       -0.022541238 -0.043948784 0.11921684 0.19756421
000240 4d 17 cb 3d a6 9e 8a bd ff 63 b3 3d 1b 78 da bd
       0.09916554 -0.06768541 0.08759307 -0.106674396
000250 ef 5a e5 3d e6 d2 82 bd a0 1a 90 bb 8d b8 a0 3d
       0.11198985 -0.06387882 -0.004397705 0.078477
000260 0b bd 1e be 4b c0 c3 3d 67 8c 74 3d ed b5 75 bd
       -0.15501802 0.09558161 0.05970421 -0.05998795
000270 00 e0 44 3d e7 15 1e be b3 70 3c 3d 8d 24 1f be
       0.048065186 -0.15438043 0.046005916 -0.15541287
000280 9e b3 89 bd d3 ab 95 bd be 17 31 bd f7 16 98 3d
       -0.067237124 -0.073081635 -0.043235533 0.07426255
000290 0b 42 f3 bd 56 7e a5 3d ea 8b fd bd 1a 41 79 bd
       -0.11877831 0.08080737 -0.12380202 -0.0608531
0002a0 68 e8 2f 3e 55 cc 9c 3d 00 90 ff 3d 44 ec a5 be
       0.171785 0.07656161 0.12478638 -0.3240682
0002b0 56 f5 0e bd 18 0b c0 3d 2b 31 89 3d d6 16 9e bd
       -0.03490194 0.09377116 0.06698831 -0.07719199
0002c0 0c 00 64 bc 1f 50 f8 3d d4 ec 0e 3d 04 b6 42 3e
       -0.013916027 0.12124657 0.034893826 0.19014746
0002d0 74 da 36 3d 73 72 15 3c ea d5 e1 bd 89 bd 28 be
       0.044641927 0.009121525 -0.11027129 -0.16478552
0002e0 86 57 41 be fb 3f 58 3d 20 33 13 3c da 22 00 3d
       -0.18881044 0.05279539 0.008984357 0.031283237
0002f0 9a 30 39 be df 11 3c 3e 14 eb 98 3c 11 7d bf 3e
       -0.18084946 0.18366192 0.018666781 0.37400106
000300 77 43 15 be 08 67 19 be 63 d8 d5 3d bc 26 84 3a
       -0.14576517 -0.1498071 0.10441663 0.0010082345
000310 89 82 85 3e 5b 8e 14 bd 6c 68 43 be 1f 8d ed 3c
       0.26076153 -0.036268573 -0.19082803 0.028997956
000320 b0 d6 4e 3e 25 f4 9f bd d7 87 13 be 0c 4a cf bd
       0.20199084 -0.07810239 -0.14407288 -0.10121545
000330 ec df d0 3e a2 37 8c 3d 78 6e 29 3d 2e 72 f0 3c
       0.4079584 0.068465486 0.041365117 0.02935132
000340 f2 43 d7 3c c5 9b 3b be e0 2c ac be 21 8a 50 3d
       0.026277516 -0.1832114 -0.33627987 0.05091298
000350 c8 ab 40 be 3a 1d 29 be 95 16 2b 3e 11 db 44 3d
       -0.1881553 -0.16515055 0.16707833 0.04806048
000360 3e 4c 41 3e 67 43 53 bd 21 0b b2 3d 48 8d cd 3d
       0.1887674 -0.05157795 0.08693529 0.10036713
000370 ee 8a 90 bc 9c b0 f9 3c 21 9e eb 3d 93 32 21 3e
       -0.017644372 0.030479722 0.1150477 0.15741949
000380 66 f2 f6 3d 9c 53 93 3a 0f b2 f9 bc 6a b2 72 3d
       0.120579526 0.0011240127 -0.030480413 0.05925218
000390 bf 61 af bd 1f fc 18 bc 04 26 1c 3d c0 c9 cd 3d
       -0.085635655 -0.009337454 0.038122192 0.100482464
0003a0 8c 8f 3a 3e 0a bf db 3e 71 40 85 3e 37 b7 d9 3d
       0.18218821 0.4291919 0.26025727 0.106306486
0003b0 41 51 4e 3e 07 c4 20 bd 02 a9 c3 bd 29 77 e8 bd
       0.20148183 -0.039249446 -0.0955372 -0.11350853
0003c0 19 84 84 bd 2c 42 57 be 5c 7c 8d 3c 06 07 6c be
       -0.06470508 -0.21021336 0.017271213 -0.23049554
0003d0 54 fe 75 be 45 55 ee bd 7e 50 65 be bb b9 1e bd
       -0.240228 -0.116373576 -0.22393987 -0.038751345
0003e0 6e 5a 2e 3e e6 de f6 bb c4 08 23 be ab 20 6e 3e
       0.17026684 -0.007533896 -0.15921313 0.2325465
0003f0 89 a9 39 3d 72 61 c3 3d 15 d7 9e bd 07 b2 29 be
       0.045327697 0.095400706 -0.077558674 -0.16571818

0.bias f4 [64]
000000 f2 93 82 bb 97 ff 04 3d 5a 40 7e 3b dd 5b 38 bd
       -0.0039849216 0.032470312 0.003879568 -0.045009483
000010 5d 49 ea 3b 87 f2 15 bd db e6 97 bb f7 8c 05 3d
       0.007149859 -0.036608245 -0.0046356744 0.032605138
000020 a0 01 9c bc e2 52 d5 bb 5f 97 cd 3c 2c 4f 23 3c
       -0.019043744 -0.0065101245 0.025096593 0.0099676065
000030 fd bf dd bb a3 4c 6b 39 20 40 ee 3b a6 6f eb bb
       -0.0067672716 0.00022439896 0.007270828 -0.0071849404
000040 d1 4f 42 bd 67 d7 72 3b 63 5a c6 bc ea f6 2b bd
       -0.0474394 0.003705466 -0.024213022 -0.041983522
000050 6c b0 10 bc 15 ec 31 bc 18 68 14 3b 0d 0c 51 bc
       -0.008831125 -0.010859509 0.0022645053 -0.012759221
000060 1e e3 83 bd 8d d8 00 bd 26 68 10 bb c9 94 70 3c
       -0.064398035 -0.03145652 -0.0022034734 0.014683911
000070 ea 64 93 b6 1a a0 00 3b 18 2f 1d bc 3d 2f b6 bb
       -4.3926893e-06 0.0019626678 -0.009593748 -0.0055598305
000080 da 74 8f 3b 49 38 8e ba 43 b1 8e 3c c2 4f 5d bc
       0.0043779435 -0.0010850515 0.01741851 -0.013507785
000090 86 a0 e8 39 a4 c6 40 3b d1 1c d1 bb 8e ec 88 bb
       0.00044370088 0.0029415274 -0.006381609 -0.00417859
0000a0 52 2e 14 3c 76 f0 04 bd 2b 96 0c 3c 90 e1 d4 3b
       0.009044247 -0.032455884 0.008580725 0.0064966157
0000b0 f0 11 60 bc 72 22 ab bc b8 ef 6e 3b 89 b6 d6 bc
       -0.013676152 -0.020890448 0.0036458801 -0.026210086
0000c0 48 6c 4d 3a 21 bc 38 bd ec 90 05 bd 42 0f a3 bb
       0.00078362646 -0.04510129 -0.03260891 -0.004976184
0000d0 03 43 e4 3c 38 6e 2f bb d9 35 82 bc 0b 6e 0d bd
       0.027863985 -0.0026768576 -0.015894817 -0.034528773
0000e0 21 bb f3 bb 6d 06 b4 3c e3 f7 3e 3c 35 28 34 bd
       -0.007438079 0.02197572 0.0116557805 -0.043983657
0000f0 6e 76 af 3b 6d 01 61 3b 4e 05 4f bc c9 6b 90 3a
       0.005354694 0.0034333125 -0.012635542 0.0011018451

2.weight f4 [1, 64]
000000 d6 77 33 3e c0 73 b1 3d 41 b4 4c 3d db 40 86 be
       0.17526183 0.08664656 0.04997659 -0.26221356
000010 53 55 b3 3d 88 0f 43 be 43 94 51 3e ea d7 3a 3d
       0.08756509 -0.19048893 0.20466714 0.045616068
000020 a4 c1 1a 3e 27 69 40 3d 11 e2 51 bd ae 5c 84 bd
       0.1511293 0.04697528 -0.051240984 -0.0646299
000030 34 85 ff bb 1a bf 58 bd c6 3b 05 be 2e a4 50 be
       -0.0077978615 -0.052916624 -0.13011083 -0.2037513
000040 b4 b6 2b bd 44 4c 84 bd 39 7d 32 be f7 87 35 3e
       -0.041922286 -0.06459859 -0.17430581 0.17727648
000050 b1 c0 ce bd c9 0f 78 be c1 0a 2d 3e 68 ee 8b be
       -0.10095347 -0.24224772 0.16898634 -0.27330327
000060 7c 18 07 bf f6 18 a2 be 47 1d bc 3d b2 f5 c3 3d
       -0.52771735 -0.3165967 0.09185272 0.09568347
000070 f7 d8 f7 3d 2b bb 1c 3e 14 76 cb bd 0f b5 07 bd
       0.1210193 0.15305774 -0.09934631 -0.033131655
000080 da 06 76 3e 7c f1 5b 3e a6 c8 00 3d 24 ca 1b bd
       0.24026051 0.21478838 0.031441353 -0.038034573
000090 1a 7f e9 3c 7a c7 38 bd 52 1f 30 bd 9d 08 26 be
       0.02850299 -0.04511211 -0.04299862 -0.16214223
0000a0 5e 32 85 3d a4 28 1f bd d4 1d a7 3d 82 95 d5 3d
       0.065037474 -0.038857117 0.08159986 0.10428907
0000b0 86 fc c2 bd 2b c8 47 be 59 2e 37 3e ab be 15 bc
       -0.09520821 -0.19509952 0.17888774 -0.009139697
0000c0 81 3f fd bd 34 1b 5c 3e e0 69 55 be 09 86 0f 3d
       -0.12365628 0.21494752 -0.2084117 0.035039935
0000d0 e3 0b 68 bc 32 d0 04 3d 41 42 40 bd 48 02 aa be
       -0.01416299 0.032425113 -0.046938185 -0.33204865
0000e0 94 f7 03 3c b9 a8 ef 3c c2 1a e5 bd b6 4e 17 be
       0.008054633 0.029255258 -0.11186744 -0.1477612
0000f0 40 48 90 3d 96 9d 21 be dc f1 d6 bc 29 7f a0 3d
       0.070450306 -0.1578277 -0.026238374 0.07836754
