saved_models/DQN/using_glicko2_for_matchmaking/model13.pth (torch, 49984 bytes, 8 tensors)

0.weight f4 [64, 84]
0	0x3dc19e89	0.09454066
1	0xbdb6cc8f	-0.08925735
2	0x3c8e6844	0.017383702
3	0x3dd0343b	0.10166212
4	0xbe704040	-0.2346201
5	0x3da3ed58	0.08004254
6	0x3e19ef4e	0.15032694
7	0xbe1207c3	-0.14260773
8	0xbc2923d9	-0.010323488
9	0xbcb2274e	-0.021747258
10	0x3ba4e43f	0.005032092
11	0x3d6df5a6	0.058095597
12	0x3e9b0685	0.30278412
13	0x3c89ec0d	0.01683619
14	0x3d29b1ad	0.04142921
15	0x3e32b2d6	0.17451033
16	0xbe1a2fe0	-0.15057325
17	0xbe0881ad	-0.13330717
18	0xbd8c0293	-0.068364285
19	0x3de67038	0.11251873
20	0xbd6d3492	-0.057911463
21	0x3eb113fc	0.3458556
22	0xbe299b88	-0.16563237
23	0x3da4ba69	0.080433674
24	0xbe72c27a	-0.23707
25	0x3e91acc7	0.2845213
26	0xbe42e519	-0.19032706
27	0x3e4a2dca	0.1974403
28	0x3edd8911	0.43268636
29	0xbdda0ad2	-0.10646595
30	0xbd0954cc	-0.033528134
31	0xbe3b32e4	-0.18281132
32	0xbd875100	-0.066072464
33	0x3ea92f94	0.33044112
34	0x3e6731ca	0.22577587
35	0xbdec1e68	-0.11529237
36	0xbdaa70eb	-0.08322319
37	0x3dca36d9	0.098737426
38	0x3dc6545e	0.096840605
39	0xbbbbc2b3	-0.005729997
40	0x3de7342f	0.1128925
41	0x3c4f5432	0.012654351
42	0x3cd34ae2	0.025792543
43	0x3ee46d74	0.44614756
44	0x3e844339	0.25832537
45	0xbe03a0ad	-0.12854262
46	0xbdb59d60	-0.088679075
47	0xbbb5d9f7	-0.005549665
48	0x3e4a899d	0.19779058
49	0xbd9ded56	-0.07711284
50	0xbd51b3fe	-0.051197045
51	0x3e5abf7d	0.2136211
52	0x3e3e0ed8	0.1856035
53	0xbd9210a4	-0.0713208
54	0x3e25f19f	0.16205452
55	0xbe1a92f8	-0.15095127
56	0x3e69d29b	0.22834246
57	0x3e783bf9	0.24241628
58	0xbdc94167	-0.09826928
59	0xbc11d0c0	-0.008899868
60	0x3e138c8f	0.14409088
61	0x3dce453c	0.10071799
62	0x3df15913	0.11784568
63	0x3a0ec171	0.0005445695
64	0x3e1e65f3	0.15468578
65	0x3e24b097	0.16082989
66	0x3e07adf9	0.13249959
67	0xbde78d2d	-0.11306224
68	0xbe8392c2	-0.25697905
69	0x3e6970c0	0.22796917
70	0x3e9e72f2	0.3094707
71	0x3ea98737	0.33110973
72	0x3d64067a	0.05567024
73	0x3d7118ce	0.058861546
74	0x3e2b4d52	0.16728714
75	0x3de9d2af	0.11417138
76	0xbcf0beee	-0.029387917
77	0x3ebc99b1	0.36836007
78	0x3eb21055	0.34778085
79	0x3ed12b42	0.40853316
80	0xbd827b06	-0.06371121
81	0x3e961f76	0.29320878
82	0x3e5472d3	0.20746927
83	0x3e78eece	0.24309847
84	0x3e8ced68	0.27524877
85	0x3dae8440	0.085213184
86	0x3d4bb939	0.04973719
87	0xbd511209	-0.05104259
88	0xbe397473	-0.18110828
89	0xbd4a3592	-0.049367495
90	0x3d8cda0e	0.06877528
91	0x3d717529	0.058949623
92	0x3bc0fd29	0.005889554
93	0x3d7c37a7	0.06157651
94	0x3dcfa865	0.101395406
95	0x3e17f0e6	0.14837989
96	0x3eb77493	0.35831127
97	0x3d8321c4	0.06402925
98	0xbcb558da	-0.022137094
99	0x3e2a3861	0.1662307
100	0x3d1ff2e5	0.03905
101	0xbc290e42	-0.010318341
102	0xbe02ecd3	-0.12785654
103	0x3e34ca18	0.17655218
104	0x3e214af3	0.15751247
105	0x3e13dc20	0.1443944
106	0x3e099f52	0.13439682
107	0x3e366fc7	0.17816077
108	0x3e16a71f	0.14712189
109	0x3e8009a3	0.25007352
110	0x3dd3ddbe	0.10345028
111	0x3ebed3b6	0.37270898
112	0x3e9d5965	0.30732265
113	0x3d40a51a	0.047032453
114	0x3e855fe2	0.26049715
115	0xbb83a1ce	-0.0040170914
116	0xbe16b99a	-0.14719239
117	0x3e974864	0.29547417
118	0x3e5d7f85	0.21630676
119	0x3e288c68	0.1645981
120	0x3cb38e76	0.021918517
121	0x3e18a956	0.14908347
122	0xbcf207dc	-0.029544763
123	0x3e837bb8	0.25680327
124	0x3e561a8e	0.20908567
125	0x3ce7ba44	0.02828706
126	0x3d554af6	0.05207344
127	0x3ea4adce	0.32163852
128	0x3e4d560f	0.2005236
129	0x3e2fe416	0.17176852
130	0xbd42a3f3	-0.047519635
131	0x3dade253	0.084904335
132	0x3e64d81d	0.22348066
133	0x3e54ee21	0.20793964
134	0xbe38fafb	-0.18064491
135	0x3ea24663	0.31694326
136	0x3e3ebd79	0.18626966
137	0xbce52bc4	-0.02797497
138	0x3e5614c8	0.20906365
139	0x3d27e6d9	0.040991638
140	0x3e91c5ee	0.2847132
141	0x3e6e7016	0.23284945
142	0x3e555eba	0.20836917
143	0x3e1d2e56	0.15349707
144	0x3e801a7f	0.25020215
145	0x3e253045	0.16131695
146	0x3e07152a	0.13191667
147	0x3e1cf174	0.15326482
148	0x3dea95d2	0.11454357
149	0x3db33cde	0.08751844
150	0x3e760146	0.24023923
151	0x3e410a35	0.1885155
152	0x3d954e03	0.0729027
153	0x3e81707a	0.25281125
154	0x3f125bc5	0.5717128
155	0x3f148d34	0.5802796
156	0x3dd170e6	0.10226612
157	0x3e7a1c4c	0.24424857
158	0x3e275bf4	0.16343671
159	0x3ebc59f6	0.36787385
160	0x3e1025c2	0.14076903
161	0x3edc6cb2	0.43051678
162	0x3eab3fb2	0.33447033
163	0x3eec4208	0.46144128
164	0x3e7a247b	0.24427979
165	0x3f006ade	0.50163066
166	0x3e8f4e85	0.27989593
167	0x3ea1af30	0.3157897
168	0x3e97c930	0.2964568
169	0xbd800555	-0.06251017
170	0xbd25d7b6	-0.04048892
171	0xbe81ff17	-0.2538993
172	0xbde560be	-0.11200093
173	0xbc8d3e29	-0.017241554
174	0x3d85173b	0.064985715
175	0xbed65c6e	-0.41867393
176	0x3d99a4ad	0.075021125
177	0xbdd8c6c9	-0.1058479
178	0x3db4744b	0.088112436
179	0xbdac534a	-0.08414324
180	0x3d4ebe7f	0.05047464
181	0xbe58dd77	-0.21178232
182	0x3d1d2ab3	0.0383708
183	0x3e8f7b08	0.28023553
184	0xbd08dd1b	-0.033413988
185	0xbe03c552	-0.1286824
186	0xbeefd7cc	-0.46844327
187	0x3e8e2e4a	0.2776969
188	0xbe6bc19c	-0.23023075
189	0x3d44c058	0.048034996
190	0xbbd67f36	-0.0065459264
191	0x3e3897a9	0.18026604
192	0xbd7f4662	-0.06232298
193	0x3d175e47	0.036955144
194	0xbe9fc01c	-0.31201255
195	0x3da9ab70	0.08284652
196	0x3ea6471c	0.32476127
197	0x38f28217	0.0001156369
198	0xbdc9b921	-0.09849764
199	0xbe8851a2	-0.2662478
200	0xbd82d579	-0.06388373
201	0xbd81bc1a	-0.06334706
202	0xbeb8013b	-0.3593844
203	0xbd6c3e5f	-0.05767667
204	0xbd55f15a	-0.052232124
205	0x3d168fdd	0.036758292
206	0xbcde6cdc	-0.027151518
207	0xbdce47f0	-0.10072315
208	0xbe95a2a8	-0.2922566
209	0x3da46f63	0.08029058
210	0x3e7a2df7	0.24431597
211	0x3e6bad30	0.23015285
212	0xbdf28889	-0.11842448
213	0xbe0f5005	-0.13995369
214	0xbe8f32ed	-0.2796854
215	0x3de76a11	0.112995274
216	0xbd4986a8	-0.049200684
217	0xbe72401d	-0.2365727
218	0xbb322508	-0.0027182717
219	0x3e4455b8	0.19173324
220	0xbd106fef	-0.035263
221	0xbe308579	-0.17238416
222	0xbe69f458	-0.22847116
223	0xbdfff088	-0.124970496
224	0x3e19eee7	0.1503254
225	0x3e8917fa	0.26776105
226	0xbe1da909	-0.15396513
227	0xbe4c0f7d	-0.19927783
228	0x3e1fd7aa	0.15609613
229	0xbe64ac6d	-0.223314
230	0xbdc4e52d	-0.09614024
231	0x3db0357f	0.086039536
232	0xbe3d3a25	-0.18479212
233	0x3e2b4e5d	0.16729112
234	0x3d005eab	0.031340282
235	0x3ce11354	0.027475037
236	0x3c2d925d	0.010593978
237	0xbe49564c	-0.19661826
238	0x3e08f38c	0.13374156
239	0x3e93d399	0.28872374
240	0xbe172773	-0.14761142
241	0x3d3dd1f4	0.046342805
242	0x3e35f9a7	0.17771016
243	0xbe60094d	-0.21878548
244	0xbe426faa	-0.18987909
245	0x3e60cfa6	0.21954212
246	0x3cb47e4d	0.022032881
247	0x3e9ef287	0.3104441
248	0xbe183959	-0.14865626
249	0x3e796b3f	0.24357317
250	0xbdb13bfa	-0.08654018
251	0x3e13887d	0.14407535
252	0x3d2d0241	0.042238478
253	0x3da43cf1	0.08019436
254	0xbebec822	-0.37262064
255	0xbe0ca763	-0.13735728

0.bias f4 [64]
0	0x4005c9e2	2.090447
1	0x401b584e	2.4272647
2	0x40157d20	2.335762
3	0x40161965	2.3453
4	0x3fe7cbb7	1.8109044
5	0x400d59f1	2.2086146
6	0x400658f4	2.0991793
7	0x400ff278	2.249174
8	0x4012297e	2.2837825
9	0x40052d04	2.0808725
10	0x401f6692	2.4906354
11	0x4016f948	2.358965
12	0x40136091	2.302769
13	0x401b1c03	2.4235847
14	0x40066650	2.0999947
15	0x401fb81b	2.495612
16	0x3f7172f8	0.94316053
17	0x3fe556bc	1.7917094
18	0x3f898c7a	1.0745995
19	0x3feb9470	1.8404675
20	0xbe8a95bd	-0.27067366
21	0x4015e34e	2.3419986
22	0x40015204	2.0206308
23	0x401554b8	2.3332958
24	0x401405ad	2.3128464
25	0x401f191a	2.485907
26	0x40145046	2.3173995
27	0x400de358	2.217001
28	0x3fa2d446	1.2721031
29	0xbec28d6f	-0.3799853
30	0x3fb70d1b	1.4300874
31	0x3bbc127b	0.0057395077
32	0x401a146e	2.407497
33	0xbd82146e	-0.06351553
34	0x40239b21	2.5563433
35	0x40092cbc	2.1433554
36	0xbe936988	-0.2879145
37	0x40082c10	2.1276894
38	0xba0e4994	-0.0005427834
39	0x40174077	2.3633096
40	0x4017249f	2.3616102
41	0x400c238e	2.18967
42	0x3fb405c3	1.4064258
43	0x400d759d	2.2103035
44	0x40168277	2.351713
45	0x3fd5e5bc	1.6710734
46	0x3fd3f4b5	1.6559054
47	0x40080a3c	2.1256247
48	0x400ae371	2.170132
49	0x3b01350d	0.0019715459
50	0x3fe8aa62	1.8176997
51	0x3a6800b8	0.0008850205
52	0x40199792	2.399876
53	0x4016e840	2.3579254
54	0x400e45f1	2.223019
55	0x400c9645	2.1966717
56	0x400fc0c7	2.2461412
57	0x401fd269	2.4972174
58	0x4018e702	2.3890996
59	0xba0db434	-0.00054055755
60	0x40050d44	2.0789347
61	0x3ffbc7a1	1.9670297
62	0x3f9c40ea	1.220731
63	0x3f9f0931	1.242468

2.weight f4 [7, 64]
0	0x3f5c62a3	0.8608801
1	0x3f2584d4	0.64655805
2	0x3fc61582	1.5475314
3	0x3fbec37d	1.4903408
4	0x3f7ad49e	0.9798068
5	0x3f96d4eb	1.1783727
6	0x3f9dad21	1.231846
7	0x3fca81c1	1.5820848
8	0x3f4c1027	0.79712147
9	0x3fab28e9	1.337186
10	0x3fa2a2e9	1.2705966
11	0x3f47e585	0.78084594
12	0x3f8b5f9a	1.088855
13	0x3f6052db	0.8762643
14	0x3f46aed5	0.7761052
15	0x3f656d79	0.89620167
16	0xbd6a4def	-0.05720323
17	0x3f23bac2	0.63956845
18	0x3f92a868	1.1457644
19	0x3fc1fd82	1.515549
20	0x3e00a530	0.12563014
21	0x3f9af9f4	1.210753
22	0x3f97d6cf	1.1862429
23	0x3fd29e64	1.6454587
24	0x3f66468e	0.8995141
25	0x3fdbc6af	1.7170008
26	0x3f702013	0.9379894
27	0x3f9ef28b	1.2417768
28	0x3f8550cf	1.0415286
29	0xbf119e23	-0.5688192
30	0x3f2f2524	0.6841605
31	0xbf2183cd	-0.6309174
32	0x3f503efc	0.81346107
33	0xbeae23a3	-0.34011564
34	0x3f4c5e7d	0.7983168
35	0x3fd561c0	1.6670456
36	0x3d0e0686	0.03467419
37	0x3fdfcf23	1.7485088
38	0xbf2fc685	-0.6866229
39	0x3fbdec52	1.4837744
40	0x3f8019d2	1.000788
41	0x3fc1f918	1.5154142
42	0x3f0da157	0.5532431
43	0x3f8dcadf	1.1077536
44	0x3f886638	1.0656195
45	0x3f8efc8a	1.1170819
46	0x3dc7583c	0.09733626
47	0x3fa49e9a	1.2860901
48	0x3fc26b01	1.5188905
49	0xbf208063	-0.626959
50	0x3f0c7253	0.54861945
51	0xbf68f270	-0.9099493
52	0x3f8a6358	1.0811567
53	0x3fb16c6e	1.3861215
54	0x3f5c21fe	0.8598937
55	0x3fcac650	1.584177
56	0x3fbcc842	1.4748614
57	0x3f964f95	1.1743037
58	0x3f78ec82	0.9723588
59	0xbf366f2f	-0.712634
60	0x3f7972ae	0.9744061
61	0x3fa95321	1.3228494
62	0x3f3fd509	0.7493444
63	0x3f322973	0.69594496
64	0x3f490162	0.78517735
65	0x3f448063	0.767584
66	0x3f8a7661	1.0817376
67	0x3fa0266a	1.2511723
68	0x3f6257ef	0.88415426
69	0x3f851090	1.039568
70	0x3f8704ca	1.0548337
71	0x3faeb712	1.3649619
72	0x3f52269a	0.8209015
73	0x3f8e5d0b	1.1122144
74	0x3f9f370e	1.2438676
75	0x3f31e70e	0.69493186
76	0x3f2f86cc	0.6856506
77	0x3f340353	0.7031757
78	0x3f308979	0.68959767
79	0x3f36bed8	0.71384954
80	0x3f2d5f5c	0.6772363
81	0x3f494964	0.7862761
82	0x3f241456	0.6409353
83	0x3fa30991	1.2737294
84	0x3e98b8ed	0.29828587
85	0x3f817a2c	1.0115409
86	0x3f984f17	1.1899136
87	0x3fa1d717	1.2643765
88	0x3f44e345	0.76909286
89	0x3fb02e35	1.3764101
90	0x3f6cd9d7	0.925199
91	0x3f8c2a1f	1.0950354
92	0x3ed2cfa4	0.41174042
93	0xbee6020a	-0.4492343
94	0x3f95538f	1.1666125
95	0x3eab53ac	0.33462274
96	0x3f291b23	0.6605703
97	0x3b3bbcf5	0.0028646563
98	0x3f624936	0.8839296
99	0x3f9a16b4	1.2038178
100	0xbdbe5f1d	-0.09295485
101	0x3f98f37f	1.1949309
102	0x3f0ecbaf	0.55779546
103	0x3fa96f43	1.3237079
104	0x3f1dae36	0.6159395
105	0x3f94474c	1.1584258
106	0x3ee2b0da	0.44275552
107	0x3f6a20ec	0.91456485
108	0x3f431ebe	0.76218784
109	0x3f38a10c	0.7212074
110	0x3f28fc23	0.6600973
111	0x3f9273da	1.1441605
112	0x3f8dea77	1.1087178
113	0x3e3f44a8	0.18678534
114	0x3f281740	0.65660477
115	0x3d97eb2a	0.07417901
116	0x3f5982b2	0.8496505
117	0x3fa4c985	1.2873999
118	0x3f516677	0.81796974
119	0x3f950722	1.1642802
120	0x3faf12c1	1.3677598
121	0x3f68235a	0.9067894
122	0x3f293ef5	0.6611169
123	0x3ee61411	0.44937184
124	0x3f237ebd	0.6386526
125	0x3f988464	1.1915402
126	0x3f94f948	1.1638575
127	0x3f546525	0.82966834
128	0x3f30a6cb	0.69004506
129	0x3f32c1bb	0.6982686
130	0x3f9b592a	1.2136586
131	0x3fa64b30	1.2991695
132	0x3fa350df	1.2759055
133	0x3f82fd2f	1.0233516
134	0x3f8e94b6	1.1139133
135	0x3fa09641	1.2545854
136	0x3f0ff7a6	0.56237257
137	0x3fa4258a	1.2823956
138	0x3f9abb43	1.2088398
139	0x3f419509	0.75618035
140	0x3f3d5586	0.73958623
141	0x3f39914e	0.7248734
142	0x3f445950	0.7669878
143	0x3f34a0f2	0.70558083
144	0x3e577a44	0.21042734
145	0x3efd7a83	0.49507532
146	0x3fb4774a	1.4098904
147	0x3f8bc2c1	1.0918809
148	0xbefb1f3c	-0.49047267
149	0x3fa256de	1.268276
150	0x3f9283db	1.1446489
151	0x3fa2ddca	1.2723935
152	0x3f3366aa	0.7007853
153	0x3fc5b456	1.5445659
154	0x3f3f5072	0.74732125
155	0x3f97804e	1.183603
156	0x3f5f4659	0.87216717
157	0xbddef58c	-0.10886678
158	0x3f9707cf	1.1799258
159	0x3f134220	0.57522774
160	0x3f4b9b19	0.79533535
161	0xbf687a0c	-0.9081123
162	0x3f381a1a	0.7191483
163	0x3f826b45	1.0188986
164	0x3e41710e	0.18890783
165	0x3fb29c04	1.3953862
166	0xbdfbdc70	-0.122979045
167	0x3fa6706c	1.3003058
168	0x3f353b48	0.7079358
169	0x3faca2de	1.3487203
170	0x3f7997a4	0.9749701
171	0x3f84681f	1.0344275
172	0x3f89376e	1.0720041
173	0x3f8422dd	1.032314
174	0x3f02e2ed	0.5112751
175	0x3f078a92	0.52945817
176	0x3f853e66	1.0409667
177	0x3f3cdd66	0.7377533
178	0x3f346d09	0.70478874
179	0x3e85dde4	0.26145852
180	0x3f40950d	0.75227433
181	0x3f88e32d	1.0694329
182	0x3f88bef6	1.0683277
183	0x3f8181dd	1.0117756
184	0x3fce3c89	1.6112224
185	0x3f589a34	0.84610295
186	0x3f41b7bd	0.7567099
187	0x3f2b54f8	0.6692653
188	0x3f98305c	1.1889758
189	0x3fadedb6	1.3588169
190	0x3f606e44	0.8766825
191	0x3f2c3dd1	0.67281824
192	0x3f567886	0.83777654
193	0x3f4dedf4	0.8044121
194	0x3f87a84b	1.0598234
195	0x3f88a762	1.0676081
196	0x3f601f2d	0.8754757
197	0x3f665e59	0.89987713
198	0x3f899ce7	1.0751008
199	0x3fa7b697	1.3102597
200	0x3f46e883	0.77698535
201	0x3f9caea7	1.22408
202	0x3f8bd449	1.0924159
203	0x3f465574	0.7747414
204	0x3f2687ec	0.6505115
205	0x3f52acd6	0.82294977
206	0x3f252605	0.6451114
207	0x3f3ce997	0.7379393
208	0x3f2aa7bf	0.6666221
209	0x3f6da242	0.9282571
210	0x3f8a1458	1.0787458
211	0x3f857820	1.0427284
212	0x3e9c0703	0.304741
213	0x3f4793f0	0.7796011
214	0x3f6b2b98	0.91863394
215	0x3f9bb7cd	1.2165467
216	0x3f378543	0.71687716
217	0x3fa54d21	1.2914163
218	0x3f238e11	0.6388865
219	0x3f8ed3d9	1.1158401
220	0x3f69bfce	0.91308296
221	0xbe7e81de	-0.24854228
222	0x3f48d542	0.78450406
223	0x3f54bf01	0.8310395
224	0x3f590d44	0.84785867
225	0x3e5ad7eb	0.21371429
226	0x3f63d2d1	0.88993555
227	0x3fb90b1a	1.4456513
228	0xbed24e29	-0.41075256
229	0x3f75ac0d	0.95965654
230	0x3f01cb1a	0.50700533
231	0x3f9649ee	1.1741312
232	0x3f6ad3a7	0.91729206
233	0x3f8f9507	1.1217355
234	0x3f3c9ed8	0.73679876
235	0x3f890e58	1.0707502
236	0x3f5df4dc	0.8670175
237	0x3f87d9bc	1.0613322
238	0x3f3f756a	0.74788535
239	0x3f544e68	0.8293214
240	0x3fb55161	1.416546
241	0xbdd6ba64	-0.1048477
242	0x3f15ee54	0.58566785
243	0x3f2a19ac	0.6644542
244	0x3f61c793	0.8819515
245	0x3f869a21	1.0515786
246	0x3f7f4b97	0.99724716
247	0x3fafd14c	1.3735747
248	0x3f9ac40a	1.2091076
249	0x3f47dbae	0.7806958
250	0x3f2d9422	0.6780416
251	0x3e97108e	0.29504818
252	0x3f55d477	0.8352732
253	0x3f4c52ac	0.7981365
254	0x3f621b35	0.88322765
255	0x3ee8cd47	0.45469114

2.bias f4 [7]
0	0x3f97df4a	1.1865017
1	0x3f6ef185	0.9333728
2	0x3f77dee2	0.9682447
3	0x3f5805f3	0.8438408
4	0x3f6245e3	0.8838789
5	0x3f7a3527	0.97737354
6	0x3f97f61a	1.1871979

0.weight f4 [64, 84]
0	0x3dafc023	0.08581569
1	0xbdb68a0a	-0.089130476
2	0x3ca4768f	0.020076064
3	0x3dd7d582	0.1053877
4	0xbe66cba9	-0.22538628
5	0x3da02a7d	0.07820604
6	0x3e20525a	0.15656415
7	0xbe171f6c	-0.1475808
8	0xbb3edbca	-0.0029122704
9	0xbcad5a06	-0.02116109
10	0x3c19d8d6	0.009390077
11	0x3d66c65c	0.056341514
12	0x3e9c4fbb	0.3052958
13	0x3c874f0e	0.016517188
14	0x3d1c2d1c	0.038128957
15	0x3e2edcce	0.17076418
16	0xbe0f8ed3	-0.14019327
17	0xbe04edf5	-0.12981398
18	0xbd787f91	-0.06066853
19	0x3ddfa9b0	0.10921037
20	0xbd7e6fa2	-0.06211818
21	0x3eb17571	0.34659913
22	0xbe294cd0	-0.16533208
23	0x3db2c00b	0.087280355
24	0xbe72a191	-0.23694445
25	0x3e93ed91	0.28892186
26	0xbe417f85	-0.18896301
27	0x3e444529	0.19167008
28	0x3ed995ab	0.42497
29	0xbde06815	-0.10957352
30	0xbcf4eec0	-0.029899001
31	0xbe325adc	-0.17417473
32	0xbd7cfebd	-0.061766375
33	0x3ea584a6	0.32327765
34	0x3e6c8b6f	0.23100065
35	0xbdf9f737	-0.122053556
36	0xbd9c1185	-0.07620529
37	0x3dbe49a8	0.092913926
38	0x3dd412c8	0.10355145
39	0xbc250285	-0.0100714015
40	0x3dde3893	0.108506344
41	0x3c0dd748	0.008657284
42	0x3ca05ced	0.01957556
43	0x3eddb3dc	0.43301284
44	0x3e8316df	0.25603387
45	0xbdfbdfbe	-0.12298535
46	0xbdb119cb	-0.08647498
47	0xbbe33a78	-0.0069344603
48	0x3e4cd202	0.20001987
49	0xbd9e8abe	-0.07741307
50	0xbd3d8d9d	-0.04627763
51	0x3e582e36	0.21111378
52	0x3e435640	0.1907587
53	0xbd90322b	-0.07040819
54	0x3e22fcba	0.1591672
55	0xbe13ebfa	-0.14445487
56	0x3e697da4	0.22801834
57	0x3e666e34	0.22502977
58	0xbdc31271	-0.09525002
59	0xbc6605c8	-0.014039464
60	0x3e184e30	0.14873576
61	0x3dd4073c	0.10352942
62	0x3df6cf46	0.12051253
63	0x3b452d64	0.003008687
64	0x3e1fcd4f	0.15605663
65	0x3e26d391	0.16291644
66	0x3e09da94	0.13462287
67	0xbdd6f42f	-0.10495793
68	0xbe80d88d	-0.25165215
69	0x3e72c162	0.23706582
70	0x3e9a6b21	0.30159858
71	0x3e9a6a3d	0.30159178
72	0x3d763e72	0.060118146
73	0x3d3e0883	0.046394836
74	0x3e2b7706	0.16744623
75	0x3ddbaa84	0.10725883
76	0xbcf98d34	-0.030462839
77	0x3eb6626b	0.35621962
78	0x3eacd410	0.3375554
79	0x3ece8fd2	0.403441
80	0xbd862ef3	-0.065519236
81	0x3e953c63	0.29147634
82	0x3e494924	0.19656807
83	0x3e7a4322	0.24439672
84	0x3e88aa64	0.26692498
85	0x3dae962f	0.08524739
86	0x3d53dd02	0.05172444
87	0xbd41e57f	-0.047338005
88	0xbe30a7f4	-0.17251569
89	0xbd506f54	-0.05088742
90	0x3d99e086	0.075135276
91	0x3d5d7278	0.054064244
92	0x3c54fa8b	0.012999187
93	0x3d7d638c	0.061862513
94	0x3dd88d2c	0.105738014
95	0x3e169cc5	0.1470824
96	0x3eb831c5	0.3597547
97	0x3d8381b8	0.06421226
98	0xbcd55df0	-0.02604577
99	0x3e2741b2	0.16333655
100	0x3d49cd35	0.049267966
101	0xbbf3553e	-0.007425933
102	0xbdf7413b	-0.120729886
103	0x3e3115a9	0.17293419
104	0x3e1c7044	0.15277201
105	0x3e1447c8	0.14480507
106	0x3e08ebbc	0.13371176
107	0x3e3d4e59	0.18486919
108	0x3e17a836	0.14810261
109	0x3e8206d6	0.2539584
110	0x3dd55359	0.10416288
111	0x3ebac753	0.36480197
112	0x3e994561	0.29935744
113	0x3d2c8427	0.042118218
114	0x3e8709eb	0.26374754
115	0x3b86490f	0.0040980647
116	0xbe133240	-0.14374638
117	0x3e93ecff	0.2889175
118	0x3e62dced	0.22154589
119	0x3e220d36	0.15825352
120	0x3ced9195	0.029000083
121	0x3e11bba4	0.14231735
122	0xbcbba05c	-0.022903614
123	0x3e818daa	0.25303394
124	0x3e505642	0.20345405
125	0x3ccbf268	0.024895862
126	0x3d3e02c0	0.04638934
127	0x3e9e90d6	0.30969876
128	0x3e4a255b	0.19740812
129	0x3e3574a0	0.1772027
130	0xbd373527	-0.044728424
131	0x3da9fdf6	0.08300392
132	0x3e674ef9	0.2258872
133	0x3e54f955	0.20798238
134	0xbe340c2f	-0.17582773
135	0x3ea0d7fd	0.31414786
136	0x3e438669	0.19094242
137	0xbcd58394	-0.026063718
138	0x3e5207dc	0.2051081
139	0x3d3ca162	0.046052344
140	0x3e90812b	0.28223547
141	0x3e59d663	0.21273188
142	0x3e581c30	0.21104503
143	0x3e17ea34	0.14835435
144	0x3e8219b7	0.25410244
145	0x3e27add1	0.163749
146	0x3e097931	0.13425137
147	0x3e1f5f20	0.15563631
148	0x3dec8598	0.115489185
149	0x3db6569d	0.08903239
150	0x3e77de3c	0.2420587
151	0x3e48a6ae	0.19594833
152	0x3d9a3b2e	0.07530819
153	0x3e84ee16	0.25962895
154	0x3f0ef174	0.5583718
155	0x3f0ce802	0.55041516
156	0x3dd94b34	0.10610047
157	0x3e6bb5ac	0.23018521
158	0x3e271834	0.16317827
159	0x3eb78356	0.3584239
160	0x3e0e75e0	0.13912153
161	0x3ed57a28	0.4169476
162	0x3ea5b4f2	0.32364613
163	0x3ee87717	0.45403358
164	0x3e777371	0.24165131
165	0x3efedc7f	0.497776
166	0x3e8a4f14	0.27013457
167	0x3ea11afa	0.31465894
168	0x3e935641	0.28776744
169	0xbd81000a	-0.062988356
170	0xbd1e4a68	-0.038645178
171	0xbe805874	-0.25067484
172	0xbdd28b73	-0.10280504
173	0xbc8e5cc1	-0.017378213
174	0x3d912f52	0.07089104
175	0xbed8e9c6	-0.42365855
176	0x3daa1c9a	0.083062366
177	0xbdd8378b	-0.10557469
178	0x3dbd4a21	0.092426546
179	0xbdafd37f	-0.085852616
180	0x3d5ac4a1	0.053410176
181	0xbe58b111	-0.21161295
182	0x3d0f70ea	0.035019793
183	0x3e8d4e6f	0.27598903
184	0xbcc2e804	-0.023792274
185	0xbdff25ed	-0.12458406
186	0xbeec47a8	-0.4614842
187	0x3e8d2b70	0.27572203
188	0xbe701d57	-0.23448692
189	0x3d49be57	0.049253788
190	0xbbb8548d	-0.0056253136
191	0x3e3efb2a	0.18650499
192	0xbd7f5887	-0.062340286
193	0x3d2ac2e4	0.04168977
194	0xbe9f120b	-0.31068453
195	0x3d9d8b40	0.076925755
196	0x3ea27881	0.31732562
197	0xbb27557a	-0.0025533126
198	0xbdc3bf10	-0.09557927
199	0xbe842c8b	-0.25815234
200	0xbd7410c6	-0.05958631
201	0xbd8e4352	-0.06946434
202	0xbeb561af	-0.3542609
203	0xbd825724	-0.06364277
204	0xbd3d80e6	-0.046265505
205	0x3d00b10c	0.031418845
206	0xbcaf08c0	-0.021366477
207	0xbdd7d13c	-0.10537955
208	0xbe97f232	-0.29676968
209	0x3d9d3171	0.07675446
210	0x3e735860	0.23764181
211	0x3e5d6c2d	0.21623297
212	0xbdf5b930	-0.11998212
213	0xbe09d231	-0.13459088
214	0xbe8d6d01	-0.27622226
215	0x3de6be51	0.11266769
216	0xbd410210	-0.047121108
217	0xbe724834	-0.23660356
218	0x3b5af1b5	0.0033408229
219	0x3e424143	0.18970208
220	0xbcff7aa5	-0.031186411
221	0xbe30138b	-0.17194955
222	0xbe6d662f	-0.23183511
223	0xbdf358ed	-0.118821956
224	0x3e19e1ec	0.15027589
225	0x3e809428	0.25113034
226	0xbe1a2630	-0.1505363
227	0xbe509afd	-0.20371623
228	0x3e252423	0.16127066
229	0xbe6016ef	-0.21883748
230	0xbdbead08	-0.09310347
231	0x3db4c90d	0.0882741
232	0xbe3a3626	-0.18184718
233	0x3e2ed7c6	0.17074499
234	0x3d08d98f	0.033410605
235	0x3d100a03	0.035165798
236	0x3c8e41b8	0.017365322
237	0xbe3f1512	-0.18660381
238	0x3e033c9c	0.1281609
239	0x3e852543	0.2600499
240	0xbe110014	-0.14160186
241	0x3d0dffc0	0.03466773
242	0x3e365bdb	0.17808478
243	0xbe63e858	-0.22256601
244	0xbe428260	-0.18995047
245	0x3e557286	0.20844468
246	0x3c5fc3b1	0.013657496
247	0x3e9d182e	0.3068251
248	0xbe1af4fe	-0.1513252
249	0x3e7837a5	0.24239977
250	0xbdc11cf6	-0.09429352
251	0x3e170c7c	0.14750856
252	0x3d08419b	0.03326569
253	0x3d9fa964	0.077959806
254	0xbec15882	-0.3776284
255	0xbe12e0f5	-0.14343627

0.bias f4 [64]
0	0x4002a0ec	2.041072
1	0x40183851	2.3784373
2	0x40126657	2.2874963
3	0x4012f3fd	2.2961419
4	0x3fe167cd	1.7609802
5	0x400a3a57	2.1598108
6	0x40032d88	2.049654
7	0x400ccc6d	2.1999772
8	0x400f0624	2.2347498
9	0x40021403	2.0324714
10	0x401c5155	2.442464
11	0x4013d783	2.3100288
12	0x40103c1b	2.2536685
13	0x4017fada	2.3746858
14	0x40033d8c	2.0506315
15	0x401c96eb	2.4467113
16	0x3f664ebb	0.89963883
17	0x3fdf099f	1.7424811
18	0x3f8327f6	1.024657
19	0x3fe54def	1.7914408
20	0xbe884d5c	-0.2662152
21	0x4012c6e9	2.2933905
22	0x3ffc61fa	1.97174
23	0x4012313f	2.2842557
24	0x4010e435	2.2639287
25	0x401c025e	2.4376445
26	0x40112b90	2.2682838
27	0x400abefc	2.1679068
28	0x3f9c8288	1.2227335
29	0xbebd6922	-0.36994272
30	0x3fb0a9d7	1.3801831
31	0x3b2e4fcb	0.0026597853
32	0x4016f5ca	2.3587518
33	0xbd73cc67	-0.059521105
34	0x40207f82	2.5077825
35	0x40061454	2.0949907
36	0xbe8fdf17	-0.28099892
37	0x400512a6	2.0792632
38	0x39949dd2	0.00028346345
39	0x401421a5	2.3145535
40	0x401404a7	2.312784
41	0x40090805	2.1411145
42	0x3fadb4ca	1.3570797
43	0x400a5448	2.1613941
44	0x40136514	2.3030443
45	0x3fcfa440	1.6222
46	0x3fcde548	1.6085596
47	0x4004ebac	2.0768843
48	0x4007cd24	2.1218958
49	0x3a552127	0.0008130245
50	0x3fe24ef9	1.768035
51	0x3a5e3af5	0.0008477413
52	0x40167af2	2.351254
53	0x4013c91b	2.3091495
54	0x400b2627	2.1742036
55	0x40098144	2.1485147
56	0x400ca66d	2.1976578
57	0x401cb6b7	2.448652
58	0x4015c518	2.3401546
59	0xba407fb5	-0.00073432486
60	0x4001e7de	2.029777
61	0x3ff57eee	1.9179361
62	0x3f95cfbe	1.1704023
63	0x3f98b9c2	1.1931689

2.weight f4 [7, 64]
0	0x3f5515e3	0.8323652
1	0x3f1f71e2	0.62283146
2	0x3fc1a310	1.5127888
3	0x3fb9f14f	1.4526767
4	0x3f715d68	0.9428315
5	0x3f928c44	1.1449056
6	0x3f98f67a	1.1950219
7	0x3fc53c3c	1.5409007
8	0x3f4515b2	0.7698623
9	0x3fa6ca33	1.3030456
10	0x3f9e9695	1.2389704
11	0x3f4162d6	0.75541437
12	0x3f874921	1.0569192
13	0x3f58cbda	0.8468605
14	0x3f3f4739	0.7471805
15	0x3f5e71e7	0.8689255
16	0xbd88371c	-0.06651136
17	0x3f1c7d77	0.61128944
18	0x3f8d3faa	1.1035054
19	0x3fbccd9b	1.4750246
20	0x3e084812	0.13308743
21	0x3f96c0ce	1.1777589
22	0x3f9301bd	1.1484905
23	0x3fcd7b5d	1.6053272
24	0x3f5f875c	0.87315917
25	0x3fd70ab3	1.680014
26	0x3f686936	0.9078554
27	0x3f9a8c63	1.2074093
28	0x3f805f9e	1.002918
29	0xbf0e6170	-0.5561743
30	0x3f26ec42	0.6520425
31	0xbf19ced2	-0.6008121
32	0x3f4993e9	0.7874132
33	0xbea56952	-0.32306916
34	0x3f461238	0.7737155
35	0x3fd067de	1.6281698
36	0x3d367f47	0.044554975
37	0x3fda685d	1.7063099
38	0xbf28741d	-0.65802175
39	0x3fb93208	1.4468393
40	0x3f788fed	0.97094613
41	0x3fbcf059	1.4760848
42	0x3f062411	0.5239878
43	0x3f8985dc	1.0743976
44	0x3f846f36	1.0346439
45	0x3f8a010b	1.0781568
46	0x3daabfdc	0.083373755
47	0x3f9fecf9	1.2494193
48	0x3fbd9501	1.4811097
49	0xbf1895da	-0.59603655
50	0x3f06686c	0.52503085
51	0xbf60e44c	-0.87848353
52	0x3f86a00f	1.0517596
53	0x3fac9859	1.3483993
54	0x3f546b48	0.829762
55	0x3fc5bfda	1.5449173
56	0x3fb80189	1.4375468
57	0x3f923a1f	1.1423987
58	0x3f717e15	0.9433301
59	0xbf2fff94	-0.68749356
60	0x3f7123ac	0.94195056
61	0x3fa470b4	1.2846894
62	0x3f36d6d6	0.71421564
63	0x3f2967b6	0.66173875
64	0x3f43ba30	0.76455975
65	0x3f3fd659	0.74936444
66	0x3f874ac7	1.0569695
67	0x3f9c5672	1.2213881
68	0x3f5b1b7f	0.8558883
69	0x3f821b57	1.0164593
70	0x3f8310c9	1.0239497
71	0x3faaa503	1.3331608
72	0x3f4d3314	0.80156064
73	0x3f8b030b	1.0860304
74	0x3f9c4427	1.2208298
75	0x3f2d1254	0.6760609
76	0x3f2a52f0	0.665328
77	0x3f2ef6bd	0.6834524
78	0x3f2b9324	0.67021394
79	0x3f31dd19	0.69477993
80	0x3f28acad	0.6588848
81	0x3f43dc7c	0.7650831
82	0x3f1bdfbc	0.60888267
83	0x3f9f999e	1.2468755
84	0x3e979705	0.29607406
85	0x3f7d1fcd	0.9887665
86	0x3f950ae0	1.1643944
87	0x3f9dbf7d	1.2324063
88	0x3f40177f	0.7503585
89	0x3facc5ca	1.349786
90	0x3f67a76e	0.9048985
91	0x3f8893f4	1.0670152
92	0x3ec45d46	0.38352412
93	0xbee5eb17	-0.44905922
94	0x3f919c39	1.13758
95	0x3ea4ad13	0.32163295
96	0x3f24525d	0.64188176
97	0xbbbfc84a	-0.0058527337
98	0x3f5d8921	0.8653737
99	0x3f969b4b	1.1766142
100	0xbdbce329	-0.09223015
101	0x3f95638c	1.1671004
102	0x3f0b5717	0.54429764
103	0x3fa5ac5a	1.2943223
104	0x3f18a7bc	0.5963094
105	0x3f90ba7b	1.1306909
106	0x3ed76e54	0.4207636
107	0x3f63b598	0.88948965
108	0x3f3dd818	0.7415786
109	0x3f314966	0.6925262
110	0x3f2492fd	0.64286786
111	0x3f8fb9cb	1.1228575
112	0x3f8aef18	1.0854216
113	0x3e340dfc	0.1758346
114	0x3f236acc	0.63834834
115	0x3d65504e	0.055984788
116	0x3f546e4f	0.8298082
117	0x3fa11ad7	1.2586316
118	0x3f4bdac6	0.79630697
119	0x3f91d4aa	1.1393025
120	0x3fab62ec	1.3389564
121	0x3f62f3b3	0.88653105
122	0x3f241ff1	0.6411124
123	0x3edf9407	0.43667623
124	0x3f1d7b4d	0.6151627
125	0x3f94c941	1.1623918
126	0x3f916a54	1.1360574
127	0x3f4e4dc8	0.80587435
128	0x3f2b961e	0.67025936
129	0x3f2e86b1	0.6817427
130	0x3f97fd5c	1.1874194
131	0x3fa1cb08	1.2640085
132	0x3f9f49e7	1.2444428
133	0x3f7f89f4	0.99819875
134	0x3f89f750	1.0778599
135	0x3f9c241f	1.2198523
136	0x3f0b9891	0.5452967
137	0x3f9ff818	1.2497587
138	0x3f97d896	1.1862972
139	0x3f3d24c2	0.7388421
140	0x3f3847f5	0.719848
141	0x3f34dd5d	0.70650274
142	0x3f3f4342	0.74712
143	0x3f300362	0.6875516
144	0x3e4803e6	0.19532737
145	0x3ef285cc	0.47367704
146	0x3fafba75	1.3728777
147	0x3f880746	1.062722
148	0xbef14974	-0.47126353
149	0x3f9f450f	1.244295
150	0x3f8f5785	1.1198584
151	0x3f9e5798	1.2370481
152	0x3f2ef3bd	0.68340665
153	0x3fc1c598	1.5138426
154	0x3f3a6a5e	0.72818553
155	0x3f933eef	1.1503581
156	0x3f575e67	0.8412842
157	0xbde1a58a	-0.11017902
158	0x3f92fe47	1.1483849
159	0x3f0f4a2f	0.5597257
160	0x3f470f2e	0.7775754
161	0xbf6773bc	-0.9041097
162	0x3f33a5e7	0.7017502
163	0x3f7da3c3	0.99078006
164	0x3e475fd2	0.19470146
165	0x3fae9053	1.3637794
166	0xbdfea54b	-0.12433871
167	0x3fa26ba5	1.26891
168	0x3f30597f	0.6888656
169	0x3fa89f7b	1.317367
170	0x3f72e088	0.9487386
171	0x3f811cea	1.0086949
172	0x3f867090	1.0503101
173	0x3f8044ee	1.0021036
174	0x3efe6792	0.49688393
175	0x3f029f39	0.51024204
176	0x3f821774	1.0163407
177	0x3f3959a6	0.7240242
178	0x3f2f9b08	0.68595934
179	0x3e7863d6	0.24256834
180	0x3f3c013b	0.7343938
181	0x3f853de5	1.0409514
182	0x3f85ee6e	1.0463388
183	0x3f7c7665	0.98618156
184	0x3fc9eeca	1.5775998
185	0x3f539bda	0.82659686
186	0x3f3c8f1d	0.73655874
187	0x3f28019e	0.6562747
188	0x3f94baf7	1.1619557
189	0x3fa9f535	1.3277956
190	0x3f57bb96	0.8427061
191	0x3f24aabb	0.64323014
192	0x3f51f6a5	0.82016975
193	0x3f49fb03	0.7889864
194	0x3f84e8e2	1.038357
195	0x3f856a7d	1.0423123
196	0x3f59a6ec	0.8502033
197	0x3f610832	0.8790313
198	0x3f863755	1.0485636
199	0x3fa47a96	1.284991
200	0x3f42ac5e	0.7604426
201	0x3f9964d1	1.1983892
202	0x3f895705	1.0729681
203	0x3f422b49	0.758473
204	0x3f21fd40	0.63277054
205	0x3f4e2cfa	0.8053738
206	0x3f20df25	0.6284049
207	0x3f38b77b	0.7215497
208	0x3f267ce4	0.6503432
209	0x3f6896ec	0.9085529
210	0x3f86cbe7	1.0530976
211	0x3f825e0d	1.0184952
212	0x3e97c9a0	0.29646015
213	0x3f42a518	0.76033163
214	0x3f654fef	0.89575094
215	0x3f98445e	1.1895864
216	0x3f33729c	0.70096755
217	0x3fa22629	1.2667896
218	0x3f1f188e	0.6214684
219	0x3f8bad71	1.0912305
220	0x3f634bc2	0.8878747
221	0xbe80b6c4	-0.2513944
222	0x3f42482c	0.75891376
223	0x3f50a03a	0.81494486
224	0x3f54fcea	0.83198416
225	0x3e4dc405	0.20094307
226	0x3f5fc39e	0.87407863
227	0x3fb5eba4	1.4212537
228	0xbecf4ab4	-0.4048668
229	0x3f6fb8e9	0.93641526
230	0x3efe1b40	0.49630165
231	0x3f92f069	1.1479617
232	0x3f668283	0.90042895
233	0x3f8c47a2	1.0959361
234	0x3f380400	0.71881104
235	0x3f864ca7	1.0492142
236	0x3f593c68	0.848578
237	0x3f84f500	1.0387268
238	0x3f3bc0dc	0.73341155
239	0x3f4f77d4	0.8104222
240	0x3fb2b086	1.3960121
241	0xbddd1cbb	-0.107964955
242	0x3f11dc57	0.56976837
243	0x3f2529f9	0.6451717
244	0x3f5d76b9	0.8650928
245	0x3f838334	1.0274415
246	0x3f7a86b6	0.978618
247	0x3fad28cd	1.3528076
248	0x3f97997e	1.1843717
249	0x3f4350a6	0.76294935
250	0x3f28ee9e	0.659891
251	0x3e9210e7	0.2852852
252	0x3f50635b	0.81401604
253	0x3f45ec6e	0.7731389
254	0x3f5cb67f	0.86215967
255	0x3edde992	0.43342263

2.bias f4 [7]
0	0x3f934898	1.1506529
1	0x3f68f7ce	0.9100312
2	0x3f71ae52	0.94406617
3	0x3f52c686	0.8233417
4	0x3f5bc8fd	0.8585356
5	0x3f73379b	0.9500672
6	0x3f945207	1.1587533
