saved_models/DQN/using_bayeselo_for_matchmaking/model10.pth (torch, 49984 bytes, 8 tensors)

0.weight f4 [64, 84]
0.07328784 0.31724268 0.3870534 0.16919062 -0.26844886 0.121272884 -0.07418235 0.07372003
0.55545056 0.2994065 0.117763385 0.1435086 0.25956196 0.04551941 0.22233196 -0.029411647
-0.06918923 0.5611896 -0.11980914 -0.068062246 0.03756277 0.043920908 0.38842213 0.2980191
0.1822884 -0.08959024 0.28323385 -0.036151685 -0.04309519 0.1530738 0.26874578 0.10404085
-0.049534433 -0.13326003 0.1005221 -0.19442773 0.35824993 0.65476424 0.2638667 -0.27818245
0.074168004 0.039873634 0.27088198 -0.012349309 -0.09983346 0.33069506 -0.10762288 -0.32472363
-0.043763656 -0.056810983 0.23499635 0.66574275 0.06848567 0.17161085 0.15654384 -0.039324448
0.19505462 -0.3052386 0.051327385 0.107724205 -0.17787145 -0.16259642 0.119922034 -0.003533353
0.12097427 1.0170393 0.30319616 -0.121424384 0.07945558 0.17889395 0.3203122 0.32664025
0.2167166 0.40500075 0.19552469 0.521128 0.264149 0.20437792 0.22363429 1.1715496
0.3616044 0.57945657 0.004441274 0.8201445 -0.19180289 0.4191837 0.14486125 -0.31171215
-0.46774358 0.24751796 -0.21646114 0.23166527 -0.4050689 -0.014553167 0.3526211 -0.24253234
0.22081307 -0.097558245 0.28770372 0.14528035 -0.24859023 0.021872658 0.011346718 0.09797195
0.15690954 0.13416013 -0.23928837 -0.0905494 0.050404996 -0.17185825 0.17935559 -0.09818561
0.03484171 0.37298504 0.07522817 -0.046130687 0.12286296 -0.18190527 0.25740898 -0.06247591
-0.2304018 0.04391601 -0.022483815 0.03798219 -0.2732678 0.11340391 0.3039538 0.06880088
-0.53089124 0.14318475 0.118545815 -0.23036382 0.1867449 0.24735738 -0.3715492 0.13744955
0.18064961 -0.028520387 0.25723034 -0.46235815 0.55361646 -0.19192936 -0.07393364 -0.019522116
-0.015647834 -0.26334015 0.43695915 -0.14965227 -0.1381514 1.099719 0.20154431 -0.16340157
0.27648616 -0.046253394 0.4406992 0.6976838 0.43824553 0.3890689 0.12723905 0.4409709
0.23633653 0.25108 0.25891978 0.88167274 0.18104044 0.6420066 0.12406724 0.5003189
0.025582677 0.27859125 0.3100013 0.11963653 -0.19634572 0.34775385 -0.1311753 -0.033952232
0.32595417 0.3475299 0.15906641 0.04767951 0.19298664 0.10617883 0.24071531 0.10181367
-0.10782071 0.3812386 -0.06427588 0.09129515 0.0700636 0.091133505 0.49123752 0.35508153
0.10014559 0.00018110174 0.30639556 0.05599331 0.0048183445 0.15194534 0.21168976 0.12720692
0.0901504 -0.17399113 0.113365166 -0.116215676 0.23084605 0.6641317 0.2554618 -0.26780602
0.13432989 0.20479648 0.1791421 -0.0388857 -0.0739567 0.28506413 0.058350123 -0.17559865
0.0009169144 0.11959507 0.3404409 0.5532365 -0.021572351 0.050957065 0.14522466 -0.08149462
0.2518584 -0.24727233 -0.0003930405 0.19690472 -0.06895697 -0.19875327 0.09626007 -0.22634725
0.19534844 1.1072166 0.22977243 -0.009204761 0.055686634 0.191002 0.28632435 0.2387515
0.11597052 0.46791077 0.21907423 0.3510812 0.38579595 0.096954465 0.35183275 1.0657103
0.2973627 0.720479 0.14336358 0.62952715 -0.047697883 0.32648823 0.3302454 0.08761056
00000000: ef17 963d a26d a23e dd2b c63e 4e40 2d3e
00000010: 2172 89be eb5d f83d eaec 97bd 87fa 963d
00000020: 0232 0e3f cf4b 993e ee2d f13d ebf3 123e
00000030: 4ee5 843e 9072 3a3d fdaa 633e b2f0 f0bc
00000040: 15b3 8dbd 1faa 0f3f 7f5e f5bd 3864 8bbd
00000050: 6bdb 193d 69e6 333d 44df c63e f695 983e
00000060: cfa9 3a3e 167b b7bd 0704 913e ca13 14bd
00000070: 9584 30bd 61bf 1c3e 0c99 893e 5f13 d53d
00000080: 9ee4 4abd 5175 08be 88de cd3d 1018 47be
00000090: 896c b73e a19e 273f 8919 873e ee6d 8ebe
000000a0: 65e5 973d 8952 233d 0bb1 8a3e c254 4abc
000000b0: 7c75 ccbd dd50 a93e 6269 dcbd 2d42 a6be
000000c0: 8541 33bd a2b2 68bd e2a2 703e 1e6e 2a3f
000000d0: 3742 8c3d c1ba 2f3e 074d 203e ac12 21bd
000000e0: 66bc 473e 3c48 9cbe aa3c 523d 829e dc3d
000000f0: ef23 36be ad7f 26be af99 f53d d48f 67bb
00000100: 5cc1 f73d 582e 823f 873c 9b3e 59ad f8bd
00000110: 9bb9 a23d fa2f 373e f6ff a33e 643d a73e
00000120: f5ea 5d3e 425c cf3e a037 483e a568 053f
00000130: 8a3e 873e 7248 513e 6300 653e 56f5 953f
00000140: 3624 b93e 4457 143f 1b88 913b fdf4 513f
00000150: fa67 44be 3f9f d63e 8256 143e bc98 9fbe
00000160: 167c efbe 5975 7d3e fda7 5dbe a939 6d3e
00000170: 3165 cfbe 6870 6ebc c18a b43e 665a 78be
00000180: d21c 623e 9ecc c7bd e74d 933e 5fc4 143e
00000190: 708e 7ebe 4a2e b33c 96e7 393c 85a5 c83d
000001a0: e5ac 203e 4661 093e 0308 75be f771 b9bd
000001b0: 7875 4e3d 9cfb 2fbe fea8 373e 8915 c9bd
000001c0: 2eb6 0e3d e5f7 be3e 3a11 9a3d 88f3 3cbd
000001d0: 939f fb3d 6045 3abe 1ccb 833e bde6 7fbd
000001e0: 73ee 6bbe 46e1 333d fa2f b8bc 3693 1b3d
000001f0: c2e9 8bbe 4f40 e83d d59f 9b3e 7ae7 8c3d
00000200: 7de8 07bf 069f 123e 26c8 f23d 7ee4 6bbe
00000210: 0e3a 3f3e 414b 7d3e b23b bebe 93bf 0c3e
00000220: 36fc 383e 96a3 e9bc b2b3 833e 35ba ecbe
00000230: cfb9 0d3f 2189 44be 856a 97bd d8ec 9fbc
00000240: e32f 80bc 85d4 86be 1cb9 df3e 723e 19be
00000250: 9077 0dbe 98c3 8c3f a261 4e3e be52 27be
00000260: 988f 8d3e 3374 3dbd 53a3 e13e 689b 323f
00000270: b861 e03e 0a34 c73e f44a 023e f0c6 e13e
00000280: 3402 723e 8f8d 803e 2291 843e 4eb5 613f
00000290: aa62 393e 8b5a 243f f716 fe3d e614 003f
000002a0: c392 d13c 83a3 8e3e 7eb8 9e3e ff03 f53d
000002b0: da0e 49be cb0c b23e d152 06be 7f11 0bbd
000002c0: 77e3 a63e 70ef b13e 4ee2 223e 974b 433d
000002d0: 4a9e 453e 4974 d93d 137e 763e af83 d03d
000002e0: 1bd1 dcbd b531 c33e 13a3 83bd f4f8 ba3d
000002f0: 817d 8f3d 34a4 ba3d 7c83 fb3e 3fcd b53e
00000300: 2219 cd3d 21e6 3d39 e1df 9c3e 3e59 653d
00000310: 34e3 9d3b 8f97 1b3e 33c5 583e 8842 023e
00000320: c6a0 b83d bb2a 32be ff2b e83d 7c02 eebd
00000330: e862 6c3e 8904 2a3f e4cb 823e df1d 89be
00000340: c68d 093e 2bb6 513e 0771 373e 9d46 1fbd
00000350: 9c76 97bd edf3 913e 8a00 6f3d 22d0 33be
00000360: 155d 703a 43ee f43d 454e ae3e e8a0 0d3f
00000370: 80b8 b0bc 5bb8 503d c6b5 143e a7e6 a6bd
00000380: 96f3 803e f534 7dbe 0111 ceb9 64a1 493e
00000390: 5039 8dbd fa85 4bbe 0024 c53d 93c7 67be
000003a0: 6c09 483e 46b9 8d3f 7749 6b3e 91cf 16bc
000003b0: ab17 643d 0796 433e 1b99 923e 467b 743e
000003c0: f481 ed3d 0092 ef3e ff54 603e eac0 b33e
000003d0: 0c87 c53e 1090 c63d 6c23 b43e 3269 883f
000003e0: ec3f 983e 5071 383f e7cd 123e b128 213f
000003f0: db5e 43bd 7729 a73e ed15 a93e 2a6d b33d

0.bias f4 [64]
2.5328984 1.7826251 2.5480132 2.107456 2.575445 2.2606437 2.24443 2.4638147
2.252273 1.3649986 2.004432 1.9950968 2.18693 1.1558672 2.025717 2.2933848
2.1492128 2.479717 2.5176387 2.00368 -0.0044714855 2.5148265 2.145661 2.1874547
1.9837693 2.0223024 -0.43384448 -0.3466578 1.8308434 0.5458605 1.8207777 2.55403
1.84578 2.4033463 2.1497817 2.2156386 2.6000519 2.5058472 2.3633668 1.7470094
2.3511176 2.4236257 1.2466544 2.221033 2.3072133 -0.38006914 -0.24187005 1.4462765
2.3375473 2.4734557 2.2335927 1.9935176 2.5210383 1.7688911 2.319901 2.0608847
2.15141 -0.07066442 2.3019547 2.4231665 2.612242 2.5113132 2.4519124 1.6866896
00000000: 021b 2240 0f2d e43f a612 2340 8fe0 0640
00000010: 17d4 2440 63ae 1040 bea4 0f40 24af 1d40
00000020: 3e25 1040 46b8 ae3f 9d48 0040 555f ff3f
00000030: a9f6 0b40 75f3 933f 59a5 0140 d1c6 1240
00000040: b48c 0940 afb3 1e40 fe20 2140 4b3c 0040
00000050: 8a85 92bb ebf2 2040 8352 0940 42ff 0b40
00000060: 27ec fd3f 676d 0140 dd20 debe 227d b1be
00000070: 1459 ea3f 84bd 0b3f 3e0f e93f 3a75 2340
00000080: 8542 ec3f 6dd0 1940 0696 0940 06cd 0d40
00000090: 4067 2640 cd5f 2040 6741 1740 019e df3f
000000a0: b678 1640 af1c 1b40 5f92 9f3f 6825 0e40
000000b0: 62a9 1340 6c98 c2be c8ac 77be 971f b93f
000000c0: 609a 1540 194d 1e40 2ff3 0e40 962b ff3f
000000d0: b158 2140 066b e23f 4279 1440 89e5 0340
000000e0: b4b0 0940 82b8 90bd 3a53 1340 2915 1b40
000000f0: f92e 2740 5bb9 2040 22ec 1c40 72e5 d73f

2.weight f4 [7, 64]
0.9784111 1.1818327 1.035894 1.1031915 1.0987697 0.9678061 1.0632983 1.4709204
1.1244458 1.0428069 1.16465 1.3640769 1.3719051 0.4641665 1.2751299 1.255052
1.0965166 0.9464476 1.4899079 1.0054792 -1.0300633 0.94602615 1.0760666 0.90848076
1.25354 1.0470711 -0.33397296 0.12454726 1.5354909 0.8600069 0.93814206 1.0105604
0.8431921 1.199602 1.2880745 0.86981946 1.3001382 0.88616806 1.0052626 1.0595933
1.3529836 1.0603607 0.73884124 1.203873 1.023181 -1.0266789 -0.45715132 1.2163585
1.1373775 0.8942075 1.0565026 1.0911961 1.1712241 0.9489432 1.1928741 0.8532707
1.237904 0.5538948 1.2896988 0.9479052 1.25369 0.99506253 0.8919739 1.2266474
1.1921883 1.0285299 1.1611432 1.1064757 1.009026 1.0983984 1.09039 1.5654527
1.0921842 0.5158203 0.93576515 1.2427623 1.224817 0.9611037 1.1671021 1.323215
0.91952264 1.1008395 1.6636304 1.0695035 0.40388665 0.94949484 1.3210456 1.0617422
0.98051065 1.041393 -0.18543135 -0.27965677 0.83519304 0.28261378 0.7840146 0.96580696
1.0680457 1.3302681 1.4938735 0.92370313 1.2447673 1.0348222 1.1090944 0.9536895
1.3149229 1.2623013 0.6449898 1.412633 1.0450282 -0.48031387 -0.48539525 0.8262637
1.2267718 0.9721848 0.81661093 0.8913427 0.94819957 0.95675766 0.99200624 1.0647038
1.10727 -0.85642564 1.0258418 0.7723214 1.273422 0.89406556 1.0722413 1.4066777
1.0096574 0.867298 0.98862225 1.1881814 1.1619002 0.9835533 1.4682839 1.5962937
1.0860529 0.35351798 1.3389118 1.1955037 1.4284639 1.1808966 1.2232391 1.398329
0.8713173 1.0152314 1.6922532 0.9291232 0.20079364 0.96463287 1.1175969 0.9619936
1.0484409 1.2448806 -0.0036501687 -0.58859706 1.1557033 -0.06901369 0.92239845 0.91112465
0.99239075 1.4539027 1.4411237 0.86578286 1.3066863 0.9778594 1.1782699 0.70322305
1.1820071 1.2588491 0.2677653 1.1864495 0.9820829 -0.15002991 -0.23144858 1.1127381
1.1168581 1.0019922 0.9877206 0.79475826 0.9790593 0.94009185 1.2611738 0.79204637
1.249483 -0.06551116 1.0567994 0.95657593 1.2538965 0.8784674 1.0158021 0.7108806
1.0533421 1.1039543 1.1071643 1.1486866 1.0642353 0.92518574 1.4069142 1.4183431
1.13117 0.85076386 1.0577585 1.1521953 1.2806305 0.5690818 1.2968545 1.1836486
0.8397728 0.9974756 1.6375667 0.975487 -0.05266296 1.0094035 1.3471844 1.2432784
1.1282582 0.8622904 0.06114174 -0.3564796 1.0941434 0.68599707 0.90471774 1.0034153
0.6507358 1.3016635 1.3080758 0.6916029 1.1981288 1.0082835 1.1887584 1.0063994
1.1135685 1.1040063 0.42357937 1.0912119 0.8341972 -0.38859946 0.6967004 0.71363944
1.1045936 0.9908494 0.9673147 1.2269946 0.916289 0.90827745 1.0669562 0.9990264
1.2845895 0.24846241 1.2002982 0.948391 1.3538507 1.0940216 1.02436 0.80341744
00000000: 2679 7a3f 4b46 973f 2d98 843f 6135 8d3f
00000010: 7ca4 8c3f 24c2 773f 291a 883f 1f47 bc3f
00000020: d7ed 8f3f b27a 853f 4013 953f 129a ae3f
00000030: 969a af3f 3ba7 ed3e 7537 a33f 8ba5 a03f
00000040: a85a 8c3f 644a 723f 4db5 be3f 8bb3 803f
00000050: 1dd9 83bf c52e 723f 8dbc 893f 3292 683f
00000060: 0074 a03f 6d06 863f 81fe aabe a212 ff3d
00000070: f78a c43f 6a29 5c3f 142a 703f 0b5a 813f
00000080: 70db 573f 8f8c 993f a0df a43f 7dac 5e3f
00000090: ee6a a63f e9db 623f 72ac 803f c1a0 873f
000000a0: 912e ad3f e6b9 873f b324 3d3f 8318 9a3f
000000b0: 98f7 823f 376a 83bf bd0f eabe a3b1 9b3f
000000c0: 9695 913f c8ea 643f 7a3b 873f 50ac 8b3f
000000d0: acea 953f f1ed 723f 19b0 983f f36f 5a3f
000000e0: a373 9e3f 0dcc 0d3f da14 a53f eaa9 723f
000000f0: ea78 a03f 6bbc 7e3f 6758 643f c802 9d3f
00000100: a099 983f dea6 833f 57a0 943f ffa0 8d3f
00000110: c427 813f 5298 8c3f e691 8b3f c160 c83f
00000120: b1cc 8b3f cd0c 043f 4e8e 6f3f d612 9f3f
00000130: cec6 9c3f e40a 763f 9a63 953f 1c5f a93f
00000140: d665 6b3f 4fe8 8c3f d7f1 d43f 7ee5 883f
00000150: 3bca ce3e 1812 733f 0618 a93f 2be7 873f
00000160: bf02 7b3f 5e4c 853f b7e1 3dbe 2c2f 8fbe
00000170: 36cf 553f c1b2 903e 2eb5 483f 203f 773f
00000180: b9b5 883f 3a46 aa3f 3f37 bf3f cf77 6c3f
00000190: 8954 9f3f 0e75 843f cef6 8d3f ff24 743f
000001a0: 654f a83f 1793 a13f 0d1e 253f 28d1 b43f
000001b0: 7cc3 853f b3eb f5be ba85 f8be 0586 533f
000001c0: dc06 9d3f 1ae1 783f 6a0d 513f 092f 643f
000001d0: 35bd 723f 12ee 743f 1ff4 7d3f 3748 883f
000001e0: 06bb 8d3f b63e 5bbf c94e 833f dbb6 453f
000001f0: 7eff a23f 7be1 643f 343f 893f 040e b43f
00000200: 743c 813f 3e07 5e3f 5916 7d3f 5416 983f
00000210: 25b9 943f 26ca 7b3f baf0 bb3f 5a53 cc3f
00000220: c803 8b3f 4f00 b53e 7661 ab3f 4406 993f
00000230: e8d7 b63f 9f27 973f 1993 9c3f 72fc b23f
00000240: a70e 5f3f 1af3 813f c19b d83f 05db 6d3f
00000250: d99c 4d3e 2ef2 763f 6a0d 8f3f 3645 763f
00000260: 5033 863f 3f58 9f3f ab37 6fbb 4cae 16bf
00000270: 16ee 933f 0d57 8dbd 4e22 6c3f 773f 693f
00000280: 520d 7e3f 7c19 ba3f be76 b83f f2a3 5d3f
00000290: 7f41 a73f fe54 7a3f 8cd1 963f 6d06 343f
000002a0: 024c 973f f821 a13f 8918 893e 94dd 973f
000002b0: c969 7b3f 71a1 19be db00 6dbe 346e 8e3f
000002c0: 35f5 8e3f 4841 803f 42db 7c3f 4775 4b3f
000002d0: a1a3 7a3f dca9 703f 256e a13f 8dc3 4a3f
000002e0: 0fef 9f3f b72a 86bd 3445 873f 29e2 743f
000002f0: ae7f a03f 3de3 603f ce05 823f 45fc 353f
00000300: ead3 863f 604e 8d3f 8fb7 8d3f 2a08 933f
00000310: dd38 883f f9d8 6c3f c415 b43f 448c b53f
00000320: 2eca 903f a9cb 593f a164 873f 237b 933f
00000330: b3eb a33f 58af 113f 54ff a53f cc81 973f
00000340: 5afb 563f 905a 7f3f c99b d13f 84b9 793f
00000350: 1eb5 57bd 2234 813f 8a70 ac3f bf23 9f3f
00000360: c46a 903f 10bf 5c3f c36f 7a3d 7e84 b6be
00000370: e40c 8c3f 819d 2f3f 959b 673f ea6f 803f
00000380: 9f96 263f e99c a63f 076f a73f e30c 313f
00000390: 495c 993f 6f0f 813f 3c29 983f b2d1 803f
000003a0: 6a89 8e3f 1450 8d3f 65df d83e d5ac 8b3f
000003b0: f38d 553f 82f6 c6be f55a 323f 13b1 363f
000003c0: 5363 8d3f 4ea8 7d3f f0a1 773f 290e 9d3f
000003d0: ea91 6a3f df84 683f 0592 883f 32c0 7f3f
000003e0: 6e6d a43f ee6c 7e3e 5fa3 993f c1c9 723f
000003f0: fb4a ad3f e608 8c3f 3a1e 833f c4ac 4d3f

2.bias f4 [7]
1.1654831 1.2564691 1.1990392 1.1688443 1.3585057 1.1809698 1.0370649
00000000: 8d2e 953f fbd3 a03f 1e7a 993f b19c 953f
00000010: 84e3 ad3f 052a 973f 8bbe 843f

0.weight f4 [64, 84]
0.06886251 0.30750257 0.3836281 0.16610275 -0.2627772 0.11421705 -0.072811835 0.070424214
0.55051357 0.2780776 0.10964125 0.13982968 0.25497425 0.04807407 0.21160993 -0.039003324
-0.063487224 0.5493641 -0.120561235 -0.07065069 0.034292135 0.038365304 0.37189624 0.29217264
0.18325675 -0.09655132 0.27356467 -0.028350733 -0.05096069 0.14178197 0.26247704 0.100835174
-0.049956106 -0.14028527 0.097605035 -0.19770437 0.3546817 0.6295081 0.25619057 -0.27061984
0.07620159 0.038514975 0.25739786 -0.01570883 -0.092845425 0.32003114 -0.114315815 -0.32064843
-0.04422443 -0.05766584 0.22499552 0.6479902 0.07132726 0.17147236 0.15741402 -0.037473522
0.17733774 -0.30566803 0.04774541 0.09640973 -0.18114762 -0.15841267 0.115642436 -0.0023071135
0.11577777 0.98225325 0.29673538 -0.11731551 0.078940585 0.17363493 0.29552644 0.30893263
0.2034865 0.3779285 0.1874854 0.5005238 0.24433304 0.19273354 0.20684004 1.1372974
0.34573403 0.5600502 -0.0046517663 0.79349947 -0.19783923 0.40922284 0.14138931 -0.31286842
-0.4625475 0.24274136 -0.21643122 0.22858706 -0.40869498 -0.034777682 0.34382695 -0.24429747
0.2158754 -0.09705915 0.27575916 0.13500573 -0.2402591 0.010302308 0.011484222 0.09527888
0.15386683 0.12645112 -0.25752372 -0.092763156 0.05209794 -0.17845207 0.16863611 -0.091267824
0.02667382 0.36011705 0.06974646 -0.049364563 0.12259212 -0.18774922 0.25368765 -0.065813094
-0.23072201 0.019448873 -0.029530067 0.045069836 -0.27311748 0.11026044 0.29009452 0.06446288
-0.52424383 0.13235317 0.11215174 -0.22690104 0.18592022 0.24543403 -0.3850274 0.12040074
0.18114339 -0.02879527 0.25562033 -0.46058187 0.53440404 -0.1967526 -0.07732579 -0.031260993
-0.019925995 -0.2633179 0.43089372 -0.14950652 -0.14362372 1.0652146 0.1936721 -0.16186664
0.27473179 -0.053100463 0.41329777 0.6723598 0.42314273 0.35951135 0.1172384 0.41722754
0.21551783 0.23532896 0.23593594 0.8468875 0.16350955 0.61852866 0.11340561 0.47128072
0.020940963 0.26944944 0.30750203 0.11676602 -0.18954664 0.3408233 -0.12959643 -0.03681305
0.3218997 0.3267073 0.15150699 0.044614684 0.18860678 0.10878051 0.23081364 0.09189213
-0.10178733 0.37018213 -0.06481369 0.08906281 0.06720011 0.08580627 0.4756115 0.3497068
0.10169537 -0.0063735126 0.29700115 0.06401858 -0.003098648 0.14100584 0.20626841 0.124021925
0.0897241 -0.18025364 0.110817835 -0.1193764 0.22787973 0.63932127 0.24832784 -0.25980723
0.13741563 0.20322368 0.16635801 -0.04244116 -0.06676261 0.2751833 0.052422516 -0.1711129
0.00039539434 0.119151406 0.33157077 0.5358637 -0.018442463 0.051195726 0.14566848 -0.07920074
0.23448198 -0.24780731 -0.0037700317 0.18602306 -0.07165498 -0.19391754 0.092288665 -0.2247251
0.19045761 1.0727148 0.22351202 -0.004254864 0.055915188 0.18563606 0.26171 0.2210229
0.10292052 0.44121805 0.21136644 0.33129597 0.36622697 0.08555829 0.33504552 1.0316067
0.28205574 0.7010091 0.13444842 0.6030256 -0.049950093 0.31683585 0.32734194 0.084399655
00000000: ca07 8d3d fa70 9d3e e76a c43e d716 2a3e
00000010: bc8a 86be a1ea e93d 5f1e 95bd 923a 903d
00000020: 75ee 0c3f 3060 8e3e 978b e03d 832f 0f3e
00000030: fc8b 823e 51e9 443d 46b0 583e f3c1 1fbd
00000040: 9705 82bd 20a3 0c3f cfe8 f6bd 4fb1 90bd
00000050: e975 0c3d f024 1d3d 2f69 be3e a797 953e
00000060: a8a7 3b3e b3bc c5bd ab10 8c3e cc3f e8bc
00000070: 28bc 50bd 4b2f 113e 6463 863e ac82 ce3d
00000080: c69e 4cbd f1a6 0fbe 26e5 c73d 0473 4abe
00000090: d798 b53e 7127 213f 692b 833e af8e 8abe
000000a0: 940f 9c3d e1c1 1d3d a7c9 833e ceaf 80bc
000000b0: be25 bebd 1fdb a33e 691e eabd 082c a4be
000000c0: ad24 35bd 0433 6cbd 3a65 663e b0e2 253f
000000d0: 0714 923d 7396 2f3e 2431 213e d67d 19bd
000000e0: 0698 353e 8580 9cbe b190 433d 7772 c53d
000000f0: c37e 39be ee36 22be f1d5 ec3d f132 17bb
00000100: e51c ed3d f374 7b3f b3ed 973e 1d43 f0bd
00000110: 9aab a13d 5bcd 313e 3e4f 973e 6b2c 9e3e
00000120: c45e 503e d87f c13e 2cfc 3f3e 5422 003f
00000130: 7132 7a3e f15b 453e e0cd 533e f692 913f
00000140: 0d04 b13e 735f 0f3f d86d 98bb c822 4b3f
00000150: 5e96 4abe a885 d13e 5cc8 103e 4a30 a0be
00000160: 07d3 ecbe 3191 783e 25a0 5dbe ba12 6a3e
00000170: 7840 d1be 0b73 0ebd 160a b03e 1e29 7abe
00000180: 710e 5d3e f3c6 c6bd 4e30 8d3e f13e 0a3e
00000190: 7b06 76be 03cb 283c 5128 3c3c 9321 c33d
000001a0: 448f 1d3e 677c 013e 26da 83be 9cfa bdbd
000001b0: a664 553d 24bc 36be f2ae 2c3e a0ea babd
000001c0: 0e83 da3c 4361 b83e 3bd7 8e3d 7f32 4abd
000001d0: 9411 fb3d 5541 40be 59e3 813e 04c9 86bd
000001e0: 6442 6cbe 3e53 9f3c 0ae9 f1bc 269b 383d
000001f0: 0ed6 8bbe 3ad0 e13d 4587 943e 1d05 843d
00000200: d834 06bf 9787 073e d0af e53d bf58 68be
00000210: df61 3e3e 0f53 7b3e 5022 c5be aa94 f63d
00000220: a77d 393e 0fe4 ebbc abe0 823e 63d1 ebbe
00000230: b4ce 083f 8379 49be fc5c 9ebd 870b 00bd
00000240: d73b a3bc 9bd1 86be 1a9e dc3e 3d18 19be
00000250: 1912 13be f458 883f fb51 463e 5ec0 25be
00000260: a5a9 8c3e df7f 59bd c49b d33e c61f 2c3f
00000270: 2aa6 d83e df11 b83e b01a f03d d99e d53e
00000280: b5b0 5c3e 13fa 703e 3199 713e 9fcd 583f
00000290: 0c6f 273e e557 1e3f 3341 e83d b54b f13e
000002a0: 628c ab3c 47f5 893e e870 9d3e 0623 ef3d
000002b0: 8418 42be 6480 ae3e edb4 04be 48c9 16bd
000002c0: 0ad0 a43e 2e46 a73e a624 1b3e e3bd 363d
000002d0: 2322 413e 51c8 de3d 695a 6c3e f131 bc3d
000002e0: e075 d0bd 8388 bd3e 0abd 84bd 9066 b63d
000002f0: 36a0 893d 33bb af3d 5a83 f33e c50c b33e
00000300: aa45 d03d e6d8 d0bb 8910 983e 2c1c 833d
00000310: b012 4bbb d663 103e 0738 533e 35ff fd3d
00000320: 45c1 b73d 6994 38be 76f4 e23d 9d7b f4bd
00000330: 4e59 693e 8faa 233f a749 7e3e 7405 85be
00000340: afb6 0c3e de19 503e c159 2a3e c8d6 2dbd
00000350: d6ba 88bd d3e4 8c3e feb8 563d 3838 2fbe
00000360: ee4c cf39 a705 f43d a5c3 a93e 5d2e 093f
00000370: a614 97bc 9cb2 513d 1e2a 153e ff33 a2bd
00000380: 0b1c 703e 33c1 7dbe a312 77bb d47c 3e3e
00000390: d9bf 92bd 5292 46be d701 bd3d 561e 66be
000003a0: 5207 433e b84e 893f 56e0 643e 636c 8bbb
000003b0: 5307 653d 6117 3e3e dafe 853e d453 623e
000003c0: fec7 d23d 55e7 e13e 7270 583e a09f a93e
000003d0: 1a82 bb3e 2f39 af3d 168b ab3e b00b 843f
000003e0: 9c69 903e 5575 333f d9ac 093e e35f 1a3f
000003f0: 7898 4cbd 4f38 a23e 5d99 a73e bad9 ac3d

0.bias f4 [64]
2.4799154 1.7293879 2.4950523 2.0542805 2.5225174 2.2072127 2.1911788 2.4118094
2.1990895 1.3104008 1.9511231 1.9418966 2.1340272 1.100553 1.9723564 2.2402372
2.0957513 2.4264004 2.4651701 1.9501715 -0.005296417 2.4614058 2.0928864 2.1339288
1.9305997 1.9688973 -0.4186778 -0.33844146 1.777041 0.4941719 1.767233 2.5007088
1.7921795 2.3501742 2.0969899 2.1618462 2.5476508 2.452411 2.3104854 1.6934352
2.298597 2.3708441 1.1925564 2.1680412 2.2538302 -0.37188596 -0.23568961 1.39277
2.2848058 2.420138 2.180303 1.9402397 2.467977 1.7147093 2.2671213 2.0072603
2.098091 -0.07624469 2.2490711 2.369681 2.5598488 2.4580936 2.3986793 1.6331427
00000000: efb6 1e40 955c dd3f f0ae 1f40 5579 0340
00000010: ed70 2140 f942 0d40 463c 0c40 165b 1a40
00000020: e2bd 0c40 37bb a73f 67be f93f 1190 f83f
00000030: e793 0840 ecde 8c3f 2d76 fc3f 0c60 0f40
00000040: ca20 0640 254a 1b40 59c5 1d40 389f f93f
00000050: 918d adbb ac87 1d40 daf1 0540 4a92 0840
00000060: e41d f73f d404 fc3f f05c d6be 3348 adbe
00000070: 1476 e33f 1904 fd3e b134 e23f 9d0b 2040
00000080: 2366 e53f 4169 1640 1535 0640 b05b 0a40
00000090: b60c 2340 4df4 1c40 fede 1340 7cc2 d83f
000000a0: 371c 1340 e9bb 1740 b0a5 983f 30c1 0a40
000000b0: c13e 1040 d667 bebe 9e58 71be 4a46 b23f
000000c0: 423a 1240 8ae3 1a40 168a 0b40 c659 f83f
000000d0: 56f3 1d40 987b db3f 8418 1140 f476 0040
000000e0: 1f47 0640 2d26 9cbd c8f0 0f40 daa8 1740
000000f0: 90d4 2340 6851 1d40 f683 1940 d20a d13f

2.weight f4 [7, 64]
0.94711626 1.149966 1.0042374 1.07037 1.0678881 0.93597007 1.0278115 1.435622
1.0932574 1.0108287 1.129679 1.3277737 1.3358995 0.42864478 1.2394105 1.2190027
1.0665282 0.9157255 1.4521986 0.9720779 -1.0167131 0.91632086 1.0433437 0.8767829
1.2213789 1.0137619 -0.32256985 0.12501514 1.5001807 0.830148 0.9071379 0.98098135
0.81274545 1.1636198 1.2506282 0.8405367 1.2689061 0.85653126 0.97330046 1.0308136
1.3190801 1.0290618 0.71210396 1.1689585 0.99287444 -1.0061219 -0.455657 1.1844208
1.1049962 0.86458296 1.0246217 1.0602062 1.1410804 0.91182035 1.1611884 0.82253194
1.2019243 0.5417695 1.2569503 0.91845226 1.2215961 0.96555233 0.8607173 1.1880615
1.1637268 0.99948794 1.1326214 1.0772184 0.9806124 1.0691183 1.0575849 1.5346155
1.0634563 0.48746115 0.9051836 1.2105842 1.1922263 0.92754465 1.1344447 1.2907674
0.8918708 1.0727003 1.6300777 1.0408229 0.39200205 0.92227125 1.2910703 1.0327891
0.95232576 1.0102204 -0.18390717 -0.28674757 0.8032541 0.25917232 0.75671446 0.93851805
1.0388417 1.2979698 1.4605685 0.8965421 1.2168334 1.0070183 1.0800279 0.9267277
1.2845064 1.2333251 0.61815304 1.3815255 1.0166712 -0.47348204 -0.48589784 0.7972246
1.1979053 0.9442945 0.7881809 0.86280054 0.92074925 0.9233382 0.96355194 1.0359623
1.075212 -0.8548854 0.997317 0.74523175 1.2441804 0.86687076 1.0438284 1.3714457
0.98016286 0.83783513 0.959172 1.1567492 1.132381 0.9529254 1.4335908 1.5635
1.0556384 0.32365137 1.3053491 1.1619215 1.3945483 1.1451168 1.1889881 1.3644637
0.8420331 0.9860049 1.6584845 0.89922315 0.19114162 0.9356843 1.0868706 0.9324201
1.019009 1.2113068 -0.009608422 -0.58811265 1.120862 -0.09233567 0.89416945 0.8823897
0.96254784 1.42042 1.406881 0.8373387 1.2769144 0.9489141 1.148317 0.6739471
1.1499232 1.2283967 0.24086559 1.1558247 0.9525642 -0.15353431 -0.23634726 1.0807441
1.0861061 0.9734305 0.9568945 0.764551 0.9499 0.90542305 1.2305511 0.76311445
1.2160788 -0.07536446 1.0267043 0.9277847 1.2234997 0.8498548 0.9866646 0.6760872
1.0219563 1.0718887 1.0754926 1.1167792 1.0331749 0.8934899 1.3699149 1.3845074
1.0989544 0.81938154 1.0224324 1.115536 1.2438632 0.5297402 1.2594318 1.1466426
0.8091415 0.966331 1.6005421 0.9429022 -0.06663794 0.9791058 1.3138256 1.211738
1.0970905 0.8277301 0.053397328 -0.3698224 1.0574752 0.6557917 0.8743584 0.9731817
0.61997765 1.2647891 1.2702053 0.6616296 1.1669534 0.9779454 1.1567165 0.9757718
1.0800247 1.0721388 0.3946054 1.0574607 0.80313706 -0.3959504 0.6749021 0.6813829
1.0727408 0.9605864 0.9356283 1.195153 0.8860025 0.87053 1.0353467 0.9680408
1.2466587 0.23241253 1.1676472 0.91824436 1.321556 1.0635953 0.99326146 0.764962
00000000: 3676 723f 1632 933f da8a 803f e201 893f
00000010: 8fb0 883f bc9b 6f3f 548f 833f 76c2 b73f
00000020: dcef 8b3f d662 813f 5299 903f 7df4 a93f
00000030: c1fe aa3f 5477 db3e 01a5 9e3f 4808 9c3f
00000040: ff83 883f fd6c 6a3f a5e1 b93f 19da 783f
00000050: a823 82bf 0194 6a3f 498c 853f d874 603f
00000060: 2556 9c3f f3c2 813f e027 a5be f803 003e
00000070: ec05 c03f 9484 543f 303a 683f 9821 7b3f
00000080: 1610 503f 7ef1 943f 9614 a03f 6a2d 573f
00000090: 846b a23f a245 5b3f 382a 793f b3f1 833f
000000a0: 9ed7 a83f 4cb8 833f 724c 363f 6fa0 953f
000000b0: 052d 7e3f 9ac8 80bf e04b e9be 1a9b 973f
000000c0: 8470 8d3f 4f55 5d3f ce26 833f d6b4 873f
000000d0: ec0e 923f 0f6d 693f d2a1 943f 7491 523f
000000e0: a8d8 993f 68b1 0a3f bfe3 a03f b01f 6b3f
000000f0: 435d 9c3f 702e 773f f857 5c3f 6612 983f
00000100: 00f5 943f 71de 7f3f bdf9 903f 4be2 893f
00000110: 6a09 7b3f ded8 883f f15e 873f 486e c43f
00000120: 561f 883f 8294 f93e 1dba 673f 6cf4 9a3f
00000130: df9a 983f 9173 6d3f 7c35 913f de37 a53f
00000140: a551 643f 3e4e 893f 63a6 d03f af39 853f
00000150: 7eb4 c83e f819 6c3f cb41 a53f 6f32 843f
00000160: 9fcb 733f e74e 813f 2952 3cbe 94d0 92be
00000170: 10a2 4d3f 3cb2 843e 0ab8 413f b842 703f
00000180: c4f8 843f e023 a63f e9f3 ba3f c883 653f
00000190: 32c1 9b3f fae5 803f 5b3e 8a3f 073e 6d3f
000001a0: b56a a43f 99dd 9d3f 473f 1e3f d4d5 b03f
000001b0: 4822 823f 3d6c f2be 9ac7 f8be e916 4c3f
000001c0: f654 993f 49bd 713f 39c6 493f 7fe0 5c3f
000001d0: 39b6 6b3f e45f 6c3f 57ab 763f 6a9a 843f
000001e0: 8ca0 893f c5d9 5abf 2b50 7f3f 82c7 3e3f
000001f0: 4e41 9f3f 3eeb 5d3f 2b9c 853f 888b af3f
00000200: f4eb 7a3f 5d7c 563f 4c8c 753f 5c10 943f
00000210: dcf1 903f ebf2 733f e77f b73f c520 c83f
00000220: 291f 873f a2b5 a53e ae15 a73f d8b9 943f
00000230: 8f80 b23f 3093 923f c330 983f bfa6 ae3f
00000240: 7b8f 573f d16a 7c3f 3849 d43f 7d33 663f
00000250: a1ba 433e 0289 6f3f 931e 8b3f 15b3 6e3f
00000260: e36e 823f 1a0c 9b3f a56c 1dbc 8d8e 16bf
00000270: 6878 8f3f 7c1a bdbd 4ae8 643f 4be4 613f
00000280: 8969 763f 53d0 b53f ad14 b43f d45b 563f
00000290: ee71 a33f 09ec 723f 0dfc 923f cc87 2c3f
000002a0: af30 933f 1a3c 9d3f 78a5 763e 10f2 933f
000002b0: 3fdb 733f 1938 1dbe 0405 72be d355 8a3f
000002c0: 8605 8b3f be32 793f 0af7 743f 9db9 433f
000002d0: a52c 733f cec9 673f b382 9d3f 785b 433f
000002e0: 78a8 9b3f af58 9abd 0c6b 833f 4c83 6d3f
000002f0: a39b 9c3f 1690 593f 0d96 7c3f 0d14 2d3f
00000300: 77cf 823f a633 893f bea9 893f 9ff2 8e3f
00000310: 133f 843f c1bb 643f 5f59 af3f 8a37 b13f
00000320: 8aaa 8c3f fdc2 513f 11df 823f e2c9 8e3f
00000330: e936 9f3f 0e9d 073f 1035 a13f 2fc5 923f
00000340: e623 4f3f 7861 773f 90de cc3f 0a62 713f
00000350: 7979 88bd ada6 7a3f 702b a83f 3b1a 9b3f
00000360: 766d 8c3f 1fe6 533f 28b7 5a3d 5d59 bdbe
00000370: 595b 873f f7e1 273f f4d5 5f3f 7022 793f
00000380: dbb6 1e3f 9ce4 a13f 1696 a23f 8f60 293f
00000390: bb5e 953f a15a 7a3f 490f 943f 2ecc 793f
000003a0: 403e 8a3f d83b 893f b809 ca3e df5a 873f
000003b0: 649a 4d3f 03ba cabe 62c6 2c3f 1c6f 2e3f
000003c0: 924f 893f fee8 753f 5685 6f3f c6fa 983f
000003d0: 0fd1 623f 0edb 5e3f 3e86 843f 86d1 773f
000003e0: 8392 9f3f 8dfd 6d3e 7775 953f 1012 6b3f
000003f0: bf28 a93f e423 883f 6246 7e3f 8dd4 433f

2.bias f4 [7]
1.1307753 1.2256275 1.1703842 1.1353557 1.3177706 1.1481354 1.0112405
00000000: 3fbd 903f 5de1 9c3f 26cf 953f 5653 913f
00000010: b5ac a83f 1af6 923f 5470 813f
