saved_models/A2C/using_glicko_for_matchmaking/model10.pth (torch, 48448 bytes, 7 tensors)

0.weight f4 [64, 84]
00000000: 44e1 543d b2d7 6c3d 98f4 c6bc 7ca2 f2bd
00000010: e512 4fbd c55b 17bd 048e 70be b007 e9bd
00000020: ac13 223a 7431 a5bd eca1 a73e 29f4 02bd
00000030: 3653 84bd 79ba 773d 0079 b0bd 158d aebe
00000040: 5925 e13c 70b0 08be 77fd b7be 1e2d fabc
00000050: 8099 14be 4187 3abd 6d57 b23d 9748 ecbd
00000060: c22a 75be 6dca 253e 7887 763d b647 c7bd
00000070: 792d 91bc e56c d03d e672 bcba a473 523c
00000080: 40d2 c93d 9fcb a5bd 3079 45be f160 2fbe
00000090: 3913 3abd 3c1b a8bc d733 d63e 7d4e 24bd
000000a0: 0e52 1c3e 120e e5bc 5b7a bc3c a293 f53d
000000b0: 24ff ab3e c4bc 983d 35cf 3b3c 3451 f2bd
000000c0: 85a2 c93e eafa 473e 4535 a03e cfe8 dfbd
000000d0: 140b e23d ec83 ae3d 30ca b03d c84c 1abd
000000e0: 18df 0fbd 1ef6 79be f323 b6bd a6d4 613e
000000f0: 56e5 37bd aa60 683c 241c 48be 5d17 0e3e
00000100: 6687 f2ba 54c3 943e 5a74 92bc 8c63 fb3c
00000110: 4cad b83d 1702 b43d 855d a23e 9086 03be
00000120: 6efb 053d accc 8bbd 4d67 1a3e c10a 283d
00000130: ec75 033d b5e8 2d3d d918 ac3d 7ea6 8b3e
00000140: 35ae 953e fcf9 abbc 8ad8 883d b04d 11be
00000150: aed7 963e 36b9 b7bd 13d1 e63d ec24 d83d
00000160: bce5 93be ea10 833e b3ac 23be e5d3 4ebd
00000170: 1c70 4b3d 9c1e 89bc 95ca 30be 77f8 99bc
00000180: 7f28 84be 2316 82bc ecf8 263e ad62 9f3e
00000190: fda1 2dbe 1d88 9c3e 9729 14bd 41a4 853d
000001a0: 11d9 cbbd 1c61 adbc b4cb 49be 2fb3 9fbd
000001b0: 2dac 59bd ef58 923d 1a4b b83d 51c4 9a3d
000001c0: 7f00 cebb 3130 16bd 3728 ebbd d5e9 53be
000001d0: 409e 00be 0459 3cbe 3ddc ca3d a256 233d
000001e0: 3ae9 883e a19f 95bc 25d6 933d 74ce 43be
000001f0: 4bbf 3a3e 0c37 34be 481f 90bc d026 b5bd
00000200: 7e57 c2bd bfc7 4f3d 58d0 3abe dc18 853c
00000210: 97e0 d83e 82cb 4d3e 3caf 923c 1b24 2ebd
00000220: 13b7 13be 6391 a83d fd2f e4bd 5778 14bd
00000230: 674a 94be 2eae 443d e583 fbbc 8120 35bd
00000240: 79a5 77be 1b1f 483e 0beb 303d 1f44 1b3d
00000250: d731 dfbd fef1 99be 2504 19be 28e4 963e
00000260: 1185 293e a8d2 db3c 698e 893d 3a50 16bd
00000270: 2b43 193e a28c 9ebd 195d 30be a5d6 c23e
00000280: 0f24 cc3d 797b 3fbd 6e1f 183d a58f 213d
00000290: 42dd 25bd 2cc9 0ebe 5e76 5bbd ff00 283e
000002a0: 558b f33d e554 923d 74eb 9bbd 98ad 9abd
000002b0: b9cf 1b3e 76f9 693d f063 93be 90ef d6bd
000002c0: 262e 543d b77a 3cbc 7e37 15bd a2cf ebbd
000002d0: 7778 fdbd b79f b93c a8ec c53d 973e 483d
000002e0: 9d68 1d3e 7b70 a43d d2e2 07be f99c 573d
000002f0: 6e3f 843d ee5a 63bd f666 82be 82e0 543e
00000300: 7ce3 ce3d 209b 1a3e 82e0 d03b 91da 4abe
00000310: 7349 04bb 51c3 563e 5efd ca3e cf5d 65bd
00000320: e947 703c f454 5abe a791 193e 4784 0d3d
00000330: b1df 373e b3e5 963d bbae 65bd 15f9 0fbe
00000340: dd4c c7bd 0e1f fcbd 2871 f1bd fdee 503e
00000350: 8ac2 893d 94e3 99bd dbde 323d 232a 90bc
00000360: 0f7d 61be aba3 84bd 2bcf 4b3e 8c0c 1abd
00000370: 53d7 a13d 9adc 0dbd 6146 243e 023f 893d
00000380: f459 9d3d 10d9 5d3d 4188 36bd 3dca 8b3e
00000390: 3b81 e43e af16 9a3c aee7 a3bd bad1 73be
000003a0: ed2b fcbd e30b 183c 91d1 3ebe 1e46 283d
000003b0: 80eb ff3d d6c9 a2be d4b9 81be 72d5 f8bd
000003c0: 3c94 9ebe 313e bf3d 6ce2 46be b7d4 393c
000003d0: 07de b93e c0f3 93bc f7aa 493c a9c3 093d
000003e0: bd8e 3abd 5336 6cbd 2ddc be3e 466c 6b3d
000003f0: fd19 e73d b14a 54bd d78f 193e 6e48 203e
0.051972643 0.05782289 -0.024286553 -0.11847398 -0.05055513 -0.036952753 -0.23491675 -0.113784194
0.0006182741 -0.08066073 0.32740724 -0.03197113 -0.06461184 0.06048057 -0.08616829 -0.34092012
0.027483629 -0.13348556 -0.35935566 -0.030539092 -0.1451168 -0.045539144 0.087080814 -0.11537283
-0.23942092 0.161905 0.060187787 -0.09730475 -0.017721878 0.1017702 -0.0014377504 0.012844954
0.09854555 -0.08095478 -0.1928451 -0.17126824 -0.04542849 -0.020520799 0.41836426 -0.040113915
0.15265676 -0.02796081 0.023007562 0.11991049 0.33593094 0.07457879 0.011462976 -0.118318945
0.39381805 0.1952931 0.3129064 -0.109330766 0.11037269 0.08521256 0.08632314 -0.03767088
-0.03512487 -0.24410293 -0.088935755 0.22053775 -0.044896446 0.014183203 -0.19541985 0.138761
-0.0018503487 0.29055274 -0.017877746 0.030687116 0.09017429 0.08789461 0.31711975 -0.128443
0.032710485 -0.068261474 0.15078469 0.04102588 0.03209488 0.042458255 0.08403177 0.2727546
0.29234472 -0.020993225 0.066819265 -0.14189792 0.29461426 -0.08970873 0.112703465 0.10553917
-0.2888621 0.25598842 -0.15983848 -0.050495047 0.049667463 -0.016738228 -0.17264779 -0.018795235
-0.25812146 -0.015879696 0.16305894 0.3112997 -0.16956325 0.30572596 -0.036172476 0.065254696
-0.099535115 -0.02116447 -0.19706613 -0.077978484 -0.053142715 0.07145869 0.089986995 0.07556976
-0.00628668 -0.036667053 -0.1148228 -0.20694669 -0.12560368 -0.18393332 0.09905288 0.03987754
0.26740438 -0.018264594 0.07218579 -0.19121724 0.18237035 -0.17599124 -0.017593041 -0.088452935
-0.09489344 0.050727602 -0.1824354 0.016247205 0.42358848 0.20097163 0.017905824 -0.0425149
-0.14425306 0.08230855 -0.111419655 -0.036247578 -0.28963014 0.048017673 -0.03070254 -0.04422045
-0.24184217 0.19543116 0.043192904 0.037906762 -0.10898178 -0.30067438 -0.14942987 0.29470944
0.16554667 0.026833847 0.06716616 -0.036697604 0.14967029 -0.07741667 -0.17223014 0.38054386
0.09967815 -0.046748612 0.03713935 0.03944363 -0.04049421 -0.13943928 -0.05357968 0.1640663
0.1189181 0.071450986 -0.076132685 -0.07552642 0.15215959 0.05712267 -0.28787184 -0.10494912
0.051801823 -0.011503867 -0.036429875 -0.11514212 -0.123764925 0.022659166 0.09664279 0.048887815
0.15371938 0.080292664 -0.13270119 0.052639935 0.06457411 -0.05550664 -0.25469178 0.20788768
0.10101983 0.15098238 0.0063744197 -0.19809939 -0.002018538 0.20972945 0.3964643 -0.055997666
0.014665582 -0.2132147 0.14996968 0.034549978 0.17956425 0.073680304 -0.05607484 -0.14059861
-0.097314574 -0.12310611 -0.11789161 0.20403667 0.067265585 -0.0751411 0.043669563 -0.017598217
-0.22020362 -0.0647653 0.19903247 -0.037609622 0.07902398 -0.03463421 0.16042472 0.06701471
0.07683173 0.054162085 -0.044563536 0.27302733 0.44629845 0.018809645 -0.08003174 -0.23810473
-0.12313066 0.009280178 -0.1863463 0.041082494 0.1249609 -0.31794614 -0.25337088 -0.121500865
-0.3097247 0.09338034 -0.1942231 0.011342219 0.36302206 -0.018060565 0.012308828 0.03363386
-0.045546282 -0.057668995 0.37277356 0.057476304 0.11284254 -0.051829044 0.14996277 0.1565263

0.bias f4 [64]
00000000: 8795 333c b5d8 0d3d 8d19 a6bb d1e2 19bd
00000010: c526 d93c a72f 31bc a0bb 02bc 7e1d dc3c
00000020: 7c3f e6bc b0fc 14bd 5711 bd3c e32b 043d
00000030: a33d 9439 761b dcbc ca86 223b e2f0 c53c
00000040: 2a82 41bc 3e24 613c 79f9 32bc 84c0 403c
00000050: 62ea b0bc e087 e7bc c49c cd3c 9569 92ba
00000060: 78a4 f93c 19a4 d0bc f578 98bc b404 58bd
00000070: 5ac9 1cbd 3c27 ce3c e064 96bb 3b8b ca3c
00000080: 9f19 00bd d719 f93c 1df2 41ba 76a7 c9bc
00000090: 615f 1dbd a281 3dbc ca38 cebc a253 d43b
000000a0: 366f 433b 82ad 79bc fdfd 6f3c 12c9 9d3c
000000b0: fee6 c83c bc27 24bc 2e23 383d 2669 753c
000000c0: d044 aeba 3c07 553a b3b5 ec3c 3295 bc3c
000000d0: 6972 7b3b 763a 8e3c 836a df3c 413a 0d3c
000000e0: 9b93 d03b b64a 8e3d a57e edbc 03f5 50bc
000000f0: 4616 c53c 9f7f 43bc 09f9 f0bc 83f6 75bc
0.010960943 0.034630496 -0.005068964 -0.037569825 0.026507745 -0.010814584 -0.007979304 0.026869532
-0.028106444 -0.036373794 0.023079557 0.032268416 0.00028274683 -0.026868563 0.0024799579 0.024162713
-0.011810819 0.013741551 -0.010923737 0.011764649 -0.021596137 -0.028263032 0.025099166 -0.0011170382
0.030473933 -0.025468873 -0.018612364 -0.05273886 -0.03827796 0.025165193 -0.004589662 0.024724593
-0.031274434 0.03040783 -0.00073984434 -0.024615984 -0.03842104 -0.011566551 -0.025173564 0.0064796964
0.0029820926 -0.015239121 0.014647958 0.019260917 0.024524208 -0.010019239 0.044955425 0.014978683
-0.0013295654 0.0008126383 0.028895235 0.02302036 0.0038367754 0.01736186 0.027272468 0.008619846
0.006365252 0.06947844 -0.028991053 -0.012753728 0.024058472 -0.011932283 -0.029415624 -0.015012386

2.weight f4 [7, 64]
00000000: 677a f9bd 7178 5e3e 2d7b a7bd 9531 063d
00000010: f0e3 323e dbf3 fb3d fcf3 31bd c5b1 f8bd
00000020: 5b99 54bc 268e 1e3e e2d5 02bd 2461 873e
00000030: 34e4 983d 7b2b 19bd d06d 49be 9005 7dbe
00000040: 7e6b a6be ac67 d03d 03b4 a0be 87bf 993d
00000050: 3503 983e 9306 d9bd 9fa5 07bd 8287 76be
00000060: 7bbb 36bd fd95 103e be76 0fbe 50bc 58bd
00000070: d40b 1abd 12b2 47ba 81e9 29be 5d9f 743e
00000080: 8ede f9bd 2f0b 853d 1df6 b83e a2cb 0ebe
00000090: 6586 843e 35af e33c 8737 393e d5ca 253e
000000a0: eb9c 7f3e 1178 98be 40fc b1bd 0151 ef3c
000000b0: 63b2 6e3c 1b12 18be f99c 083d d4d4 ad3d
000000c0: 433e b0bc 029d b53c 5398 cb3e fbed a33e
000000d0: 861e 2f3e adaf 853d 454f 72be 8410 30be
000000e0: d1ed 383e 35a5 773d 2e55 8bbe 93c5 de3d
000000f0: b1c9 8e3e 78bb 07be 140d 593e ea6e e43d
00000100: 8f0f 11be c5f9 9ebc 4195 cbbb 698b 873e
00000110: 85c8 87be 4fb4 1b3e 8b4b 713e 5001 993d
00000120: 3563 583c 5f72 8dbb 4691 c6bd 0a4b 12bc
00000130: d618 d73b d173 3a3d 5a04 26be e9ef b3be
00000140: 874d b8bd b553 0f3e a865 62bc 1661 443e
00000150: 7777 563e e961 df3e 73c2 9ebc 04d0 f93d
00000160: 5317 4abd f69b 053e 0aec 223e 1be0 703e
00000170: 3250 3a3e ca2e 02bf e805 7e3e d8ae 26bd
00000180: 99af 013e 8687 f5bd 1c57 c43d 926a 6a3e
00000190: 9bb9 4dbd 2c0d 12be cf5f 39bd 525b 90bd
000001a0: 1b4d 4fbc 381d 29bd 84e1 8ebe 9292 d5bc
000001b0: de2f c4be ec26 1dbd 4209 8dbe 2f83 2bbe
000001c0: f142 3ebd f5f7 383d 2644 05be 4801 0abe
000001d0: 15fc 073e c2ae 5e3e c085 2bbe 25db 16be
000001e0: 2e24 74be 7fd0 13be 9242 183d 8375 bb3c
000001f0: 299b 5dbe e8b1 cebd 7c18 a23e 9a65 afbd
00000200: bc7c 4f3d 708a 813e 7953 59bd aaf1 adbe
00000210: a43f eabc 077d 49bd e971 17bd ac51 863e
00000220: 4e14 ffbd 1726 58be a191 1d3e cb89 123e
00000230: bced 663e 28fe 01be 105e 453e b597 f2bd
00000240: 183e 273e 363e 893d 5ceb cb3c b79b 7e3e
00000250: da6a 23bd 832a f7bc 1b71 a53e bcf9 1c3e
00000260: 9ffc 1c3e 65fd 98bd 197d 263e 84dd 1bbe
00000270: 4dea 26be 6357 15be b665 533e 3463 373e
00000280: a2b9 89bd 59d8 d73d 8c60 5ebe 506d bd3d
00000290: e6ab 87be fab3 a2be 5d9c 253e 0d87 86bd
000002a0: 5b64 063e 70ce 9dbd e721 55bc dbf5 8e3b
000002b0: 483a 4a3d 535b 05be e3b2 273e 0f97 b03d
000002c0: 62cf dcbd b4c7 80bd 3bc0 6d3e 866e 4d3e
000002d0: 170a 1a3d fa0b dc3e ba30 173e d133 ccbd
000002e0: 6514 56bd e4b2 153f 0d2b 47be 6e19 89be
000002f0: ae30 1bbe a1ad 01bc cb4d 23bd b198 98bd
00000300: 7312 90be f3f4 93bd a27f 03be 9dd1 d23d
00000310: d98a edbd 4c32 c1be 17e5 3e3d 6396 1bbd
00000320: 43d4 273d ca85 bb3d d203 43bd a814 7f3e
00000330: 111a a63e 887e 2dbe 97c6 cabc 4d69 e9bd
00000340: 8f74 9b3d 2a89 603d a48b c43d 02e6 57bc
00000350: 67d6 41be c79a fb3d 2e0d 18be 8ab1 403e
00000360: 6a44 c8bd ea2b d23d 591f 753e 1757 6e3d
00000370: b104 ecbd 3069 3fbe bea8 37be 731f c2be
00000380: be4a a7bd d729 063e 8fdd c73c cef8 80be
00000390: 9b3b 6d3d d6ba 27bd 6652 b03e 0ed8 633d
000003a0: 56f8 e73d 7aba 92be fa1e d53c 98ab c83d
000003b0: 3f66 5dbd faf4 8c3e d63e 17be 61fb 6dbe
000003c0: 6eff fa3d 80aa bdbd 6171 263e c1c6 a6be
000003d0: 09da e5bd 06ca e5bd a526 39be f958 323d
000003e0: d938 e43d 3c30 05be bd37 3ebe 292f a7be
000003f0: 7677 283e ff3e 663e 609e abbe 97fa c53c
-0.121815495 0.21725632 -0.08177791 0.03276213 0.17469764 0.12302371 -0.043445572 -0.12143282
-0.012976016 0.15483913 -0.031942256 0.264413 0.07465401 -0.03739498 -0.19670796 -0.24709153
-0.32503885 0.10176024 -0.31387338 0.07507234 0.29689947 -0.10596957 -0.033116933 -0.2407513
-0.04461239 0.14119716 -0.1401014 -0.052913964 -0.037608936 -0.0007617782 -0.16592981 0.23888917
-0.12200652 0.06496274 0.3612527 -0.13944867 0.25883785 0.027793506 0.18087588 0.16190656
0.24962203 -0.29779103 -0.08690691 0.02921343 0.014568898 -0.14850657 0.033352826 0.08487859
-0.021514064 0.022169594 0.39764652 0.32017502 0.17101488 0.06527648 -0.23663051 -0.171938
0.1805947 0.060460288 -0.27213424 0.10877528 0.27888253 -0.13255107 0.21196395 0.11153968
-0.14166091 -0.019406209 -0.006212861 0.2647355 -0.26520172 0.15205501 0.23563974 0.074709535
0.013207247 -0.0043166126 -0.096956775 -0.0089290235 0.00656424 0.045520607 -0.16212597 -0.35143974
-0.08999162 0.13996775 -0.013818182 0.1917766 0.2094401 0.43629387 -0.01937983 0.12197879
-0.04933865 0.13047776 0.15910354 0.2352299 0.18194655 -0.50852644 0.2480694 -0.040694088
0.12664641 -0.1198874 0.09586927 0.22892216 -0.050225835 -0.14262837 -0.045257386 -0.07048668
-0.012652661 -0.04128763 -0.2790643 -0.026070867 -0.3831777 -0.038367197 -0.27546126 -0.16749261
-0.04645056 0.045158345 -0.13014278 -0.13477051 0.13279755 0.21746352 -0.1675024 -0.14732035
-0.23841926 -0.14435004 0.03717286 0.022883182 -0.2164122 -0.10092527 0.31659305 -0.08564301
0.050656065 0.25300932 -0.05305812 -0.33973438 -0.0285948 -0.0491915 -0.036973868 0.26234186
-0.12455045 -0.2110828 0.15387584 0.14310376 0.22551626 -0.12694609 0.19274163 -0.11845342
0.1633228 0.06701319 0.024892502 0.24864088 -0.039896823 -0.030171638 0.32312855 0.15329641
0.15330742 -0.07470206 0.16258658 -0.1522122 -0.16300316 -0.14584117 0.20644268 0.17908937
-0.0672486 0.10539312 -0.21716517 0.09249365 -0.26498336 -0.31777936 0.16172929 -0.06568728
0.1312422 -0.077053905 -0.013008571 0.0043628043 0.049371988 -0.13023119 0.16376834 0.08622562
-0.10781743 -0.0628809 0.23217861 0.20061693 0.03760728 0.42977887 0.14764681 -0.09970821
-0.052265543 0.5847609 -0.19450016 -0.26777214 -0.15155289 -0.0079149315 -0.03986911 -0.074509986
-0.28139076 -0.07224455 -0.12841657 0.10293887 -0.11598749 -0.37733686 0.046605196 -0.037985217
0.040973913 0.091563776 -0.047611065 0.24910223 0.32441762 -0.16942799 -0.024752898 -0.11397038
0.07590591 0.05481831 0.09596947 -0.013177397 -0.18929444 0.12285381 -0.14848778 0.18817726
-0.09778674 0.10262282 0.2393774 0.058188524 -0.11524332 -0.1869247 -0.17935464 -0.3791462
-0.08168553 0.13101898 0.02439764 -0.25189823 0.057918172 -0.040949665 0.34437865 0.055625968
0.11326663 -0.28657895 0.026015747 0.09798354 -0.054052588 0.27530652 -0.14770064 -0.23240425
0.122557506 -0.09261036 0.16254188 -0.32573512 -0.112232275 -0.112201735 -0.18081148 0.043541882
0.11143655 -0.13006681 -0.1857595 -0.32653168 0.1645182 0.22484969 -0.33519268 0.024167342

2.bias f4 [7]
00000000: a335 803c 890b 76bd 3ec0 6e3d 8bfa 25bc
00000010: b826 babb c87c d33c 0d33 c8bc
0.015650576 -0.060069595 0.058288805 -0.010130535 -0.005680885 0.025816336 -0.024438405

0.weight f4 [64, 84]
00000000: 4f0f edbd bf93 5bbe 9c54 b33d 9d0f 7f3e
00000010: 430d 063e 6fc1 363a f431 a73c 848a bc3e
00000020: d30b 7abd 2b01 84be 5a06 b2be 4584 72bd
00000030: 91e1 eebd cba5 78bd 8904 363e 23ca 463c
00000040: 12b3 16be af76 b3bd 4721 9cba 0fe0 a1bc
00000050: 52ab 8ebd 0322 c6bd 45a3 2e3e 457a 133d
00000060: 19f8 d13d ef0c 8dbe 3311 463e 2d94 d3bd
00000070: 9836 87bd 02c6 863d f498 523d 4058 973d
00000080: bebe bbbd 0fa5 a23e 2c1a a03d 1e7c aebc
00000090: 6559 3d3d 5571 963c f86b e83d 3b34 94be
000000a0: ea1b 3dbe ec03 3cbe ab71 08be 9462 4ebe
000000b0: b866 373e 6d5b ba3c b033 053e 1dd7 413c
000000c0: bbfb 0a3e 689d 21be c8cc dd3d f731 84be
000000d0: 9845 1f3e 236e 993e 8253 463e a049 0abe
000000e0: 6d5a c33d 974d cbbd c0ba 0fbd b315 133e
000000f0: e91c 143e 5163 b63e abba 353e 6f05 4b3b
00000100: 44c0 463e 549d f0bd d3dc b0bd 552e 153e
00000110: 3ca2 9abd 0c68 653d 30fa 2b3d 0262 2b3e
00000120: 63de bdbc 4f2f d4bd a3b8 27bd c98b 75be
00000130: e3b7 6dbd 4d4a 35be 3124 273e 6647 8f3d
00000140: 0302 22be 0900 0abe 7264 873d 3347 8c3d
00000150: 6336 873d 4d0a cc3d bac0 f13d d0ab 05be
00000160: e00e 903d a587 853d 3a87 6e3e 3e82 693e
00000170: c472 ffbd 07b0 0bbe 97f5 013d 7b7a eabd
00000180: 08ac fb3d 0950 673d dbb7 bfbd 67b1 09be
00000190: dd7e b93b ae00 bfbd 30aa 5cbd c2af 053e
000001a0: ebbc 04be 7937 0c3e 5644 b5bd e7a0 b0bd
000001b0: 1d63 a63e 5996 97be 143a 42be 30b2 73bd
000001c0: 7e9b 0f3d ef8f cc3e 22b2 153e af34 293d
000001d0: 0fd0 8c3e 47a4 31ba cadf 4a3d 2d18 9a3e
000001e0: 0aa0 963e 61a1 193e ffa7 803e 0b01 353d
000001f0: 07ba 09be 1c7f 903d e87f 6c3d d4e6 d6bd
00000200: 85af 8ebd af36 193e a03b 593e ffd5 93bd
00000210: f43e 74bd e6d6 1c3e 5f12 8fbe 95c6 a43d
00000220: 8c68 dbba 10fa 74be 4ee8 143e 34d5 22be
00000230: 085d 56be effb 48be 832a 263c 5fce 2a3e
00000240: 3fe0 1b3d 4cc7 60bd b700 6cbe 7f08 8abe
00000250: b4fa d2bd 977b 8abc 7a54 c83c 86b0 4a3d
00000260: 03b0 603b 91b5 8abd 4e10 54bd bfd8 3bbe
00000270: a1f0 c5bc 023b 4c3d 3413 243e 3d44 70bd
00000280: 99bd 84bd 92bf 0c3e 6c80 5bbe 6f15 05bd
00000290: f2cd 383d f03b 0abe 2f5a d03e 27c0 ffbc
000002a0: aca2 e1bd de54 6dbe d767 023d 1df1 4f3e
000002b0: 2e86 13be fcc8 163e 5bb0 8ebe c07f 823c
000002c0: 82e2 dc3b ae06 133c ff7f 13bc 0691 80be
000002d0: a832 14be 3656 163e ef6e 463e a750 3fbd
000002e0: e8cb d13d bce0 c83d 2ac3 2c3d 287d 843d
000002f0: c05c a2bb 9d3d b23c 0f61 28be 1fa0 a8be
00000300: acad d23c d918 033e b7fc 01be 57a8 6bbd
00000310: 379a b6bb fbd9 41be a88e 73bd d6d5 163e
00000320: 8724 c1bb 72c1 5b3e 9edc 43bd 37d5 0fbe
00000330: ab44 773e f4a8 5c3e 2379 23be 9ae6 13be
00000340: 2841 20be fbb3 edbd 80f7 2dbe dc7f bb3d
00000350: 6d7f 113c 78b2 d8bc 5b29 eabd 2d7a a0bc
00000360: 103b 26be 4cc2 823e d574 793d 87b3 783d
00000370: fb6c 143d 737d 06bf c17a e83d f679 183d
00000380: 9ebb ccbd 0af6 bebc c2a0 7e3d 6c71 33bd
00000390: 6ec7 fc3d 3c40 46bd e808 b83c 5a12 76bd
000003a0: efd8 3a3c aa20 953d 8c9d 8f3d 11c3 873e
000003b0: c8fa aabd e1bb 32be 311f 8dbe 5aff cebe
000003c0: af02 74be 430a 933d 5c1c cebd 16d3 55bb
000003d0: 234b d13d abce 3abe ed5a cb3d e3d3 693e
000003e0: 855f d83c 5a3f 1dbe 8847 53be f708 f33d
000003f0: f132 a5bd e2fc 32bc 8190 c9be 3a22 b0bd
-0.115751855 -0.2144308 0.08756372 0.249083 0.13090996 0.0006971573 0.020409562 0.3682443
-0.061046433 -0.2578214 -0.3477047 -0.059208173 -0.11664117 -0.060704987 0.17775168 0.012133154
-0.14716747 -0.087628715 -0.0011911773 -0.01976016 -0.069662705 -0.09674456 0.1705447 0.036005277
0.10252399 -0.2754893 0.19342498 -0.10330997 -0.0660221 0.06580736 0.0514154 0.07389879
-0.091672406 0.31766555 0.07817492 -0.021299418 0.04622783 0.018364588 0.113487184 -0.289461
-0.1846768 -0.18360871 -0.13324611 -0.20154792 0.17910278 0.022748673 0.13007998 0.011831072
0.1357259 -0.15782702 0.108300745 -0.2581937 0.15553892 0.2996684 0.19367793 -0.13504648
0.09538732 -0.099269085 -0.035090208 0.14363746 0.14464153 0.35622647 0.1774699 0.003097858
0.19409281 -0.11748758 -0.08635869 0.14568456 -0.07550475 0.05600743 0.041986644 0.16736606
-0.023177331 -0.10360586 -0.040947568 -0.23979105 -0.058036696 -0.17704125 0.163224 0.0699604
-0.1582108 -0.13476576 0.06610955 0.06849518 0.0660217 0.09962902 0.11804338 -0.13053823
0.07034087 0.06520013 0.23293772 0.2280359 -0.12473062 -0.13641368 0.031728353 -0.114491425
0.12288672 0.05647281 -0.093612395 -0.1344658 0.0056608752 -0.093263015 -0.05387324 0.13055328
-0.12962691 0.13693036 -0.08850925 -0.0862444 0.32497492 -0.29606894 -0.18967468 -0.059496105
0.0350604 0.39953563 0.14618734 0.04131001 0.27502486 -0.00067764934 0.049529828 0.3009657
0.29418975 0.15002967 0.2512817 0.044190448 -0.1344987 0.07055494 0.05773917 -0.10493246
-0.069670714 0.14962266 0.21214151 -0.07218551 -0.05963035 0.15316352 -0.27943704 0.08045689
-0.0016739531 -0.23923516 0.14541742 -0.15901643 -0.20933926 -0.19627355 0.0101419715 0.16680287
0.038055655 -0.054877564 -0.23047148 -0.26959607 -0.10301724 -0.016904635 0.024454344 0.049484752
0.0034284599 -0.06772912 -0.05177336 -0.18344401 -0.024162592 0.04986096 0.1602295 -0.058658827
-0.064814754 0.13744953 -0.21435708 -0.032491144 0.04511828 -0.13499427 0.40693805 -0.031219555
-0.11017355 -0.23176906 0.03183731 0.20306821 -0.14406654 0.14725107 -0.27868924 0.015930057
0.006740869 0.0089737605 -0.009002685 -0.25110644 -0.14472449 0.14681324 0.19378255 -0.046707775
0.1024397 0.0980849 0.04217831 0.06469184 -0.0049549043 0.021757895 -0.16443275 -0.32934663
0.025717579 0.12802447 -0.1269406 -0.05753359 -0.005572583 -0.18930809 -0.05946222 0.1473001
-0.005894247 0.21460512 -0.04781782 -0.14046179 0.24147289 0.21548826 -0.15964179 -0.14443436
-0.15649855 -0.11606594 -0.16988945 0.091552466 0.008880478 -0.026452288 -0.11433669 -0.019589508
-0.16233468 0.25538862 0.060902435 0.060718086 0.036236744 -0.5253517 0.113515384 0.037225686
-0.09996723 -0.02331068 0.06216503 -0.04380934 0.12342726 -0.048401102 0.022465184 -0.060076095
0.01140426 0.07281621 0.070124716 0.2651601 -0.08348614 -0.17454483 -0.2756286 -0.40429193
-0.23829149 0.07179692 -0.10064003 -0.0032627038 0.10219409 -0.182429 0.09929452 0.22834735
0.026412735 -0.15356198 -0.20632756 0.11866944 -0.08066357 -0.01092455 -0.3936806 -0.08600278

0.bias f4 [64]
00000000: 0f90 9838 50fb 6e3c d6dd 9cbc 4873 cc3c
00000010: d23f 0e3c d974 a93c 3f6e c0bc 6593 c8ba
00000020: 31d9 183c c9f5 27bc e7b4 a9bb 0f39 09bc
00000030: aac9 e93a 3fe2 7c3c d5aa b83c 6ca8 443c
00000040: ce0b c2bc c7b5 82bc c7e6 3dbb 8045 e23a
00000050: 50a8 abbb 7624 b0bc 4737 e5bc 1463 583c
00000060: 25e1 73ba 36a3 01bc 0930 d0bb 9c3e 8cba
00000070: da8d babb 2d31 9e3b 6a7e 493b b182 78bc
00000080: 194c e1bc 178f 5fbc ffb5 21bc 542b 29bc
00000090: 7198 413c 7a8a 973b 7ff4 bbbc 7a19 d63b
000000a0: 3bae 373c 2a7c 35bb b55c 803c 4659 0c3c
000000b0: a706 69bc 8a29 b4bc 25d1 3fbc fee0 bb3b
000000c0: 1552 03bd 0293 623d a082 26bb 6dd5 15bb
000000d0: 96fd 96bc 6835 f43b d9a8 9bb9 b2dd ba3b
000000e0: febd 923c 0aa0 3b3b f489 81bb 6fe9 41b8
000000f0: b9fc 96bb 90bf 91bb 514e f33b 6ca7 84bc
7.274758e-05 0.014586285 -0.019148748 0.024957314 0.008682208 0.0206856 -0.02349007 -0.0015302716
0.009329126 -0.010251471 -0.005179036 -0.00837542 0.001783659 0.015434801 0.022542397 0.0120030455
-0.02368727 -0.015955819 -0.0028976665 0.0017263144 -0.0052385703 -0.02150176 -0.02798046 0.013207216
-0.00093032635 -0.007912448 -0.0063533825 -0.0010699811 -0.0056931796 0.0048276396 0.0030745515 -0.015167878
-0.027502107 -0.013644955 -0.009870051 -0.010325272 0.01181613 0.004624662 -0.022943733 0.0065337988
0.011210973 -0.0027692416 0.015669206 0.008566206 -0.014222777 -0.021992464 -0.011707579 0.0057336083
-0.0320607 0.05531598 -0.0025407448 -0.0022862807 -0.018431466 0.0074526556 -0.00029689705 0.0057026977
0.017912861 0.0028629326 -0.003953213 -4.6232188e-05 -0.0046077636 -0.004447885 0.0074251075 -0.016193114

2.weight f4 [1, 64]
00000000: d620 db3d 3c26 59bd a8d8 ee3d 5a8e 60bd
00000010: 4d1b 1fbe d1b8 44be a6e2 aabe 557e e23d
00000020: ad27 abbd e70e 1c3e 3f71 963d 80b1 71bd
00000030: b093 a53d 8b71 dbbd dd33 3abc d01c 12bd
00000040: 868c 82be 2454 263e b921 b4bd c4be bc3d
00000050: 2a33 173e c48a e63d 5755 2abe 257b 87bd
00000060: 6193 203d 91ad 87be 2c09 28be 825a 093e
00000070: ac3b 58bc ac51 9fbe 2ddd a23d c563 423e
00000080: f2c4 7e3e de20 a03e 0d81 5a3d e33a b03e
00000090: cfc9 18be 07cb 943d 9081 463e 3930 cdbd
000000a0: ff3f 013e 757f 183e 7827 fcbc 964a 65be
000000b0: 18f9 bb3d d5da edbd a30b 203e be45 17bd
000000c0: 00e6 ccbe aa6b c0bd 91dc 7f3d 6457 2f3d
000000d0: 6dad 803e 209c 2bbe bb05 0abe c5e3 a2bb
000000e0: 59ac 62bc ebb7 62be 5a2e 173e 7c9e 68bc
000000f0: 8d43 a8bc d71c 84ba f7ca 42bd a851 633e
0.10699622 -0.05301498 0.11662418 -0.054823257 -0.15537758 -0.19211127 -0.33376044 0.11059252
-0.08357177 0.1524006 0.07345819 -0.059007168 0.0808481 -0.10715016 -0.011364904 -0.03567201
-0.25497836 0.16243035 -0.087954946 0.09216073 0.14765611 0.11256936 -0.16634117 -0.06615285
0.03920305 -0.26499608 -0.16409749 0.13413432 -0.013197821 -0.31116998 0.07952342 0.18983372
0.24879816 0.31275076 0.05334573 0.34419927 -0.14920734 0.07265287 0.19385362 -0.10018963
0.12622069 0.14892371 -0.030780539 -0.22391734 0.0917837 -0.116140045 0.15629439 -0.036931746
-0.40019226 -0.09395535 0.062466208 0.04280795 0.25132313 -0.16758776 -0.13478749 -0.004971
-0.013835036 -0.22140472 0.14763775 -0.014197942 -0.020540023 -0.0010079396 -0.047556844 0.22199118
