saved_models/A2C/using_glicko_for_matchmaking/model8.pth (torch, 48436 bytes, 7 tensors)

0.weight f4 [64, 84]
000000 e6 65 82 be 4c 1e 4c 3e b6 65 0e be 0e 3b 43 bd
       -0.25468367 0.19933432 -0.13905987 -0.04766374
000010 59 9d 8e 3e 9d fa a4 3d 3e ac 99 3d cf a6 a1 bc
       0.27854422 0.08055613 0.07503556 -0.01973286
000020 52 fd 7c bc 10 89 3c be d2 3f 8f 3e de 90 49 be
       -0.015441256 -0.1841166 0.2797838 -0.19684169
000030 c9 28 fb bc ae 47 32 3d 63 86 b6 bd b5 e5 74 3e
       -0.030659096 0.04352539 -0.08912351 0.23915751
000040 ad 97 18 3d e7 a3 8a be 06 aa c4 3c 0c a2 15 be
       0.037254024 -0.27078173 0.024006855 -0.14612597
000050 bf 32 ca 3b 66 fe 35 be c4 dc 83 3e 3d d1 23 be
       0.0061706 -0.17772827 0.25754368 -0.15997787
000060 14 ab c1 3d 8d fb 85 bd 89 a7 73 be fb 08 fc bd
       0.09456459 -0.0654212 -0.23794378 -0.123064004
000070 ef 90 7c bd e5 ac 68 3e b1 ce 3f be 96 e8 26 3e
       -0.061661657 0.22722204 -0.1873119 0.16299662
000080 35 82 48 be b1 13 14 3e 04 41 ae 3e 3c d1 9d be
       -0.1958092 0.14460637 0.34033978 -0.30823696
000090 57 f5 8c 3d 53 68 89 3d 0c c3 a6 3e 3a 85 a7 3c
       0.06882732 0.067093514 0.32570684 0.02044927
0000a0 7f 67 00 3e 7d 56 b0 3b 90 12 9f 3d 75 36 d0 3d
       0.1253948 0.005381404 0.077672124 0.10166637
0000b0 ce 31 30 3e 7d af ba 3d 95 bb a6 bd 5d 0e 42 be
       0.17206499 0.09115503 -0.08141247 -0.18950792
0000c0 fe 8d 84 bd 01 8c 96 bd 03 62 16 bd 3f fc c9 3d
       -0.06472395 -0.073509224 -0.036714565 0.09862565
0000d0 ca 46 c3 3c 64 2e 20 bc 89 0f fd 3d 7c c4 e4 bc
       0.023837466 -0.009776685 0.12356479 -0.027925722
0000e0 02 78 d1 bd 67 8c 1e bc 29 4d a5 bc 6e 48 b4 3e
       -0.10227968 -0.009677029 -0.020178394 0.3521151
0000f0 5e 71 9d 3c e6 92 6b 3e 39 f4 93 bd c9 de 21 be
       0.019219097 0.23005256 -0.07224316 -0.15807642
000100 28 86 99 bd a7 4c 11 be cf e5 82 bb 7a 2d 4e be
       -0.074962914 -0.14189397 -0.0039946805 -0.20134535
000110 d5 c2 6d be e4 a9 e6 3d 57 c8 98 bd b7 b4 16 3d
       -0.23218854 0.11262873 -0.07460087 0.036793437
000120 42 ae 0d 3d 40 a6 73 3e 4e 8d ee bd 32 97 e3 3c
       0.034590013 0.23793888 -0.116480455 0.027782056
000130 f6 af 14 3e de 1d 30 3c 68 af 0e be 34 3e cc bd
       0.14520249 0.010749308 -0.139341 -0.09972802
000140 c6 69 33 be 8f 65 40 3e 4f 3b c6 bd 1f 19 e6 3c
       -0.17520818 0.18788742 -0.09679281 0.02808815
000150 4e 0b 45 be 3e fd 93 3d 64 f7 03 3e a6 9d 71 bc
       -0.19242594 0.072260365 0.12887341 -0.014747059
000160 79 a9 ae bc 4e 7e 5b bd e4 5e 33 bd 24 5c 99 3d
       -0.021321045 -0.05358725 -0.043791667 0.074882776
000170 f0 22 15 3e ee 39 56 3d 47 4c 1e be 42 00 c3 bd
       0.14564109 0.05230134 -0.15458785 -0.095215335
000180 f5 10 90 bc 7d db 43 be 25 b7 e9 3c cf 18 50 bd
       -0.01758621 -0.19126697 0.028529713 -0.05080491
000190 93 6b 82 3e 06 e3 fd 3c d1 ee c8 bb 09 0a 57 3d
       0.25472698 0.030992042 -0.0061319848 0.052499805
0001a0 c9 71 54 3c f5 3b 1a bd 7b 60 18 3e 6c 14 f1 bd
       0.012966582 -0.037654836 0.14880554 -0.11771473
0001b0 19 3e 1c 3e 68 1c 82 3e d9 17 09 3e aa 63 ea 3d
       0.15258063 0.25412297 0.13388003 0.11444791
0001c0 0b d0 9d 3e 87 c1 2c 3e 2b 07 c8 bd cf 1c c5 bd
       0.30822787 0.168707 -0.09766992 -0.096246354
0001d0 90 1b 1f be df 47 54 3e ab af 69 be b5 95 19 be
       -0.15537858 0.20730542 -0.22820918 -0.14998515
0001e0 37 63 aa be d3 12 7e bd 8f a6 22 be aa 07 a8 3e
       -0.3327882 -0.06202967 -0.1588385 0.32818347
0001f0 97 b6 98 3d c1 5b 96 be 1e 37 4c be ba 8d 91 be
       0.07456701 -0.29366878 -0.199429 -0.2842844
000200 b1 2d 78 3e 66 94 1c be 5b a1 8c be 7a c7 ed 3b
       0.2423618 -0.15290985 -0.27466854 0.0072564455
000210 e7 8a 04 be 9f a9 77 bc 8c 46 b4 3e b6 85 88 bd
       -0.12943612 -0.015116124 0.35210073 -0.06666128
000220 f2 9c 56 3d f9 57 0c be d6 db 62 be ae cc c0 bd
       0.05239577 -0.13705434 -0.22154173 -0.094140396
000230 45 e7 ba 3d 6f 6a 42 3e 3d ad 63 bb 3a b4 ae 3d
       0.091261424 0.18985914 -0.003474071 0.08530469
000240 50 ae 07 3e ec 79 e4 bd 44 7d d2 be 18 ef 0f bd
       0.13250089 -0.11156067 -0.41111195 -0.035140127
000250 f6 62 15 bd ce a8 22 3e 00 5f e9 3d 97 ee fc bd
       -0.03647133 0.15884706 0.11395073 -0.12350195
000260 0d f6 4f 3d 6f e0 a2 bc 1b ff 9a 3d f3 61 0d 3e
       0.05077176 -0.019882409 0.07568189 0.13806896
000270 76 0e b9 3d 18 dc 92 bd 8c d9 0c 3e 20 cd 71 bd
       0.09035961 -0.07170886 0.13754863 -0.059033513
000280 c9 2c a9 3d e8 10 26 3e 04 ed 18 be 79 ad a5 bd
       0.08260495 0.16217387 -0.14934164 -0.08089728
000290 ac 25 6b 3d 23 29 c3 bc 3e 3b 4c be a4 b4 a4 bd
       0.057408974 -0.023823326 -0.19944474 -0.08042267
0002a0 3f 49 ae bd fe 47 da 3d 5b 76 fc bd d6 fc 75 be
       -0.08510064 0.10658263 -0.12327262 -0.2402223
0002b0 cf 87 cf bd 7d 9a aa 3d 3d 33 ad be e6 05 3d be
       -0.10133325 0.083302476 -0.33828154 -0.18459281
0002c0 24 fc 01 3e bd 91 e3 bd b0 82 12 be a5 64 34 be
       0.1269384 -0.11111782 -0.14307666 -0.17616518
0002d0 ec 45 5c 3e 32 13 be 3c c2 72 83 3e b8 aa a7 bc
       0.21511048 0.023202512 0.2567349 -0.020467147
0002e0 50 14 27 3e e6 10 2f 3d bb 98 46 be 77 2e 33 3d
       0.16316342 0.042740725 -0.193942 0.043745484
0002f0 a0 ee cd bd 87 53 a3 bd 6c e5 3a 3e e2 d7 d1 bd
       -0.1005528 -0.07974916 0.1825158 -0.102462545
000300 8e 16 c6 bd d5 67 e4 3c 6f e6 9d 3e a2 20 38 be
       -0.09672271 0.027881542 0.3083987 -0.17981198
000310 3b 90 87 bd c5 09 8e 3e 56 a6 8f 3e 2f cc 08 be
       -0.06619307 0.2774183 0.28056592 -0.1335914
000320 6c b3 ee 3d f5 05 0d be 94 83 47 bd 71 45 70 be
       0.11655316 -0.13771804 -0.048709467 -0.2346399
000330 1f ac 6b 3e 73 9f 70 be 9e 0d 04 be bd ef 77 bb
       0.23014878 -0.23498325 -0.1289582 -0.0037832104
000340 d8 85 59 3e 57 82 60 3e bc bb 46 3d c0 54 e7 bd
       0.21242464 0.2192472 0.04851888 -0.11295462
000350 4d 0b 06 3e f2 e5 b9 3d 88 e8 25 be 33 1e 99 bd
       0.13090248 0.09077062 -0.16201985 -0.07476463
000360 08 55 3c 3d b8 d3 44 bd 9a 41 81 bd 4b e9 d6 3a
       0.04597953 -0.048053473 -0.06311341 0.0016396431
000370 d5 cd a1 bd 31 2d 7c 3e b6 6f 2f 3e 52 4d b9 bd
       -0.079005875 0.24626614 0.17132458 -0.09047951
000380 5b 06 07 be 4b f9 3e be e5 24 7d be 89 68 a1 3c
       -0.13186018 -0.18649785 -0.24721105 0.019703167
000390 07 8e 8e bd 0f 45 84 be 15 29 91 bb b2 69 08 3e
       -0.06960683 -0.25833938 -0.004429946 0.1332157
0003a0 ae 7a c2 bd ef aa 58 3d 36 89 41 be 5e aa 29 bc
       -0.094960555 0.05289739 -0.18899998 -0.01035556
0003b0 85 f4 06 3e 94 42 69 3e da 17 dc bd cc a0 8b be
       0.13179214 0.22779304 -0.10746737 -0.27271116
0003c0 ac 15 0a 3e 96 3b 06 3e 12 4c d8 3d f3 7f 54 3d
       0.1348483 0.13108668 0.10561384 0.051879834
0003d0 a6 24 d2 bd c0 82 ce bd 29 28 cb bd 84 4e 5d 3e
       -0.102608964 -0.10083532 -0.09919769 0.21611983
0003e0 f5 2b 0a bc ba 2d d6 bd f3 c0 04 be 2c d6 4e be
       -0.008433332 -0.104579404 -0.1296423 -0.20198888
0003f0 d0 02 05 be 53 69 04 3e 35 0b de bd 95 a6 1c be
       -0.12989354 0.12930803 -0.10841981 -0.15297921

0.bias f4 [64]
000000 b6 d1 05 bd 29 48 47 bc a7 fd 66 bc 2a 09 b0 3c
       -0.0326707 -0.0121632 -0.014098561 0.021488745
000010 71 1a 7e bc a7 82 2c 3d 86 b7 41 3d 8f 7b 65 3b
       -0.015509234 0.042116787 0.047294162 0.0035016274
000020 b5 74 3b 3c b0 53 f2 bc 88 51 2d 3c db 7c b0 3c
       0.011441399 -0.029580921 0.010578521 0.02154391
000030 40 71 0b bd f2 22 ca bc 0b fe 86 3b c1 ca c1 bc
       -0.03404355 -0.024674866 0.0041196398 -0.02365625
000040 00 ac 1d 3c f6 10 f6 3b 48 94 ee 3a 8d db 36 3d
       0.0096235275 0.007509346 0.001820215 0.044642974
000050 ba 30 14 bc bc 04 8c bc d5 7b 99 3c 4f dc 00 3d
       -0.00904482 -0.017092101 0.018735806 0.031460103
000060 f7 99 eb 39 b0 e5 7f 3c 10 fc 83 bc 93 ad 1f 3d
       0.00044937406 0.015618727 -0.016111404 0.038983893
000070 eb ec 4b bc bf 7b c9 bc 7d e6 3c bd 73 22 17 3d
       -0.012446622 -0.02459514 -0.04611825 0.036898088
000080 74 83 d7 3a 3e e9 01 3d 97 0d 01 bc be f6 a3 3c
       0.0016442374 0.031716578 -0.007876775 0.020015117
000090 30 02 52 ba 5d 1f 28 bd 12 d7 4e 3d 16 8d 10 bc
       -0.000801119 -0.041045535 0.050498076 -0.0088227
0000a0 1b 5c 1b bd f3 b5 e2 3c 39 7c a0 3c e2 d8 b8 3c
       -0.037929635 0.02767465 0.019590484 0.022564355
0000b0 d1 14 6b 3b 22 52 33 3d 57 0b 05 3d a1 ca 33 bb
       0.0035870562 0.0437795 0.032481518 -0.0027434009
0000c0 b0 61 44 3d 09 ea 92 3c df 92 51 ba 74 c1 96 bc
       0.047944725 0.017933862 -0.0007994603 -0.018402793
0000d0 c4 04 eb 3b c3 23 24 3c 4b b4 01 3d 1f 9c 46 bc
       0.007172199 0.010018292 0.03166608 -0.012122183
0000e0 8f c0 6a 3d b6 a3 1f 3d 0a 0f 3d b9 3e 56 d6 3c
       0.057312544 0.038974486 -0.00018030047 0.02616417
0000f0 64 51 08 bc 83 5b 50 3d 28 2e 6f bb 15 40 8e 3d
       -0.008320186 0.050868522 -0.0036496017 0.069458164

2.weight f4 [7, 64]
000000 65 df 19 3e 65 c4 c6 3c 14 bc b4 bb 04 84 be 3d
       0.15026625 0.02426357 -0.0055155847 0.09302524
000010 a6 ca e4 bc 56 6b fa bc 04 13 74 3d 4e 16 9f 3c
       -0.027928662 -0.03056876 0.059588447 0.019419815
000020 03 f2 4e be 68 34 50 3d 05 3f 93 bd 8e fd 2a be
       -0.20209508 0.05083123 -0.071897544 -0.16698286
000030 70 9c 99 bd 76 48 95 be 0f f2 05 3e f2 2e e0 bd
       -0.07500541 -0.29156846 0.1308062 -0.10946454
000040 c2 da 87 3d d5 be 21 3e 52 04 10 3e a7 d1 2f 3e
       0.066335216 0.15795453 0.14064148 0.1716982
000050 23 c4 e9 3d ab 48 81 be f9 09 b1 be 54 9e b6 3d
       0.11414363 -0.25250754 -0.3457792 0.089169174
000060 70 14 2b 3e 66 c5 a9 3e 74 4f 85 3d 34 c5 12 3d
       0.16707015 0.33158416 0.06509295 0.0358326
000070 d3 00 17 3e 61 9b 66 bc 2f 0f f8 bd 7b 89 78 3d
       0.14746408 -0.014075131 -0.12112271 0.060677987
000080 8c c4 32 3c e7 79 ac 3d fb e5 54 be be a6 78 3e
       0.010911118 0.084216885 -0.20790856 0.24282357
000090 3d b3 56 3e b7 b7 08 3e 61 39 a7 3e 1e e2 ea bd
       0.20966811 0.13351332 0.32660964 -0.1146891
0000a0 41 14 b4 bc 5a 9c 4b be f4 22 c6 3d e4 5d e8 bd
       -0.021982314 -0.19883862 0.096746355 -0.11346033
0000b0 50 43 42 be 46 44 dc bd b0 d1 51 3e a7 63 19 3d
       -0.1897099 -0.107552096 0.20490146 0.03744855
0000c0 4f 99 0a 3d a8 c7 82 bd fa dd d2 be 2b eb 91 3d
       0.033837613 -0.06385738 -0.4118498 0.07124933
0000d0 08 22 59 be a3 03 ca bd 40 a1 5e 3e a1 d3 af 3d
       -0.21204388 -0.09863975 0.217412 0.08585287
0000e0 bf 04 02 3f f7 9d 58 3e 56 07 05 3e f6 5b 0a be
       0.5078849 0.21154009 0.1299108 -0.13511643
0000f0 26 6c 48 bd 88 d2 42 3e c0 aa cb be 85 df 84 3e
       -0.048931263 0.19025624 -0.3977871 0.25951782
000100 e9 cc 9f 3d 93 46 b1 be db 4b bb be 79 f0 2f 3e
       0.078027554 -0.34624156 -0.3658131 0.17181577
000110 86 29 2f 3e 93 ea a2 be e6 a3 eb 3d 33 79 39 be
       0.17105684 -0.3181959 0.115058705 -0.1811264
000120 a6 b4 a6 3e dd bc 69 be d9 31 3c 3e d9 19 3b bc
       0.325597 -0.22825952 0.1837839 -0.011419737
000130 d5 bb 1e be 40 f0 d0 bd 3c 31 08 bd a5 86 2f be
       -0.1550134 -0.10202074 -0.03325008 -0.17141207
000140 47 a9 4a 3c 7e 64 92 be f7 90 9a bc 0c 9c d3 3d
       0.01236946 -0.28592294 -0.018867953 0.10332498
000150 85 d3 2c be e9 aa 2b bc 04 3b 8e be a9 cb a1 bc
       -0.16877563 -0.01047776 -0.277794 -0.019750433
000160 2f e4 3e bd c5 a7 e3 bd 27 e0 41 3e 22 dd 52 be
       -0.04660433 -0.11115984 0.18933164 -0.20592168
000170 60 02 f8 bd 9e d0 7c bd cd 6d a8 bd a4 af 79 3e
       -0.12109828 -0.06172239 -0.08224068 0.24383408
000180 6b 1f f1 3d 96 0a 6d ba cd ed d7 bd f0 05 d3 3e
       0.117735706 -0.000904241 -0.10543404 0.41215467
000190 22 99 1a be fa a5 85 bd 39 f9 6a be 25 01 15 3e
       -0.15097478 -0.06525798 -0.22946633 0.14551218
0001a0 72 c3 7a be 09 e4 40 bd f5 29 82 be 82 56 fc 3c
       -0.24488619 -0.04709247 -0.25422636 0.030802969
0001b0 42 7b d3 bd 1f 0b ca 3c e8 40 29 be ef 69 2f be
       -0.10326244 0.024663506 -0.16528666 -0.17130254
0001c0 64 39 ab bc 33 3d 5b be 6f 2f 1d 3e 42 78 24 3e
       -0.02090139 -0.21410064 0.15350126 0.160615
0001d0 2b 6e 3b 3d 4f a4 c5 bd e7 d4 86 3e 11 26 5b 3e
       0.04575936 -0.0965048 0.26334307 0.2140124
0001e0 2e 0a 8a be b4 62 12 3d e1 a2 79 3d 47 a0 e5 bd
       -0.2696089 0.035738662 0.06094635 -0.11212211
0001f0 c4 85 5d 3e 67 f4 c7 3d 41 1b ae bd 19 fa d9 3d
       0.21633059 0.09763413 -0.08501292 0.106434055
000200 3b 63 5a 3c 10 56 9c be d8 e5 b2 3d 3c 10 05 3d
       0.013329322 -0.3053441 0.087352455 0.032486185
000210 fe 24 2b 3e b4 89 22 3e b9 35 09 3e 89 46 e3 3d
       0.1671333 0.15872842 0.133994 0.11097438
000220 34 4f b9 3d 0d 88 9c be 86 65 3e 3b 62 0d 66 3d
       0.0904831 -0.30572549 0.0029052212 0.056165107
000230 2e 13 8e bd 09 42 9d bd 97 1b 7c be b1 c2 45 3e
       -0.06937252 -0.07678611 -0.246199 0.1931255
000240 11 68 4e 3e 47 38 4a 3e 09 d9 8e be 00 5f 54 bd
       0.20156886 0.1974803 -0.2789996 -0.05184841
000250 15 02 17 3e f0 31 65 bd 2d 05 18 bd 91 47 dc 3e
       0.14746888 -0.055955827 -0.03711431 0.4302335
000260 a8 db 8b bd f0 e9 b9 bd aa a3 bc 3d 4a c6 b6 bd
       -0.068290055 -0.09077823 0.09210904 -0.089245394
000270 94 1d 5a bd 69 65 04 3e 23 7c ec bd cd 2d f8 3d
       -0.053250864 0.1292931 -0.11547115 0.12118111
000280 7b fe ac 3d 2b 4a 50 3c 41 76 68 3e 88 4e e6 3d
       0.08446976 0.0127129955 0.2270136 0.112454474
000290 36 cb 4d be 3c ce ab bd a5 f8 06 3e 7c ce 2a be
       -0.2009705 -0.083889455 0.13180788 -0.1668033
0002a0 34 45 ff bd e5 ee 85 3e 76 fb e9 3d 63 f5 09 3e
       -0.12464371 0.26158825 0.114249155 0.13472514
0002b0 7a 24 16 bd f9 2c 82 3e fc 8c 8a 3e 31 57 19 3e
       -0.03665588 0.25424936 0.27060688 0.14974667
0002c0 7e 94 17 be 9f 42 fc 3a a3 c1 67 3e bc 2c 13 be
       -0.14802739 0.0019245929 0.2263246 -0.14372534
0002d0 0c 02 88 3e 69 1e 34 3e c0 ec cd 3d 1c ef 0c 3e
       0.26564062 0.17589726 0.10054922 0.13763088
0002e0 07 af a0 3e 91 68 2a 3e f1 fd 41 be e1 00 db 3e
       0.31383535 0.16641451 -0.18944527 0.42774108
0002f0 ee 55 c3 be a4 29 46 3e 3f d3 2c 3d 23 fa 8b 3e
       -0.38151497 0.19351822 0.042193647 0.27339277
000300 64 af 0d 3e 0d a4 0e bd 0b a2 04 3d 85 34 92 3d
       0.13836437 -0.03482442 0.0323811 0.071389236
000310 81 f4 85 3e 3b d2 a4 be f1 53 3c be 1b 61 b0 3e
       0.26163104 -0.32191643 -0.18391396 0.34449086
000320 57 5c a5 be 5f 46 88 3e 72 f5 36 bd 61 9d d8 bd
       -0.32297012 0.2661619 -0.04466767 -0.10576893
000330 c9 3e ec bb 2c 00 a4 3e 1b 2f 3b bd 6c d3 5d 3e
       -0.007209633 0.3203138 -0.04569922 0.21662682
000340 4d 72 5b 3e 39 66 3a 3e 13 d3 9f bd 08 9c 01 be
       0.21430321 0.18203057 -0.07803931 -0.12657177
000350 c7 e8 11 3e 91 e2 01 be 3b 07 aa be 30 37 82 3d
       0.14248954 -0.12684084 -0.3320864 0.063581824
000360 88 db 36 bd a1 a8 19 3e 7e 5f 82 3e 55 4c 7e be
       -0.044642955 0.15005733 0.2546348 -0.24833806
000370 3d ff 23 3e f0 9a 8e 3d cc 41 7f 3e c6 64 99 bd
       0.16015334 0.06963146 0.24927443 -0.07489924
000380 32 92 c4 3b 15 ed 3a bd 3a 23 94 3e c1 d7 ae 3c
       0.005998873 -0.045636255 0.28933126 0.021343114
000390 49 aa eb 3d b4 9c 00 3e 4c bd 85 bd 32 89 e5 3d
       0.11507089 0.12559777 -0.06530246 0.112078086
0003a0 7f d1 04 3d fc af 94 be c9 e7 a0 be ce 35 01 bd
       0.032426354 -0.29040515 -0.31426838 -0.031545453
0003b0 9b 78 3f be 3a 2e ea bd 0f 37 53 3e 88 a9 b0 3d
       -0.18698351 -0.11434598 0.20626472 0.086260855
0003c0 6e 67 9c be f2 eb d6 3d c3 8c 4a 3e cd 26 23 bc
       -0.3054766 0.10494222 0.19780259 -0.009957981
0003d0 a0 e6 2c bc 77 6a af bd 8d 41 dc 3c 40 04 53 3e
       -0.010553032 -0.085652284 0.026886726 0.2060709
0003e0 9c 44 60 be cc ed 2d 3d 18 e6 1d bc dc 41 99 bd
       -0.21901172 0.04246311 -0.009637378 -0.07483265
0003f0 e0 b2 25 3e a2 7c 8f be 94 7e a3 3d 6b aa 35 bd
       0.16181517 -0.28024775 0.07983127 -0.044351976

2.bias f4 [7]
000000 0d d7 1a 3d 03 ba 49 3c e0 3b 20 3d ac ee 57 bd
       0.037802745 0.012312415 0.0391196 -0.05271785
000010 2d 17 39 bd 56 9a 1a 3c 5e de 4c bc
       -0.045188118 0.009436211 -0.012504188

0.weight f4 [64, 84]
000000 62 47 a8 bd ee 1b e1 be f6 f1 77 3c 48 07 2a 3e
       -0.0821674 -0.4396662 0.015133372 0.1660434
000010 25 fb 22 3e 42 4a 07 be 92 8d 0f bd 9a d2 24 be
       0.15916117 -0.13211921 -0.03504712 -0.16095963
000020 2c d5 14 bd 36 47 cb 3c 5b ce d6 3d 36 f8 95 3d
       -0.03633611 0.02481423 0.10488578 0.07322733
000030 cb ea 32 3e 99 f0 05 be cd 26 50 3d ee 58 7c 3c
       0.17472379 -0.13080062 0.050818253 0.015402062
000040 4c 9f 6c 3d ed d1 4e be c5 6b 3a 3e e3 ee 8b be
       0.057769105 -0.20197268 0.18205173 -0.27330694
000050 fd af 5f 3c af 05 75 3e a1 93 09 bd a7 7a 6a 3a
       0.013652799 0.2392795 -0.033588056 0.0008944668
000060 53 d5 89 3e c0 49 1c 3e 78 84 e6 bd a7 dc 63 bb
       0.26920566 0.15262508 -0.11255735 -0.003476897
000070 20 ed bd bd 57 32 66 3c ae b2 63 be fd f2 8d be
       -0.09273744 0.014050088 -0.2223613 -0.27724448
000080 4d 4b ec bd 99 0d b8 bb 44 1d 94 3d c0 19 89 3e
       -0.115378 -0.0056168553 0.072321445 0.26777458
000090 27 d2 5b 3e c0 62 ee 3d 93 b8 98 3c 50 f9 91 be
       0.21466886 0.11639929 0.0186427 -0.28510523
0000a0 0b 1b d5 bd 46 14 39 3e 1c 9f 61 3d a3 60 bf bd
       -0.10405549 0.1807414 0.05508338 -0.09344604
0000b0 3c 61 b6 bc 63 72 9b bd a6 1a 8d 3e 6b b2 42 be
       -0.022263162 -0.07590177 0.27559394 -0.19013374
0000c0 a3 e0 99 bd 5e 59 5f 3e fd 3a c1 bd a5 cc 75 bb
       -0.07513549 0.21811435 -0.09435079 -0.003750601
0000d0 9c 4f 3f 3d 7d d3 8e bd 48 50 84 3e 8b 41 0e be
       0.04670678 -0.06973932 0.258425 -0.1389219
0000e0 1f 5a 12 3e db 34 a3 3c 2c 2d b1 3b 64 25 b8 3e
       0.14292191 0.019922664 0.0054069962 0.35966027
0000f0 6d 29 b7 bb ad 31 58 3d ce 68 25 3e 26 0b 1f 3e
       -0.005589655 0.05278175 0.16153261 0.15531597
000100 d2 73 5b 3e 80 67 85 bd 9b 65 40 bd ff 03 32 3d
       0.214309 -0.06513882 -0.0469719 0.043460842
000110 08 70 c9 bd 20 ca 8d 3d be 86 86 3e 29 3c b8 3d
       -0.098358214 0.06923318 0.26274675 0.0899585
000120 a8 b9 20 3e 59 4a b1 3c 03 62 7a 3d 19 dd 93 bc
       0.15695822 0.021641897 0.061128628 -0.018049764
000130 b4 79 ab 3d c0 f3 3b be 05 ec 4c 3d c8 11 f0 3d
       0.083728224 -0.18354702 0.050029773 0.117221415
000140 29 d9 4f 3e 7b 02 71 be 12 6a d6 3d 68 84 64 be
       0.20297684 -0.23536102 0.1046945 -0.22316134
000150 52 f6 e9 3d a5 5a 8c 3e 9a cf 85 be 5d cd 40 be
       0.11423935 0.27412906 -0.2613495 -0.1882834
000160 47 17 b3 bd 9b 07 7a 3d 80 2c 27 be 81 ae b5 3e
       -0.08744674 0.06104241 -0.16325569 0.35484698
000170 f1 1c f2 3c 86 b7 9c 3c 84 bb 39 3e 8c 3c 8a 3e
       0.029554816 0.01913048 0.18137938 0.2699932
000180 42 cd e4 3d 77 31 81 be 0e 6f 90 bc 96 67 ea 3d
       0.11171962 -0.2523305 -0.01763108 0.11445539
000190 f6 36 83 be f9 39 3c bc 33 cb a0 bb 49 18 8b be
       -0.2562787 -0.011488431 -0.0049070357 -0.27166966
0001a0 04 b4 54 be 7e 4a 30 be 18 14 3d be d9 93 5f be
       -0.20771796 -0.17215917 -0.18464696 -0.21833743
0001b0 e3 67 17 3d 23 bd 02 3e 65 87 c7 bd 8b 27 44 3d
       0.03696431 0.12767462 -0.09742621 0.047889274
0001c0 d0 95 36 3e 57 42 b6 bd 45 97 c6 bd 00 47 07 be
       0.17830586 -0.08899372 -0.09696821 -0.13210678
0001d0 d3 80 00 3d 59 0a 97 be c2 77 0f be d4 35 0f be
       0.031372856 -0.29500082 -0.14010528 -0.13985378
0001e0 ae 25 0b 3c 98 17 83 bd ba f6 7c bc f4 a7 55 3e
       0.00849287 -0.064009845 -0.015439684 0.2086485
0001f0 d3 05 a2 be cc 3e 76 3e ed 50 00 bd 10 68 9f 3d
       -0.3164507 0.24047393 -0.031327177 0.0778352
000200 d2 52 90 3d 38 16 e3 bd 6e 73 29 be fc b6 de bd
       0.07047047 -0.11088222 -0.16547939 -0.10874745
000210 01 53 d3 bd 56 f1 e4 3d 4d ca 9f 3b 79 7b be 3e
       -0.10318566 0.11178844 0.004876411 0.37203577
000220 0f 41 a1 bd db 8a 2e 3e 36 3c 72 3e fc 51 77 3d
       -0.07873737 0.17045157 0.23655781 0.06038092
000230 5f 02 8a 3b 02 5e 08 be 16 01 0f be f5 af 47 3d
       0.0042117084 -0.13317111 -0.13965258 0.04875179
000240 3c 76 9c 3d 0d a9 60 be 3a 0d 88 3d 90 09 16 3e
       0.07639739 -0.21939488 0.06643148 0.14652085
000250 48 a1 0e 3e 32 52 d5 3d 9b a7 13 be de a9 f0 bd
       0.13928711 0.10416068 -0.14419405 -0.117511496
000260 ac 64 4e 3d ad 03 aa 3d ff bc 07 be fc 4f 74 3d
       0.050388977 0.08301482 -0.1325569 0.05964659
000270 31 b2 9d bd 9c ed 72 bc 2a 42 9c 3d 35 12 39 be
       -0.07700003 -0.014827158 0.07629807 -0.18073352
000280 f8 39 84 bd f2 35 63 be 6c 58 89 bd 3a e2 26 bb
       -0.06456369 -0.22188547 -0.06706318 -0.0025464431
000290 bc e8 25 be 24 73 9b 3d e5 a9 47 3e 06 15 78 bd
       -0.16202062 0.07590321 0.19498403 -0.060566925
0002a0 f5 b3 35 bd e3 d1 1e 3e de 1b 0c 3e 6c f9 a3 3e
       -0.044361074 0.15509753 0.13682505 0.3202623
0002b0 fc 2e df 3d 10 05 61 3d eb 6a aa bd 8a df bf bc
       0.108976334 0.05493647 -0.08321174 -0.023422021
0002c0 2b 69 45 3e dd 33 d7 3d 22 d9 01 3d d8 6b 95 be
       0.192784 0.10507939 0.031701215 -0.2918384
0002d0 3c f2 10 bd 9c b2 22 3d e0 55 f7 bc 28 2f 82 bd
       -0.035387263 0.039721116 -0.030192316 -0.063566506
0002e0 e1 76 0d bd 9d 09 aa be ef 55 27 be 80 9e 4b bd
       -0.0345372 -0.3321046 -0.16341375 -0.049711704
0002f0 fe 8b 20 bb d1 d3 7e bc 17 87 78 3e 85 54 48 3d
       -0.0024497504 -0.015553431 0.24270283 0.04890873
000300 e5 c2 5c 3e f6 e9 33 bd 66 08 a4 3a ad b8 c7 3d
       0.21558721 -0.043924294 0.001251471 0.09752021
000310 a4 7d 0a 3e 62 a8 91 3c ed 82 02 3c aa 04 cc bd
       0.1352449 0.017780486 0.007965785 -0.09961827
000320 d6 ed 5b bb f5 ac d0 bd 95 57 8d be e2 31 cc bb
       -0.003355851 -0.10189239 -0.27605882 -0.0062315324
000330 2a c5 b6 ba 43 ce c9 bd b7 cd 55 bd 78 1e ae bd
       -0.0013944258 -0.098537944 -0.052198138 -0.08501905
000340 40 9f 57 3b 3c 9e cf 3e 3e d4 4a bd c9 5f 51 3e
       0.0032901317 0.4055041 -0.049518816 0.20446695
000350 d5 05 14 3e 35 ee ae 3e 85 bf a5 3d b9 41 66 be
       0.1445535 0.34166113 0.0809317 -0.22486009
000360 28 e0 eb bd e4 fb af be f1 57 4c bc 2e 7d 73 3e
       -0.11517364 -0.34371865 -0.012472139 0.23778221
000370 55 62 9d 3d 32 a2 ab bd 72 b3 18 bd 32 77 a7 bc
       0.07684771 -0.08380546 -0.037280507 -0.020442579
000380 0f 0e a8 3b f6 63 3c be 6b 95 0b be d5 c0 95 bd
       0.005128629 -0.18397507 -0.13631217 -0.073121704
000390 76 ca f2 3c c1 59 30 be 09 21 bd bd 18 4a 30 3d
       0.029637557 -0.17221738 -0.092348166 0.04303941
0003a0 23 34 81 be 28 fc a1 bd 36 84 87 3d 33 c9 55 3e
       -0.2523509 -0.07909423 0.06617014 0.20877533
0003b0 72 1b 50 be 9e 6d 3b 3e 96 17 6c 3e 5f 2d e9 3c
       -0.2032297 0.18303534 0.23055872 0.028464017
0003c0 20 96 56 be 36 7d 9b 3e 8d d4 de bc b3 0c 70 3e
       -0.20955706 0.30368966 -0.027200961 0.23442344
0003d0 7f 3e ec 3d e0 27 25 bb 96 02 d4 bd 44 57 5c 3e
       0.11535358 -0.002520077 -0.10352056 0.21517664
0003e0 ef 44 85 bd 5a 4a b7 3c 7e 09 6e bc 69 0a 87 3e
       -0.06507289 0.02237432 -0.01452863 0.2637513
0003f0 19 e0 29 bd 61 fa c7 3e 40 27 2c bd 34 2a d0 38
       -0.04147348 0.3905821 -0.04202962 9.926074e-05

0.bias f4 [64]
000000 82 0e ed 3a bb 8b b8 3a 4f 91 0b bc b9 60 c5 bc
       0.0018085989 0.0014079729 -0.008518531 -0.024093973
000010 38 f3 88 3c 3c 11 32 bc 08 b0 a5 3b ad 51 38 bb
       0.016717538 -0.010868367 0.005056385 -0.0028124854
000020 55 d7 91 3c 38 11 53 bc a7 93 09 bc fe c9 23 bd
       0.017802874 -0.012882523 -0.0083970195 -0.039987557
000030 c7 26 27 bc 5f 1f ef 3b c0 43 ac ba 86 39 80 3c
       -0.010202116 0.007297441 -0.001314275 0.01565243
000040 d6 b0 79 3c 49 3f a0 3a 31 da 17 bd 1f e2 df bc
       0.015239915 0.0012225892 -0.037073318 -0.027329503
000050 17 17 3d bc d5 fc 05 3c 42 67 6d 3c da 01 4a 3b
       -0.01154115 0.008177956 0.014489951 0.0030823858
000060 3c 33 f9 bb 06 55 24 bc 96 f2 00 bc fe b8 b8 ba
       -0.0076049846 -0.010030037 -0.007870337 -0.0014093218
000070 f3 a4 90 3c 75 b9 30 bc 43 f4 bd bc b9 03 68 bc
       0.017656779 -0.010786404 -0.023187762 -0.014161044
000080 e4 8c 05 3c fa 16 30 bc 6d 45 ab bc d2 ed 56 3c
       0.008151267 -0.010747666 -0.020907128 0.013118224
000090 db ed ce ba af b1 a4 bc 6d 80 97 bc 9e 3e 05 bb
       -0.0015787439 -0.020104257 -0.018493855 -0.0020331512
0000a0 3a fa a2 3c e6 97 e6 bc 76 03 ee bc 77 ed d6 bc
       0.019894708 -0.028148603 -0.029054385 -0.026236279
0000b0 a2 a3 ba 3b b1 a5 3e ba 99 22 55 bc 76 15 3e bd
       0.005695776 -0.0007272615 -0.013008737 -0.046407185
0000c0 a1 74 0b 3c a0 48 99 bc 09 2a 8c bc 3a 31 82 3b
       0.008511693 -0.018711388 -0.017109888 0.0039731534
0000d0 20 c5 a9 3b fd 3c bb bb 62 7b 89 3c 73 e0 b3 3c
       0.00518097 -0.0057140575 0.016782466 0.021957612
0000e0 50 aa 97 bc 2f a2 da bb 12 dc a3 bc b0 3c fd bc
       -0.018513829 -0.006672166 -0.020002399 -0.030912727
0000f0 36 cb 11 3c da 5b 22 bd d1 1c ca bc d0 3c 25 bc
       0.008898547 -0.039638378 -0.024671944 -0.0100853

2.weight f4 [1, 64]
000000 fd ac fe bc 36 db c4 bd 96 fa 6f 3d 16 d5 31 3d
       -0.031088347 -0.09612124 0.058588587 0.043416105
000010 4c be 25 bd 4f b2 c4 3d 1c 06 6d bd 65 4e 19 3d
       -0.040464684 0.09604322 -0.057867154 0.03742828
000020 e2 de f3 bd 4b 8b 95 bd 73 81 7a 3e 9d cd a9 3e
       -0.11907746 -0.07301959 0.24463443 0.33164683
000030 88 d5 8f be 06 f4 db 3d 40 57 a4 bd 93 76 07 3d
       -0.280926 0.10739903 -0.08024454 0.033072066
000040 bb 94 6d bd 67 67 de bd 30 92 b9 3e 0d e4 ff 3d
       -0.05800317 -0.10859566 0.36244345 0.12494669
000050 18 0e 08 3d 05 17 74 bd d3 83 0a be 99 a9 f6 bc
       0.033216566 -0.059592266 -0.1352685 -0.030110167
000060 c8 ec 74 be 4a a2 0d 3c dd fa 7d bd f6 f6 12 be
       -0.2391845 0.00864465 -0.06200682 -0.1435202
000070 ed ed a0 bc 0d f6 29 bd ff 5d 49 3e 48 3a a6 3e
       -0.019644702 -0.041494418 0.19664763 0.3246634
000080 0b c2 df bd f4 99 0c 3e 3b 0e e5 3d e4 2e d7 bd
       -0.10925683 0.13730603 0.11184355 -0.105069906
000090 48 31 0e 3e 13 d9 28 3b 4a 47 47 3e d8 34 5a 3d
       0.13885987 0.0025764152 0.19460788 0.053273052
0000a0 af 4e 21 be aa 83 16 3e ba 2b 56 be 9e 0d ac be
       -0.15752672 0.14698663 -0.20915118 -0.3360414
0000b0 4f e8 88 3c 06 68 9b bd b2 77 90 3c 2f f5 63 3e
       0.016712336 -0.075882 0.0176352 0.22261499
0000c0 01 6f 45 be ff ef a2 3d 2f da 2f 3e 48 65 93 bd
       -0.19280626 0.07955932 0.17173074 -0.07197052
0000d0 9d b7 16 be 21 43 19 3e 27 1f 88 bd e6 ee 2a bd
       -0.1471848 0.14967014 -0.06646567 -0.041731738
0000e0 f9 f5 9d 3e 52 00 4f 3d 95 d1 26 3e 42 7b 2d 3e
       0.30851725 0.050537415 0.16290887 0.1694155
0000f0 ff d9 97 be 25 dd ee 3d 44 60 96 3e b8 c2 d9 3d
       -0.29658505 0.11663274 0.2937032 0.10632843
