saved_models/PPO/using_glicko2_for_matchmaking/model10.pth (torch, 48448 bytes, 7 tensors)

0.weight f4 [64, 84]
000000 a2 17 85 3e 92 c4 0b be 68 e9 3c bc 77 c4 1c 3e
       0.25994593 -0.13649204 -0.011530258 0.1530932
000010 44 20 bd 3e 37 0f 13 3e 4a 3c 32 be 6f 78 82 bc
       0.3693868 0.14361273 -0.17405811 -0.015926568
000020 88 ce 58 3b 45 52 a7 be f6 80 46 be 5d a2 71 bd
       0.0033082087 -0.32679954 -0.19385132 -0.058992732
000030 ac f3 65 3d 78 1f 22 3e b6 39 2f be 3d dd 7c 3e
       0.056140587 0.15832317 -0.17111859 0.2469377
000040 04 d1 31 3e c4 5b 85 3c 08 fc bd bc be 8c 74 3e
       0.1736489 0.016279109 -0.023191467 0.23881814
000050 27 13 92 be aa 31 ac bd fd e2 5e be a7 b2 22 3e
       -0.28530237 -0.0840791 -0.21766277 0.15888463
000060 76 1c a4 3b 90 81 92 bd e5 1a 8a bd 2f 7a 71 3d
       0.0050082756 -0.07153618 -0.06743411 0.058954414
000070 f7 ce 0f 3e fa 24 a0 bd 85 29 dc b9 5f 6a 6a bd
       0.14043795 -0.07819553 -0.00041992604 -0.05723035
000080 8b 1b 88 bd a8 76 5d 3e f7 67 5d be a2 b2 1d bd
       -0.066458784 0.21627295 -0.2162169 -0.038500436
000090 8d f0 15 be 8a 0d c5 3d 9d d6 3b 3e f3 e6 a9 bd
       -0.14642544 0.09621723 0.18343587 -0.08296003
0000a0 88 62 80 3e 36 64 d2 3d 3f c4 9d 3c b8 1e 6e 3e
       0.25075173 0.1027302 0.019258616 0.23253906
0000b0 dd 35 ef 3d 78 3d 65 bd d6 69 f9 3c 71 4d ca 3b
       0.116801955 -0.055966824 0.030445974 0.0061737825
0000c0 47 1f 84 3d f5 79 94 bd d8 c6 60 3e e9 09 d0 be
       0.06451278 -0.07249824 0.21950853 -0.4063256
0000d0 08 d5 e9 bd 20 a0 10 3c b2 7e 9e be 94 cb e8 be
       -0.114175856 0.008827239 -0.30956036 -0.45467818
0000e0 77 b9 b8 bc 61 63 c5 bd c4 11 20 bb 0e 24 6a 3d
       -0.022549374 -0.09638096 -0.0024424652 0.05716329
0000f0 9f 7d df bd 82 1b 86 bd a9 06 7d be ab ea 7d be
       -0.10912632 -0.065482154 -0.24709572 -0.2479655
000100 cc be aa 3d 03 1b fe bd 21 94 aa 3d 85 c7 2e 3d
       0.08337173 -0.12407496 0.083290346 0.042670745
000110 c9 18 0d 3e c5 3c bb 3d 1f 4a d9 bd 87 2c 81 3e
       0.13778986 0.0914245 -0.106098406 0.25229284
000120 13 02 34 be 52 b1 62 3e b5 dd e5 3e 32 ff 34 3e
       -0.17578916 0.22137955 0.44895712 0.17675474
000130 a2 1e 87 be 5b dd 95 3d fd a7 d6 3c 32 af 13 3e
       -0.26390558 0.07317611 0.02620315 0.144223
000140 a5 fb 32 be dd 14 92 bb b5 b7 8a bd e3 a9 57 3d
       -0.17478807 -0.0044580535 -0.067733206 0.05265225
000150 0a 44 d6 bd 03 ac 0e 3e 83 89 67 bd 2d c8 2a be
       -0.10462196 0.13932805 -0.056527626 -0.16677924
000160 3e a0 6f 3e 6d e4 a8 3e 1e 64 0b 3e f2 4f 88 3d
       0.23400971 0.32986775 0.1361241 0.06655873
000170 7f 4d 82 3e fc 4b 6d 3e d7 8e 22 3d 0f c8 8b 3c
       0.2544975 0.23173517 0.039687004 0.017063169
000180 7f 88 37 bb dd a2 c6 3d 02 db 51 3d db 0d a1 bd
       -0.0028004942 0.096990325 0.051234253 -0.07863971
000190 4d 8d b5 be 00 01 a4 be 6a bf b2 be 03 4e d0 3d
       -0.35459366 -0.32032013 -0.34911662 0.101711296
0001a0 9d 07 73 3e 35 b0 10 be 53 f8 4f be 51 6f 4b 3d
       0.23733373 -0.14129718 -0.20309572 0.049666706
0001b0 23 88 a1 be d1 c5 b9 3d 20 59 1b 3e 48 b2 57 3e
       -0.31549177 0.090709336 0.15170717 0.21064103
0001c0 5b e3 bd 3e 29 2e a0 be bc a9 d6 bd 3f 59 1b 3d
       0.3708752 -0.31285217 -0.10481593 0.03792691
0001d0 f1 5d 46 3e 54 63 19 be 9b 11 cb bd 93 ae fd bc
       0.19371773 -0.14979297 -0.09915467 -0.030967033
0001e0 dc 4b e3 3d 38 ad 3e 3e 04 31 35 3e b7 7e 40 be
       0.110984534 0.18620765 0.17694479 -0.18798338
0001f0 d8 ef d6 3d f5 78 6f 3e 21 7a b7 3d 8f 3e 57 be
       0.10494965 0.23385985 0.08958841 -0.21019958
000200 cf 17 ec be 87 43 35 bd 89 51 48 3d 33 4b b9 bc
       -0.46111915 -0.044253852 0.048905883 -0.022618866
000210 64 bc 01 3e b4 63 da 3d f0 f0 4f 3d 37 c9 3f bd
       0.12669522 0.10663548 0.050766885 -0.046822753
000220 76 3d 04 3e 48 f6 da bd 3b ba 94 3e ff 2c 5e be
       0.1291407 -0.10691506 0.29048333 -0.21696852
000230 c2 ae 3f be 17 60 05 be a4 97 24 be 1f 91 5a 3e
       -0.18719009 -0.13024937 -0.16073471 0.21344422
000240 8b 33 05 be d5 1f ac 3e 0c b0 7f bd 71 42 16 be
       -0.13007943 0.33618036 -0.06242375 -0.14673783
000250 40 5f 86 3e 0a 7f 37 3e 0b 9c 8b bc 28 d7 28 be
       0.26244545 0.17919555 -0.01704218 -0.16488326
000260 09 4e 7e be 84 f5 f0 3c 94 89 8a be ec de 1a 3d
       -0.24834456 0.029413946 -0.2705809 0.03781025
000270 2a c2 65 bc f1 7f 06 be 83 60 8d 3e 96 7b b0 be
       -0.014023343 -0.13134743 0.27612695 -0.3446929
000280 18 1a 92 be 98 9a be 3c 2c 54 ea 3c 77 2f 7b bd
       -0.28535533 0.023267075 0.02860459 -0.061324563
000290 55 71 09 3e 3d d3 e3 3c fc 61 00 bd 9a ca 22 3e
       0.13422139 0.027810687 -0.031343445 0.15897599
0002a0 4c 5e dd bd cf 31 c6 bd ee 60 73 3c 25 0b 28 3e
       -0.10809001 -0.09677469 0.014854653 0.16410501
0002b0 e4 4c 85 3d 7d 2a 4b bd e2 03 1c 3e c8 b9 d7 3b
       0.06508806 -0.049601067 0.15235856 0.006583426
0002c0 be ab b5 3e 81 6d 6e be 74 90 73 be 4c 47 42 3d
       0.3548259 -0.2328396 -0.23785573 0.047431275
0002d0 3a b3 89 bd f8 3f bf 3a 26 13 0e 3e a5 95 6f bc
       -0.06723638 0.0014591208 0.13874492 -0.01462308
0002e0 01 af a5 be 00 51 72 3d 2e c3 f2 3b fd 10 40 3c
       -0.3236008 0.05915928 0.007408521 0.0117228
0002f0 f2 d5 7a bd 6c bd 33 3e b3 01 e5 3e 1e f9 db 3c
       -0.06123919 0.17552727 0.4472786 0.026852187
000300 0d 2b 0b 3e 46 f3 55 be 7a 86 4e 3e fd ec 3a be
       0.13590641 -0.20893583 0.20168486 -0.18254466
000310 f6 37 ea bd f9 ed 9e 3e a4 4b 62 bd b1 57 76 be
       -0.11436455 0.31040934 -0.055247918 -0.24056889
000320 2b 77 83 bd 20 bd 8d 3e 83 78 11 3e 83 b0 4e 3e
       -0.06419214 0.27683353 0.14206128 0.20184521
000330 46 d6 dc 3d 99 26 a5 3e 36 37 15 be 69 e3 ff 3d
       0.10783057 0.3225601 -0.14571843 0.12494547
000340 8e 4f 2b 3e de d7 bc bd 56 34 0e bd 7f 81 a7 bd
       0.16729566 -0.09220861 -0.03471788 -0.08178996
000350 de 1c 2c 3d a1 3b b7 3e 0a a2 96 3e 7d e4 c4 bc
       0.042019717 0.3578768 0.294205 -0.024034733
000360 64 3f 88 be 0b d8 7c 3c dc 64 2f 3e b1 21 f2 3d
       -0.26610863 0.015432368 0.17128319 0.118228324
000370 45 13 25 be 9e 13 31 be 4a 90 af bd 99 e3 93 3d
       -0.16120632 -0.1729264 -0.08572443 0.07221145
000380 26 ce 48 be e9 d8 3e be 91 89 17 3d 35 a2 a1 3d
       -0.1960989 -0.18637432 0.036996428 0.07892267
000390 ea 8b 6c be d2 a8 d5 3c 4a 34 19 3e be f8 2d be
       -0.23100248 0.026081476 0.14961353 -0.16989419
0003a0 7a 01 a6 bc 29 97 ac 3e bc 1d 74 be 5d 0c 16 3b
       -0.020264376 0.33709076 -0.23839468 0.0022895553
0003b0 31 ef da 3b be 58 e1 3d 6c f5 39 be 10 88 1c be
       0.006681346 0.11003254 -0.18160027 -0.15286279
0003c0 6d 7f d1 3d ac c8 3c bd 54 0d b0 bd c9 02 fe 3d
       0.10229383 -0.046089813 -0.08596292 0.12402875
0003d0 69 e0 0e be e7 78 e7 3d 0f 78 2f 3d 7f f3 0d be
       -0.13952793 0.11302357 0.042839106 -0.13862418
0003e0 fb b6 e4 bd 20 04 a9 be d2 2a eb bc 31 ce 22 3d
       -0.11167713 -0.3301096 -0.028706942 0.03974742
0003f0 1e e6 d9 3d bf 08 00 3e fd f4 0d be 2d e5 ec 3d
       0.106395945 0.12503336 -0.13862987 0.11567149

0.bias f4 [64]
000000 46 43 22 bb 54 17 19 3c 05 cc eb bd de 5d ab bd
       -0.0024759336 0.009343941 -0.11513523 -0.08367513
000010 65 f6 08 3e 30 43 1e 3d 71 46 75 3d 04 00 ca bc
       0.13375242 0.038638294 0.05988163 -0.02465821
000020 e5 59 08 bd 41 08 26 3c 39 04 85 bc 24 d9 6f 3d
       -0.033288855 0.010133804 -0.016237365 0.05855669
000030 3c 30 0b bd 38 61 04 bd c7 73 83 bd 16 a8 78 3d
       -0.033981547 -0.032319278 -0.06418567 0.060707174
000040 a2 0d d2 3c bc 9f 87 3d ab e4 ab 3c 01 40 90 3a
       0.025641266 0.06622264 0.02098306 0.0011005403
000050 00 ea b8 bd b8 4e b1 bd 1d 06 ef 3d 4d fb 00 3e
       -0.09029007 -0.086575925 0.11671088 0.12595864
000060 d9 b9 dd 3c e9 b0 52 3a 58 ab 90 3d 5e a6 54 3d
       0.027066158 0.0008037226 0.07063931 0.051916473
000070 cb 36 02 bd de 6d 15 3e d6 3e 97 3d 13 ac 7c 3d
       -0.031790536 0.14592692 0.07385032 0.06168754
000080 0d 0a 82 3c a7 7b f8 3b 59 b9 4c 3d a6 54 b9 3c
       0.015873933 0.0075831 0.04998145 0.022623371
000090 86 9a ea bc de 13 a9 3d 6c 69 9d bc 29 f6 e9 3b
       -0.028638136 0.082557425 -0.019215308 0.0071399403
0000a0 1e 95 04 3e e7 68 7e bc 05 75 44 3d c5 30 c9 3c
       0.12947509 -0.01552794 0.04796316 0.024559388
0000b0 10 71 54 3d 24 bd 21 bd ee 01 fc ba 6d 73 bd bd
       0.051865637 -0.03948702 -0.0019226649 -0.09250531
0000c0 d9 d9 90 bd 75 cf bd 3c e1 b8 be 3c e8 21 84 bc
       -0.07072801 0.023170212 0.023281517 -0.016129449
0000d0 0f f3 1c bd d0 f9 13 3d 50 23 fc 3c 41 83 cc bc
       -0.038317736 0.03612691 0.030778557 -0.02496493
0000e0 25 df 29 3c 11 5c a2 3c 5e 1b 66 3d fe 2b 8e 3b
       0.010368143 0.019819291 0.056178443 0.0043387404
0000f0 4b 06 52 3d 68 29 93 bd 7a 5d 1e bd e0 be 3c 3d
       0.051275533 -0.07185632 -0.038663365 0.04608047

2.weight f4 [7, 64]
000000 46 bd a3 3e 51 ff fa 3d bd e0 54 3c 41 c0 9f bc
       0.31980342 0.12255729 0.012993035 -0.019500853
000010 40 6b 59 3e 37 8d 3d be d7 e3 e4 be bf 3f f3 3d
       0.21232319 -0.185109 -0.44705078 0.11877393
000020 c4 66 35 be 4b ef 23 3d 37 0b 1d bd f4 ee 97 3e
       -0.17714983 0.04002313 -0.038340773 0.29674494
000030 fc 8b 21 3e 8d ba bd 3e 6b 26 5e be a7 e2 2c bd
       0.15776056 0.3705639 -0.21694343 -0.04220834
000040 71 75 81 3e d9 46 cf 3d 9b 55 a6 3b 29 8d ef bd
       0.25284913 0.10120935 0.005076123 -0.11696846
000050 2f 8b 48 3e d3 5a 99 be ac 5b 97 be c8 fd c8 be
       0.19584344 -0.29952106 -0.29562128 -0.3925612
000060 8c 69 86 be b0 80 b5 3d f9 cb 6c 3e 49 aa 30 be
       -0.262524 0.08862436 0.23124684 -0.17252459
000070 7a 6a 75 be 37 50 b0 be 27 f6 d0 bd 70 ef c2 3e
       -0.23966399 -0.344362 -0.102032 0.380733
000080 8c 72 39 bb 08 f8 5b 3e 83 cb b6 3b aa 1d ac 3d
       -0.0028297035 0.21481335 0.0055784597 0.084040955
000090 b3 d8 d1 3d ff 2b 1a 3e dc bd ec 3d 9c 28 d2 3d
       0.1024641 0.15055846 0.1155965 0.10261652
0000a0 85 d3 63 be 85 96 9f bd 73 f6 bc 3e 16 d9 cc 3e
       -0.22248657 -0.07792381 0.36906776 0.40009373
0000b0 eb 53 0a be 5e 13 2e 3e ae 96 9b bd 1e 93 69 be
       -0.13508575 0.16999575 -0.07597099 -0.22810027
0000c0 aa 20 88 bd 4d fb 8c 3e 03 d7 83 3e e9 56 9b bb
       -0.06646855 0.27535477 0.25749978 -0.004740585
0000d0 11 2a 13 be ea 26 d9 3e b7 1d ac be f1 e7 ad 3e
       -0.14371516 0.42412502 -0.3361642 0.3396602
0000e0 22 95 06 3e ea 99 f5 bc bf 98 a8 be 79 10 45 be
       0.13142827 -0.029980619 -0.32929036 -0.19244565
0000f0 bf f4 2c 3e 6b 68 9a be 31 57 db bd 5a ce 1e 3d
       0.16890238 -0.3015779 -0.1070999 0.03877101
000100 60 4c 63 bd 7d 3e 52 be 5d 74 0c 3e ad 67 18 bd
       -0.05549276 -0.2053165 0.13716264 -0.037208248
000110 d3 39 59 bd 07 86 aa 3d 0c 81 43 be 70 25 fd 3d
       -0.05303366 0.08326345 -0.19092196 0.12360656
000120 97 88 0d 3e d9 9c 2c 3e 05 d2 e9 bd 94 09 cc bd
       0.13821636 0.16856708 -0.11417011 -0.099627644
000130 19 4b 20 3d 4d c4 22 3d 76 9e a8 bd 96 46 2e bd
       0.03913412 0.03973799 -0.08233349 -0.042547785
000140 72 26 45 be b3 b0 bb be a9 01 98 3e 89 09 02 3c
       -0.19252947 -0.36658248 0.29688767 0.007936844
000150 d2 92 be be 7a df 8d 3d 00 3d 73 be 47 df dc 3d
       -0.3722139 0.069273904 -0.23753738 0.10784774
000160 3a 89 80 bd ef 86 3d 3e c6 6b 38 be fa 05 99 be
       -0.06276174 0.18508504 -0.18009862 -0.29887372
000170 27 4c b6 3e 75 10 0c be ee 73 ec bd 3f 6d 12 3f
       0.35604975 -0.13678153 -0.11545549 0.57197946
000180 54 89 c1 3e d7 48 b7 3a 56 7a 8b be 85 42 43 be
       0.37800086 0.00139835 -0.27241772 -0.19068344
000190 4f fb 3c 3e 50 f5 8a be c7 bf 9a be 3d 18 34 3d
       0.18455242 -0.27140284 -0.3022444 0.043968428
0001a0 5a 09 95 be c5 2e 5a 3e 58 ee d9 be 02 fd e8 3e
       -0.29108697 0.21306904 -0.42564654 0.4550553
0001b0 53 11 13 bd 30 9b c0 be b0 d4 25 3d c5 0d 86 3e
       -0.035905194 -0.376184 0.040486038 0.2618238
0001c0 37 bc 8f 3d c5 ac 91 3d 24 de af 3e 36 34 a1 3e
       0.07018321 0.07113031 0.34349167 0.31485146
0001d0 35 a3 8a be 36 74 9b 3d e9 98 35 be 18 22 a0 be
       -0.27077642 0.07590525 -0.17734112 -0.3127601
0001e0 31 d9 84 3e d2 70 98 be aa ea b1 3e 8d 93 0b be
       0.25946954 -0.29773575 0.34749347 -0.13630505
0001f0 d8 d9 87 3d a8 ce ee 3d f4 5c 85 3e b3 24 fc bd
       0.06633347 0.1166051 0.2604748 -0.12311687
000200 89 08 fa 3e 04 ab 32 3e 9f a8 b4 bd c2 32 9d 3e
       0.48834637 0.1744805 -0.088212244 0.30702788
000210 0b 05 fd bd 7a 87 9e 3d 0d ed 85 be 8d d5 e7 bd
       -0.123544775 0.07740684 -0.26157418 -0.113200285
000220 05 e8 f3 3d 43 d9 23 be 5f 17 ad 3e 27 dd 84 bd
       0.119094886 -0.16000848 0.33806893 -0.06487494
000230 e2 09 66 3d c5 9e 12 3c c0 bb b0 bd 9b cc b9 bd
       0.05616177 0.008948986 -0.086295605 -0.090722285
000240 c8 06 c2 3c d7 05 25 be 18 d1 21 3e 18 7e 7e 3d
       0.023684874 -0.16115509 0.15802419 0.06213197
000250 b0 b6 ac 3d 08 ee 9f 3d 9d da a8 3e ec 52 a1 3e
       0.084332824 0.07809073 0.3297929 0.31508577
000260 e8 a6 13 be 1f 56 ae be 40 45 88 3e d7 e4 b0 3e
       -0.14419138 -0.3405008 0.26615334 0.3454959
000270 ba e2 db 3d 6e f1 47 3e c7 2f e3 bd bd 4e bc 3d
       0.10736604 0.19525692 -0.11093097 0.09194706
000280 d3 af b5 3e 9a d6 8b bd 3a 49 1c 3f a9 4c 28 be
       0.35485706 -0.068280414 0.61049235 -0.16435494
000290 cf d3 65 be 5d 59 0c 3d 66 26 46 bd 5e 41 31 3c
       -0.2244408 0.03426491 -0.048376463 0.010818807
0002a0 67 f1 1d bc f4 f6 99 be 85 4f 44 be 94 e0 3d 3c
       -0.009640074 -0.30071223 -0.1917096 0.011589188
0002b0 8e 35 be 3e 8f ce ea 3d fb 38 39 be 3e 75 d0 3e
       0.37150234 0.11465179 -0.18088143 0.4071445
0002c0 93 22 98 3d 82 26 1f be 9f 86 df be 42 f4 64 be
       0.074284695 -0.15542033 -0.43657395 -0.22358802
0002d0 33 38 c2 be 37 f0 31 3e ad 92 39 3e be f2 c5 bd
       -0.37933502 0.17376791 0.18122359 -0.0966544
0002e0 86 22 4e 3e b7 eb df 3e 94 2b 09 be cd 5c 5e 3d
       0.20130357 0.43734524 -0.1339553 0.05428772
0002f0 74 fe eb be ab a1 78 3c 95 a5 c8 bd 05 57 48 3e
       -0.4609257 0.015175263 -0.09797207 0.19564445
000300 84 64 05 be c9 d3 9f 3e 5d 2b e3 bd 8d 9b 74 3c
       -0.13026625 0.31216267 -0.11092255 0.014929664
000310 2c a1 cd 3e da 40 d9 be 4a 85 05 bd 69 10 ea 3d
       0.40162027 -0.4243229 -0.032597817 0.11428911
000320 04 7c fc bd a3 99 d6 be 98 cd 7c 3e 97 fd 87 bd
       -0.123283416 -0.4191409 0.24687803 -0.06640165
000330 c4 9b 59 3d 69 61 f6 bc f2 0f 02 3e d4 4b af 3e
       0.053127065 -0.030075746 0.12701395 0.3423754
000340 3a 94 92 3e 7e 88 a6 be 88 71 52 be 94 5b f1 be
       0.28628713 -0.3252601 -0.20551121 -0.4714018
000350 22 0e 3f be 02 c3 67 3c d8 bf cf bd 05 48 d3 be
       -0.18657735 0.014145615 -0.10144013 -0.41265884
000360 da 11 d6 3d 5a 9d ed bd 8a bc ed bd 91 30 fb be
       0.10452624 -0.11602278 -0.116082266 -0.4906049
000370 c2 ed 70 3d 05 95 bd bb 6d c7 6e be c0 04 8a be
       0.058820494 -0.005785587 -0.23318262 -0.2695675
000380 3d 53 01 3f c2 77 51 3e d9 41 87 3e 26 e6 d4 be
       0.50517637 0.2045584 0.26417425 -0.4158184
000390 f1 5c 70 3e 99 e8 10 3c 69 63 f0 bd f0 71 ca 3e
       0.23472954 0.008844518 -0.11737711 0.39540052
0003a0 7e a0 cc 3d 9b b4 e3 bd d2 5c 49 be b6 d6 86 be
       0.09991549 -0.11118432 -0.19664314 -0.26335686
0003b0 b5 c5 bf be 77 70 08 3c 7e 4e 50 3e 8b 8c 62 3e
       -0.37455526 0.008327595 0.20342442 0.22123925
0003c0 62 d7 c4 3d 94 f5 fc 3d 13 95 d6 3b 59 05 0e 3e
       0.096113935 0.12351528 0.0065485328 0.13869227
0003d0 02 47 56 3e da d1 98 be 1b 83 e9 3e 49 2d 0c 3e
       0.20925525 -0.29847604 0.45607838 0.1368915
0003e0 ce a0 cb be 3a 28 bc 3d be 1e 94 3d c6 1c f4 bc
       -0.39771122 0.0918736 0.07232426 -0.029798876
0003f0 7c d8 87 be 63 5d 3b 3e fa 89 0c bc 69 65 cb 3d
       -0.26532352 0.18297343 -0.008577818 0.09931452

2.bias f4 [7]
000000 da 8d a3 3b f9 71 98 bc 52 1a 88 ba aa ec 83 bd
       0.0049912753 -0.018609034 -0.0010383821 -0.064416245
000010 97 fb ec 3b f0 34 c6 3d 97 0d 7b bc
       0.0072321403 0.09678066 -0.015323064

0.weight f4 [64, 84]
000000 e9 c0 3f be 4a 38 64 3b b6 7f ee bd 3e 8d 48 bd
       -0.18725933 0.003482359 -0.11645453 -0.048962824
000010 2d ff 8c bd 12 9f f5 bd 55 ea 0e 3e bf 03 22 be
       -0.068846084 -0.11993231 0.13956578 -0.15821742
000020 4c a6 16 3e 74 a9 a0 be 3e 43 85 3c ed a4 5d 3e
       0.14711875 -0.31379282 0.016267415 0.21644945
000030 26 2e 98 3d 7f e3 4d be dc f7 bb bd ca 0e 92 be
       0.07430677 -0.20106314 -0.09178135 -0.28526908
000040 24 8f 8c be df 07 47 3e 29 7f 84 bd c6 97 cf 3d
       -0.27452958 0.19436596 -0.064695664 0.1013637
000050 22 72 13 bc b8 9e cb bd 72 fa a8 3d 54 5b a2 bd
       -0.008999379 -0.099423826 0.08250894 -0.07927576
000060 0f d4 ba 3d da 7a 2f 3d 7c c4 4a 3e fc ff 1a be
       0.09122478 0.04284177 0.19801515 -0.15136713
000070 a5 fb 89 bd ff 9f 3f 3d 43 6a 20 3b 4a 8c 2a bc
       -0.067374505 0.046783444 0.00244774 -0.010409424
000080 c0 27 3e 3d 6c 3f 8b 3e 99 08 1a be d3 28 6c 3d
       0.046424627 0.27196825 -0.15042342 0.05765612
000090 5a 4f bb bd a2 28 dc bd 02 1a b3 3d 5a ab a4 bd
       -0.091459945 -0.107499376 0.08745195 -0.08040495
0000a0 74 1c 65 39 db 59 4f be 11 4a cb 3e 2c 19 88 bd
       0.00021849741 -0.20249121 0.39704946 -0.06645426
0000b0 d5 d7 33 bd 8d 80 16 be 11 91 37 be 9e 3b df 3d
       -0.043907005 -0.14697476 -0.17926432 0.10900043
0000c0 ff e1 1a be 63 fc 58 3e 88 4d c5 3d 03 f6 53 be
       -0.15125273 0.21190028 0.096339285 -0.20699315
0000d0 62 69 e2 bc cc 28 4c 3d 5b 09 32 bd 2a fa 34 bd
       -0.027638141 0.049843594 -0.043465953 -0.044183888
0000e0 71 0d b0 3d 00 bc 0f be 2d 7e 2e bd ed ea 33 be
       0.08596314 -0.1403656 -0.0426008 -0.17570086
0000f0 ca 1c 55 3e 5a 0a 77 3d 29 0f c3 3c 86 42 4a 3e
       0.20811763 0.060312606 0.02381094 0.19751939
000100 3c 25 b5 3d df 6c 2d 3e 08 55 09 3e 14 44 87 be
       0.088449925 0.16936062 0.13411343 -0.26419127
000110 f9 ed d6 bd 6e 93 c0 bc 13 96 6c 3d a6 c1 b6 be
       -0.104946084 -0.0235078 0.05776031 -0.35694617
000120 d9 a1 b2 bd c7 e8 c4 bd 13 40 ef bc 87 2d 45 3d
       -0.08722276 -0.09614711 -0.029205358 0.04813912
000130 9d 18 99 be 5c ff 52 3e 9e 59 06 3e 26 fd 19 be
       -0.2990159 0.20605224 0.13120124 -0.15037975
000140 c0 ba a0 bd 88 96 97 bb 00 00 a6 be a5 ee 54 3d
       -0.0784812 -0.004626099 -0.32421875 0.0519854
000150 c2 7a 5d 3d 88 ae 93 3d 38 77 b8 3e e1 76 43 bd
       0.05407215 0.072110236 0.36028457 -0.047720794
000160 09 86 32 bd 87 bd c1 3d 49 43 95 3d 6e d0 eb bc
       -0.043584857 0.094599776 0.07288224 -0.02878591
000170 7a 42 2a be ad eb b6 3d fe bf 8c 3b 27 d5 87 3c
       -0.16626921 0.0893167 0.004295348 0.016581131
000180 86 8a f8 3d 44 38 88 be 60 e0 9d bd 12 55 d5 be
       0.12135796 -0.26605427 -0.07708812 -0.41666466
000190 80 61 d2 bd 96 cc 44 bd 94 47 a8 3d 44 50 5b bd
       -0.10272503 -0.04804667 0.082167774 -0.053543344
0001a0 24 77 6a be f5 ca 99 bd d5 69 85 bd 6c 48 0b 3d
       -0.22897011 -0.07509414 -0.065143265 0.034004614
0001b0 8c 35 26 3d 33 e1 31 3e 0a 6f 71 bc 4c 1e 8c be
       0.04057841 0.17371063 -0.014735946 -0.27366865
0001c0 7a d4 9e bd dd 9a 83 3d a3 af d2 bd 12 a3 f0 3d
       -0.077553704 0.06426022 -0.10287406 0.11749853
0001d0 f8 94 cd 3d 92 e4 30 3e 48 8f 17 3e 01 e2 c4 bd
       0.10038179 0.17274693 0.14800751 -0.09613419
0001e0 ef c5 60 be 16 61 28 3e 4e 22 44 be 34 0f b8 3c
       -0.21950506 0.16443285 -0.19153711 0.022468187
0001f0 2a d1 1b bc d6 01 36 be 11 02 93 be 28 31 b9 3d
       -0.009510318 -0.17774138 -0.28712514 0.09042579
000200 60 17 1b be 03 64 a1 bd 69 db ed bd 93 c3 a9 bd
       -0.15145636 -0.07880404 -0.11614115 -0.08289256
000210 b2 42 7c bc 06 14 7c be 84 03 3f 3d bd f7 57 3e
       -0.015396761 -0.24617013 0.046634212 0.21090598
000220 8a 72 84 be 50 0a 44 be f2 bd 2e 3e ac a1 eb 3d
       -0.25868636 -0.19144559 0.17064646 0.11505446
000230 4d 15 c4 3d 1a 3c 07 3e 2f da 8e 3e f2 5e 39 be
       0.09574375 0.1320652 0.27900836 -0.18102625
000240 f8 ae ab be 57 aa 7c bd 2d de ea 3d 29 e9 0b 3d
       -0.33531928 -0.061685886 0.11468158 0.034157906
000250 4d a8 19 be 8c f3 7b bd 7c 78 bc 3c 98 ef 05 3e
       -0.15005608 -0.06151156 0.02300667 0.13079679
000260 5e 17 66 be 5c 25 b5 bd f2 7c e0 bb 69 50 d1 bd
       -0.22469851 -0.08845016 -0.006850832 -0.10220415
000270 96 44 08 bd f7 f7 69 be 5b 56 00 3d 42 52 aa bd
       -0.033268534 -0.22848497 0.031332355 -0.08316471
000280 b5 6e 81 be 90 ff dd 3c 73 d9 fb bb 3b 4c 8b bd
       -0.25279775 0.0270994 -0.007685834 -0.06801649
000290 d7 f7 1e 3e 9b 6e 6c 3d b5 02 06 3d e7 71 a8 bd
       0.15524231 0.05772267 0.032717425 -0.0822485
0002a0 5d 76 c2 3d bd a5 3b be 4e 9a 30 3d 59 01 67 be
       0.09495232 -0.18324943 0.043115906 -0.22559108
0002b0 b0 ee 40 be 60 8d 33 bc cb 03 67 be ec 96 0e bd
       -0.18841052 -0.010958999 -0.2256004 -0.0348119
0002c0 53 4b 0d be 29 8a 8c 3e 1f ae 47 be 22 78 24 be
       -0.13798265 0.27449158 -0.19500016 -0.16061452
0002d0 d8 61 09 bd a6 a5 bd bc da 41 60 3e 87 64 0d 3e
       -0.033540577 -0.023150276 0.2190012 0.1380788
0002e0 90 3d 11 bd ce 5d 5c 3d 06 47 0b be 76 76 93 bd
       -0.0354591 0.053800397 -0.13601312 -0.07200329
0002f0 bb 96 43 3e a8 b1 3f 3e a1 a2 eb bd 07 8c c5 3e
       0.19100468 0.18720114 -0.115056284 0.38583395
000300 f5 06 ba 3d 2a 38 aa 3d c5 a6 08 be a1 a4 8a be
       0.09083358 0.08311494 -0.13344868 -0.27078727
000310 45 f0 75 be f9 6e 85 3d 79 13 e7 bc 8f a3 07 bd
       -0.24017437 0.06515307 -0.028207527 -0.033114966
000320 c2 37 0b 3e d0 5d a5 bd 76 14 25 be c5 9a 97 bc
       0.13595489 -0.08074534 -0.16121086 -0.018506417
000330 06 0a 13 bd 2c c3 52 bd e6 68 88 3e d9 ae 01 be
       -0.03589823 -0.05145566 0.2664253 -0.12664355
000340 e1 36 b3 be bf 3c f8 3d 9e 87 1f 3d 27 fa 05 3d
       -0.35002807 0.121209614 0.038947694 0.032709267
000350 a1 5f 35 bc 5b 1f b6 bb 28 ae 8d be af 23 1d be
       -0.011070163 -0.005557937 -0.27671933 -0.15345643
000360 ba b4 c6 3b b0 33 95 bb bf ed 89 3e 1d 8c 1b 3d
       0.0060640248 -0.004553281 0.26939198 0.03797542
000370 91 89 79 ba 2a 22 78 bd 41 a4 74 3d a6 46 69 be
       -0.0009519095 -0.060579456 0.059726957 -0.22780856
000380 63 33 e8 3d 2a 0f 9b bd 23 4d 2f 3d 7d e4 1e be
       0.11337926 -0.07571252 0.042798173 -0.15516849
000390 d9 dc 34 3d 31 8c 7c 3e 7f 7c 14 be 77 cd bd 3d
       0.04415593 0.24662854 -0.14500616 0.09267705
0003a0 d9 d8 de 3d 63 0c 11 bd 1b de 07 3e fb 4b 9e 3e
       0.10881204 -0.035412204 0.1326832 0.30917343
0003b0 2d 6b ef bd 67 68 24 3e 71 d1 11 3e eb 48 9d 3c
       -0.11690364 0.16055451 0.14240052 0.019199809
0003c0 b8 03 cc be 03 a2 0a be 6a 04 54 bd fb 51 16 bb
       -0.39846587 -0.13538365 -0.051762022 -0.0022937048
0003d0 77 93 88 bd a5 79 c7 3c 43 63 18 3c 57 24 80 3e
       -0.06668752 0.024349997 0.00930101 0.25027725
0003e0 00 8d 96 3d 64 d3 de bd c0 10 d8 3b b2 b6 bc 3c
       0.07351112 -0.10880163 0.0065937936 0.023036335
0003f0 32 4e 7b 3d 62 9f ad bd 26 26 86 be 45 aa 96 3d
       0.06135387 -0.084776655 -0.2620098 0.07356695

0.bias f4 [64]
000000 a9 ed 98 3d 8b ad 82 3d 2b 03 a2 3d 19 b0 ac bb
       0.07467205 0.06380757 0.079107605 -0.005270016
000010 40 b6 aa 3d dc 82 2f 3d 04 9e 7f 3d 1e f2 e6 3d
       0.08335543 0.042849407 0.062406555 0.11276649
000020 94 1d 67 3d ef 39 e4 3d 4f 93 a1 3d de eb f4 bc
       0.056424692 0.111438625 0.07889425 -0.029897626
000030 0b 64 58 3c fd de 00 bc a7 04 95 bd 9d 50 1a 3e
       0.013207446 -0.007865665 -0.07276278 0.15069814
000040 e8 ac 43 3b 64 67 3f 3d 2f 50 e4 3d b3 0e 3f 3d
       0.0029857699 0.04672946 0.11148106 0.046644878
000050 0f c1 9a 3d 8f b1 e6 bc ab 2f d6 3d 31 a3 79 bd
       0.07556354 -0.028160838 0.10458311 -0.060946647
000060 39 9a 92 3c 0c 4a 2c 3d 80 a9 80 3d 85 92 b6 bd
       0.017895805 0.042062804 0.062823296 -0.08914665
000070 a3 f1 76 3d e9 8c 0f bd a7 2f 99 3c f4 a3 23 bc
       0.060289036 -0.03504649 0.01869948 -0.00998782
000080 db a0 ed 3d 94 e4 c7 3d f6 d0 ec 3d a5 11 84 3d
       0.11602946 0.09760395 0.11563294 0.06448678
000090 4b 75 0e 3c a9 64 88 3d e1 37 b6 3d 8f 1d 5d 3c
       0.008694957 0.066598244 0.08897377 0.013495817
0000a0 fb e8 90 3d ab 46 50 bd 45 b2 a2 3d b8 3e 04 3c
       0.070756875 -0.050848644 0.079441585 0.008071594
0000b0 a6 e4 9d bd 9e 79 f8 3d dc 44 51 bc 07 b2 37 3d
       -0.07709627 0.12132572 -0.012772765 0.044847514
0000c0 18 2d 78 3d b2 3b c9 3d 8c c3 be bd 5c d1 d5 3c
       0.06058988 0.09825839 -0.09314641 0.026100807
0000d0 00 56 e3 3d 59 ec c6 3d a5 5a 90 3d fc d6 fb bb
       0.111003876 0.097130485 0.07048539 -0.0076855402
0000e0 b0 87 75 bc 90 6f 19 3e 1b f1 bf bc 21 ea 0c 3d
       -0.014985964 0.14983964 -0.023430398 0.03440297
0000f0 0f bb a7 3d 8c 63 34 3d 77 f3 b9 3d 39 86 9d 3d
       0.081899755 0.044040248 0.0907964 0.076916166

2.weight f4 [1, 64]
000000 09 69 a3 3c 19 f1 21 3d dc bb 36 3c 9f cc e5 bc
       0.019947546 0.03953657 0.011153188 -0.028051673
000010 bc 3f ff 3c 09 b7 a1 bd 40 38 bc 3c 3e 95 0a 3c
       0.03115832 -0.07896239 0.02297604 0.008458434
000020 ea 32 8d 3c b3 1a 3c 3c 5c 62 bc 3c 6f e0 27 bc
       0.017236192 0.011480975 0.02299612 -0.01024638
000030 49 e7 a6 bd 33 20 14 3e 53 49 01 be ae 6a 3c 3d
       -0.08149583 0.14465408 -0.12625627 0.046000175
000040 ab 51 dd bc 67 7c 8f 3c 02 73 f1 3c ae ec b6 3c
       -0.027016481 0.017515374 0.029473785 0.022329655
000050 bc 82 f1 3d f4 e3 62 bc ff 67 7b 3d c8 e4 31 bc
       0.11792514 -0.013848294 0.061378475 -0.010857768
000060 4e 14 84 bc 71 6a f9 3c 71 5b 03 3d 49 bd 3e bc
       -0.016122963 0.030446263 0.032069627 -0.011641809
000070 17 f0 98 3c 95 5b 22 bc 1b 09 1b 3d f5 f6 40 3e
       0.018669171 -0.00990953 0.03785048 0.18844207
000080 fc 53 a6 3c 2e 5b 03 3e 64 3b 74 3c d4 26 07 3d
       0.020303719 0.12827751 0.014906738 0.032996014
000090 e1 a9 17 be e7 bb ca 3d 17 9f b3 3d 85 96 e6 bc
       -0.14810897 0.09899121 0.08770578 -0.028147945
0000a0 c9 54 b7 3c c8 2c 16 3b ea 7e c6 3c 49 64 67 bb
       0.022379296 0.0022914875 0.02423044 -0.0035307577
0000b0 4f 70 4c bd 91 cc b3 3c c5 4e 5e 3c 91 e4 43 bd
       -0.049911793 0.02194813 0.013568585 -0.0478254
0000c0 a4 86 73 3c 26 20 02 3d 60 ad a9 bd e5 48 49 ba
       0.014863644 0.03176894 -0.08285022 -0.00076784036
0000d0 ab e9 81 3e 87 9b 1d 3d b7 d1 6d 3d be 4b c7 bc
       0.25373587 0.0384784 0.058061328 -0.024328109
0000e0 1a b9 ba bc d0 ef cc 3c d1 fd 9a bc c9 1d a8 bd
       -0.022793341 0.025016695 -0.018919857 -0.08208806
0000f0 12 4a a4 3c de 5f 62 bd fa 09 eb 3c 6e f1 c6 3c
       0.02005485 -0.055267207 0.02869128 0.024285045
