saved_models/PPO/using_trueskill_for_matchmaking/model2.pth (torch, 48436 bytes, 7 tensors)

0.weight f4 [64, 84]
0	0xbd71fc00	-0.059078217
1	0x3de3061c	0.1108515
2	0x3e615033	0.2200325
3	0x3ed84523	0.42240247
4	0x3e0c8db5	0.13725932
5	0x3eb64a71	0.3560367
6	0xbe5347e6	-0.20632896
7	0x3dff9185	0.124789275
8	0x3d19543f	0.03743386
9	0x3df1a2c1	0.11798621
10	0x3b0accfb	0.0021179307
11	0x3e6ff43e	0.23433015
12	0xbe6fa98a	-0.23404518
13	0xbdf1bf0e	-0.11804019
14	0x3e1afb9b	0.15135042
15	0xbe3ba8d7	-0.18326126
16	0x3e87d69e	0.26530927
17	0xbdb6de4d	-0.08929119
18	0xbd823db1	-0.06359423
19	0x3d6ef104	0.05833532
20	0x3deecfea	0.1166075
21	0x3d81f5d4	0.06345716
22	0xbb88913a	-0.004167703
23	0xbde547b0	-0.11195314
24	0xbe180505	-0.14845665
25	0x3e3a3602	0.18184665
26	0x3e022255	0.12708409
27	0x3d16b962	0.03679789
28	0xbc23e290	-0.010002747
29	0x3df5f80f	0.12010204
30	0x3e0debad	0.13859434
31	0x3cf5cb4f	0.030004172
32	0x3c21f5b1	0.009885238
33	0xbd773934	-0.060357288
34	0x3e87e6cf	0.2654328
35	0xbdee693b	-0.11641165
36	0xbcacdf17	-0.021102471
37	0x3e212a9a	0.15738907
38	0xbe3748a3	-0.17898802
39	0xbdf8263a	-0.12116666
40	0x3d96834a	0.0734926
41	0x3e7c8faa	0.24664178
42	0x3da4e811	0.08052076
43	0xbcfbc93e	-0.030735608
44	0x3e999f42	0.30004317
45	0x3ed08bb4	0.40731585
46	0x3e966aad	0.29378262
47	0x3de2c4e5	0.11072711
48	0x3ecaaacb	0.3958343
49	0xbde92385	-0.11383728
50	0xbe856d2e	-0.2605986
51	0x3e145e8c	0.14489192
52	0x3d296db2	0.04136438
53	0x3e4d8668	0.20070803
54	0x3dacf7a6	0.08445673
55	0x3e571f53	0.21008043
56	0x3cf54361	0.029939355
57	0x3e8928c6	0.2678892
58	0x3e77bf67	0.24194108
59	0x3d063e9b	0.03277455
60	0xbe5cad1f	-0.21550415
61	0xbe737393	-0.23774557
62	0xbc05aa93	-0.008158344
63	0xbca969c5	-0.020680318
64	0x3dbb9f7a	0.09161277
65	0xbdeef2ec	-0.116674274
66	0x3dff84c4	0.12476495
67	0x3e13139b	0.14362948
68	0x3e24bae4	0.16086918
69	0x3cf61dce	0.030043509
70	0xbdaeb0e1	-0.08529831
71	0x3e344f65	0.17608412
72	0x3d0ee4af	0.03488606
73	0xbd8d554a	-0.06901033
74	0x3cc120d0	0.023575217
75	0xbe6722bf	-0.22571848
76	0xbdb613bc	-0.08890483
77	0xbde0f1be	-0.10983609
78	0xbe785382	-0.24250606
79	0x3c7701e2	0.0150761325
80	0x3e1a31d3	0.15058069
81	0x3c48d842	0.012258591
82	0xbe29c90f	-0.16580604
83	0x3e3f09ee	0.18656132
84	0xbe4edc0c	-0.20201129
85	0x3bb9d417	0.005671035
86	0x3c299b9e	0.010352043
87	0xbe64d050	-0.2234509
88	0x3f0f7b17	0.56047195
89	0xbe9ea213	-0.30983028
90	0x3e836706	0.25664538
91	0x3e3e9edb	0.18615286
92	0x3ca4770f	0.020076303
93	0xbd7381fa	-0.059450127
94	0x3e341db5	0.17589457
95	0xbdc5af2c	-0.09652552
96	0x3dc0db81	0.09416867
97	0x3e1935cf	0.14961933
98	0xbec3a725	-0.3821346
99	0x3e1d78b2	0.15378073
100	0xbe43270f	-0.19057868
101	0x3e015925	0.12631662
102	0x3d97587f	0.07389926
103	0x3e1ccad6	0.15311751
104	0xbe8320b0	-0.25610876
105	0xbe0e0d0f	-0.13872169
106	0xbd34ddc6	-0.044156812
107	0xbc8ea310	-0.017411739
108	0x3dc8d6fc	0.0980663
109	0x3e3bd6ac	0.1834361
110	0x3e4cfacc	0.20017546
111	0xbda4a888	-0.08039957
112	0xbe80e5b3	-0.25175247
113	0xbd8c5c2f	-0.0685352
114	0x3d9dc5cf	0.077037446
115	0xbd78fded	-0.060789037
116	0xbbb9613f	-0.0056573446
117	0xbec24cdc	-0.37949264
118	0x3d09f332	0.033679195
119	0xbecab77b	-0.3959311
120	0xbca0d86a	-0.019634444
121	0x3e70de2f	0.23522256
122	0x3e4e6188	0.20154393
123	0xbe2622c3	-0.16224198
124	0xbe4b74e0	-0.19868803
125	0xbe1948a5	-0.14969118
126	0x3d203045	0.039108533
127	0xbeb1b752	-0.34710175
128	0xbcdf145c	-0.027231388
129	0x3d3df716	0.046378218
130	0xbe11ecaf	-0.14250444
131	0x3d05f14c	0.03270082
132	0x3dadbc68	0.08483201
133	0x3e3313c0	0.17488003
134	0xbe961f14	-0.29320586
135	0x3e7c34f4	0.24629575
136	0xbe00f61e	-0.12593886
137	0xbeee38b0	-0.46527624
138	0xbe2c254d	-0.16811104
139	0xbdff6c98	-0.124718845
140	0x3da34b48	0.07973343
141	0xbd9f696f	-0.07783782
142	0xbe8a9c9f	-0.27072617
143	0xbad08311	-0.0015908201
144	0x3c9b80e2	0.018982355
145	0xbe400570	-0.18752074
146	0x3e504f57	0.20342766
147	0x3e99678e	0.29961818
148	0xbd03c86c	-0.03217356
149	0xbe7c7b38	-0.24656379
150	0x3d73b771	0.059501115
151	0xbe2697e7	-0.16268884
152	0x3dd46b02	0.103719726
153	0xbd493496	-0.049122415
154	0x3e290dc2	0.16509154
155	0x3d234229	0.039858017
156	0xbda46627	-0.080272965
157	0x3ca63299	0.020287799
158	0xbd67d624	-0.056600705
159	0xbe7b6aad	-0.24552412
160	0x3e30efda	0.17278996
161	0x3e322b79	0.17399396
162	0xbd2da053	-0.042389225
163	0x3e5bd846	0.2146922
164	0x3d00a63a	0.031408526
165	0x3e9146f9	0.2837446
166	0x3e19dcd0	0.1502564
167	0x3d897535	0.067118086
168	0x3d71a53d	0.058995474
169	0xbe808747	-0.25103208
170	0x3e927156	0.28602093
171	0x3e5d22b5	0.21595271
172	0x3e6a3793	0.22872762
173	0x3e3825e5	0.17983206
174	0x3dc76a9b	0.0973713
175	0x3d8e370a	0.069440916
176	0x3e88f2df	0.26747796
177	0x3d81fbf6	0.06346886
178	0x3e901938	0.2814424
179	0xbd935445	-0.071938075
180	0xbea8be5a	-0.32957727
181	0x3e095b75	0.13413794
182	0x3ec18a1c	0.37800682
183	0xbdec71b4	-0.11545125
184	0x3e02318c	0.12714213
185	0xbe921bac	-0.28536737
186	0xbd704668	-0.058660895
187	0x3e575628	0.2102896
188	0x3e1c6a57	0.1527494
189	0xbe8e672d	-0.27813092
190	0xbe567397	-0.20942532
191	0xbe359730	-0.17733455
192	0x3dcb1dcc	0.09917793
193	0x3e85f95c	0.2616681
194	0x3d34e168	0.044160277
195	0xbd49f738	-0.04930803
196	0xbe86b6d0	-0.2631135
197	0x3e812a28	0.25227475
198	0x3c9d4e63	0.019202417
199	0xbdc9506b	-0.09829792
200	0x3de92a3d	0.113850094
201	0x3e288dff	0.16460417
202	0xbc4308af	-0.011903926
203	0xbdcb5df3	-0.09930029
204	0x3dd817d8	0.10551423
205	0xbde35b55	-0.111014046
206	0x3d643e51	0.055723492
207	0x3d63ebbd	0.05564474
208	0xbd7d38bf	-0.061821695
209	0xbe376b21	-0.1791196
210	0xbd52f3ad	-0.05150192
211	0xbd3980a4	-0.045288697
212	0x3c80c057	0.015716715
213	0xbe553b6d	-0.2082345
214	0x3df28316	0.11841409
215	0x3dd4e940	0.103960514
216	0x3e0fa8a5	0.14029177
217	0xbe8310af	-0.25598666
218	0x3e11dea4	0.14245087
219	0xbde7d412	-0.11319746
220	0x3e73fa70	0.23826003
221	0x3c2a1161	0.01038012
222	0xbe21d096	-0.15802225
223	0x3ce2b2b4	0.027673103
224	0x3d8f1af4	0.06987563
225	0x3d89bcd1	0.06725467
226	0x3e0f5737	0.13998114
227	0x3d1a0ad1	0.03760797
228	0x3ede35ab	0.4340032
229	0xbd91e1d9	-0.07123155
230	0xbdd9d17d	-0.1063566
231	0x3e05bc0d	0.13060017
232	0x3e6c4293	0.23072271
233	0xbe60456f	-0.21901487
234	0x3d49886b	0.049202364
235	0xbc8cbb63	-0.017179197
236	0xbe90b600	-0.28263855
237	0xbe0a8065	-0.13525541
238	0x3ebebf1b	0.37255177
239	0xbdea9c11	-0.114555486
240	0xbaca0c20	-0.001541499
241	0x3c4e14cf	0.012578203
242	0xbe831ecc	-0.25609434
243	0x3ebf0026	0.373048
244	0xbdc56ce2	-0.096399084
245	0x3e482eb2	0.19549063
246	0x3e82c816	0.25543278
247	0xbd8d4211	-0.06897367
248	0xbe87d1e3	-0.26527318
249	0xbd1e2fac	-0.038619682
250	0xbd1b892b	-0.03797261
251	0xbe1721f3	-0.14759044
252	0x3e461639	0.19344415
253	0xbe28b4df	-0.16475247
254	0x3e4db4e1	0.20088531
255	0xbe5c28be	-0.21499917

0.bias f4 [64]
0	0xbd9f0948	-0.07765442
1	0x3cea3a10	0.02859214
2	0x3ce82a3b	0.02834045
3	0x3d6c32f9	0.0576658
4	0xbbf35f58	-0.0074271373
5	0x3bda06ad	0.006653628
6	0x3dd98908	0.1062184
7	0x3b4f9849	0.0031676462
8	0xbbfe1248	-0.007753644
9	0xbd2eb834	-0.04265614
10	0x3c813e63	0.015776819
11	0xbcb31806	-0.021862041
12	0x3b27bac1	0.0025593492
13	0xbd20c62c	-0.03925149
14	0xba645f25	-0.00087116874
15	0x3bfac09c	0.0076523554
16	0xbcb72624	-0.022357054
17	0xbbcdcdc5	-0.006280633
18	0x3c445929	0.011984148
19	0xbb9d495a	-0.004800004
20	0x3d33af6f	0.04386848
21	0x3da7b085	0.08187965
22	0x3b848a48	0.0040448047
23	0x3c69b034	0.0142632015
24	0x3d66243f	0.05618691
25	0xbc270461	-0.010193915
26	0x3cbbce27	0.02292545
27	0xbc858c0e	-0.016302135
28	0x3d8c6f7c	0.068572015
29	0x3cf67a88	0.030087724
30	0xbc5ec66d	-0.013597113
31	0x3c1a3b5b	0.0094135655
32	0xbd7ded69	-0.06199399
33	0xbd1b0874	-0.03784986
34	0xbd0547b0	-0.03253907
35	0x3d060ceb	0.032727163
36	0x3a9a2691	0.0011760761
37	0xbbb64910	-0.005562909
38	0x3d0cf773	0.034415673
39	0xbd8b153c	-0.067911595
40	0x3dc80ec1	0.09768439
41	0x3cf71004	0.030159004
42	0xbb41d808	-0.0029578228
43	0xbb20a558	-0.0024512615
44	0x3d6ec77d	0.058295716
45	0x3e0ff2f5	0.14057525
46	0x3d6b6477	0.057468858
47	0xbd8ef73b	-0.06980749
48	0xbccb3600	-0.024806023
49	0xbc286ff9	-0.010280603
50	0x3b1b1c4d	0.0023667992
51	0x3d0f18b5	0.03493567
52	0xbd4be1c0	-0.04977584
53	0x3d28fd3e	0.041257136
54	0xbd34ec21	-0.044170503
55	0x3dd59142	0.10428096
56	0xbcadfa6c	-0.021237575
57	0xbcfa2bb5	-0.03053842
58	0x3cb8e184	0.022568472
59	0x3c941bd3	0.018079674
60	0x3dbcb5c4	0.092143565
61	0x3cc0106c	0.02344533
62	0x3e66bedb	0.22533743
63	0x3d906ff6	0.07052605

2.weight f4 [7, 64]
0	0xbd6b18b7	-0.057396617
1	0x3e46e69b	0.19423907
2	0xbe8c49fb	-0.27400193
3	0xbeaad327	-0.3336422
4	0x3e47888c	0.19485682
5	0xbf0edeb4	-0.5580857
6	0x3ec4f268	0.3846619
7	0x3ecdcc7b	0.4019507
8	0x3e83aa27	0.25715753
9	0xbed7b8a4	-0.42133057
10	0x3e273dbd	0.16332145
11	0x3e4b958e	0.1988127
12	0xbde0682b	-0.109573685
13	0xbd96e296	-0.073674366
14	0x3e29191e	0.16513488
15	0x3d80a90a	0.06282242
16	0xbe373606	-0.17891702
17	0xbd824ac3	-0.06361916
18	0x3ed98c36	0.42489785
19	0xbcbaa3f1	-0.022783251
20	0x3dbf4991	0.093402036
21	0xbeba109c	-0.36340797
22	0x3e961530	0.2931304
23	0x3e77f01c	0.24212688
24	0x3e3534c2	0.17695907
25	0x3e4db896	0.20089945
26	0xbee969e5	-0.45588604
27	0x3e0c2f87	0.13690005
28	0xbcb69c49	-0.02229132
29	0xbe47a590	-0.19496751
30	0xbd97befa	-0.07409473
31	0x3a381715	0.00070224825
32	0xbd6ba090	-0.05752617
33	0x3d846307	0.064642005
34	0x3e4f3900	0.20236588
35	0xbdf6ccb6	-0.12050764
36	0x3d2d9598	0.04237899
37	0x3de87697	0.11350744
38	0x3e4c1cb0	0.19932818
39	0xbd3bb606	-0.045827888
40	0xbedec733	-0.43511352
41	0x3e7cc4ad	0.24684401
42	0x3e9a0645	0.30082908
43	0x3eb56e17	0.35435554
44	0x3d95a70e	0.07307254
45	0xbe275c17	-0.16343723
46	0x3e3eccc1	0.18632795
47	0xbe9d6a9a	-0.30745393
48	0xbd2e366b	-0.042532366
49	0xbd8e5d3b	-0.06951376
50	0xbe92739b	-0.28603825
51	0xbb4067ad	-0.002935867
52	0xbcdc60d4	-0.02690164
53	0xbdc30bb6	-0.09523718
54	0x3e39701b	0.18109171
55	0xbea2c457	-0.3179042
56	0xbdfec7a7	-0.124404244
57	0x3daa0f29	0.08303673
58	0x3eb702c9	0.35744312
59	0x3e95aafd	0.29232016
60	0xbd6486dd	-0.05579268
61	0x3eb85a47	0.36006376
62	0xbf1ae4e7	-0.6050553
63	0xbe582d92	-0.21111134
64	0xbde67898	-0.1125347
65	0xbe194436	-0.14967427
66	0x3da76cd8	0.08175057
67	0xbe556ef2	-0.20843104
68	0xbd8c97d3	-0.06864896
69	0x3d19ec09	0.037578616
70	0xbef4232c	-0.47683084
71	0xbca33b61	-0.019925775
72	0x3d2a2151	0.04153568
73	0x3e6e3818	0.23263586
74	0x3e208ad6	0.15677962
75	0x3d51c333	0.051211547
76	0xbe81b6d6	-0.25334805
77	0x3dbe3a6e	0.09288488
78	0x3e912175	0.28345838
79	0x3ea500ce	0.32227176
80	0xbe0b584d	-0.13607903
81	0x3e03ea21	0.12882282
82	0x3da91af1	0.08257092
83	0x3d96bfcd	0.07360802
84	0xbf02c602	-0.51083386
85	0x3e3c8a20	0.18412066
86	0x3eb4178b	0.35174212
87	0x3e0d941f	0.13826035
88	0x3eb09021	0.34484962
89	0xbe7f78d7	-0.2494844
90	0xbe0ee02e	-0.13952705
91	0xbdb65771	-0.08903397
92	0xbe948dda	-0.29014474
93	0x3eb8a7a2	0.36065394
94	0x3ed5f298	0.41786647
95	0xbee01df8	-0.43772864
96	0xbedf2413	-0.4358221
97	0x3e1fe5e8	0.15615046
98	0xbdedd21b	-0.1161234
99	0xbe9e5778	-0.30926108
100	0x3d503cdd	0.050839294
101	0xbe5fd05e	-0.2185683
102	0x3ecded29	0.4022
103	0xbeffb856	-0.49945325
104	0x3d63a989	0.055581603
105	0x3dbd3e43	0.09240391
106	0xbe9578b2	-0.29193646
107	0xbe45cc81	-0.19316293
108	0x3e8cfb87	0.2753565
109	0xbe2aefe5	-0.16693075
110	0xbec96491	-0.3933454
111	0x3c8fb4b1	0.017542215
112	0xbdf3b2a1	-0.11899305
113	0x3dedcade	0.116109595
114	0x3e55ac10	0.20866418
115	0xbe2bcea2	-0.16778043
116	0x3d636fd8	0.055526584
117	0xbe4961e8	-0.19666255
118	0x3e477f51	0.19482161
119	0xbd988191	-0.07446588
120	0x3c320209	0.010864743
121	0x3e8103fa	0.25198346
122	0x3c1fdce3	0.009757253
123	0x3c0c3c54	0.008559305
124	0x3e9ea308	0.30983758
125	0x3e4fdc7b	0.2029895
126	0xbc1e79bb	-0.0096725775
127	0xbf2a52d9	-0.66532665
128	0xbe91dd50	-0.2848916
129	0x3e5fb8af	0.21847795
130	0x3e512766	0.20425186
131	0x3d43645e	0.04770314
132	0xbe6b57ea	-0.22982755
133	0x3da9176b	0.0825642
134	0x3ee2ed5b	0.44321713
135	0xbe0c13bb	-0.13679402
136	0xbd97d2b3	-0.074132346
137	0xbe5bd720	-0.21468782
138	0xbdc1ce19	-0.09463138
139	0xbee2d7b6	-0.443052
140	0x3e0d62bb	0.13807194
141	0xbe545510	-0.20735574
142	0x3e1d3f0c	0.15356082
143	0x3ec176a0	0.37785816
144	0x3d644b5d	0.055735935
145	0xbe2add63	-0.16686015
146	0x3e5e02f3	0.21680813
147	0x3e3826e2	0.17983583
148	0xbec36be2	-0.38168246
149	0xbdbccb15	-0.09218422
150	0x3dea7f6c	0.11450085
151	0xbf1ac759	-0.6046043
152	0xbd21e5f9	-0.03952596
153	0xbd93b2e9	-0.07211859
154	0x3e82ae7f	0.25523755
155	0x3d8c082a	0.06837495
156	0xbd477355	-0.048693974
157	0x3e0b40c0	0.13598919
158	0x3ddbc2ae	0.107304916
159	0x3da0a2eb	0.07843574
160	0xbc984d19	-0.01859145
161	0xbeaad6d0	-0.33367014
162	0x3e631971	0.22177674
163	0x3eb09393	0.3448759
164	0x3deed884	0.11662391
165	0xbe2803d5	-0.16407712
166	0x3f0eed76	0.55831087
167	0xbca9fd84	-0.020750768
168	0xbda2936a	-0.07938273
169	0x3bc31ee5	0.0059546106
170	0x3eb3a464	0.35086358
171	0xbe5d1f90	-0.21594071
172	0xbdf11d39	-0.11773152
173	0x3def0e12	0.116726056
174	0xbc3367bb	-0.010950024
175	0x3e16bbd4	0.14720088
176	0x3d92c8a0	0.071671724
177	0x3de78ca4	0.11306122
178	0x3e9c8062	0.30566698
179	0x3dc2f6b2	0.0951971
180	0xbd02bf26	-0.031920575
181	0x3e982e77	0.2972295
182	0xbf2d8982	-0.67787945
183	0xbf298388	-0.66216326
184	0x3e0bf211	0.1366656
185	0xbeaa3728	-0.33245206
186	0xbe8f96bf	-0.28044698
187	0x3e7b3c3f	0.24534701
188	0x3e94e640	0.29081917
189	0x3c8a88af	0.016910879
190	0x3e6530a7	0.2238184
191	0x3e2cbd7c	0.16869158
192	0x3e4a331b	0.19746058
193	0xbeceb9a6	-0.40376014
194	0xbc7c48da	-0.015398229
195	0x3ebd7e66	0.37010497
196	0x3e275b53	0.16343431
197	0x3cc9b039	0.024620162
198	0xbec7b522	-0.3900538
199	0x3e1fb388	0.1559583
200	0xbe830afa	-0.25594312
201	0x3c277397	0.01022043
202	0x3e23add7	0.15984283
203	0x3e49d768	0.19711077
204	0x3ede4f23	0.43419752
205	0x3e413136	0.18866429
206	0xbed1a00c	-0.4094242
207	0x3e0183ae	0.12647888
208	0x3c79d80b	0.015249263
209	0xbed84d6d	-0.4224657
210	0xbe0ccf71	-0.13751008
211	0x3d5d9327	0.054095414
212	0x3d645b40	0.055751085
213	0xbd7388b7	-0.059456553
214	0x3dd7c4b6	0.105355665
215	0xbe8a3ba9	-0.26998642
216	0xbe4c5b5b	-0.19956724
217	0x3c55f545	0.013058965
218	0x3e33723a	0.17524043
219	0x3eaa35e7	0.3324425
220	0x3da312db	0.07962581
221	0x3f054a0a	0.520661
222	0x3daec613	0.085338734
223	0xbe5c7427	-0.21528684
224	0xbde7620b	-0.11297997
225	0x3ac8e74b	0.001532772
226	0xbe5ad5b4	-0.21370584
227	0xbefa54d8	-0.48892856
228	0xbec7d124	-0.3902675
229	0xbe5e4d1e	-0.21709105
230	0xbd2d4bd8	-0.04230866
231	0x3e846d3f	0.25864598
232	0xbe7fba6c	-0.24973458
233	0x3e31e37a	0.17371932
234	0xbdd13a6c	-0.10216221
235	0x3b91ad8f	0.0044457386
236	0xb9d4dd7e	-0.00040600816
237	0x3ec8761b	0.39152607
238	0xbeb7937a	-0.35854703
239	0xbe9b6e57	-0.3035762
240	0xbd8ba4eb	-0.06818565
241	0xbed2d184	-0.41175473
242	0xbee654f7	-0.44986698
243	0x3dcbba6f	0.09947669
244	0xbe3199b8	-0.17343795
245	0x3e028162	0.12744668
246	0xbcc9506d	-0.024574483
247	0x3da244f8	0.07923311
248	0xbdeb6e86	-0.1149569
249	0xbddcbe83	-0.10778525
250	0xbcf07699	-0.029353427
251	0xbe370cb7	-0.17875944
252	0xbe0128cf	-0.12613223
253	0xbdddee95	-0.108365215
254	0x3e42f625	0.19039209
255	0x3e188e1b	0.14897959

2.bias f4 [7]
0	0xbcbe1b74	-0.02320645
1	0x3c3eb9bd	0.011640963
2	0x3bd4cf00	0.006494403
3	0xbd164f25	-0.03669657
4	0x3cd34454	0.025789417
5	0x3dbd4a44	0.09242681
6	0xbd748b7e	-0.059703343

0.weight f4 [64, 84]
0	0x3ce98f27	0.028510643
1	0x3c7d34ec	0.015454512
2	0xbd8f068f	-0.06983673
3	0xbd54fffe	-0.052001946
4	0xbec3dffb	-0.3825682
5	0xbd145840	-0.036216974
6	0xbe05b2c7	-0.1305648
7	0xbd880b27	-0.06642752
8	0xbdce531f	-0.10074448
9	0x3e682464	0.22670132
10	0xbe76a604	-0.24086767
11	0xbdc92562	-0.09821583
12	0x3df2358f	0.11826622
13	0x3b9e6d87	0.004834834
14	0x3e6691bb	0.2251653
15	0xbdc98816	-0.098404095
16	0x3e80f6bd	0.25188246
17	0xbde474ab	-0.11155065
18	0x3e23b0ab	0.15985362
19	0xbdd2ecfb	-0.10299107
20	0xbe5f079a	-0.21780244
21	0xbe439dd2	-0.19103172
22	0xbd770e69	-0.060316477
23	0xbec1496d	-0.37751332
24	0x3e94cc53	0.29062137
25	0xbed035fc	-0.40666187
26	0x3c896ac6	0.016774546
27	0xbe663fe2	-0.22485307
28	0x3d1c5ab4	0.03817244
29	0x3e0b6efe	0.13616559
30	0xbd5cf5b9	-0.053945277
31	0x3c1f3956	0.00971826
32	0x3d11312f	0.035447296
33	0xbe80e87b	-0.2517737
34	0xbe0a085e	-0.13479754
35	0xbd7a6822	-0.061134465
36	0xbe359973	-0.17734317
37	0x3d92d395	0.07169262
38	0x3da8fc14	0.08251205
39	0x3d8fab1c	0.070150584
40	0x3dcb0c7e	0.09914492
41	0xbb895163	-0.0041906103
42	0x3c8affc0	0.016967654
43	0xbeb065a8	-0.34452558
44	0xbe02650b	-0.12733857
45	0x3d91ba60	0.07115626
46	0xbd7a5704	-0.06111814
47	0x3c4c1437	0.0124559915
48	0xbe270384	-0.16309935
49	0xbdf7b52b	-0.12095102
50	0x3e555e5b	0.20836775
51	0xbd653ea6	-0.05596795
52	0x3cb80019	0.022460984
53	0xbe308d2e	-0.17241356
54	0x3d2a6153	0.04159672
55	0x3c2888f5	0.010286559
56	0x3d1248d1	0.035713974
57	0xbcb7b52e	-0.02242526
58	0x3dc62d31	0.09676588
59	0x3dd328b0	0.10310495
60	0x3c8ae0d8	0.016952917
61	0x3d2d0d56	0.042249046
62	0xbd0f5e98	-0.03500232
63	0xbe68b2da	-0.22724476
64	0xbde7dc6e	-0.113213405
65	0xbe5dec77	-0.21672235
66	0x3a84e790	0.0010139812
67	0xbe1179fe	-0.14206693
68	0x3cf22f6f	0.029563634
69	0xbe6bbeb1	-0.23021962
70	0xbd8394c7	-0.064248614
71	0xbd0bf2c3	-0.034167062
72	0xbda1ac00	-0.078941345
73	0xbdd9b460	-0.10630107
74	0x3d1528a3	0.036415707
75	0x3d634573	0.055486154
76	0xbe0253bd	-0.12727256
77	0x3c12a85b	0.008951272
78	0xbe2632b1	-0.16230275
79	0xbcb61a0d	-0.022229219
80	0xbd3e1801	-0.04640961
81	0xbd8ecedc	-0.06973049
82	0xbd849854	-0.06474367
83	0xbe17e5b1	-0.14833714
84	0xbdbed2b9	-0.09317536
85	0x3e6d1f36	0.23156437
86	0xbde99043	-0.11404469
87	0xbe8e59d3	-0.27802905
88	0x3c87cbc8	0.016576663
89	0xbe33f5be	-0.17574212
90	0xbacf1b0b	-0.0015800906
91	0xbda26f80	-0.07931423
92	0x3dfced7f	0.12349986
93	0x3c77b95a	0.015119875
94	0x3d102266	0.035189055
95	0x3df922c4	0.12164834
96	0x3cd7960b	0.026316663
97	0x3e83db57	0.2575328
98	0x3df9f390	0.12204659
99	0x3e3fc676	0.1872805
100	0xbe12e3f4	-0.1434477
101	0x3ead3933	0.33832702
102	0x3e208721	0.15676548
103	0xbbf979ad	-0.007613382
104	0xbe5df3c4	-0.2167502
105	0xbea0b65e	-0.31389135
106	0x3e22560d	0.15853138
107	0x3de1f373	0.110327624
108	0xbdfa7277	-0.12228864
109	0x3a235661	0.0006230828
110	0xbeb6a543	-0.3567296
111	0x3dbaeaeb	0.09126838
112	0xbddcf6f3	-0.10789289
113	0x3cfbd2ff	0.03074026
114	0x3bf71906	0.007540825
115	0xbea4fa25	-0.32222095
116	0x3dc2e5a5	0.095164575
117	0x3c481da0	0.012214094
118	0xbd2d02ea	-0.042239107
119	0x3d8872cb	0.0666252
120	0xbe7644e2	-0.24049714
121	0xbcdc4814	-0.026889838
122	0xbe76e8b2	-0.24112204
123	0xbe3a7f10	-0.18212533
124	0x3e212dee	0.15740177
125	0xbe09feec	-0.13476151
126	0x3de2af5b	0.11068603
127	0x3df0b99a	0.11754151
128	0x3c83454f	0.01602426
129	0x3de9e56e	0.11420713
130	0x3e09174e	0.13387796
131	0xbda5960b	-0.08085259
132	0xbe357ab2	-0.17722586
133	0xbde2083b	-0.11036726
134	0x3e26ef70	0.16302276
135	0xbd227de8	-0.039670855
136	0x3d24add2	0.04020483
137	0xbe089308	-0.13337338
138	0xbd5d0c15	-0.0539666
139	0x3d9ef97f	0.07762431
140	0xbe16dcd8	-0.14732683
141	0xbd59448a	-0.05304388
142	0xbe277fc6	-0.16357335
143	0x3ddee4a1	0.10883451
144	0xbe08be40	-0.13353825
145	0x3e52032d	0.20509024
146	0x3dbe09a4	0.092791826
147	0xbd3914a5	-0.045185704
148	0x3dad1964	0.084521085
149	0x3c53e13f	0.012932121
150	0xbe6f1bb8	-0.23350418
151	0x3dd1dae6	0.1024683
152	0xbb9839b7	-0.004645552
153	0x3d028f6c	0.03187506
154	0xbdfdabe1	-0.12386299
155	0x3d012067	0.031525042
156	0xbeae4a9a	-0.3404129
157	0xbcca84f2	-0.024721596
158	0x3dc4b097	0.09603994
159	0xbe14f346	-0.14545926
160	0x3e37405f	0.1789565
161	0xbbab71ab	-0.005232056
162	0x3c9e92a2	0.01935703
163	0xbd5016c2	-0.050802954
164	0xbec450e5	-0.38342968
165	0x3c623e05	0.013808732
166	0x3d86e428	0.06586486
167	0xbe4dba90	-0.20090699
168	0xbcad45b0	-0.021151394
169	0xbd975f03	-0.07391169
170	0xbdd7269b	-0.1050541
171	0xbdda11f3	-0.10647955
172	0xbe2c2c2c	-0.16813725
173	0xbe5bb08e	-0.21454069
174	0xbcd2a330	-0.02571258
175	0x3e10a214	0.14124328
176	0xbcf5b07d	-0.029991383
177	0xbeae9ab2	-0.34102398
178	0x3e1add7a	0.15123549
179	0xbe5332c4	-0.20624834
180	0x3dffa909	0.12483413
181	0x3c0094b2	0.007847952
182	0x3ddb6fb4	0.10714665
183	0x3e877d5d	0.26462832
184	0x3d042067	0.032257464
185	0xbdd9a16b	-0.10626491
186	0xbd74efa2	-0.059798844
187	0xbd3a553a	-0.045491435
188	0x3e561f04	0.20910269
189	0xbe420616	-0.18947634
190	0x3e2bb912	0.16769817
191	0x3d420e82	0.047377117
192	0x3d294bbc	0.04133199
193	0xbdc6d4c4	-0.097085506
194	0x3dd85814	0.105636746
195	0x3e51ae8e	0.20476744
196	0x3df4fc95	0.11962239
197	0x3cea5734	0.028606035
198	0x3ded8874	0.11598292
199	0xbcd33e67	-0.025786592
200	0xbde13b8e	-0.10997687
201	0x3e9551a1	0.2916384
202	0x3cf25711	0.029582532
203	0xbdba0644	-0.09083226
204	0xbe8f1ab1	-0.2795005
205	0xbe2668f8	-0.1625098
206	0x3e98bd14	0.29831755
207	0x3bf31222	0.007417933
208	0x3bd6ff1a	0.006561172
209	0x3c663c33	0.014052439
210	0x3d01850a	0.031621017
211	0xbdb3b935	-0.0877556
212	0xbe54b51e	-0.20772216
213	0xbdd7f462	-0.10544659
214	0xbe5a65ee	-0.21327946
215	0x3cb48597	0.022036357
216	0xbd1d4414	-0.038395002
217	0xbc29e64a	-0.010369847
218	0xbdb0d902	-0.08635141
219	0x3e06a8c4	0.13150316
220	0x3dc79ba2	0.097464815
221	0xbeaa1904	-0.3322221
222	0x3e2cd74a	0.16879001
223	0xbdccd04a	-0.100006655
224	0x3bf0c1f1	0.0073473384
225	0x3de57f28	0.11205894
226	0xbdfa9e5b	-0.12237235
227	0x3d926990	0.07149041
228	0xbdc2e2fe	-0.095159516
229	0xbe95c68a	-0.29253036
230	0xbd9927f0	-0.074783206
231	0x3d8fd38f	0.070227735
232	0xbd648859	-0.055794094
233	0xbe696ec6	-0.22796163
234	0xbd9e1467	-0.07718735
235	0xbe77cdb9	-0.2419957
236	0xbe0440e0	-0.12915373
237	0x3d578013	0.052612375
238	0xbdc19ef0	-0.09454143
239	0xbdfbca37	-0.12294429
240	0xbd963efb	-0.07336231
241	0x3d955acf	0.07292711
242	0xbd3dc773	-0.046332788
243	0x3c95a1d4	0.018265642
244	0x3c06488e	0.008196009
245	0x3e5a11a8	0.21295798
246	0xbd3cc786	-0.046088718
247	0xbca250f9	-0.019814001
248	0xbe2a03f5	-0.16603072
249	0xbde4e3ef	-0.111762874
250	0xbedfd150	-0.4371438
251	0xbe386c1f	-0.18009995
252	0xbb80a64b	-0.0039260737
253	0xbdd35bb3	-0.103202246
254	0x3dadddac	0.08489546
255	0xbdeb616e	-0.114931926

0.bias f4 [64]
0	0xbd8bc706	-0.0682507
1	0x3d88e059	0.06683416
2	0xbc991a56	-0.018689316
3	0x3d90070a	0.070325926
4	0x3da4da5d	0.08049462
5	0xbd808103	-0.06274607
6	0x3d804149	0.06262452
7	0xbd492b38	-0.049113482
8	0x3d74ea6a	0.059793867
9	0x3b37ec14	0.0028064298
10	0x3b71d37c	0.0036899736
11	0x3c0937e2	0.00837514
12	0x3caef029	0.021354752
13	0x3d8b9175	0.06814853
14	0xbc99a901	-0.018757345
15	0x3ced1407	0.028940214
16	0x3dcc0928	0.09962684
17	0xbd061e3c	-0.032743677
18	0xbd1afa8a	-0.03783659
19	0xbd50f8a2	-0.051018365
20	0x3da59590	0.080851674
21	0x3d07c058	0.033142418
22	0x3d65d05f	0.05610692
23	0xbdf3f996	-0.11912839
24	0x3cb5f6c7	0.0222124
25	0x3cbc21ae	0.022965278
26	0x3d809443	0.06278279
27	0x3d3aa76c	0.045569822
28	0x3dadde1d	0.0848963
29	0x3be63811	0.0070257266
30	0x3dc89b22	0.09795214
31	0xbd85fec6	-0.06542735
32	0xbcf3adaf	-0.029745905
33	0x3dc2fec9	0.09521253
34	0x3d9ec204	0.07751849
35	0x3d6762cc	0.056490704
36	0x3d9e771b	0.07737561
37	0xbca7f946	-0.020504605
38	0x3dd5bdf5	0.10436622
39	0x3d9c4bc9	0.07631642
40	0xbd2b92cc	-0.041888043
41	0x3d6e9cb1	0.0582549
42	0x3d82a674	0.06379405
43	0xbcd6b3fa	-0.026208866
44	0x3da31172	0.07962312
45	0x3dcfea2f	0.10152089
46	0x3c5f5f16	0.01363351
47	0xbdb36104	-0.08758739
48	0xbd8ccb90	-0.06874764
49	0x3e045e05	0.1292649
50	0x3da066ac	0.07832083
51	0x3dda1a54	0.10649553
52	0x3d237300	0.039904594
53	0xbb119db4	-0.0022219243
54	0x3dc6d73b	0.09709021
55	0x3c76f264	0.015072439
56	0x3d868132	0.06567611
57	0x3e05ecab	0.13078563
58	0x3d2ce0e0	0.042206645
59	0xbd0b5554	-0.034016922
60	0x3d2e7ceb	0.0425996
61	0xbd5beced	-0.053692747
62	0x3dbb7648	0.0915342
63	0x3daaae5b	0.08334037

2.weight f4 [1, 64]
0	0xbe8bc060	-0.27295208
1	0x3b61017d	0.0034333162
2	0x3db1d2f1	0.08682812
3	0x3c7e419b	0.015518571
4	0x3bd547b0	0.00650879
5	0x3e630d0d	0.22172947
6	0x3c6b463f	0.01436001
7	0xbbb84beb	-0.0056242845
8	0x3ca1bff8	0.019744858
9	0xbc54ba8b	-0.012983928
10	0xbc995285	-0.018716106
11	0xbcd0488f	-0.025425224
12	0xbd2708b2	-0.040779777
13	0x3cf64654	0.030062832
14	0xbc1f766e	-0.009732826
15	0xbd5d2892	-0.05399377
16	0x3c3fc487	0.011704571
17	0xbca90f9f	-0.020637332
18	0xbd76ee1c	-0.060285673
19	0xbc0f11e8	-0.0087322965
20	0x3e30f9f1	0.17282845
21	0x3c753f02	0.0149686355
22	0x3be7b9fb	0.007071731
23	0xbeb69407	-0.3565981
24	0xbd814a05	-0.06312946
25	0xbd2ee6db	-0.04270063
26	0x3c27912f	0.010227486
27	0x3c174c69	0.009234526
28	0x3d1336dd	0.035940994
29	0xbc917cf8	-0.017759785
30	0x3bef3b6e	0.0073007857
31	0xbd0dd961	-0.034631137
32	0xbc103916	-0.008802673
33	0x3c16b663	0.009198758
34	0x3c3791c1	0.011204184
35	0x3cef2630	0.029193014
36	0x3c590cce	0.013247682
37	0xbc357d44	-0.011077229
38	0x3c4c3357	0.012463412
39	0x3c392a93	0.011301654
40	0xbc39c3de	-0.011338202
41	0x3d23a265	0.039949793
42	0x3cb5d037	0.022194011
43	0xbc1773c4	-0.009243909
44	0x3d28efc9	0.041244302
45	0x3c8753d3	0.016519463
46	0xbd67613c	-0.056489214
47	0x3d55d0c5	0.05220105
48	0xbc47fdcc	-0.012206506
49	0x3cc5184a	0.024059433
50	0x3c3dfda1	0.011596114
51	0x3c7f5fe1	0.015586824
52	0xbb5f5ade	-0.003408126
53	0xbd223271	-0.039598886
54	0x3ddbcf2c	0.10732874
55	0xbd879454	-0.06620088
56	0x3d45c3ac	0.04828231
57	0x3c8e9d91	0.017409118
58	0x3c77b189	0.015118011
59	0xbc1bc479	-0.009507292
60	0x3cb15169	0.021645265
61	0xbc37b268	-0.011211969
62	0x3c6c0474	0.014405359
63	0x3d67cc85	0.05659153
