saved_models/PPO/using_trueskill_for_matchmaking/model4.pth (torch, 48436 bytes, 7 tensors)

0.weight f4 [64, 84]
0	0xbe5bec4c	-0.21476859
1	0xbe9bf967	-0.30463716
2	0x3ddae5c8	0.106883585
3	0x3ebff55e	0.37491888
4	0xbda54338	-0.080694616
5	0xbe43fe07	-0.19139872
6	0xbe529b03	-0.20566945
7	0xbd54f504	-0.051991478
8	0x3e310dca	0.17290416
9	0xbdd5c2d1	-0.10437549
10	0x3cff9f0b	0.031203767
11	0xbe314c81	-0.1731434
12	0xbe40e228	-0.18836272
13	0x3e15e8b9	0.14639558
14	0x3dffc1f5	0.12488166
15	0x3dae062c	0.08497271
16	0x3db82c27	0.089927964
17	0xbe79419c	-0.24341434
18	0xbe3c1a89	-0.18369497
19	0xbadc787a	-0.0016820573
20	0xbde0bb3f	-0.10973214
21	0xbd442042	-0.047882326
22	0x3e878e4e	0.26475757
23	0xbdf287af	-0.11842286
24	0xbe68e31b	-0.22742884
25	0xbd27bb24	-0.040949956
26	0x3d94a6c7	0.07258373
27	0x3d2222ab	0.039583843
28	0xbe1b3ea0	-0.15160608
29	0x3d741127	0.05958667
30	0xbeadb756	-0.33928937
31	0x3e456f47	0.1928073
32	0xbe8d7853	-0.27630863
33	0x3ddb5b87	0.10710817
34	0xbe5734e7	-0.21016274
35	0xbd8cea1b	-0.068805896
36	0xbd09721b	-0.033556085
37	0x3eeed646	0.46647853
38	0x3d5d8390	0.054080546
39	0xbe27bf67	-0.16381608
40	0x3e7eb7f1	0.24874856
41	0xbb05a945	-0.0020395082
42	0x3cc43aa2	0.02395374
43	0xbe41a6f9	-0.18911351
44	0xbe7768e1	-0.24161102
45	0xbe069402	-0.13142398
46	0x3ea3792e	0.3192839
47	0xbdc5b807	-0.09654241
48	0x3d61fdd8	0.055173725
49	0xbeabdcfe	-0.3356704
50	0xbdf7c043	-0.12097218
51	0x3e88b66a	0.2670167
52	0xbea6c32b	-0.32570776
53	0x3d33c223	0.043886315
54	0xbf2a2941	-0.664692
55	0x3daab6e3	0.08335664
56	0x3d80ac27	0.062828355
57	0x3e0b9156	0.1362966
58	0xbe8cf05b	-0.27527127
59	0xbe061046	-0.13092145
60	0xbcb9ae0f	-0.022666005
61	0x3cbdfdb6	0.023192268
62	0xbe730586	-0.23732576
63	0x3d3f0f01	0.04664517
64	0xbc65ec6c	-0.014033418
65	0x3e72a5a0	0.23695993
66	0x3e240ad3	0.16019754
67	0xbdd7ef0b	-0.10543641
68	0x3ce1a82c	0.02754601
69	0xbd049939	-0.032372687
70	0xb8675d6f	-5.516171e-05
71	0x3e6a1e4a	0.22863117
72	0xbdb135fb	-0.08652874
73	0x3d1cc163	0.038270365
74	0x3dea19ed	0.11430726
75	0x3e9a7d37	0.30173656
76	0x3e3871cf	0.18012165
77	0xbdd07113	-0.10177817
78	0x3e00539c	0.12531894
79	0x3e0ca0dd	0.1373324
80	0xbe475c77	-0.19468866
81	0x3e6aefa3	0.22942977
82	0x3e0c75ae	0.13716766
83	0xbe4bbca9	-0.19896187
84	0xbe03b1df	-0.12860821
85	0x3e32a4ce	0.1744568
86	0x3dcbd108	0.09951979
87	0xbc068e99	-0.008212709
88	0xbe05a07b	-0.130495
89	0x3c4ec0fd	0.012619254
90	0xbd8bdb8e	-0.06828986
91	0xbe89504c	-0.26819074
92	0x3d067a1f	0.032831308
93	0x3e34bc54	0.17649966
94	0x3e13bef7	0.14428316
95	0xbd477d00	-0.048703194
96	0xbd5d4ea4	-0.054030076
97	0xbe8d440e	-0.27590984
98	0x3da86b67	0.0822361
99	0xbe962c6d	-0.2933077
100	0x3ed725ce	0.4202103
101	0x3ea495e7	0.32145616
102	0x3c77d41f	0.015126257
103	0x3d93284e	0.07185422
104	0xbe8b17e5	-0.27166668
105	0x3ca30d50	0.019903809
106	0xbea5d7c9	-0.32391194
107	0xbdba518b	-0.09097584
108	0x3cb0125a	0.021493126
109	0x3ce9b762	0.028529827
110	0xbdb42bd8	-0.08797425
111	0xbcbd0880	-0.023075342
112	0x3c2f8070	0.010711774
113	0x3e8975a6	0.2684757
114	0xba03cef9	-0.0005028095
115	0x3d02174f	0.03176051
116	0x3d7f19fe	0.062280647
117	0x3c8644ec	0.016390286
118	0x3e47ad23	0.1949964
119	0x3d2e0a39	0.042490218
120	0x3e102d56	0.14079794
121	0x3e287568	0.16451037
122	0x3d888181	0.06665326
123	0x3dd4aa62	0.103840604
124	0x3e704b19	0.23466147
125	0xbe4d6bc9	-0.20060648
126	0xbc59409f	-0.013260036
127	0x3c904931	0.017613025
128	0xbd131f5a	-0.03591857
129	0x3da51af9	0.08061785
130	0xbdf746c7	-0.120740466
131	0xbd003cf9	-0.031308148
132	0x3e1e03be	0.15431115
133	0xbd016452	-0.031589814
134	0xbe20f340	-0.15717793
135	0xbd142c31	-0.036174957
136	0x3d85015e	0.064944014
137	0xbe28a2e1	-0.16468383
138	0xbb467c27	-0.0030286403
139	0xbcc0641b	-0.023485234
140	0xbeb71e82	-0.35765463
141	0x3d9fbe3d	0.07799957
142	0xbd9da20d	-0.07696924
143	0xbe35e416	-0.17762789
144	0xbe11c456	-0.14235052
145	0xbde706a8	-0.112805665
146	0x3ea5add1	0.32359174
147	0x3e289d6d	0.16466303
148	0xbd3ec91a	-0.046578504
149	0x3db3e563	0.087839864
150	0xbdd99611	-0.10624326
151	0x3ee9c1b5	0.456556
152	0xbdfe7e5a	-0.124264434
153	0xbd527729	-0.05138317
154	0x3d8421f7	0.06451791
155	0x3d8a3352	0.0674807
156	0xbecd1134	-0.40052187
157	0xbdbcd1e6	-0.092197224
158	0x3e0ebc36	0.13938984
159	0x3e940c97	0.28915855
160	0x3cbe5232	0.023232553
161	0x3e2fb938	0.17160499
162	0xbebcd217	-0.36879036
163	0xbc38c11b	-0.011276509
164	0x3db02584	0.086009055
165	0xbe5ad72f	-0.21371149
166	0x3c921032	0.017829988
167	0x3e1c251b	0.1524853
168	0xbde96fb5	-0.113982596
169	0xbe83b585	-0.25724426
170	0xbe0e1ed9	-0.13878955
171	0xbe92d694	-0.28679335
172	0x3e79f243	0.24408822
173	0x3df1b9ff	0.11803054
174	0xbea7c459	-0.3276699
175	0x3e961f4a	0.29320747
176	0x3e27f417	0.16401707
177	0xbd21e02a	-0.03952042
178	0x3e34045a	0.17579785
179	0x3d870d5e	0.065943465
180	0xbd378deb	-0.044813078
181	0x3e80e493	0.25174388
182	0xbe2afdef	-0.1669843
183	0x3e94efb9	0.29089144
184	0x3e8fb63b	0.28068718
185	0x3d998751	0.07496513
186	0xbd600b62	-0.054698355
187	0x3d8fa02d	0.07012973
188	0x3e89dc59	0.26925924
189	0xbe22b582	-0.15889552
190	0xbdd1a7f9	-0.10237116
191	0x3e12abba	0.14323321
192	0x3d38fbad	0.04516189
193	0xbe3ec75f	-0.18630742
194	0xbd24265f	-0.040075656
195	0xbd8e07a6	-0.069350526
196	0xbe566770	-0.20937896
197	0x3de789fd	0.11305616
198	0x3dca1564	0.09867361
199	0xbe153492	-0.14570835
200	0x3d2eb309	0.04265121
201	0x3ebdc0e0	0.37061214
202	0x3d11e61e	0.035619847
203	0x3cb7aa8b	0.022420188
204	0xbe1cb747	-0.1530429
205	0x3d056235	0.03256436
206	0xbdba26ce	-0.09089433
207	0x3e845ec5	0.25853553
208	0x3d3b6ce0	0.04575813
209	0x3e67c30b	0.22632997
210	0x3e7f9226	0.24958095
211	0xbe49d83c	-0.19711393
212	0xbb3ecc8b	-0.0029113616
213	0x3e7d5b2e	0.24741814
214	0xbccca5bd	-0.024981374
215	0xbe62a745	-0.22134121
216	0x3e0e63e8	0.13905299
217	0xbd5336ad	-0.051565815
218	0x3e831578	0.25602317
219	0xbdf814b3	-0.12113323
220	0x3e6b8485	0.22999771
221	0x3e0b02a1	0.13575222
222	0xbd45f056	-0.048324905
223	0xbd35f1e8	-0.044420153
224	0xbe5f3a1e	-0.21799514
225	0xbe3280c7	-0.17431937
226	0x3d2a4134	0.04156609
227	0x3dea7f12	0.11450018
228	0x3eb1ce0d	0.34727517
229	0xbe14d77d	-0.14535327
230	0xbca02bab	-0.019552073
231	0x3d828f6c	0.06375012
232	0x3e120937	0.14261328
233	0x3e20e246	0.15711316
234	0xbc34d898	-0.011037968
235	0xbdd1b08a	-0.1023875
236	0x3e139c50	0.14415097
237	0x3e66c966	0.22537765
238	0x3dc6ca20	0.09706521
239	0x3e16f61d	0.14742322
240	0x3cb25d7c	0.021773092
241	0xbe18a215	-0.1490558
242	0x3d4ffbf7	0.0507774
243	0x3e321a10	0.17392755
244	0xbd8b0edd	-0.06789944
245	0xbe70814d	-0.23486824
246	0x3e60ccff	0.219532
247	0x3d9c3cfa	0.07628818
248	0xbb17a270	-0.0023137592
249	0x3d111e83	0.03542949
250	0x3d493b8e	0.04912906
251	0x3d9e1ee7	0.07720738
252	0xbea38689	-0.3193858
253	0x3d511cc5	0.051052827
254	0x3cee03f3	0.029054618
255	0xbe921f8b	-0.2853969

0.bias f4 [64]
0	0xbbc74c2a	-0.0060820775
1	0xbccd4192	-0.02505568
2	0x3d97bf69	0.074095555
3	0x3c75bc92	0.014998572
4	0x3b1996c1	0.0023435804
5	0xbc07e9c3	-0.008295479
6	0x3daf56b6	0.08561461
7	0x3c7f2d2e	0.0155747365
8	0x3d3bf4cf	0.045887765
9	0x3cc5441a	0.024080325
10	0x3d117b9c	0.035518274
11	0x3dd54180	0.10412884
12	0x3d6d01c5	0.057863016
13	0xbb1919fc	-0.0023361435
14	0xbbae8e32	-0.0053270096
15	0xbc19e527	-0.009393013
16	0x3ddee7f7	0.108840875
17	0x3d1b5ca2	0.03793014
18	0x3cc49071	0.023994656
19	0x3d1733a6	0.03691449
20	0x3ddbb246	0.10727362
21	0xbc0d4d38	-0.008624367
22	0xbc62d032	-0.013843583
23	0xbc185ef4	-0.009299982
24	0x3c6231b0	0.013805792
25	0x3ccda251	0.025101813
26	0x3c807cb4	0.015684463
27	0x3ddd99a8	0.10820323
28	0x3c90f931	0.017696949
29	0xbd9f414c	-0.07776126
30	0xbd97362d	-0.0738338
31	0x3cda176e	0.0266225
32	0xbd7396f1	-0.05947012
33	0xbceff53c	-0.029291742
34	0x3d2b6b50	0.041850388
35	0x3d23f90d	0.040032435
36	0x3df021a1	0.11725164
37	0x3d01ef1d	0.031722177
38	0x3d5b5fa7	0.053558018
39	0x3abae1cc	0.0014257967
40	0x3cfb6702	0.030688766
41	0xbd164761	-0.036689166
42	0xbd76000e	-0.060058646
43	0x3de642e5	0.11243228
44	0x39d3201c	0.0004026898
45	0xbaa8cc1a	-0.001287821
46	0xbd0585d9	-0.03259835
47	0x3d0ab89e	0.03386747
48	0x3c8eaad3	0.01741544
49	0xbd783cec	-0.060604975
50	0xbd378339	-0.044802878
51	0xbcb6ca19	-0.022313165
52	0x3c7f7f78	0.015594356
53	0xbc8c2a6a	-0.017110068
54	0x3d89c68d	0.06727324
55	0x3d854a24	0.06508282
56	0xbcd2c931	-0.025730701
57	0xbcfb615e	-0.030686077
58	0x3d234ff4	0.03987117
59	0xbd4a18e5	-0.049340148
60	0x3c4e0a8e	0.012575759
61	0x3c88d898	0.016704842
62	0x3cd19fec	0.025588952
63	0x3d2c008b	0.041992705

2.weight f4 [7, 64]
0	0x3ddc09a1	0.10744024
1	0xbd85abe3	-0.065269254
2	0x3d8b5010	0.0680238
3	0xbe0f3252	-0.1398404
4	0x3e481f0f	0.19543098
5	0x3e5ede3c	0.21764463
6	0xbc000cd5	-0.007815559
7	0xbe18cac2	-0.14921096
8	0xbe0f2a15	-0.13980897
9	0xbd60e04f	-0.054901417
10	0x3e755563	0.23958354
11	0x3eabf051	0.33581784
12	0x3e8abecb	0.27098688
13	0xbe1d1613	-0.15340452
14	0xbd08f1a1	-0.03343356
15	0xbc9d5f1c	-0.01921039
16	0x3e452deb	0.19255798
17	0x3dd0fa86	0.102040336
18	0xbd91ee56	-0.07125537
19	0x3d255f78	0.04037425
20	0xbddc03e3	-0.10742929
21	0x3e9b893d	0.30378142
22	0xbeb37294	-0.35048354
23	0x3dbbdb66	0.09172706
24	0xbd94563d	-0.07243011
25	0xbee37a9a	-0.44429475
26	0xbeb5335f	-0.35390756
27	0xbf070907	-0.5274815
28	0xbe73d506	-0.2381173
29	0x3ed56966	0.41681975
30	0x3ebb9455	0.36636606
31	0x3e49512f	0.19659875
32	0x3eeb7209	0.4598544
33	0xbdd164fa	-0.10224338
34	0x3e3f9cf7	0.18712221
35	0x3ddf7c0d	0.10912333
36	0xbe2068b4	-0.15664941
37	0x3e852fa3	0.26012906
38	0xbeac9ac3	-0.33711824
39	0xbda4d2fb	-0.08048054
40	0xbd7541b1	-0.0598771
41	0xbdf1c1e4	-0.1180456
42	0xbdb03b81	-0.086050995
43	0x3d08634f	0.033297833
44	0x3de25ebe	0.11053227
45	0x3d429cb9	0.047512744
46	0x3e841df1	0.25804093
47	0xbd168321	-0.036746148
48	0x3d9a32ca	0.075292185
49	0xbda5295a	-0.08064528
50	0x3e08df47	0.13366424
51	0xbe939c6f	-0.28830287
52	0xbe43dd04	-0.1912728
53	0xbd3118db	-0.043236595
54	0x3df20eb3	0.1181921
55	0x3e0ca3f6	0.13734421
56	0x3ea231bf	0.31678578
57	0x3ef3f1e4	0.47645485
58	0xbe6aed76	-0.22942147
59	0x3d86207c	0.06549165
60	0xbe2bb0b8	-0.16766632
61	0x3e57d352	0.21076706
62	0x3dd79338	0.105261266
63	0x3e4b285c	0.19839615
64	0x3e83ae1a	0.25718766
65	0xbe836302	-0.25661474
66	0xbdd5b9f7	-0.104358606
67	0xbea66f2d	-0.32506695
68	0x3e496e07	0.19670878
69	0x3ee029b3	0.43781814
70	0x3d670f5c	0.056411132
71	0x3ca55398	0.020181462
72	0xbe63c176	-0.22241768
73	0x3ee1ded7	0.44115326
74	0x3d15a1b0	0.03653115
75	0x3d940757	0.072279625
76	0xbe20e4cb	-0.15712278
77	0x3e734a29	0.23758759
78	0xbca61318	-0.020272776
79	0xbd3479fa	-0.04406164
80	0xbe8bda75	-0.27315107
81	0xbe590375	-0.21192725
82	0x3daaeb50	0.083456635
83	0xbe337669	-0.17525639
84	0x3e289610	0.16463494
85	0x3ea52fed	0.32263127
86	0xbe312235	-0.17298205
87	0x3c00b052	0.007854538
88	0x3e09ad20	0.13444948
89	0x3dd9a2ed	0.10626779
90	0xbe4618b3	-0.1934536
91	0x3df9f667	0.12205201
92	0xbe925558	-0.28580737
93	0xbe138ede	-0.14409968
94	0xbe9ac4ac	-0.30228174
95	0xbea17d84	-0.31541073
96	0x3d43a774	0.047767118
97	0x3ecf0a2e	0.40437454
98	0xbe5cdef2	-0.21569422
99	0xbe8b99fc	-0.27265918
100	0xbec07640	-0.37590218
101	0xbef363c3	-0.4753705
102	0x3e20d0a5	0.15704592
103	0x3e59552d	0.21223898
104	0x3e4aac61	0.1979232
105	0x3e58cc64	0.21171719
106	0x3d92ed02	0.07174112
107	0x3ed17f22	0.40917307
108	0xbddc2d0a	-0.10750778
109	0x3ea92e2d	0.33043042
110	0x3e9c7f94	0.30566084
111	0x3dda1011	0.10647596
112	0xbe8bf090	-0.27331972
113	0xbd8e3dcc	-0.069453806
114	0xbe4fb723	-0.20284705
115	0x3dc3c871	0.095597155
116	0xbe938ed5	-0.2881991
117	0xbe8ef8db	-0.27924237
118	0xbe2ca70f	-0.16860603
119	0x3d07539d	0.033038724
120	0xbc0668d0	-0.0082037
121	0x3d7b9c48	0.06142834
122	0x3cb2efcb	0.021842858
123	0x3e84810e	0.2587971
124	0xbce15ee8	-0.027511075
125	0xbe029792	-0.12753132
126	0x3e93ba82	0.28853232
127	0xbddc1e7d	-0.10748003
128	0xbeb6c7fa	-0.35699445
129	0xbd90096a	-0.070330456
130	0xbd72b80d	-0.059257556
131	0x3c99112d	0.018684948
132	0xbeb5b01e	-0.3548593
133	0xbe89268b	-0.26787218
134	0x3d369ed4	0.044585064
135	0xbdcc9a22	-0.09990336
136	0x3e26a4a1	0.16273738
137	0xbe13d860	-0.1443801
138	0x3e3228cf	0.1739838
139	0x3cb39173	0.021919942
140	0xbddae42a	-0.1068805
141	0xbeb74eeb	-0.35802397
142	0x3ead08f1	0.33795884
143	0xbe3e32ca	-0.18574062
144	0xbdf5e0fe	-0.120058045
145	0xbd78c264	-0.06073226
146	0xbe24e5d9	-0.16103305
147	0xbe6da5c3	-0.23207764
148	0x3ebf2774	0.37334788
149	0xbe8e55ce	-0.2779984
150	0xbc525b07	-0.012839085
151	0x3e38b444	0.18037516
152	0xbeb8ead6	-0.36116666
153	0x3e04db23	0.12974219
154	0xbdb6ac9b	-0.08919641
155	0x3edd9d1b	0.43283924
156	0xbe623b8c	-0.22093028
157	0x3e35c95f	0.17752598
158	0x3d919716	0.071088955
159	0x3e1d83fa	0.15382376
160	0x3ed6551e	0.41861814
161	0xbdc99139	-0.09842152
162	0xbebaa47d	-0.3645362
163	0xbde3f061	-0.11129833
164	0x3d395655	0.04524835
165	0xbca1c8fd	-0.019749159
166	0x3e21918d	0.1577818
167	0xbd9e50bc	-0.077302426
168	0xbdfd39f8	-0.12364572
169	0xbe2c670b	-0.16836183
170	0x3d7f9ee3	0.062407386
171	0x3de8f85d	0.113754965
172	0xbe19d6dc	-0.15023369
173	0x3dd39e7f	0.10332965
174	0xbc43d045	-0.011951511
175	0xbd0f0e66	-0.03492584
176	0xbd02c52a	-0.03192631
177	0xbeaee81a	-0.34161454
178	0xbe231c14	-0.1592868
179	0xbe104b65	-0.1409126
180	0xbeb51e00	-0.3537445
181	0xbd009add	-0.03139769
182	0x3bf907a9	0.00759979
183	0x3ef94b6b	0.48690352
184	0x3e07de4b	0.13268392
185	0xbe524166	-0.2053276
186	0xbce0cfad	-0.027442778
187	0xbef98d77	-0.48740742
188	0xbd758cb6	-0.059948646
189	0xbe67e591	-0.22646166
190	0xbebc539c	-0.3678254
191	0xbf024dfc	-0.50900245
192	0xbdd6c565	-0.10486869
193	0xbe1fbdd7	-0.15599762
194	0x3ebae1cc	0.36500394
195	0x3c5decca	0.013545224
196	0x3e59ad6d	0.21257563
197	0x3e00b5e0	0.1256938
198	0x3e9990f1	0.29993394
199	0xbf0bf5f4	-0.5467217
200	0x3d52af3c	0.051436648
201	0x3e7bca9c	0.24589008
202	0xbea32a26	-0.31868094
203	0x3e5390b0	0.20660663
204	0x3e921a23	0.28535566
205	0x3e43f56b	0.19136588
206	0xbd9e1958	-0.07719678
207	0x3e5abd31	0.21361233
208	0xbf1098ad	-0.56482965
209	0xbc146036	-0.009056142
210	0xbf310237	-0.69144005
211	0x3e234cbb	0.15947239
212	0x3d3b50c3	0.045731317
213	0x3e4568e0	0.19278288
214	0x3e85acaf	0.2610831
215	0x3df2ed3a	0.118616536
216	0xbe1ce9b3	-0.15323524
217	0x3dc2041d	0.09473441
218	0xbe12f7f1	-0.14352395
219	0xbc13fad6	-0.009031972
220	0x3e897e28	0.26854062
221	0xbdc138c1	-0.09434653
222	0xbea282b5	-0.31740347
223	0xbe323ade	-0.17405269
224	0xbe937ee0	-0.28807735
225	0xbe3ee1d1	-0.1864083
226	0x3dd64863	0.104630254
227	0x3e1d184a	0.15341297
228	0x3c993382	0.018701319
229	0xbd3cae72	-0.0460648
230	0x3e32295f	0.17398594
231	0xbf018a5e	-0.50601757
232	0xbe5a01ee	-0.21289799
233	0xbe410534	-0.18849641
234	0xbea6b667	-0.32561037
235	0xbd92b6de	-0.071637854
236	0x3d9805c6	0.07422976
237	0xbe01f538	-0.126912
238	0xbe9ca1d3	-0.30592212
239	0x3ed4a50e	0.41532177
240	0x3d94746f	0.072487704
241	0x3df440f7	0.119264536
242	0xbcccedf8	-0.025015816
243	0xbd68cbd9	-0.05683503
244	0xbe55615d	-0.20837922
245	0x3da75791	0.08170999
246	0x3e7eccd7	0.24882828
247	0xbd01e27d	-0.031710137
248	0x3db0aa5c	0.086262435
249	0x3dc30406	0.09522252
250	0x3de00a42	0.109394565
251	0xbcca524e	-0.024697449
252	0xbe8315b1	-0.25602487
253	0xbeabf192	-0.3358274
254	0xbe6098a6	-0.21933231
255	0xbc6341fe	-0.013870714

2.bias f4 [7]
0	0xbd414208	-0.047182113
1	0xbc20ec85	-0.009822016
2	0x3da272a7	0.079320244
3	0x3c33f109	0.01098276
4	0x3c128d38	0.008944802
5	0xbd28f61b	-0.04125033
6	0x3c05af1e	0.008159427

0.weight f4 [64, 84]
0	0xbd4bc6a8	-0.04975
1	0x3d8eb98f	0.06968986
2	0xbe98fcf1	-0.2988048
3	0x3e2a7680	0.16646767
4	0x3d2feada	0.04294858
5	0x3e487138	0.1957444
6	0xbcfe11d8	-0.031014368
7	0xbd6cf843	-0.05785395
8	0xbdf954f1	-0.121744044
9	0x3d19b7d2	0.03752882
10	0x3e566f49	0.2094089
11	0xbe46644e	-0.193742
12	0xbda5a423	-0.08087947
13	0xbe29ef7b	-0.16595261
14	0xbe0965da	-0.1341776
15	0xbe919579	-0.2843435
16	0xbdea6e80	-0.114468575
17	0x3d0fb79b	0.03508721
18	0xbd35d64d	-0.044393826
19	0x3e1d0b27	0.15336286
20	0xbcd0af04	-0.025474079
21	0x3daf0ad4	0.08546987
22	0x3dcd156d	0.10013852
23	0x3dfc64d5	0.1232392
24	0xbe973c51	-0.29538205
25	0x3cb88103	0.022522455
26	0xbc33def3	-0.010978448
27	0xbdf8a20a	-0.121402815
28	0xbae4194e	-0.0017402561
29	0x3e180386	0.14845094
30	0xbcb9ea9e	-0.022694882
31	0xbcb76324	-0.022386141
32	0xbdd05bc2	-0.101737514
33	0xbe52c008	-0.20581067
34	0xbdd02ce0	-0.10164809
35	0xbda5fff1	-0.081054576
36	0x3e3fc0fd	0.18725963
37	0x3e01c9e4	0.12674671
38	0x3e5da0fb	0.2164344
39	0xbd4ac1f6	-0.04950138
40	0x3d25fd7d	0.04052495
41	0x3d15bfa3	0.036559712
42	0xbd931aa6	-0.07182817
43	0xbe81c64b	-0.25346598
44	0x3e94aee4	0.2903968
45	0x3d5bf910	0.05370432
46	0x3ea50cfc	0.3223647
47	0x3dcca27f	0.09991931
48	0x3ca27f15	0.019835988
49	0xbe79a19a	-0.24378052
50	0xbd935135	-0.071932234
51	0x3e1746e7	0.14773141
52	0xbe321262	-0.17389825
53	0x3e67b1e2	0.2262645
54	0xbd3e7496	-0.046497904
55	0xbb92ac9e	-0.004476144
56	0x3e0d9004	0.13824469
57	0x3d7c4e14	0.0615979
58	0x3e1224a6	0.14271793
59	0xbb4b75ab	-0.0031045477
60	0x3d13e5af	0.036107715
61	0xbda5bef7	-0.08093064
62	0x3e2e98ec	0.17050523
63	0xbbc89abe	-0.0061219623
64	0x3da290dc	0.07937786
65	0x3cf7b1f1	0.030236216
66	0x3e0f402c	0.13989323
67	0x3e3c16d0	0.18368077
68	0x3dd281d9	0.10278673
69	0x3e2a27f5	0.16616805
70	0x3daadc3c	0.083427876
71	0xbc7ed519	-0.015553736
72	0xbd39504c	-0.045242593
73	0x3d95fdba	0.07323785
74	0xb9ab456f	-0.00032667394
75	0x3d32f59d	0.043691266
76	0xbdb50fb4	-0.08840886
77	0xbd4f77c8	-0.05065134
78	0x3e39079a	0.18069306
79	0x3d2e8515	0.042607386
80	0x3ea395c8	0.31950212
81	0x3e3321ad	0.17493315
82	0xbe8435b4	-0.25822222
83	0x3e17c4f6	0.14821228
84	0x3daef783	0.08543303
85	0x3c04da52	0.008108692
86	0x3dcb58bb	0.09929033
87	0x3ce4992a	0.027905066
88	0x3e6a75d0	0.22896504
89	0x3ea1afc3	0.31579408
90	0xbea7f5e7	-0.32804796
91	0x3d6af900	0.05736637
92	0xbcc5b03f	-0.024131892
93	0x3e945714	0.28972685
94	0xbdf7dfe7	-0.12103253
95	0x3e02dd75	0.12779792
96	0xbc909656	-0.01764981
97	0xbe02c9d6	-0.12772307
98	0xbe7c16d9	-0.2461809
99	0xbd007190	-0.0313583
100	0xbd4c1e06	-0.04983332
101	0xbdd4781b	-0.10374471
102	0xbcc5362c	-0.024073683
103	0xbd8904cc	-0.06690368
104	0x3e03bf1c	0.12865871
105	0x3dfd01ea	0.12353881
106	0xbe5269f4	-0.2054823
107	0x3ec3f1ff	0.38270566
108	0x3da218d2	0.0791489
109	0xbe94a05a	-0.2902859
110	0x3de53576	0.111918375
111	0x3e4bf39b	0.19917147
112	0xbd170056	-0.036865555
113	0xbdf7854f	-0.120859735
114	0xbd05190b	-0.032494586
115	0x3d84c0bc	0.06482074
116	0x3c9e21fc	0.019303314
117	0xbba8a293	-0.0051463335
118	0xbd9e1cf3	-0.077203654
119	0x3e07ac02	0.1324921
120	0x3dfb7d06	0.12279706
121	0xbe1a181b	-0.15048258
122	0xbe56be1d	-0.2097096
123	0x3e8d1020	0.27551365
124	0xbd35b7a1	-0.044364575
125	0xbc600513	-0.013673085
126	0xbc473d03	-0.012160542
127	0x3da15c77	0.078789644
128	0x3ec0655e	0.37577337
129	0x3d488358	0.048953384
130	0xbe1a7abe	-0.15085885
131	0x3ccd3a25	0.02505214
132	0xbe9aaaef	-0.30208537
133	0xbdb3b351	-0.08774436
134	0xbd6d736a	-0.057971396
135	0x3e1bde52	0.15221527
136	0x3e1d7fd2	0.15380791
137	0xbd9465fb	-0.07246014
138	0xbda0e2db	-0.07855769
139	0x3a39a29b	0.000708142
140	0x3ce00f6d	0.027351106
141	0xbe039564	-0.12849957
142	0xbcc7aafa	-0.02437352
143	0x3e61083e	0.219758
144	0x3c951ca4	0.018202133
145	0x3db6c73c	0.0892472
146	0xbce07dbb	-0.027403703
147	0xbe11a7fc	-0.14224237
148	0x3de35a17	0.11101168
149	0xbbb237e9	-0.005438794
150	0xbc28ca91	-0.010302202
151	0x3ca16749	0.01970257
152	0xbd041c36	-0.032253467
153	0x3e72d203	0.23712926
154	0xbc4d7a24	-0.012541328
155	0xbdd9f175	-0.106417574
156	0x3dc75931	0.09733809
157	0x3d39d29c	0.04536687
158	0x3e2fc0e5	0.17163427
159	0xbdfb95df	-0.12284445
160	0x3bb64424	0.005562322
161	0xbdbc4c85	-0.091942824
162	0xbd19cd7c	-0.03754948
163	0xbd948927	-0.07252722
164	0xbd6cad76	-0.057782613
165	0x3e0f3d02	0.13988116
166	0x3d560432	0.052250095
167	0x3dcee841	0.10102893
168	0xbbe1af1c	-0.0068873297
169	0xbe1338e6	-0.14377174
170	0xbe83020a	-0.25587493
171	0x3df2ea84	0.118611366
172	0xbde8e93f	-0.11372613
173	0xbd92ae60	-0.07162166
174	0xbba89dac	-0.005145749
175	0xbd26d840	-0.040733576
176	0x3ce650ff	0.028114794
177	0x3eb77e4e	0.3583855
178	0xbd4c4189	-0.049867187
179	0xbe3707c0	-0.1787405
180	0xbcc7bf0b	-0.024383089
181	0x3e168c67	0.14701997
182	0xbe9ff22a	-0.31239444
183	0x3e3a7ca0	0.18211603
184	0xbdc142c4	-0.09436563
185	0x3d7fcfc7	0.06245401
186	0xbdd7dc35	-0.10540048
187	0x3dd6f644	0.1049619
188	0xbe3429c9	-0.17594065
189	0x3e2bb218	0.16767156
190	0x3cfc1a57	0.030774279
191	0xbddf8cd7	-0.10915535
192	0xbe8c1184	-0.27357113
193	0x3e50cccc	0.20390624
194	0xbd36ecd6	-0.044659458
195	0x3c39f245	0.011349265
196	0x3e7d834f	0.24757122
197	0xbe569b78	-0.20957744
198	0x3ea28fab	0.31750235
199	0x3db3972d	0.08769069
200	0x3dbacd1d	0.091211535
201	0x3c0351ea	0.008015135
202	0x3d1a8e82	0.037733562
203	0xbe019f82	-0.12658504
204	0x3eb27cf1	0.34860948
205	0xbd1c5c81	-0.038174156
206	0x3d843ba5	0.06456689
207	0x3e3ba59a	0.1832489
208	0xbe3211f0	-0.17389655
209	0x3e7b683d	0.24551482
210	0x3d2a0192	0.041505404
211	0xbe6f60dc	-0.23376793
212	0xbd79ea84	-0.061014667
213	0xbe90e0ff	-0.28296658
214	0xbe8172e4	-0.25282967
215	0x3df7fa3d	0.12108276
216	0xbd81545c	-0.063149184
217	0x3dc010f7	0.09378236
218	0x3d3bfc3a	0.04589484
219	0xbd8adc0d	-0.067802526
220	0x3dd19f6b	0.10235485
221	0xbe3e7967	-0.18600999
222	0xbc238ae0	-0.009981841
223	0x3dcbf497	0.09958761
224	0x3daf281c	0.08552572
225	0x3e47e00c	0.19519061
226	0x3a995f2f	0.001170134
227	0x3cb835f8	0.022486672
228	0x3ea3ae14	0.3196875
229	0x3e83d930	0.25751638
230	0x3e2c164e	0.16805384
231	0x3c128d2d	0.008944792
232	0xbe141ad8	-0.14463365
233	0xbc251c54	-0.010077555
234	0x3da41b74	0.08013049
235	0xbda21b19	-0.07915325
236	0xbccd33c5	-0.0250491
237	0xbdca87c2	-0.09889175
238	0x3d4b02fd	0.049563397
239	0x3d944a1b	0.07240697
240	0xbdb2d521	-0.08732057
241	0x3e6b791c	0.22995418
242	0xbcd8bdb4	-0.026457645
243	0xbe278230	-0.16358256
244	0xbe58c0e5	-0.21167333
245	0xbe2c1e6f	-0.16808484
246	0xbd92213a	-0.07135244
247	0x3e00dac7	0.12583457
248	0x3a8a8b5e	0.0010570099
249	0xbb23691e	-0.002493448
250	0x3e7c4601	0.2463608
251	0x3d6d22de	0.05789458
252	0x3c945441	0.018106582
253	0x3d429064	0.047500983
254	0xbe67819e	-0.22608039
255	0xbd1f4041	-0.038879637

0.bias f4 [64]
0	0x3d040353	0.032229733
1	0x3d0b8973	0.03406663
2	0xbc31d0bd	-0.01085299
3	0x3c8ac642	0.01694024
4	0x3d03c49f	0.032169934
5	0x3d4cc854	0.049995735
6	0x3c505e7f	0.012717842
7	0x3c5e2e3a	0.013560826
8	0xbd12bdd6	-0.035825573
9	0x3c80e891	0.015735896
10	0xbe11e532	-0.14247587
11	0xbc659e6e	-0.014014823
12	0x3d642bf9	0.055705998
13	0x39508e06	0.00019889334
14	0x3c910a47	0.017705096
15	0x3df19f75	0.11797992
16	0x3c723085	0.014782076
17	0x3bfaf9fa	0.007659194
18	0xbc840ad3	-0.016118443
19	0xbda0b9e5	-0.078479566
20	0x3d1a5902	0.03768254
21	0x3d00bb45	0.031428594
22	0xbd8ec349	-0.069708414
23	0x3d392b72	0.04520745
24	0xbcdc5a89	-0.02689864
25	0x3c0279cd	0.00796361
26	0xbd4f0ccb	-0.05054931
27	0x3d7df5a4	0.06200184
28	0x3b94cf28	0.0045412965
29	0xbc1e0e16	-0.009646913
30	0x3ce5e119	0.028061436
31	0xbbdc8604	-0.006729843
32	0xbb90a572	-0.004414254
33	0x3b307d8e	0.0026930305
34	0xbd1264b1	-0.035740558
35	0x3c542946	0.0129492935
36	0x3d69bb91	0.057063643
37	0x3d3b2be2	0.045696147
38	0xbcac9771	-0.021068307
39	0x3d877b60	0.06615329
40	0xbd327884	-0.043571964
41	0xbcc569c4	-0.024098285
42	0x3cc4a4f6	0.02400444
43	0x3d910183	0.070803665
44	0x3aa67f07	0.0012702652
45	0xbc73af6f	-0.01487337
46	0x3c525de6	0.01283977
47	0x3d86f427	0.06589537
48	0x3d7b7d2f	0.06139868
49	0x3cc5a022	0.024124209
50	0xbcba7ed0	-0.022765547
51	0xbe002de0	-0.125175
52	0xbcf72880	-0.03017068
53	0x3d0b52f8	0.034014672
54	0x3d3beb2f	0.045878585
55	0xbdacd03f	-0.08438157
56	0xbd2a50c0	-0.041580915
57	0x3db87845	0.090073146
58	0x3cac4aa3	0.021031683
59	0x3c810bd3	0.015752709
60	0xbcb1bf29	-0.021697598
61	0x3c62effd	0.013851163
62	0xbb94ba1f	-0.004538789
63	0x3b1c5ec1	0.0023860189

2.weight f4 [1, 64]
0	0xbd89f4e2	-0.06736161
1	0xbcfdd028	-0.030983046
2	0xbc22f7ee	-0.009946806
3	0x3c72ec51	0.01482685
4	0xbc83125a	-0.015999962
5	0x3cd6c979	0.026219117
6	0x3c8df6e2	0.017329637
7	0x3d4bd5ce	0.049764447
8	0x3ca16a78	0.019704089
9	0x3be17c80	0.0068812966
10	0xbe237df8	-0.15966022
11	0x3d483b0a	0.04888443
12	0x3db10330	0.08643186
13	0xbd0fb96c	-0.03508894
14	0x3c1f2f7e	0.009715913
15	0xbc99ce58	-0.01877515
16	0x3c6cd7af	0.01445572
17	0x3c59ef74	0.013301719
18	0x3c1e7a9a	0.009672785
19	0x3cbe7ef2	0.023253892
20	0xbccd59b2	-0.025067184
21	0x3d11bf4d	0.03558283
22	0xbd1de87a	-0.038551785
23	0xbdae2644	-0.08503392
24	0x3cc12b5c	0.023580246
25	0xbc4b2f6b	-0.012401442
26	0xbd45f2ba	-0.048327185
27	0x3c4adc85	0.0123816775
28	0xbc85211c	-0.01625114
29	0x3c613158	0.013744675
30	0xbd04b16f	-0.032395776
31	0xbcc5ef78	-0.02416204
32	0x3c374b75	0.011187424
33	0xbcc2575b	-0.023723295
34	0xbd8d6518	-0.06904048
35	0xbc69677b	-0.014245863
36	0x3dcdbe44	0.10046056
37	0x3d0c930f	0.034319934
38	0x3d80e6ba	0.062940076
39	0x3dbd726e	0.09250341
40	0x3c813828	0.015773848
41	0xb9633f76	-0.00021672048
42	0xbd58e814	-0.052955702
43	0x3c49aa11	0.012308613
44	0x3cb89a96	0.02253465
45	0x3c5205b8	0.012818746
46	0xbd17a22a	-0.037019886
47	0xbde47508	-0.111551344
48	0x3c72790b	0.014799367
49	0x3cfd23f1	0.030900927
50	0xb980aec5	-0.00024544276
51	0x3deda874	0.116043955
52	0x3b8466a5	0.0040405565
53	0x3d469dd9	0.04849038
54	0xbc79bcdc	-0.0152427815
55	0xbcdb4794	-0.02676753
56	0xbe398b7b	-0.18119614
57	0x3da63e20	0.08117318
58	0x3c9c600e	0.019088771
59	0x3c0db94d	0.008650136
60	0x3be0ba0e	0.006858117
61	0xbd41d493	-0.047321867
62	0xbc9e835d	-0.019349748
63	0xbc82af32	-0.01595268
