saved_models/PPO/using_trueskill_for_matchmaking/model8.pth (torch, 48436 bytes, 7 tensors)

0.weight f4 [64, 84]
000000 6a 64 9e 3d ed 2c 1a bd 99 01 65 be ba b0 17 3d
       0.07733996 -0.0376405 -0.2236389 0.037033774
000010 28 d8 d2 be cd 81 0a be 87 5a e7 3c fc 25 2a 3e
       -0.4118054 -0.13526078 0.028241409 0.16616052
000020 69 05 03 3e 37 4f 11 be e3 5a 0f be ee 1d b6 3d
       0.12795033 -0.14190374 -0.13999514 0.088924274
000030 ea ae 36 3b 13 ed 07 3d e9 36 15 bb ba 09 c5 3c
       0.0027875253 0.033185076 -0.0022768325 0.02405249
000040 ea d0 18 3e 75 17 c4 be cd ca b3 3d bd 9b 61 be
       0.14923444 -0.38299146 0.087789156 -0.22032066
000050 46 72 55 bd fa 35 bb be 29 27 39 3d fe 95 ec 3d
       -0.052110933 -0.36564618 0.04520336 0.11552046
000060 69 56 56 3d 8a 64 27 3e ac eb fc bd 28 bf 9a 3d
       0.0523285 0.16346946 -0.12349638 0.075559914
000070 9e 64 a7 3e f4 da 8e bb 1d 28 9e bd 72 9c 27 be
       0.32693952 -0.0043595973 -0.07722495 -0.16368273
000080 b7 21 67 3e 06 dc d9 3d 8e ea c7 3d fc 65 9f 3e
       0.22571455 0.10637669 0.09761535 0.31132495
000090 c9 51 84 3c 70 f7 04 be 74 b5 9a bd 00 0f 8f 3e
       0.01615228 -0.12985015 -0.07554141 0.27941132
0000a0 3f c6 19 3e 94 8c c8 bc e1 54 7f bd 8b ac dc bd
       0.15017031 -0.024481095 -0.062336806 -0.107750975
0000b0 60 3d 6f 3d 05 fd 44 be f4 87 cf be 0f 9c 0b 3e
       0.05840814 -0.19237144 -0.40533412 0.1363375
0000c0 82 6f 1b bd 48 ba 2c 3d 88 ba 43 3e d6 c7 92 3d
       -0.03794814 0.04216984 0.19114125 0.07167022
0000d0 e6 be 9c 3e 94 77 2d be 54 2f 7d be 57 ff 82 3e
       0.30614394 -0.16940147 -0.24725085 0.25585434
0000e0 cb b9 3a ba 09 35 86 bd 19 46 4e bc 85 1f 50 3c
       -0.0007123022 -0.065530844 -0.012589955 0.012702827
0000f0 54 80 0b bd 41 b6 12 3d 75 67 8a 3e e1 ac ca bd
       -0.03405793 0.035818342 0.27032056 -0.09896255
000100 17 ea 78 3e 4c 8a 07 ba d8 92 2c 3e 5c 1d f7 bd
       0.24308048 -0.0005170449 0.16852891 -0.12066147
000110 4f a9 09 be 62 55 ac bd af 64 ab 3d c0 71 c2 3c
       -0.13443492 -0.08414723 0.08368813 0.02373588
000120 ff 76 bb 3d c8 8d b1 3e 99 e9 5d 3c c9 43 4b be
       0.09153556 0.34678483 0.013544464 -0.19850077
000130 76 82 6d 3e 14 45 17 3e 90 d5 04 3e cb ba 1b 3e
       0.23194298 0.14772445 0.12972093 0.15207975
000140 21 de f0 bd 68 ec b2 bd 3f b3 af 3c 16 eb 43 be
       -0.11761118 -0.08736497 0.021447776 -0.19132647
000150 ab 43 31 3e f7 47 72 3d 60 fe 07 3c b3 94 36 3e
       0.1731097 0.059150662 0.008300394 0.17830162
000160 4f 09 2a bd fe 66 4a be 44 f2 48 3e 86 d5 22 3e
       -0.041512784 -0.19765851 0.19623667 0.15901765
000170 58 2b f9 3d 72 04 ed bd ab c2 b4 be e4 20 e1 3d
       0.1216647 -0.115731135 -0.3530477 0.109926015
000180 33 33 59 3e f7 62 e3 3e 31 c8 4e be c0 30 b9 be
       0.21210937 0.44411442 -0.20193554 -0.36170006
000190 8f ca a9 3e 89 19 17 be 49 84 33 3d a7 37 62 3c
       0.33162352 -0.14755835 0.04382733 0.013807214
0001a0 af 72 eb be 26 ad 6d 3e df c2 7d 3d 6f 9a 32 be
       -0.45985934 0.23210582 0.06195342 -0.17441724
0001b0 69 b9 e5 bc ee 68 f3 3d 80 75 05 3e 97 3e 3e be
       -0.028042512 0.11885248 0.13033104 -0.18578564
0001c0 ca 15 b3 bd 45 82 f8 be b0 6b 9a be 4e 6a 86 3d
       -0.0874439 -0.48536888 -0.30160284 0.06563245
0001d0 e5 42 97 bd dd 99 22 3d 95 5b 4f bd 73 e9 8d be
       -0.07385806 0.039697517 -0.05062445 -0.2771717
0001e0 c7 91 0c be ae ca 46 3d 71 57 1a 3e 43 5a ed 3b
       -0.13727485 0.048533134 0.15072419 0.007243426
0001f0 8c 57 7e be 9a fe 31 bd fc f4 60 3c fa a4 15 be
       -0.24838084 -0.043455698 0.013730284 -0.14613715
000200 4b 93 97 bd 78 33 28 3e 55 77 91 be 7a bb 01 3c
       -0.07401141 0.16425884 -0.28411356 0.007918233
000210 22 2f c2 3d 63 ac 9f be 20 e2 1b be 45 cc b6 bd
       0.09481646 -0.31186208 -0.15222979 -0.0892568
000220 29 33 09 3e 0d be 0b be 17 34 42 3e 9a ea 4a bc
       0.13398422 -0.13646717 0.18965183 -0.012385035
000230 bd d6 9d 3e 43 18 93 3e aa e1 97 be 74 f2 69 3e
       0.30827895 0.28729448 -0.29664356 0.22846395
000240 07 e9 a6 3d fa 88 4d be 34 fe 1b be 2d c7 e4 3d
       0.08149915 -0.20071784 -0.1523369 0.11170802
000250 df 9a 25 be 3f e9 d1 3d 34 47 29 3e 68 ca ca 3d
       -0.1617236 0.10249566 0.16531068 0.09901887
000260 ff ab 81 3e a4 84 f5 bb 6a 7c 5e bc 27 fc 17 3e
       0.25326535 -0.0074926186 -0.013579467 0.14842282
000270 ec 7b ab 3d 8d f9 ce 3d 2b 27 56 3d 63 3b 50 bc
       0.083732456 0.10106192 0.052283447 -0.012709471
000280 2b 1b 05 bd b6 e0 1e be ef 20 97 3c 4d d0 49 3d
       -0.032496613 -0.15515408 0.018448321 0.049270917
000290 37 6a 59 bd 59 65 d1 bd 7f 07 88 3e 74 7e f6 bb
       -0.05307981 -0.10224409 0.2656822 -0.0075223986
0002a0 4e 9d d5 3d c2 6c 19 bd 91 90 b6 3d c7 28 ef 3d
       0.10430394 -0.037457235 0.089142926 0.116776995
0002b0 84 78 0e be c2 a1 58 bd 3d 9b aa 3d 41 b6 cf bd
       -0.1391316 -0.05288864 0.083303906 -0.10142184
0002c0 e9 63 d0 3d be 43 96 be 1b 5a 1a be 56 af 27 bc
       0.10175306 -0.29348558 -0.15073435 -0.010234674
0002d0 47 cb e2 3c e1 c7 22 3e 0f b8 80 bd ff 16 d3 be
       0.02768482 0.1589656 -0.062851064 -0.41228482
0002e0 59 65 c1 3d 49 d6 99 3e 2b 0d c0 3e 03 fc ba 3c
       0.09443159 0.300463 0.37510046 0.022825247
0002f0 ab 3d 84 be 59 65 15 be 61 72 16 3e 94 b3 e3 3d
       -0.258283 -0.14589442 0.1469207 0.11118236
000300 70 09 ab be 06 27 85 bd b9 da 5b bd 3d 8e 9c be
       -0.33405638 -0.06501584 -0.053675387 -0.3057727
000310 91 7a 59 be 7e 7d 5d bd 5a f5 e6 3e b9 a1 b2 bd
       -0.21238162 -0.054074757 0.45109063 -0.087222524
000320 f4 81 49 bd 3a 55 52 be 33 71 0f 3d 26 04 1e be
       -0.0491962 -0.20540324 0.035020065 -0.1543127
000330 3b f3 7b bd 80 98 82 3b d3 ff 2f be 53 f1 a4 bc
       -0.06151126 0.0039854646 -0.17187433 -0.020134604
000340 d8 44 34 be 6a 7d 62 3e d7 73 3b 3d fb 5d 7d be
       -0.17604387 0.22118154 0.04576477 -0.24742882
000350 95 6b 1c 3e 9a 2c 09 3e e7 b1 50 be 69 24 77 be
       0.15275414 0.1339592 -0.20380364 -0.24134983
000360 29 52 fd bb 97 28 4e be cf cc e8 3d 1f ec 8f bd
       -0.0077307415 -0.20132671 0.11367189 -0.070274584
000370 15 f6 43 be 5b f5 8c 3d 0e 88 c1 bd 75 b9 3d bd
       -0.19136842 0.06882735 -0.094497785 -0.046319444
000380 34 38 04 3d 86 57 08 be e8 49 6d 3e 3d be 1e bd
       0.032280162 -0.13314638 0.23172724 -0.038755644
000390 8e b6 7b 3d bf 78 9b bd e0 fe b0 be 86 b8 ca bb
       0.061453395 -0.0759139 -0.34569454 -0.0061865477
0003a0 32 2c 82 3e 98 7c 1f 3e 1f a4 e5 3d d3 f6 86 be
       0.25424343 0.15574872 0.11212944 -0.26360187
0003b0 90 c9 1d be ce 77 77 3e 1c d0 5b 3d bf 6a bf 3e
       -0.15408921 0.24166796 0.053665265 0.37386128
0003c0 6d 5b df bd 90 ac 22 be 97 ca 00 bd 0d fd fb bd
       -0.1090611 -0.1588614 -0.031443205 -0.12304125
0003d0 68 f4 a6 3d 5c d8 94 3e 2f 91 84 3d 3c 0e 54 be
       0.081520855 0.2907132 0.06473004 -0.20708555
0003e0 5b 06 9c be 66 f3 89 3c d9 57 31 be d9 c8 2a be
       -0.304736 0.016839694 -0.17318667 -0.1667818
0003f0 a6 69 de be 6c f4 8d 3e fb fd ee bd 8f 96 a0 bd
       -0.43439978 0.27725542 -0.11669537 -0.07841217

0.bias f4 [64]
000000 a0 12 56 bd c8 6a 0c 3b a1 9d 05 bc 99 b7 11 bd
       -0.052263856 0.0021425951 -0.008155257 -0.035575483
000010 8a ba 6d bd 0f a8 b2 3d 0d 5b 4e bd 79 cf 86 39
       -0.058039226 0.08723461 -0.0503798 0.0002571305
000020 ed 2f 1c 3c 64 1a 98 3d 76 0a 98 3c dd 47 ac 3d
       0.009532911 0.074269086 0.018559676 0.08412144
000030 71 34 c6 3c 96 29 d4 3c 53 b8 0e 3d 32 f2 1f 3d
       0.024194928 0.025898736 0.034843754 0.039049335
000040 12 9d 43 3b 5c 0f 33 bd 15 3c 76 3d 14 3e 44 3d
       0.002984826 -0.04371582 0.060115892 0.047910765
000050 9c df 66 bc 0a f1 6c 3d e1 5c b7 bc 17 b3 ba bd
       -0.014091399 0.05784706 -0.022383155 -0.0911619
000060 97 fb 4e 3d d4 42 ad 3b 9d b7 9a bd 55 1e 49 3d
       0.050532904 0.0052875075 -0.07554553 0.049101193
000070 aa 57 39 bd b0 f7 17 bc 3c 5b 02 3d 03 e5 36 3d
       -0.04524962 -0.009275362 0.03182529 0.044651996
000080 c8 c0 34 bd 02 85 d1 bd 17 a8 f8 3c 54 d0 60 3e
       -0.044129163 -0.10230447 0.030353589 0.21954471
000090 87 9b 8c bd 80 9c e9 3c f3 83 95 3c 20 9e ca 3c
       -0.06865602 0.028517008 0.018251395 0.024733603
0000a0 a2 11 10 3e 77 1f 19 3c 2a 8a 7d 3d e0 cb 97 bd
       0.14069226 0.009345881 0.06189934 -0.07411933
0000b0 96 8c 4b 3d 0a 91 54 3e 34 d7 ce 3b 9a a1 16 3b
       0.04969462 0.20758453 0.0063122753 0.0022984506
0000c0 f1 33 84 3c 08 f7 6e 3b 3e 67 89 3c 77 d4 b8 3d
       0.016138049 0.003646316 0.016772863 0.090248995
0000d0 3b 2c f4 3b 3d 23 61 3c e7 14 61 bc 06 6d 1e 3c
       0.0074515617 0.013741312 -0.013737894 0.009669548
0000e0 b5 7f cb 3b c8 ca 87 ba 2d 24 76 3c cb 31 83 bb
       0.006210292 -0.0010360116 0.015023273 -0.0040037385
0000f0 4f c4 f7 bb d2 18 05 bd 5b 07 21 3e 29 ad 00 bd
       -0.0075612436 -0.032494374 0.15725462 -0.03141514

2.weight f4 [7, 64]
000000 5f 83 ae bd 26 6c 48 be f2 dd 82 be 2d 28 bf bc
       -0.08521151 -0.19572505 -0.25559956 -0.023334587
000010 3c f7 32 be d0 6f 1f be b4 28 e8 3e 7f 52 67 be
       -0.17477125 -0.15569997 0.45343554 -0.22590064
000020 68 7f ab bc 0e fe dd 3d f2 1f 5d bd e2 02 93 3e
       -0.020934775 0.10839473 -0.053985544 0.28713137
000030 a4 3a ed bd bd 59 4a 3e 6f 6d 2d be 78 15 4f 3e
       -0.115834504 0.19760795 -0.16936277 0.20223033
000040 d2 3e b2 be e9 13 85 be 54 d8 46 bd 7c 46 38 be
       -0.34813553 -0.25991753 -0.04854615 -0.17995638
000050 2f 78 92 3e 19 cf e0 bd fa f0 69 3e 1c 93 96 3e
       0.28607318 -0.10977001 0.22845832 0.2940911
000060 b8 80 c3 3e 4d 7f c0 be b9 1e 3a 3d 69 fe 00 be
       0.38184142 -0.37597123 0.045439456 -0.1259705
000070 d2 fc a1 3e 0f 91 02 3e 14 bb 1a bd 37 5d c0 be
       0.316382 0.12750648 -0.037776068 -0.37571117
000080 9f a2 6f 3d 2a 19 0b 3e a6 db 84 3e 90 06 f9 bd
       0.058504697 0.13583818 0.25948828 -0.12159455
000090 0e b3 d4 bd 07 79 f9 be 9c 75 17 be fd ac 94 bd
       -0.103857145 -0.4872515 -0.14790958 -0.072595574
0000a0 06 2a 17 bf 68 f6 fa bb 83 1d a3 be 84 ae 95 3e
       -0.590485 -0.0076587684 -0.31858453 0.29234707
0000b0 ab 9e a5 3d 8f 97 65 3e fd 55 5a 3a 30 2a db be
       0.08086904 0.22421096 0.00083288533 -0.42805624
0000c0 e3 e4 48 be f2 31 e0 be d0 28 d4 3d 04 cb ed 3c
       -0.19618563 -0.43788105 0.10359347 0.02902747
0000d0 fc 5e a1 bd c8 8f 24 bd e7 b8 81 3e 9c ce 4e be
       -0.07879445 -0.040176183 0.25336382 -0.20196003
0000e0 4a 3f ca 3e c6 02 de bd 6c e4 8a bd 30 71 e8 3b
       0.3950141 -0.10840373 -0.06781849 0.007093571
0000f0 94 ca 19 be ec 21 68 3e af d2 3a 3e b2 11 58 3e
       -0.15018684 0.2266919 0.18244432 0.211005
000100 7c d5 6c 3d a6 59 2d 3e a2 22 89 be 8f 6a 88 3d
       0.057820782 0.1692873 -0.26784235 0.066609494
000110 1d 60 70 bc 1c 8b 7c bd e3 2d cc 3d 43 6c 80 bd
       -0.014671353 -0.061656103 0.0996969 -0.06270649
000120 09 ec 09 bf 13 31 8b 3d 7a 45 d9 3e d4 8d 08 be
       -0.53875786 0.067964695 0.4243582 -0.13335353
000130 db 88 b5 be 5e ca c9 be 59 14 97 3e 5d f2 13 3b
       -0.35455975 -0.39412206 0.29507712 0.002257488
000140 70 ee 4b be 9a bb c4 3e 0c 06 81 be 73 8e 90 be
       -0.19915175 0.3842438 -0.25199926 -0.2823368
000150 f6 34 ea 3d db 59 a7 3e 28 a1 2f bd 6c dc 73 be
       0.11435883 0.32685742 -0.0428783 -0.23814553
000160 0c 5b d0 3d 75 22 9a 3d b5 6f c2 3c 93 31 43 3e
       0.10173616 0.075261034 0.023734907 0.1906188
000170 c2 4b bc 3d 8d a0 c4 bd 9d a4 1a 3d 8c 03 a4 be
       0.09194137 -0.09600935 0.037754644 -0.32033956
000180 a1 75 00 be 95 48 eb be 90 e5 0e be d0 cf 58 be
       -0.12544872 -0.45953813 -0.13954759 -0.21173024
000190 25 5c e5 bd c1 4a 31 be f0 27 b9 3d a1 1a 07 3e
       -0.11199216 -0.17313673 0.090408206 0.13193752
0001a0 da 52 0b bf 41 39 a8 bd 29 4d 2e be 48 fd cb bd
       -0.54423296 -0.08214045 -0.17021622 -0.09960419
0001b0 d8 e7 2e be a2 ca 1e be 07 9d cb 3e ab 45 f1 3d
       -0.17080629 -0.15506986 0.3976824 0.11780866
0001c0 d6 d7 34 3d a3 3b 97 3c bb 71 84 3e ed 85 8e 3d
       0.04415115 0.018461054 0.2586802 0.06959138
0001d0 35 1b 8f 3e b3 a1 0d 3e 52 ca 90 3a 51 f3 a1 be
       0.27950445 0.13831215 0.0011046624 -0.31630948
0001e0 39 2a 7d be 75 11 8b bd cc 72 61 bd 7f 0a 92 be
       -0.24723138 -0.06790439 -0.05504112 -0.28523633
0001f0 de 19 ee bd 4c 35 c2 be 66 dc 3f 3c 50 a1 77 be
       -0.116260275 -0.37931287 0.011710262 -0.2418263
000200 8c 00 82 3e d9 f5 c2 3e 74 0b c0 bd 67 42 24 bd
       0.25391042 0.38078192 -0.093771845 -0.04010239
000210 4a 67 06 3e db 58 02 be d2 c5 9a be 14 42 b4 bd
       0.13125339 -0.12729208 -0.3022905 -0.08801666
000220 6f 30 42 3e 50 90 3b bf 9d 74 2c be 85 b7 4a bc
       0.18963788 -0.7326708 -0.1684136 -0.012372856
000230 77 7a 5a 3e 06 c9 bf bd e4 ba d6 3c 03 11 48 be
       0.21335779 -0.09364514 0.026212163 -0.1953774
000240 e6 90 6b 3e 44 87 f3 bd d6 46 09 be 92 70 85 3c
       0.23004493 -0.11891034 -0.13405928 0.01628903
000250 60 eb 06 3e 69 fd 53 bd ca 25 d4 3c 8a 67 1a 3e
       0.13175726 -0.051755343 0.025896925 0.1507856
000260 f2 d7 01 3f a7 a4 56 3d b7 12 31 3e 9e 85 fb be
       0.5072013 0.05240312 0.17292295 -0.4912538
000270 f0 a0 6e be 1c 83 f6 bc 8c 6a 1e 3e c3 c1 55 3e
       -0.2330358 -0.030091815 0.15470332 0.20874695
000280 59 2d 2a 3e 1e d3 6a 3e 50 f6 b1 be 84 4f d8 be
       0.16618861 0.22932097 -0.34758234 -0.42248166
000290 ec 06 2c be 10 d6 d0 be c0 af 91 be 33 d7 f1 3c
       -0.16799515 -0.40788317 -0.284544 0.02952156
0002a0 21 e4 e2 bd 48 e7 1f be b6 1e 36 be f4 b8 4f 3e
       -0.110786684 -0.1561557 -0.17785153 0.20285398
0002b0 72 77 1a 3e 07 a3 58 3e 4e 3b b6 bd 36 f5 22 bd
       0.15084627 0.2115594 -0.0889803 -0.039784633
0002c0 51 00 2f 3e 46 54 c1 b9 2a 65 97 bd e0 04 5c be
       0.17089964 -0.00036874617 -0.073923424 -0.21486235
0002d0 e6 6e d5 3e 58 97 1f be 05 07 f6 be 3c ec a2 bd
       0.4168617 -0.15585077 -0.4805223 -0.079552144
0002e0 92 e5 54 3e 9d 78 ec 3d aa 62 99 bd 9f 56 89 bd
       0.20790699 0.11546443 -0.07489522 -0.06705975
0002f0 ee a6 42 3c c7 08 1e 3e d3 76 9d be 4c 57 be be
       0.011880619 0.15433036 -0.30754718 -0.37175977
000300 89 bc 59 be 5f c7 69 3c 09 18 ac 3e 32 c7 f7 3e
       -0.21263327 0.014268725 0.33612087 0.4839416
000310 e8 b7 d0 bd e9 d8 1b 3e 90 4d 74 bd 28 64 ab be
       -0.10191327 0.15219463 -0.059644282 -0.3347485
000320 ed 4f 4c be 42 24 e5 bc 56 d6 ef 3d 82 dc 45 3e
       -0.19952364 -0.02797139 0.11710803 0.19322398
000330 fb 60 15 3e 47 d2 20 3e 81 19 e4 be 48 bd 60 3e
       0.14587776 0.15705214 -0.44550708 0.21947205
000340 2a cd f8 bc 93 1d 05 be ed eb 2f 3e fe 73 bd 3d
       -0.030371267 -0.12999563 0.17179842 0.092506394
000350 b9 d8 a3 bc 11 0d c2 3d 85 ee ca 3d 17 31 12 be
       -0.020000802 0.094751485 0.09908775 -0.14276539
000360 7a b7 ad bd 49 ca 94 3e 18 f6 48 be b3 ea 64 3e
       -0.08482261 0.2906058 -0.19625127 0.22355156
000370 45 25 6a bd f1 eb 57 bd ae 13 0d be 5d 17 8d bc
       -0.05716445 -0.052715246 -0.13777038 -0.017223055
000380 7a 3f ef 3e 34 61 e7 3d 41 2c 98 be 7a 37 ff 3d
       0.46728116 0.11297837 -0.29721263 0.12461753
000390 f9 80 bf be 80 a3 4d be a8 f1 1c be d7 02 23 3e
       -0.37403086 -0.20081902 -0.1532656 0.15919052
0003a0 99 3e a4 3e e1 8d 11 be e7 90 82 bd 0d 0b 04 be
       0.32079008 -0.14214279 -0.06375294 -0.1289484
0003b0 46 f9 d2 be 5a 5f f0 bd c9 27 a8 3d c0 ad c7 3e
       -0.41205806 -0.11736937 0.082107134 0.38999748
0003c0 b3 46 19 be 89 1e 3b 3e b7 2a 12 3d f6 21 8c be
       -0.14968376 0.18273367 0.035685267 -0.2736966
0003d0 c4 a9 3d be f4 8d 96 be a1 6c 00 3e 9a 2e 44 3e
       -0.18521792 -0.29405177 0.12541439 0.19158402
0003e0 fd ab fb bd a0 0b 58 be 47 e6 a6 3e ba 96 86 3d
       -0.122886635 -0.21098185 0.32597563 0.065717176
0003f0 80 9e 17 bf a8 e3 d8 3c b4 13 59 3e 65 8e 2f be
       -0.59226227 0.026475742 0.21198922 -0.17144163

2.bias f4 [7]
000000 2d f9 37 bd f3 ef 13 bd 93 07 33 bd 77 0d 55 3d
       -0.044915367 -0.036117505 -0.043708395 0.052014794
000010 bd 71 bd 3c 3f 55 3a 3d f8 cd 91 3c
       0.023125524 0.045491453 0.017798409

0.weight f4 [64, 84]
000000 02 8d ab 39 1c 23 18 be ab 67 1b 3e 3e 41 5a 3d
       0.0003272072 -0.14857143 0.15176265 0.053284876
000010 a7 a6 16 3d 90 2c 1e be f8 d2 c2 3d 3d dc a1 3d
       0.036780026 -0.15446687 0.09512895 0.07903335
000020 bb e8 15 3c 32 33 8c 3d 93 d1 38 3d 7c 6e cb bd
       0.009149726 0.06845702 0.04512174 -0.099331826
000030 dd 87 64 3e a2 23 63 be af 3e ee 3d fb bc 65 bd
       0.22317453 -0.22181562 0.1163305 -0.05608843
000040 c9 08 5b 3e 60 53 db bd a2 26 3d 3c f0 36 25 3b
       0.2139007 -0.10709262 0.011544855 0.0025209747
000050 f7 1f 5d bc c0 fb 85 be 88 5f 19 bd df da 7c be
       -0.013496391 -0.26168633 -0.03744462 -0.24692868
000060 25 a3 ca ba 7d 71 16 bd 9f 7c 49 be cf cc ef 3d
       -0.0015459998 -0.036729325 -0.19676445 0.11708986
000070 8f bc ea 3d e1 e5 06 3e a6 88 b6 be 7c f2 53 be
       0.11461746 0.1317363 -0.3565113 -0.20697969
000080 0d 44 fb 3d ae a3 4a 3e 10 43 bd 3c c3 ad 3b bc
       0.12268839 0.19789001 0.023103267 -0.011455002
000090 83 3c bd bb ec bc 8f bd 80 0f 2b be 59 29 56 3e
       -0.005775036 -0.07018456 -0.16705132 0.2091421
0000a0 cf be 26 be 49 8d 0f be 82 eb 76 bd 9a cf fa 3d
       -0.16283725 -0.1401874 -0.06028319 0.12246628
0000b0 ca c2 5d 3e 09 9c 49 be 2e fe 88 bc 2f 63 6e 3d
       0.21656337 -0.19688429 -0.016722765 0.058200058
0000c0 73 8a 43 3e a7 48 2b be 05 1c 1c 3e d5 ce 2d 3e
       0.19095783 -0.16726933 0.15245064 0.16973431
0000d0 04 8d e2 3d 6c fd 26 be ef 6a 11 be dc 6e 3b be
       0.11062053 -0.1630761 -0.14200948 -0.18304008
0000e0 4b c8 37 3d 74 90 31 3e 08 c9 aa be ea 9a 78 be
       0.04486875 0.1734026 -0.333565 -0.24277845
0000f0 c1 34 96 bd 44 7b 1c be b0 a1 43 3d 30 d7 8d be
       -0.07334281 -0.15281397 0.04776162 -0.27703238
000100 c5 e7 a1 bd 5c 32 66 be 37 e9 76 bd 26 a4 58 be
       -0.07905535 -0.22480148 -0.060281005 -0.21156368
000110 46 24 0c 3d 95 ae 19 3e b1 70 04 be 9c 8d 81 be
       0.03421428 0.15008004 -0.12933613 -0.25303352
000120 9b 82 8a 3c 7b cd b0 be 8f 71 cb bd b5 6d c7 3e
       0.01690798 -0.3453177 -0.09933769 0.38950887
000130 5e a0 2f be 33 12 83 3c 8f 2e 94 be ea 67 45 3d
       -0.17151019 0.015999889 -0.2894177 0.048194803
000140 60 42 b4 3c 3f 74 27 be 11 fd 05 be 2f e5 cc bc
       0.022004306 -0.16352938 -0.13084818 -0.025011627
000150 92 27 25 3e 78 24 9f bd 2f 22 8b 3e e2 1e 22 3e
       0.16128376 -0.07770628 0.27174518 0.15832093
000160 90 55 51 3e 73 9c 03 be 9b 98 09 be bc 3a bf 3d
       0.20442796 -0.1285265 -0.1343712 0.093373746
000170 d7 b5 0a bd 00 65 13 bd 77 32 ac 3d 9c 80 dd 3d
       -0.033864822 -0.035984993 0.08408063 0.10815546
000180 ce 63 9d be ac 33 52 3d ab ca 11 be 3c 5e 65 3e
       -0.30740207 0.05131881 -0.14237468 0.22399229
000190 fc fd c8 bd a1 8a 45 3d df d6 5f 3d 5c 96 65 3c
       -0.09814069 0.04822791 0.054648276 0.014012899
0001a0 b6 10 27 3e 08 3e 87 3e 6f ec 02 3e c9 65 8d 3d
       0.16314968 0.26414514 0.12785505 0.069041796
0001b0 d9 1b c5 3e 5e 07 60 be 6d 55 97 bc 0c c7 cd bd
       0.3849781 -0.2187781 -0.018473351 -0.10047731
0001c0 ca 4c a9 bd 36 d5 43 3e 47 13 f3 bd 6e 6e 73 3c
       -0.082665995 0.19124302 -0.11868911 0.014857871
0001d0 29 18 fd 3d 31 49 dc bd 04 f7 50 be 9a 57 21 be
       0.12358124 -0.10756148 -0.20406729 -0.15756074
0001e0 43 aa 10 3d cf 79 0b 3e 30 21 a8 3c fd be 3c bd
       0.035318624 0.13620685 0.020523638 -0.046080578
0001f0 b3 c8 2b be 3e 37 b5 bc e9 95 62 bd 1f e5 36 3e
       -0.1677578 -0.022121068 -0.055318747 0.1786084
000200 e6 05 83 3c 32 06 95 3e 07 98 3b bd 30 c5 a9 3d
       0.015994024 0.2910629 -0.04579928 0.08289564
000210 7c c7 4f 3d 5a b5 2c be 54 40 17 be 6d 64 71 3e
       0.050727352 -0.16866055 -0.14770633 0.23573466
000220 ab 1b 4d be 92 c2 24 3e 4e 59 0a be 79 81 50 3d
       -0.20030086 0.16089848 -0.1351063 0.050904725
000230 3d a9 e3 bd bf 70 8b bd a5 df d9 bd 8f ca f0 3c
       -0.11116264 -0.06808614 -0.1063836 0.029393462
000240 03 60 a7 3d f1 18 98 3e c8 12 8c 3d 9a b7 5e 3d
       0.0817261 0.2970653 0.0683952 0.054374315
000250 c7 37 36 bd cf cc 64 3d 35 13 20 3e b8 11 fb 3c
       -0.044486787 0.055859383 0.15632327 0.030648097
000260 f9 61 bf bd 0c e7 9c 3e 5e a1 cb bb 25 27 94 3d
       -0.09344859 0.30645025 -0.006214305 0.07234029
000270 5a b5 56 3d 6b 59 92 3d 2b f8 a5 bd 43 0f 09 3e
       0.052419044 0.071459614 -0.08103975 0.13384728
000280 cd 34 07 be 93 fc 06 3e 00 29 29 3c 3c 38 a6 3d
       -0.13203736 0.13182287 0.010324717 0.081161946
000290 09 51 65 be 9f 8d 66 be 3f f1 b5 bc 32 80 99 be
       -0.22394194 -0.22514962 -0.022209762 -0.29980618
0002a0 00 f2 bf 3d b9 30 7a bd 56 c6 af 3c c5 8d 0b be
       0.0937233 -0.06108162 0.021456879 -0.136283
0002b0 df 97 b6 bc 1d a3 4b bd ac b7 ba bd 65 24 4e be
       -0.022289215 -0.049716104 -0.09117064 -0.20131071
0002c0 51 38 9c 3e e4 12 67 3d fe dd e4 bc d5 fd 1b 3b
       0.30511716 0.0564145 -0.027937885 0.0023802419
0002d0 28 d3 7f 3e 67 81 54 3e a4 4c 84 be fe 2d 85 3e
       0.24982893 0.20752488 -0.25839722 0.26011652
0002e0 9d 91 ed bc a1 4a eb 3d 71 9a 08 3e f6 c4 12 be
       -0.029000098 0.11488844 0.13340165 -0.14332947
0002f0 ce 2a aa 3e 9b 9d 9a 3d 5a ab 09 be 55 a5 48 be
       0.33235782 0.07549592 -0.13444272 -0.19594319
000300 a9 4a 8e 3e cf 6d de 3d 29 94 16 be 3e b5 85 bc
       0.27791336 0.10860788 -0.14704956 -0.016321775
000310 b6 1b 6c 3d b1 ef b1 bd 6c d3 36 bd 60 b3 82 bb
       0.057643615 -0.08688296 -0.04463522 -0.0039886683
000320 11 78 05 be 73 bb 5f 3e c4 62 15 bc 8b 64 19 3d
       -0.13034083 0.2184885 -0.009117786 0.0374494
000330 0f 2a 3a be 49 2c 37 3d ce d0 01 3d c0 77 f4 3d
       -0.18180107 0.044719968 0.031693272 0.11936903
000340 97 dc 07 3e 1a fa d3 bd 6d 52 51 bd ea dd b6 3e
       0.13267742 -0.103504375 -0.051103998 0.35716182
000350 5b 69 dd bd 97 b4 84 3c db c4 1a bd 5c f8 08 be
       -0.108111106 0.016199393 -0.037785392 -0.13375992
000360 26 2a 97 bd 0b 58 f4 bd 93 32 0a 3d 5a d8 84 bd
       -0.07381086 -0.11930855 0.033739638 -0.06486578
000370 e9 95 2c 3e c5 a9 4f 3d 61 b1 d8 3d de d3 80 bd
       0.16854061 0.050699014 0.10580707 -0.062904105
000380 93 61 71 3e d2 0f 20 bb 78 91 28 3e db 0c dd bd
       0.23572378 -0.0024423492 0.16461742 -0.107934676
000390 e2 94 95 3e 56 7a 35 3e 61 df 86 3e 4e c8 e7 3d
       0.2921515 0.17722449 0.263423 0.11317502
0003a0 10 5d 77 3e 36 e6 46 bc 91 e9 8e 3d bf 4d ad bd
       0.24156594 -0.0121398475 0.06978143 -0.084620945
0003b0 0b ca 60 3c 94 d6 8d bd 5e dd 26 3e 97 ee f8 bd
       0.013720046 -0.06925693 0.16295382 -0.121548824
0003c0 b7 aa 7e 3d c5 13 df 3d 4b 69 98 bd 4b 26 15 bc
       0.062174525 0.108924426 -0.07441958 -0.009103368
0003d0 d1 c0 30 be 3b 3b 4b 3e dd 76 08 be 8a b7 02 3d
       -0.17261054 0.19846813 -0.13326593 0.031913318
0003e0 82 4f 81 3e 0e c5 ad bd 7b 64 97 3e 3d 6c ce 3d
       0.25255972 -0.08484851 0.29568848 0.100792386
0003f0 b3 07 ce 3c 36 41 36 be 77 57 eb 3d 0f e4 83 3e
       0.025150156 -0.17798313 0.11491292 0.25759932

0.bias f4 [64]
000000 39 0d de 3d 62 86 57 bd ba af d1 3b 14 c0 9a 3d
       0.10842366 -0.05261839 0.006399122 0.07556167
000010 ce cc e9 bd 69 bc 44 3b b3 b4 4d bd 3a e0 ba 3d
       -0.114160165 0.0030019528 -0.050221156 0.09124799
000020 a8 5b df 3d 67 e7 c9 bc 54 60 ff 3d 24 16 2c bd
       0.10906154 -0.024646474 0.12469545 -0.042013302
000030 32 ce bb bc 96 12 2f 3c ac a1 2e bd 92 12 40 3d
       -0.02292547 0.010685584 -0.04263465 0.04689271
000040 46 20 15 3e 3c 59 c5 bd 5f 9c 48 3d cf f2 fe 3c
       0.14563093 -0.09636161 0.048977252 0.03112164
000050 0d 20 3e bc 53 75 09 bd dd 9a de 3d 3d 11 3d bc
       -0.011604321 -0.033559155 0.108693816 -0.011539754
000060 a3 c8 b9 3d 9c 04 41 bd e0 e7 8d 3c 44 bb e1 bb
       0.090714715 -0.047123536 0.01732248 -0.006888779
000070 08 d2 66 3b 0a 2a d0 3d f0 17 a8 bd a9 d1 1c 3d
       0.0035220403 0.10164268 -0.08207691 0.038285885
000080 5d 45 f3 bd f5 d9 b5 3c 83 79 0b bc 20 3a 9f 3d
       -0.11878464 0.022198657 -0.008512857 0.07774758
000090 b0 0a 0b 3c cc 4a 87 3d 96 3e ba 3d c4 25 dc 3d
       0.008486435 0.06606063 0.090939686 0.10749391
0000a0 68 a9 30 3d 5f ce c0 3c 30 c7 8f 3d 91 1a 98 3d
       0.04313031 0.023535905 0.07020414 0.07426942
0000b0 7d d6 a1 bc 9c 52 84 3d 27 74 88 3d 2c 25 9d 3c
       -0.019755596 0.06461069 0.06662779 0.019182764
0000c0 9b 6e 0d bd 2c 9b a6 3d 04 7e 47 3d 1a 4d 16 bd
       -0.03452931 0.081350654 0.048704162 -0.036694624
0000d0 ec 2f 60 bd 80 92 19 bd 67 ad f8 3d e5 92 c1 3d
       -0.0547332 -0.03749323 0.12142449 0.09451846
0000e0 55 c8 93 bd c0 b8 fa bb 26 f8 40 3d ad 4e 8d bd
       -0.07215945 -0.0076514184 0.047111653 -0.06899772
0000f0 5b 06 2c 3d 78 6a 0b 3d c0 ae 17 bd 71 9d 49 bd
       0.04199825 0.034037083 -0.03703189 -0.049222413

2.weight f4 [1, 64]
000000 d2 77 0c bc d4 87 3c 3c f0 b8 b2 3c 0b 77 f1 bd
       -0.008573489 0.011506993 0.0218167 -0.11790284
000010 f0 61 16 3e f9 04 62 3d 9a 54 f3 3b a8 41 ab bb
       0.14685798 0.055180524 0.007425857 -0.0052263327
000020 d1 53 a9 bc 41 0b f9 bd 20 8d 97 bc 10 0c aa 3b
       -0.02066985 -0.1216035 -0.01849991 0.0051894262
000030 ee 0d c7 3b 6d a3 4e 3b ae 0c bf 3b ca 3a 13 bc
       0.0060746586 0.0031530515 0.005830369 -0.008986184
000040 8b 23 2f bc c5 a6 c6 bd dd 8c a3 bb df ff 11 3d
       -0.010689626 -0.096997775 -0.0049911574 0.03564441
000050 83 5d c6 bd 73 e1 3e 3c a9 f6 6e bc 45 ef af 3b
       -0.09685805 0.011650431 -0.014585176 0.0053690993
000060 68 77 bd ba 27 b0 86 be c3 be 0e 3d 8a 47 99 3b
       -0.0014455141 -0.2630627 0.034849893 0.0046777176
000070 ca 1f b6 39 74 bd 50 bd 7e 1e 10 3e db e7 a7 bb
       0.0003473743 -0.050961927 0.14074132 -0.005124075
000080 c8 70 12 3e 4a bc a0 3d 4b 58 2f 3c e8 89 c6 bb
       0.14300835 0.07848413 0.010702203 -0.00605892
000090 45 e2 7f 3d 0b cd 96 bc f5 a2 dc bd 89 71 87 bb
       0.062471647 -0.018408319 -0.10773269 -0.0041334075
0000a0 36 e0 1c 3d 31 41 05 3e ec f9 12 be 69 5e 9b bc
       0.03829976 0.1301315 -0.1435315 -0.018965917
0000b0 69 f0 13 bb 27 d3 35 bc da f5 44 bc 16 d6 45 3c
       -0.0022573716 -0.011097706 -0.012021506 0.012074968
0000c0 a4 65 a3 bb 18 ac 80 bc bd ae 59 bb 2e 7a 62 3c
       -0.0049864817 -0.01570706 -0.0033215724 0.013823075
0000d0 01 8b fa 3d 00 36 28 39 10 34 8b bd 33 4b 2a bd
       0.12233544 0.00016041845 -0.067970395 -0.04157562
0000e0 6d d0 15 3b f7 2b 9e 3c e8 b5 70 bc f2 2b 68 bb
       0.0022859827 0.019308073 -0.014691807 -0.0035426584
0000f0 b9 f2 22 bb 27 0f a2 bd 73 e4 0b 3b cc e0 75 bb
       -0.0024863912 -0.07913046 0.0021345883 -0.0037518023
