saved_models/A2C/using_melo_for_matchmaking/model6.pth (torch, 48436 bytes, 7 tensors)

0.weight f4 [64, 84]
0	0xbdfaf4e2	-0.12253739
1	0x3e27b2b4	0.16376764
2	0x3e27283c	0.16323942
3	0x3dbabdad	0.09118209
4	0x3d90412b	0.0704368
5	0x3ccfa3be	0.025346633
6	0xbb397759	-0.0028299897
7	0xbd7a26cd	-0.06107216
8	0x3e551328	0.20808089
9	0x3e8f8a96	0.2803542
10	0x3d902dba	0.07039972
11	0x3d29d90b	0.041466754
12	0x3e436130	0.19080043
13	0x3d10b8cc	0.035332486
14	0x3e6e93ee	0.23298618
15	0xbcf6ddff	-0.030135153
16	0x3e007293	0.12543707
17	0x3d982821	0.07429529
18	0x3ca70cd8	0.020391867
19	0x3db3b496	0.087746784
20	0x3dd2a4c4	0.10285333
21	0x3e88076f	0.2656817
22	0x3e393e06	0.18090066
23	0x3eb15937	0.34638378
24	0xba0d84b3	-0.0005398497
25	0x3e0daa72	0.13834551
26	0xbde28bce	-0.11061822
27	0xbdd24ce8	-0.10268575
28	0xbe0abd9a	-0.1354889
29	0xbdae1ce8	-0.08501607
30	0x3e83081e	0.2559213
31	0xbb3f368e	-0.0029176804
32	0x3db09f86	0.08624177
33	0xbe193204	-0.14960486
34	0x3e847346	0.25869197
35	0xbd4966cd	-0.049170304
36	0x3dc9cacb	0.09853133
37	0x3e6565fd	0.22402187
38	0x3e236189	0.15955175
39	0xbe04905b	-0.12945692
40	0x3dbfe375	0.09369556
41	0xbdc86891	-0.097855695
42	0xbdbcdf3e	-0.092222676
43	0xbe896350	-0.26833582
44	0xbeb21abb	-0.3478602
45	0xbe3422e8	-0.1759144
46	0x3e1cbb15	0.15305741
47	0x3df60b96	0.120139286
48	0xbd814893	-0.063126706
49	0x3ea40eea	0.3204263
50	0x3e2028d5	0.15640576
51	0xbe590c84	-0.2119618
52	0xbe52ce4c	-0.20586509
53	0x3e3ee704	0.18642813
54	0xbdfc2136	-0.12311022
55	0xbd116407	-0.035495784
56	0xbdc7d7ab	-0.09757932
57	0x3db8273d	0.08991859
58	0xbe336cae	-0.17521927
59	0x3e5b1679	0.21395291
60	0xbcc93810	-0.024562865
61	0xbe157c3e	-0.14598176
62	0xbcf6afee	-0.030113187
63	0xbd75b34c	-0.059985444
64	0x3df2b0ea	0.1185015
65	0x3e2830d5	0.16424878
66	0xbd8838cd	-0.06651459
67	0x3e4d510d	0.2005045
68	0x3cf9398a	0.030422945
69	0x3daaac38	0.08333629
70	0x3dc9e6fc	0.0985851
71	0xbe29f400	-0.16596985
72	0x3d933e38	0.07189602
73	0x3e122347	0.1427127
74	0x3e89eddd	0.26939288
75	0x3e1ba99c	0.1520142
76	0x3e0e29da	0.13883153
77	0xbe07eda6	-0.1327425
78	0x3e65e33e	0.22449967
79	0xbe43d99a	-0.19125977
80	0x3dceb053	0.10092225
81	0x3d9d8b10	0.0769254
82	0xbdc1ea35	-0.094684996
83	0x3ea31e2c	0.31858957
84	0x3e226016	0.15856966
85	0xbeaaaa60	-0.3333311
86	0x3e4f3ede	0.20238826
87	0x3d42d85e	0.047569625
88	0x3d87a95b	0.06624099
89	0x3ddd5032	0.10806312
90	0xbced8bb3	-0.028997278
91	0xbbcbe458	-0.006222289
92	0xbe606bfe	-0.21916196
93	0xbe7ad2a2	-0.24494413
94	0xbd94ee96	-0.07272069
95	0x3d206e6d	0.03916781
96	0x3e971fcb	0.29516444
97	0x3cd9964d	0.026560927
98	0xbcccb9bf	-0.024990914
99	0xbe802bb0	-0.2503333
100	0x3e4bde02	0.19908908
101	0xbe55be9f	-0.20873497
102	0x3d8b217d	0.06793497
103	0x3df57506	0.11985211
104	0x3e54252f	0.2071731
105	0x3e124424	0.14283806
106	0x3e6d33d5	0.23164304
107	0x3e04a475	0.1295336
108	0x3e389a51	0.18027617
109	0xbbfc7e2e	-0.0077054715
110	0x3be44203	0.006965877
111	0x3e12c2a9	0.1433207
112	0xbe6b7b4c	-0.22996253
113	0x3d0d2ddb	0.03446756
114	0xbcbcbabb	-0.023038259
115	0xbda2d96c	-0.07951626
116	0xbd636cca	-0.05552367
117	0x3d9bfa6d	0.07616124
118	0xbe3182a8	-0.17334998
119	0x3e8623ff	0.26199338
120	0xbe84d7be	-0.25945848
121	0x3c4068f6	0.011743775
122	0xbe804284	-0.25050747
123	0x3dbfe999	0.09370727
124	0xbe2d31b2	-0.16913489
125	0x3dae90ba	0.08523698
126	0x3dd12c8a	0.10213573
127	0xbdca7c17	-0.098869495
128	0xbdc8347f	-0.09775638
129	0xbe16dd41	-0.14732839
130	0xbd8a5d3e	-0.06756066
131	0x3d9a656b	0.07538875
132	0x3ccb7878	0.024837717
133	0x3deb328a	0.11484249
134	0xbda4a3e3	-0.080390714
135	0xbcec208c	-0.028824113
136	0xbe7e9b97	-0.2486404
137	0xbe116a71	-0.1420076
138	0xbe7c1c78	-0.24620235
139	0x3cd73860	0.026271999
140	0xbe57445b	-0.2102217
141	0xbe0d2bb6	-0.13786206
142	0x3d8df803	0.0693207
143	0xbe8acb9d	-0.2710847
144	0xbe8d8cba	-0.27646428
145	0xbd711377	-0.058856454
146	0x3d23dc17	0.040004816
147	0xbdbde1b0	-0.09271562
148	0xbdd5c515	-0.10437981
149	0xbd3c3112	-0.045945235
150	0xbde3dbaa	-0.11125882
151	0xbd8c6fec	-0.06857285
152	0xbe4e1e76	-0.20128807
153	0x3ddf40c9	0.10901029
154	0x3d6e0ab5	0.05811568
155	0x3de99671	0.114056475
156	0x3d00bc02	0.0314293
157	0x3d5a2faa	0.053268112
158	0xbc6aa519	-0.014321589
159	0x3e7a627e	0.24451634
160	0xbe8f40b6	-0.27979058
161	0x3e01d13a	0.1267747
162	0xbe439829	-0.19101013
163	0xbe5a4764	-0.21316296
164	0x3de071e4	0.10959223
165	0xbdd821cd	-0.10553322
166	0xbe88511a	-0.26624376
167	0xbddda6e7	-0.1082285
168	0x3e05641d	0.13026471
169	0xbed5864b	-0.4170402
170	0xbc67726b	-0.0141264
171	0xbe04ebed	-0.12980624
172	0x3e8be42b	0.27322516
173	0xbd4d6926	-0.050149105
174	0x3d1178e1	0.03551567
175	0xbd028e14	-0.031873778
176	0xbdd32e5e	-0.10311578
177	0xbb7ca938	-0.003855301
178	0xbd5fe7cc	-0.054664418
179	0xbc2628fa	-0.0101416055
180	0xbd9e70c2	-0.077363506
181	0xbe0710db	-0.13190024
182	0xbd6f59aa	-0.05843512
183	0xbb956470	-0.004559092
184	0x3c3a150f	0.01135756
185	0xbc8e1fca	-0.017349143
186	0xbd594321	-0.053042535
187	0x3d120b44	0.035655275
188	0x3daa047c	0.083016366
189	0xbd8bc82f	-0.06825291
190	0xbd3bc1b5	-0.04583903
191	0x3d6d11ab	0.057878178
192	0x3e8308d5	0.25592676
193	0xbbb67e94	-0.0055692885
194	0xbe923aed	-0.28560582
195	0x3b9b3128	0.0047360845
196	0x3db8f0a9	0.09030277
197	0xbdda862d	-0.10670123
198	0x3dd54699	0.10413856
199	0x3e3cb0ce	0.1842682
200	0x3d3d0c4c	0.046154305
201	0xbdb17e45	-0.08666662
202	0x3cb42ec6	0.02199496
203	0xbd67c3e4	-0.0565833
204	0x3e174f49	0.14776339
205	0x3e3919f7	0.18076311
206	0xbdf8aaae	-0.121419296
207	0xbec4f91d	-0.38471308
208	0x3d0ff42d	0.035144974
209	0x3cb18956	0.021671932
210	0x3e920d67	0.2852585
211	0x3dedcfd7	0.11611908
212	0xbd576452	-0.052585907
213	0xbd5b98be	-0.053612463
214	0xbb0c3023	-0.0021390996
215	0x3d20e87e	0.03928422
216	0xbd370ec2	-0.04469181
217	0xbe164ba7	-0.14677297
218	0xbd4a6939	-0.049416754
219	0xbe9a5798	-0.30144954
220	0x3e07e9d0	0.13272786
221	0xbd17ce3f	-0.037061926
222	0x3c694e3a	0.014239842
223	0x3dee40ed	0.11633477
224	0x3db3e57e	0.087840065
225	0x3cbba5a5	0.022906134
226	0xbe051034	-0.12994462
227	0x3d4a857d	0.04944371
228	0x3ebbd088	0.36682534
229	0xbdfd9d5d	-0.1238353
230	0xbe9b9fe7	-0.30395433
231	0xbde898b9	-0.113572545
232	0x3d8b685f	0.068070166
233	0x3d1d3a95	0.038385946
234	0xbcb30a7b	-0.021855583
235	0xbd6e988e	-0.058250956
236	0xbe8870ee	-0.2664866
237	0x3e1f9faf	0.15588258
238	0xbdd6c28c	-0.104863256
239	0xbecc58cf	-0.39911506
240	0x3da3317d	0.079684235
241	0xbd6d01e4	-0.05786313
242	0xbe8ed3f8	-0.27896094
243	0x3ea6ce61	0.3257933
244	0x3dbf89ed	0.09352479
245	0x3af32111	0.0018549283
246	0xbdc8196e	-0.09770475
247	0x3e12b21a	0.14325753
248	0x3e7d8855	0.24759038
249	0x3e9899ec	0.29804933
250	0x3e101204	0.14069372
251	0xbe653a23	-0.22385459
252	0x3da1f81a	0.0790865
253	0xbeba46be	-0.36382097
254	0xbbc5dce6	-0.006038296
255	0xbd1f0972	-0.038827367

0.bias f4 [64]
0	0x3d0a33f9	0.03374097
1	0xbd427ac2	-0.047480352
2	0x3d2fe028	0.04293838
3	0x3c1d9361	0.009617657
4	0xbc821b5e	-0.01588219
5	0xbd25774e	-0.04039698
6	0xbac62696	-0.0015117701
7	0x3d171ec5	0.03689458
8	0x380a77de	3.30134e-05
9	0x3d29f100	0.0414896
10	0xbc81718a	-0.01580121
11	0x3d359986	0.044335864
12	0xbad4967f	-0.0016219168
13	0xbd1de78a	-0.03855089
14	0xbc33396f	-0.010938986
15	0x3cd0835b	0.02545326
16	0x3c8016d4	0.015635885
17	0x3c3fa030	0.0116959065
18	0x3c8993dd	0.01679414
19	0xbd5a8b04	-0.053355232
20	0xbb9527f1	-0.0045518805
21	0x3c4002ab	0.011719386
22	0x3d20c291	0.039248053
23	0x3bde16da	0.0067776265
24	0x3cb331c5	0.021874318
25	0xbc9c2ace	-0.01906338
26	0x3d0d65f0	0.034521043
27	0x3c4756d5	0.012166698
28	0x3cb4902f	0.022041408
29	0x3c824a00	0.015904427
30	0x3d934abe	0.0719199
31	0xbcc0ef3a	-0.023551572
32	0xbc81626b	-0.015794
33	0xbc3429cd	-0.010996294
34	0xbd434870	-0.047676504
35	0xbacd70a6	-0.0015673831
36	0x3c36670a	0.011132965
37	0x3ca8c6e8	0.020602658
38	0x3d6360bf	0.055512186
39	0x3ced5adb	0.028973987
40	0x3d000d79	0.03126285
41	0xbbd77599	-0.006575298
42	0xbb0f7069	-0.002188707
43	0x3c15e95b	0.009149875
44	0x3d348632	0.04407329
45	0x3d983e0d	0.0743371
46	0x3d66fa6d	0.05639117
47	0x3c74e4c2	0.014947118
48	0x3cf26664	0.02958984
49	0x3d5e235f	0.05423295
50	0x3d615d9a	0.055020906
51	0xbc24f9fb	-0.010069366
52	0x3cde0f80	0.027107
53	0xbc350965	-0.011049603
54	0x3d31fd61	0.04345453
55	0x3a9b1f66	0.0011834919
56	0x3c8d199b	0.017224124
57	0x3d40e9a1	0.047097806
58	0xbca9fef2	-0.02075145
59	0x3d8b0bdc	0.06789371
60	0x3c6e1fde	0.014533965
61	0x3cd9c7ec	0.026584588
62	0xbc29316d	-0.010326725
63	0xbba85bfb	-0.005137918

2.weight f4 [7, 64]
0	0xbdeef5ec	-0.116679996
1	0xbe6818fd	-0.22665782
2	0xbeb91093	-0.36145458
3	0x3e0b085d	0.13577409
4	0x3c22a11e	0.009926109
5	0xbde01f4f	-0.10943472
6	0x3e915b5d	0.28390017
7	0x3e00b349	0.12568392
8	0x3d28049b	0.041020017
9	0x3e16022f	0.1464927
10	0x3e582a12	0.21109799
11	0x3ef9689e	0.4871263
12	0xbcfab867	-0.030605508
13	0xbb610080	-0.0034332573
14	0x3e634191	0.2219298
15	0xbe00b453	-0.12568788
16	0xbde1b241	-0.11020327
17	0xbd81e51f	-0.063425295
18	0xbdb96fe2	-0.09054543
19	0xbdc0bb52	-0.094107285
20	0x3d726b98	0.05918464
21	0x3eb38001	0.35058597
22	0x3e26924c	0.16266745
23	0x3e42cafd	0.19022746
24	0x3ea1bee6	0.31590956
25	0xbe7ab389	-0.2448255
26	0xbe7ab624	-0.24483544
27	0xbe8b4049	-0.27197483
28	0x392d9da6	0.00016557294
29	0xbcf554bd	-0.029947633
30	0x3e0e7025	0.13909967
31	0xbdf11d99	-0.117732234
32	0x3e9bf9f5	0.3046414
33	0xbe6cceb4	-0.23125726
34	0xbcfe971f	-0.03107792
35	0x3deebecf	0.116574876
36	0x3d1ab72b	0.03777234
37	0xbd28bcce	-0.041195683
38	0x3db381cc	0.08764991
39	0x3db36f2f	0.08761441
40	0xbe8a0c79	-0.2696264
41	0xbd92966a	-0.071575955
42	0xbe858c39	-0.26083544
43	0xbc6808b2	-0.014162229
44	0x3e07a86a	0.13247839
45	0xbd34cf05	-0.04414274
46	0x3e26fba7	0.16306935
47	0x3e9c4e6a	0.30528575
48	0x3d5cbd1f	0.053891297
49	0x3dfbba0d	0.12291346
50	0xbdd8bf09	-0.10583312
51	0xbe674291	-0.22583987
52	0x3cf0aef0	0.029380292
53	0xbb26ead2	-0.0025469554
54	0xbd975883	-0.07389929
55	0xbdb6e08d	-0.089295484
56	0xbd2811bf	-0.04103255
57	0x3e4dc88e	0.20096037
58	0x3d8e805c	0.06958076
59	0x3e022d01	0.1271248
60	0xbd08fb1a	-0.033442594
61	0x3e494a3b	0.19657223
62	0xbd8ecbb7	-0.06972449
63	0xbec2661f	-0.37968537
64	0xbd50e686	-0.051001094
65	0xbdf631d8	-0.12021226
66	0x3c86032e	0.016358938
67	0xbe350959	-0.17679347
68	0xbe042e4d	-0.12908287
69	0xbd4faa28	-0.050699383
70	0x3e45b02a	0.19305483
71	0xbe6a148a	-0.22859398
72	0x3e72cf90	0.23711991
73	0x3e10c5a8	0.141379
74	0x3e0be025	0.13659723
75	0x3e2edb7a	0.17075911
76	0xbe2c9b36	-0.16856083
77	0xbe171069	-0.14752354
78	0x3e6afa2d	0.22946997
79	0x3ea30764	0.31841576
80	0xbe22f56e	-0.15913936
81	0x3d3c9baa	0.04604689
82	0xbed05a23	-0.4069377
83	0xbc01eeb2	-0.007930445
84	0x3e8e812f	0.27832934
85	0xbd4091e7	-0.047014143
86	0xbdb338bb	-0.08751055
87	0xbdbaca0d	-0.091205694
88	0x3e2c63ad	0.16834898
89	0x3d4d735e	0.05015885
90	0x3e430fd4	0.19049007
91	0xbd81d9c1	-0.063403614
92	0x3e14e48f	0.14540313
93	0x3e4e60cc	0.20154113
94	0x3c23b8ab	0.009992759
95	0xbd36b7f9	-0.044609044
96	0xbea09040	-0.31360054
97	0x3df25841	0.11833239
98	0x3d42696c	0.04746382
99	0x3e532a06	0.206215
100	0xbd00ffc4	-0.031493917
101	0x3b471fb0	0.0030383877
102	0xbe773423	-0.24140982
103	0x3eefe929	0.46857575
104	0x3e9f41db	0.3110493
105	0x3d6ed8a1	0.058312062
106	0xbd56332b	-0.05229489
107	0xbe288a01	-0.16458894
108	0xbd5abb93	-0.05340154
109	0xbbb8e760	-0.0056428164
110	0x3c2419a3	0.010015878
111	0x3d23a41a	0.03995142
112	0x3e1f65b9	0.15566148
113	0x3cb08942	0.021549825
114	0x3da18dd5	0.078883804
115	0x3ea5cfc7	0.32385084
116	0x3e29ea14	0.165932
117	0xbed949f5	-0.42439237
118	0x3e4a8da1	0.1978059
119	0xbe1e2832	-0.15445021
120	0xbdea9bb9	-0.11455483
121	0xbdc5f73d	-0.096662976
122	0x3d173a76	0.036920987
123	0x3c2bdd1c	0.010489728
124	0x3de3a9bc	0.11116359
125	0xbde4789c	-0.11155817
126	0x3e8e9a01	0.2785187
127	0xbcfed6ee	-0.031108346
128	0x3e98bf85	0.29833618
129	0x3e62dba6	0.22154102
130	0xbe98184e	-0.29706043
131	0xbccd7597	-0.025080485
132	0xbe1fa7cd	-0.15591355
133	0x3da44c62	0.08022381
134	0xbe40c07e	-0.1882343
135	0xbd7819f2	-0.06057162
136	0x3de5e8cf	0.11226045
137	0x3e09716f	0.13422178
138	0x3e08d704	0.13363272
139	0x3c6aeb0c	0.014338266
140	0xbe685706	-0.22689447
141	0xbdcceb68	-0.10005838
142	0xbdb0ca29	-0.08632309
143	0xbe4bd779	-0.19906415
144	0x3e1e1025	0.15435846
145	0xbbb4a788	-0.0055131353
146	0x3e2c6dc0	0.16838741
147	0x3c92398f	0.017849712
148	0x3e6f7878	0.23385799
149	0x3d83410f	0.06408893
150	0xbeaabd6d	-0.33347645
151	0x3e4ffc87	0.20311175
152	0x3d080edc	0.033217296
153	0xbeb56a9c	-0.354329
154	0xbe1bf649	-0.15230669
155	0x3d00843c	0.03137611
156	0xbea25288	-0.3170359
157	0x3d9b065a	0.07569571
158	0xbc00dfa1	-0.007865817
159	0x3e5bbfdc	0.21459907
160	0xbd8ddb61	-0.06926609
161	0xbd00e7fc	-0.031471238
162	0x3d70aca4	0.058758393
163	0x3d3d6bc6	0.04624536
164	0x3d62e680	0.055395603
165	0xbeb7263a	-0.35771352
166	0xbec13603	-0.3773652
167	0x3e26af9b	0.16277926
168	0x3c02e327	0.007988728
169	0xbd16598b	-0.03670649
170	0x3e9e75e3	0.30949315
171	0x3ea1670e	0.31523937
172	0xbe2cf2eb	-0.16889541
173	0xbe618541	-0.22023489
174	0x3e5e29e3	0.21695666
175	0xbe9db573	-0.30802497
176	0xbe8c49c1	-0.2740002
177	0xbe18b0b6	-0.1491116
178	0xbe16cff7	-0.1472777
179	0xbd9fb539	-0.07798237
180	0x3e4892b3	0.19587211
181	0xbcf4d7a0	-0.029887974
182	0x3e1a2ffa	0.15057364
183	0xbe4bbf34	-0.19897157
184	0xbd69f7a0	-0.05712092
185	0x3df06709	0.117384024
186	0x3da3e7be	0.08003186
187	0xbdd763ae	-0.10517059
188	0xbe4298f7	-0.19003664
189	0xbd778d7c	-0.060437664
190	0xbd92b692	-0.07163729
191	0xbd473cab	-0.04864184
192	0xbee42e26	-0.44566458
193	0x3d1fc654	0.0390075
194	0x3e442435	0.19154437
195	0xbeaa55d6	-0.33268613
196	0x3d95f97c	0.07322976
197	0xbe423641	-0.18966009
198	0x3dd74f3c	0.1051316
199	0x3e4d089e	0.20022818
200	0x3e94387a	0.28949338
201	0xbdc61eb5	-0.09673826
202	0x3df2eea3	0.118619226
203	0xbdedf734	-0.11619416
204	0x3ea319e8	0.31855702
205	0x3bde8781	0.0067910557
206	0xbd4f7b9b	-0.05065499
207	0xbeb90adc	-0.36141098
208	0xbe9d959f	-0.30778214
209	0xbeba27bd	-0.36358443
210	0xbc22b6aa	-0.009931246
211	0xbeb453c4	-0.35220158
212	0x3c80040e	0.015626933
213	0xbe3786e8	-0.17922556
214	0x3e25ffcc	0.1621086
215	0x3e8667e8	0.2625115
216	0x3db58c2e	0.08864628
217	0xbcb3b93f	-0.021938918
218	0x3e08fe90	0.13378358
219	0xbe232bba	-0.15934649
220	0x3cf2cb1d	0.029637868
221	0x3db2eef2	0.087369815
222	0xbd2cff45	-0.04223563
223	0x3bf3128c	0.0074179824
224	0x3e5417d6	0.20712218
225	0x3e0ca2f6	0.1373404
226	0xbbb06f4a	-0.0053843604
227	0x3d5042ee	0.05084508
228	0xbd5608ab	-0.05225436
229	0xbdf7c6c6	-0.1209846
230	0xbb277f60	-0.00255581
231	0x3de37ce5	0.11107806
232	0x3c5ee576	0.013604512
233	0xbe9a2129	-0.30103424
234	0x3ea5de85	0.3239633
235	0x3ea6fe8c	0.3261608
236	0x3d23f8cb	0.04003219
237	0x3e20d7fd	0.15707393
238	0xbdc14dcf	-0.09438669
239	0xbe8fa4b9	-0.2805536
240	0x3d39446e	0.045231275
241	0x3df83d92	0.121211186
242	0x3d4de5f5	0.050268132
243	0x3e4decac	0.20109814
244	0x3e7b996d	0.24570246
245	0x3e10b383	0.14130978
246	0x3ce5a9df	0.028035102
247	0xbdd2a2be	-0.10284947
248	0x3e33dc1d	0.17564435
249	0xbd1b9370	-0.037982404
250	0xbde6305d	-0.11239693
251	0x3e2c34e8	0.16817057
252	0xbc881a92	-0.016614232
253	0xbe323ce6	-0.17406043
254	0x3d34e91f	0.044167634
255	0x3c3584e7	0.01107905

2.bias f4 [7]
0	0x3cb10986	0.021610986
1	0x3c21e425	0.009881054
2	0xbcb2d664	-0.021830745
3	0xba1d42c2	-0.00059990224
4	0xbd737e71	-0.059446756
5	0xbd3f9a0e	-0.046777777
6	0x3d86fc37	0.06591075

0.weight f4 [64, 84]
0	0xbe6e348c	-0.23262233
1	0x3d43640a	0.047702827
2	0xbc9ec8b5	-0.019382814
3	0x3e1ad0e3	0.15118746
4	0xbe55569b	-0.20833819
5	0x3cf72618	0.030169532
6	0xbcdebffe	-0.027191158
7	0x3e4796ed	0.19491167
8	0x3e65e2fe	0.22449872
9	0x3d888eeb	0.066678844
10	0xbe007859	-0.12545909
11	0x3d1effec	0.038818285
12	0xbeba62f3	-0.36403617
13	0xbceac24b	-0.0286571
14	0xbe2b179e	-0.16708228
15	0xbd3c7722	-0.04601205
16	0x3c8fb79f	0.017543612
17	0x3e08a016	0.13342318
18	0xbe19a481	-0.1500416
19	0x3db03c4b	0.0860525
20	0xbd5c26cd	-0.05374794
21	0xbcc657ac	-0.024211727
22	0xbe8da38a	-0.27663833
23	0x3e183716	0.14864764
24	0xbea569cd	-0.32307282
25	0x3ca48c92	0.02008656
26	0x3de1f78b	0.11033543
27	0xbcbcc661	-0.023043813
28	0x3e1d1e18	0.15343511
29	0xbe4c0c38	-0.19926536
30	0xbc8f33fd	-0.017480845
31	0x3d2620de	0.04055869
32	0x3d959918	0.07304591
33	0xbe055911	-0.13022257
34	0xbdbb2b34	-0.091391
35	0xbbe71783	-0.0070523634
36	0x3e06509b	0.13116686
37	0xbd918be8	-0.07106763
38	0x3df4038b	0.11914738
39	0xbe8d638b	-0.27615008
40	0xbe96cab3	-0.29451522
41	0x3de0119a	0.10940857
42	0xbe62deb6	-0.2215527
43	0x3d31bdf8	0.04339406
44	0xbe1258ea	-0.1429173
45	0xbdb9a3f0	-0.09064472
46	0x3c042754	0.008066017
47	0xbdfc871c	-0.123304576
48	0x3dd48f20	0.103788614
49	0x3e51f957	0.20505272
50	0x3e4f5fb8	0.20251358
51	0x3ad1a543	0.0015994686
52	0x3e50676b	0.20351951
53	0x3de571cd	0.112033464
54	0xbd191caf	-0.03738087
55	0x3d9960f9	0.07489199
56	0xbdd8a960	-0.10579181
57	0xbe743cec	-0.23851365
58	0xbe36f2c1	-0.17866041
59	0x3e0952da	0.13410512
60	0x3d268042	0.04064966
61	0xbcf41a1b	-0.029797604
62	0x3dfc5775	0.123213686
63	0x3ea77e3d	0.327135
64	0x3ddc2a61	0.10750271
65	0xbc9d25ad	-0.019183004
66	0xbdc03872	-0.09385766
67	0xbe440f18	-0.19146383
68	0xbe2f91b8	-0.17145431
69	0x3e4debdb	0.20109503
70	0x3de66098	0.112488925
71	0x3e02c11c	0.12768978
72	0x3e74b705	0.23897941
73	0xbd83a235	-0.06427423
74	0xbe8a847b	-0.270542
75	0xbe5933df	-0.21211194
76	0xbda7bc81	-0.08190251
77	0xbe982366	-0.29714507
78	0x3e05fa8c	0.13083857
79	0xbe032144	-0.12805659
80	0xbd087072	-0.03331036
81	0xbe250733	-0.16116028
82	0x3cc19894	0.023632325
83	0x3e0006a2	0.1250253
84	0x3df612b7	0.12015288
85	0xbd94a2da	-0.07257624
86	0xbdff189e	-0.12455867
87	0xbc71ec55	-0.014765819
88	0xbde4b781	-0.11167813
89	0xbda73eb6	-0.08166258
90	0xbd048a04	-0.032358184
91	0xbe0ad410	-0.13557458
92	0xbe4019da	-0.18759862
93	0x3ea6911c	0.32532585
94	0x3e38b4f2	0.18037775
95	0x3dd74e2d	0.10512958
96	0xbd0eac09	-0.034832034
97	0x3d0f586e	0.034996442
98	0x3e414a0c	0.18875903
99	0x3e0d8a13	0.13822202
100	0xbd9e16f2	-0.0771922
101	0x3e24e8f7	0.16104494
102	0x3dce5af0	0.10075939
103	0x3de32fa4	0.11093071
104	0x3e07e959	0.13272609
105	0x3e900b28	0.28133512
106	0xbd211a76	-0.039331876
107	0xbcb8b097	-0.022545142
108	0xbe825ec3	-0.25462922
109	0x3e6c43b8	0.23072708
110	0x3df89fad	0.12139831
111	0xbc7360b8	-0.0148546025
112	0xbe224dfb	-0.1585006
113	0xbec96a79	-0.39339045
114	0x3e910ec0	0.28331566
115	0x3d242fcf	0.040084656
116	0x3d2ea6da	0.04263959
117	0xbcf0a792	-0.029376779
118	0xbe3bf2c0	-0.1835432
119	0x3e0e0761	0.13870002
120	0x3e09364b	0.13399617
121	0x3d200a56	0.039072357
122	0xbe8ec28e	-0.27882808
123	0xbe6e61ee	-0.23279545
124	0xbdfad88f	-0.122483365
125	0xbd992a84	-0.07478812
126	0xbd87224a	-0.06598337
127	0x3d599f13	0.05313022
128	0xbe54233c	-0.20716566
129	0x3d0c85cb	0.034307282
130	0x3e0d3112	0.1378825
131	0xbd2df1e6	-0.04246702
132	0x3e04526a	0.12922063
133	0x3b9fbfc3	0.0048751547
134	0xbe5e8031	-0.21728589
135	0xbe30809a	-0.17236558
136	0xbd8f6576	-0.07001774
137	0xbd2680fd	-0.040650357
138	0xbd3f92e3	-0.04677094
139	0x3d8f1e9e	0.06988262
140	0xbcf93a9e	-0.030423459
141	0xbd5fecdf	-0.054669257
142	0xbcaf9aa2	-0.02143604
143	0xbd9ef972	-0.07762422
144	0xbea8e97e	-0.3299064
145	0x3e8aa736	0.27080697
146	0xbea339f5	-0.31880155
147	0xbe97ae94	-0.2962538
148	0xbe313999	-0.17307128
149	0x3da46dda	0.08028765
150	0xbe33b386	-0.17548952
151	0xbd8c0e20	-0.06838632
152	0xbda70c48	-0.08156639
153	0x3e41d1ce	0.1892769
154	0xbe678b11	-0.22611643
155	0xbe0247c1	-0.12722684
156	0x3e47c2dc	0.19507927
157	0x3dbd10f3	0.092317484
158	0xbd345e05	-0.044034977
159	0xbd67e50d	-0.056614924
160	0x3e24920d	0.16071339
161	0x3d41f6a4	0.047354355
162	0xbc8d5330	-0.017251581
163	0x3e04aecb	0.12957303
164	0x3de32c7e	0.110924706
165	0x3c951485	0.018198261
166	0xbdb47c4c	-0.0881277
167	0xbe6b3ca2	-0.22972348
168	0xbde11c48	-0.10991722
169	0xbc5b6943	-0.013391796
170	0x3b0b6ed9	0.0021275787
171	0xbeb0a3c2	-0.34499937
172	0xbe55a43e	-0.20863435
173	0x3ce18ce7	0.027533008
174	0x3a9c5f48	0.0011930251
175	0xbe5e5636	-0.21712574
176	0xbd34ab40	-0.04410863
177	0x3e0f6c0c	0.1400606
178	0x3ddb423f	0.10705995
179	0xbc8aa43a	-0.016924012
180	0x3d838cd9	0.06423349
181	0x3e819a7b	0.25313172
182	0xbe1f9714	-0.15584975
183	0xbe0ad35f	-0.13557194
184	0xbe9a365c	-0.30119598
185	0x3e493163	0.19647746
186	0xbecb16ea	-0.3966592
187	0x3e1c6629	0.15273346
188	0x3d89925e	0.067173705
189	0xbde72e3c	-0.112881154
190	0x3dce7ab4	0.100819975
191	0x3e0f1bec	0.13975495
192	0x3e1b7d33	0.15184478
193	0xbe669d1c	-0.2252087
194	0xbda5379d	-0.08067248
195	0x3e1844a5	0.14869936
196	0xbd86709d	-0.06564448
197	0xbe98c137	-0.2983491
198	0xbe272393	-0.16322164
199	0xbd924269	-0.07141573
200	0x3d9703ed	0.07373796
201	0xbe8d40ab	-0.275884
202	0x3c882037	0.016616924
203	0x3d33e097	0.043915357
204	0xbddd781d	-0.108139254
205	0x3c001c73	0.007819283
206	0x3e064778	0.131132
207	0x3d8d1463	0.06888654
208	0xbe02e4b5	-0.12782557
209	0xbd842dfa	-0.06454082
210	0xbd69963e	-0.057028048
211	0xbd43fbd2	-0.047847576
212	0x3e088a90	0.13334107
213	0xbd05a922	-0.032632
214	0xbe0c6011	-0.13708521
215	0xbcbf4e0e	-0.023352649
216	0x3d7a7bb1	0.061153118
217	0x3c29046c	0.010315996
218	0xbd443ccf	-0.047909554
219	0x3e0919ab	0.13388698
220	0xbe1c71c1	-0.15277769
221	0xbd6b1690	-0.057394564
222	0x3e1ebbe6	0.15501365
223	0xbe57c7bb	-0.21072285
224	0xbe064b7f	-0.13114737
225	0x3e50d8e2	0.20395234
226	0x3d87e54a	0.0663553
227	0xbdfbbd68	-0.12291986
228	0x3ec3bff0	0.38232374
229	0x3e169f26	0.14709148
230	0xbe9fd51e	-0.31217283
231	0xbd1d2589	-0.038365874
232	0x3d5962b9	0.053072665
233	0xbe4910bd	-0.19635291
234	0xbe24d0eb	-0.16095321
235	0xbdbe01cb	-0.09277686
236	0x3d13f3e7	0.036121275
237	0x3e69efe1	0.22845413
238	0xbdab7329	-0.083715744
239	0xbdb5711d	-0.08859465
240	0x3db9dd57	0.0907542
241	0xbe5ab2be	-0.21357247
242	0xbe00a045	-0.12561138
243	0x3e293de8	0.16527522
244	0x3dd48d0e	0.103784665
245	0x3e24803a	0.1606454
246	0x3e3a49d0	0.1819222
247	0xbcde25f6	-0.02711771
248	0xbddcf5ae	-0.10789047
249	0xbe05db48	-0.1307193
250	0xbdd610a0	-0.1045239
251	0x3e317cb5	0.17332728
252	0x3de008e8	0.10939199
253	0xbe55ce51	-0.20879485
254	0xbdb576d0	-0.08860552
255	0x3da28e13	0.07937255

0.bias f4 [64]
0	0xbcb02cf1	-0.021505805
1	0x3bb54834	0.005532289
2	0xbc58163d	-0.013188896
3	0xbc4cb1ce	-0.012493564
4	0xbc39312c	-0.011303227
5	0xbc415e7f	-0.011802315
6	0x3c046efa	0.0080830995
7	0xbc09aab4	-0.008402515
8	0x3c50737c	0.012722846
9	0xbc66beb4	-0.014083553
10	0x3b4d57bf	0.0031332818
11	0x3c0f079f	0.008729844
12	0xbd2ffb15	-0.04296406
13	0xbc651ceb	-0.013983945
14	0x3d4bf1c1	0.0497911
15	0x3cce3c09	0.025175111
16	0x3bddd8f7	0.006770249
17	0xbc976ca6	-0.018484425
18	0x3b6d3622	0.0036195596
19	0x3d20e4e7	0.0392808
20	0x3ba0d8b7	0.004908647
21	0x3c430b7e	0.011904595
22	0xbd29fb64	-0.04149951
23	0xbc89592e	-0.016766157
24	0x3c6a70b6	0.014309099
25	0xbcf13cbe	-0.02944791
26	0xbacfd118	-0.0015855161
27	0xbbe07b73	-0.006850654
28	0xbc5fe231	-0.013664768
29	0xbc545f9a	-0.012962246
30	0xbbb4d0d1	-0.005518057
31	0xbcdd1cdb	-0.026991298
32	0xbb5b5e7d	-0.0033473067
33	0x3c8fbebf	0.01754701
34	0xbc018fde	-0.007907836
35	0xbce3c8ea	-0.027805764
36	0x3ad76b1b	0.0016435118
37	0xbc8b937d	-0.017038101
38	0x3c8589a5	0.016300986
39	0x3c485bee	0.012228949
40	0xbcd8815b	-0.026428869
41	0xbd002288	-0.03128293
42	0x3c8db020	0.017295897
43	0x3c1b8598	0.0094923
44	0x3a98a9b8	0.001164726
45	0x3aacdfb8	0.0013189232
46	0xbb93215b	-0.0044900603
47	0x3d0cfc05	0.034420032
48	0x3b97018f	0.00460834
49	0xbbcee8b1	-0.00631436
50	0xbbbffd40	-0.005859047
51	0xbc797f9c	-0.015228178
52	0xbafbdd86	-0.0019215799
53	0xbcc64c2c	-0.024206243
54	0x3cd922f2	0.026505921
55	0xbd15bd1f	-0.036557313
56	0x3c5c9cf5	0.013465156
57	0xbb16d091	-0.00230125
58	0xbbd1d424	-0.006403463
59	0x3c891e61	0.016738119
60	0xbd349af1	-0.044093076
61	0x3cbd55b5	0.023112157
62	0x3b8e8aec	0.004350057
63	0xbbed42cf	-0.00724063

2.weight f4 [1, 64]
0	0x3e747708	0.23873532
1	0x3c0c45b7	0.008561543
2	0xbe047e22	-0.12938741
3	0x3e10144a	0.1407024
4	0x3d5d033a	0.053958155
5	0x3cd7349a	0.0262702
6	0xbd54f453	-0.05199082
7	0xbd971a6c	-0.073780864
8	0x3d43e2f8	0.047823876
9	0x3c09c040	0.008407652
10	0xbdcab4b4	-0.09897748
11	0x3d63bfdf	0.055602904
12	0x3e85f635	0.26164404
13	0x3d2e789f	0.042595502
14	0x3d8d4db8	0.06899589
15	0x3d896a4f	0.0670973
16	0xbd8a32b5	-0.06747953
17	0x3e80a254	0.25123847
18	0xbd9eac39	-0.077476926
19	0x3d9da8ac	0.07698187
20	0xbcb99445	-0.022653708
21	0xbd52297a	-0.051309086
22	0x3e9b1627	0.30290338
23	0x3e8c0ed9	0.27355078
24	0xbcd4f75f	-0.025996862
25	0x3d62f030	0.055404842
26	0xbda7d2e5	-0.08194522
27	0xbb9fc7be	-0.004876106
28	0xbdda78a3	-0.10667541
29	0xbe1163c5	-0.14198215
30	0x3dd78029	0.105224915
31	0x3ea540ad	0.32275906
32	0xbe4909df	-0.19632672
33	0x3dcc5306	0.09976773
34	0xbedf51ae	-0.43617004
35	0x3e5ce23b	0.21570675
36	0x3e283038	0.16424644
37	0xbd9ca253	-0.076481484
38	0x3df8a184	0.12140182
39	0xbda7d92b	-0.081957184
40	0x3e7bc882	0.24588206
41	0x3e23a82f	0.15982126
42	0x3e29eaa0	0.16593409
43	0x3d88c269	0.06677706
44	0xbded3cbc	-0.1158385
45	0xbd233417	-0.0398446
46	0xbe469763	-0.19393687
47	0x3d6c8231	0.057741348
48	0xbd27852d	-0.04089849
49	0xbe4047da	-0.18777409
50	0xbdb19f2b	-0.08672937
51	0x3e280c58	0.16410959
52	0x3da420b3	0.080140494
53	0x3e4d66a6	0.20058689
54	0x3d43a8f8	0.047768563
55	0x3e69a8f5	0.22818358
56	0xbcc2c6ab	-0.023776373
57	0xbe02f93e	-0.12790391
58	0xbe24bafc	-0.16086954
59	0x3e54c5f9	0.20778646
60	0x3e7d93d2	0.2476342
61	0x3c684403	0.0141763715
62	0xbdc53ada	-0.09630366
63	0xbe1f2252	-0.15540436
