saved_models/A2C/using_uniform_for_matchmaking/model11.pth (torch, 48448 bytes, 7 tensors)

0.weight f4 [64, 84]
-0.25429732 0.09351131 0.19974245 0.16796611 -0.12017061 0.19482142 0.17241791 -0.03854621
-0.114967085 -0.10614006 0.08982297 0.16378923 -0.047613133 -0.43221012 0.031692386 -0.30708036
-0.11440993 0.33306164 -0.0062924707 0.08212346 0.10868308 -0.004103181 -0.021449236 -0.07381489
-0.18856366 -0.05079306 -0.059283316 0.21995476 0.14792755 0.24768744 0.031444214 0.21035928
-0.11971201 0.037062902 -0.2762859 0.096938446 -0.15388452 -0.034437116 -0.11735173 -0.054639492
-0.20346001 0.05430412 0.0031353722 0.21654233 0.015912598 -0.17701101 0.13572943 0.09568556
0.17406593 -0.04953542 0.044228658 0.13468291 -0.17770839 0.0701118 -0.08729142 0.17434856
0.05092273 0.3808342 -0.09407516 0.0043013957 -0.013221919 0.23085372 -0.25494364 -0.11136084
0.18410747 0.01889731 -0.076543786 -0.043069612 -0.0569757 0.041317105 -0.05026023 0.070054606
0.021058645 0.13834088 0.2604546 -0.29498827 0.028241783 -0.10411442 0.206289 0.07126299
-0.04555363 0.20841204 0.09584976 -0.14002971 0.07167365 -0.16871107 0.3101257 0.085630834
0.11100105 0.01649352 -0.015086025 -0.13525747 0.14763848 -0.1092228 -0.12877996 -0.1537433
0.12998661 0.084604785 -0.20453945 -0.25240877 0.12290173 -0.19807112 -0.06507048 -0.12224784
0.08506483 -0.19544502 0.19239257 -0.17686136 0.35160983 -0.042676218 -0.20498493 0.1346045
-0.13750274 0.012283552 -0.13784346 0.058557134 -0.06370352 -0.03396137 -0.032463238 0.34146473
0.025683604 0.23310693 0.21295364 -0.04284498 -0.041620288 0.009295898 -0.13195343 -0.025411636
-0.15787923 -0.053017944 -0.06371064 0.11751942 0.12037408 -0.009972629 -0.17612511 0.19283369
-0.12702723 0.19649196 0.15621029 -0.23253198 -0.21026558 0.018545317 -0.1451382 -0.4664131
0.07162828 0.020457812 -0.043362807 -0.05061047 0.069116436 0.17876694 0.14542069 -0.15005368
-0.14447002 -0.20824555 -0.017152658 -0.22942552 0.023986934 0.04160716 0.0472463 -0.08272431
0.09610961 -0.056046452 0.06715789 -0.056428477 -0.28636774 -0.15139833 -0.053732798 0.30319175
-0.22449756 0.057801943 -0.10482183 0.12527213 0.008817312 -0.080737 0.07709828 -0.049867667
0.010113872 0.13289386 -0.2230176 -0.10500222 0.07666159 -0.030880744 -0.045613628 -0.08254997
0.035512473 -0.188095 -0.106462866 0.06582739 -0.49043486 -0.14603455 -0.3141798 -0.17021267
0.017618505 0.04639458 0.11044962 0.023365332 0.06269422 0.34042776 0.24257743 -0.07023434
-0.115949996 0.055324722 0.06779265 0.106446244 0.086068444 0.011998872 0.15407972 -0.15730932
-0.11849987 -0.18802433 -0.04065156 0.06567223 0.029710144 -0.15739292 -0.32159305 0.14501001
0.07146232 0.29249778 0.069953844 -0.15769221 0.09839393 -0.10413569 0.013043641 0.07733171
-0.17542353 0.053112183 -0.09185918 -0.15208437 -0.1362284 0.09297238 0.03859686 -0.0290725
0.18630183 -0.11458324 0.36411038 0.091817416 0.16261451 0.14853095 0.15863621 -0.047004037
-0.2002941 -0.23921867 -0.05806821 -0.06487876 -0.14721952 0.0766982 -0.08368988 -0.17446734
0.17306276 0.28691998 0.30326715 0.04466587 -0.03876386 -0.14351098 0.015610414 0.38242152
00000000: 4233 82be dc82 bf3d 4989 4c3e 4fff 2b3e
00000010: 021c f6bd 447f 473e 528e 303e a1e2 1dbd
00000020: dd73 ebbd f65f d9bd 1bf5 b73d 5db8 273e
00000030: fd05 43bd a54a ddbe e0cf 013d a339 9dbe
00000040: c14f eabd 0e87 aa3e 1231 cebb 5830 a83d
00000050: 3c95 de3d fa73 86bb 4fb6 afbc 432c 97bd
00000060: d516 41be 620c 50bd 10d3 72bd d23b 613e
00000070: 527a 173e c7a1 7d3e a6cb 003d 6c68 573e
00000080: 922b f5bd 45cf 173d 5875 8dbe aa87 c63d
00000090: e793 1dbe ef0d 0dbd 1b56 f0bd a9cd 5fbd
000000a0: d257 50be ff6d 5e3d d17a 4d3b 46bd 5d3e
000000b0: 235b 823c 6042 35be a8fc 0a3e caf6 c33d
000000c0: 573e 323e a7e5 4abd 1c29 353d 51ea 093e
000000d0: 30f9 35be c796 8f3d d8c5 b2bd 6e88 323e
000000e0: 5a94 503d b3fc c23e 7aaa c0bd b9f2 8c3b
000000f0: bfa0 58bc eb64 6c3e f987 82be 2711 e4bd
00000100: ab86 3c3e 88ce 9a3c fdc2 9cbd c369 30bd
00000110: 5a5f 69bd 203c 293d acdd 4dbd ca78 8f3d
00000120: 2e83 ac3c 3ba9 0d3e 4e5a 853e b408 97be
00000130: 505b e73c f139 d5bd 6c3d 533e 55f2 913d
00000140: 7196 3abd f769 553e e14c c43d f363 0fbe
00000150: a2c9 923d 98c2 2cbe ccc8 9e3e 385f af3d
00000160: 8554 e33d 6b1d 873c 602b 77bc ef80 0abe
00000170: 8b2e 173e 34b0 dfbd e5de 03be e26e 1dbe
00000180: 361b 053e 4645 ad3d ca72 51be b93b 81be
00000190: e7b3 fb3d 28d3 4abe ac43 85bd 135d fabd
000001a0: 7836 ae3d bd22 48be 8f02 453e 251b 35be
000001b0: 3406 b43e 42cd 2ebd 92e7 51be c3d5 093e
000001c0: 85cd 0cbe f440 493c d626 0dbe 9bd9 6f3d
000001d0: fe76 82bd 141b 0bbd 2cf8 04bd 77d4 ae3e
000001e0: 6c66 d23c 95b3 6e3e 8510 5a3e 387e 2fbd
000001f0: 097a 2abd d24d 183c cd1e 07be 102c d0bc
00000200: 18ab 21be 5829 59bd b97a 82bd 06ae f03d
00000210: b086 f63d 3d64 23bc 245a 34be 3276 453e
00000220: 6d13 02be 3035 493e 97f5 1f3e dd1c 6ebe
00000230: dc4f 57be 59ec 973c 1c9f 14be b3cd eebe
00000240: d9b1 923d 2497 a73c 339d 31bd ed4c 4fbd
00000250: eb8c 8d3d ae0e 373e 29e9 143e aca7 19be
00000260: f3ef 13be 523e 55be bb83 8cbc 86ee 6abe
00000270: 3f80 c43c 456c 2a3d 5685 413d 5d6b a9bd
00000280: 1dd5 c43d f790 65bd 138a 893d 8c21 67bd
00000290: cb9e 92be 2a08 1bbe ec16 5cbd f33b 9b3e
000002a0: b0e2 65be bbc1 6c3d d4ac d6bd 5647 003e
000002b0: 7d76 103c 7159 a5bd b4e5 9d3d 0a42 4cbd
000002c0: a7b4 253c 5415 083e ba5e 64be 670b d7bd
000002d0: c000 9d3d 9df9 fcbc 5bd5 3abd f50f a9bd
000002e0: 8775 113d fa9b 40be 3409 dabd 83d0 863d
000002f0: 471a fbbe 158a 15be 2ddc a0be 3b4c 2ebe
00000300: af54 903c 3e08 3e3d 6933 e23d a768 bf3c
00000310: d465 803d 8c4c ae3e 3866 783e 06d7 8fbd
00000320: 3177 edbd 2d9c 623d dfd6 8a3d 7d00 da3d
00000330: a744 b03d eb96 443c 13c7 1d3e b215 21be
00000340: 0fb0 f2bd 7389 40be 4082 26bd 2a7f 863d
00000350: b062 f33c 9c2b 21be d8a7 a4be 817d 143e
00000360: d65a 923d 45c2 953e f643 8f3d 117a 21be
00000370: c282 c93d 1845 d5bd ffb4 553c 1660 9e3d
00000380: 3aa2 33be 298c 593d aa20 bcbd 01bc 1bbe
00000390: 757f 0bbe 4e68 be3d be17 1e3d 7429 eebc
000003a0: e8c5 3e3e 9eaa eabd ad6c ba3e c50a bc3d
000003b0: 6b84 263e 7f18 183e 8871 223e 4e87 40bd
000003c0: e619 4dbe bdf5 74be eed8 6dbd 28df 84bd
000003d0: b7c0 16be f213 9d3d 9a65 abbd 91a7 32be
000003e0: 5d37 313e 2de7 923e d545 9b3e 8ff3 363d
000003f0: dac6 1ebd 8bf4 12be d2c2 7f3c c1cc c33e

0.bias f4 [64]
-0.008783679 0.034184128 0.015142082 0.00051912694 -0.0045449166 0.01795111 0.010049349 -0.013138893
0.0052737403 -0.0209757 -0.028631557 0.009643325 0.0054961564 0.0038072357 0.0032842837 -0.045245748
0.008714948 -0.0068004406 -0.027523717 -0.008554607 0.0026773645 -0.02669793 0.030783944 0.05063794
0.004510529 0.00481712 -0.0029650806 0.016663326 0.0112752225 -0.005585687 -0.028604198 -0.010035238
0.02612292 -0.0053453455 0.015556933 0.009324077 0.018754926 0.018129386 0.01373222 0.02014591
0.021905134 0.015246572 0.0042364183 0.0126802735 -0.02443739 -0.0043724263 -0.0025193894 -0.0015620254
0.015403738 -0.037478805 -0.011217185 0.0014437814 -0.026864735 -0.007455106 0.021640196 0.027505023
0.014653416 -0.01939575 0.026891924 -0.025124911 -0.004946499 -0.020144183 0.019762473 0.02395158
00000000: 6ce9 0fbc a804 0c3d 7f16 783c 0516 083a
00000010: 86ed 94bb 350e 933c 06a6 243c 8344 57bc
00000020: 57cf ac3b 3bd5 abbc ba8c eabc 09ff 1d3c
00000030: 1a19 b43b d182 793b 233d 573b 9b53 39bd
00000040: 24c9 0e3c 3bd6 debb 6b79 e1bc 9f28 0cbc
00000050: b976 2f3b 9eb5 dabc 9c2e fc3c bb69 4f3d
00000060: 0fcd 933b eed8 9d3b cc51 42bb 8781 883c
00000070: b6bb 383c 2308 b7bb 5a53 eabc d76a 24bc
00000080: bcff d53c 0228 afbb 82e2 7e3c 03c4 183c
00000090: eea3 993c 1484 943c 1bfd 603c 0909 a53c
000000a0: 6572 b33c c2cc 793c a7d1 8a3b ecc0 4f3c
000000b0: ec30 c8bc 9246 8fbb 571c 25bb e0bc ccba
000000c0: f65f 7c3c 6083 19bd 49c8 37bc 443d bd3a
000000d0: 6f13 dcbc f649 f4bb c846 b13c 3752 e13c
000000e0: e214 703c d6e3 9ebc 744c dc3c c2d2 cdbc
000000f0: 3e16 a2bb 6a05 a5bc e9e4 a13c 1b36 c43c

2.weight f4 [7, 64]
0.13263643 0.10516711 0.1909512 0.4475931 0.08228211 0.20217802 -0.07790908 -0.15285932
0.051327076 0.09671904 -0.18480693 -0.010961854 -0.2797466 -0.004337067 -0.3313735 0.02892954
0.017440574 -0.1664264 -0.05740285 0.029967546 -0.14356096 -0.1638669 -0.111957304 0.054354932
0.034364376 -0.05910186 0.19477706 -0.02315536 0.06412112 0.07723297 -0.39775312 0.12235891
0.068834476 -0.2467666 0.37843618 -0.02329304 0.29574862 0.089485586 0.28224882 0.09231538
0.12493265 0.03108778 -0.062031034 0.14764392 -0.002683488 0.103960216 -0.13036996 -0.103889
0.34076878 -0.5781059 0.049125418 -0.044376828 -0.26538056 -0.015844686 0.19806497 0.021348331
-0.16415276 -0.023202328 0.07086137 0.05615915 0.0870232 -0.070721336 -0.0022602875 -0.16722865
-0.057113767 0.28888884 0.11737903 -0.17466755 -0.15294175 -0.15849476 0.22232676 0.030294536
0.09765032 0.05827299 -0.04273597 0.040922787 0.12015672 0.16387789 -0.0076906285 0.050976638
0.13587405 0.32293054 -0.05861159 -0.054080024 -0.009689282 -0.33085763 0.10839473 0.005762339
0.120542996 0.40750238 -0.16157606 0.19877891 0.06262048 -0.007131624 -0.4240516 0.0008016504
0.36240375 0.07053483 0.13284248 0.22954461 -0.02097955 -0.08664993 0.01957675 -0.1296899
0.17419954 0.14190777 0.013575723 -0.07964537 -0.18945031 -0.42747676 -0.13169374 0.008160523
-0.17344472 0.01855374 0.2207589 -0.24224897 -0.008318438 0.1297794 0.18748261 -0.12672153
0.010677074 -0.22466944 0.23763424 0.12559888 0.14032608 -0.17416866 -0.08544529 0.41576993
0.30274662 -0.24298018 -0.12745987 0.03435097 0.21637556 0.13598704 0.109532 -0.20961297
0.027259365 0.12916689 -0.06704369 0.0861389 -0.048687343 -0.0317577 0.2857707 0.09213542
0.14895415 0.24467826 0.04206667 -0.09069757 -0.2822364 -0.1062258 -0.2519624 -0.30363527
-0.38141927 0.1366335 -0.06502574 -0.030076144 0.07642328 0.20089433 0.096747965 0.13301899
-0.028313296 -0.18403155 -0.14051484 -0.20123324 -0.24105023 0.021734808 0.0979049 -0.13672793
-0.12332475 -0.16122337 0.007945513 0.16895384 0.037012734 -0.09513253 -0.27931803 -0.029930292
0.0904626 0.060052965 0.3329873 0.19330882 -0.031980064 0.22594494 0.036047645 -0.07834845
-0.08872846 -0.12833728 0.10694343 0.56758374 -0.277437 0.11702373 0.12682848 0.020117952
0.18066487 0.054835428 0.28778967 -0.07239333 -0.36513996 -0.2967838 0.29870206 -0.1381182
-0.11557824 0.2819508 0.017917708 0.09346689 0.12867495 0.24983883 -0.19621415 0.25575283
0.1447013 -0.0048440136 -0.085669115 0.03129405 -0.15685995 0.009956321 -0.36941978 -0.13433662
-0.024232697 -0.117591605 -0.1382722 -0.25243145 -0.26585636 0.219696 0.05284189 0.028863732
0.009484893 0.03321622 0.25503817 0.022108562 -0.14147088 -0.10959277 -0.22017977 0.030453043
-0.008965857 -0.11610329 -0.16331367 -0.26644725 0.131001 -0.0018134138 -0.1403744 -0.22091138
0.20300928 -0.01120046 0.014121459 0.3177104 0.3323757 0.1013985 -0.012502141 0.17622308
0.02769445 -0.12766084 -0.24250397 -0.36423284 -0.017913401 -0.14979619 0.028022546 -0.12769379
00000000: d8d1 073e db61 d73d b688 433e ec2a e53e
00000010: 8683 a83d c107 4f3e cc8e 9fbd 2787 1cbe
00000020: 573c 523d a214 c63d 073e 3dbe 5999 33bc
00000030: f23a 8fbe f41d 8ebb caa9 a9be a5fd ec3c
00000040: 89df 8e3c af6b 2abe 401f 6bbd 807e f53c
00000050: a501 13be bacc 27be df49 e5bd 47a3 5e3d
00000060: a9c1 0c3d cb14 72bd a373 473e 4fb0 bdbc
00000070: ef51 833d 522c 9e3d 4ca6 cbbe 4f97 fa3d
00000080: 17f9 8c3d 62b0 7cbe 63c2 c13e 0cd1 bebc
00000090: 5d6c 973e 3844 b73d eb82 903e d90f bd3d
000000a0: b0dc ff3d cdab fe3c 4114 7ebd f82f 173e
000000b0: 75dd 2fbb 18e9 d43d b47f 05be c2c3 d4bd
000000c0: 3f79 ae3e c0fe 13bf bc37 493d 7ac4 35bd
000000d0: f6df 87be b7cc 81bc 8bd1 4a3e b2e2 ae3c
000000e0: a917 28be cf12 bebc c41f 913d 2307 663d
000000f0: 3839 b23d 59d6 90bd 5521 14bb fd3d 2bbe
00000100: 20f0 69bd 3de9 933e 6b64 f03d 0ddc 32be
00000110: c39c 1cbe 734c 22be a0a9 633e 3f2c f83c
00000120: e4fc c73d a9af 6e3d ea0b 2fbd a79e 273d
00000130: ba14 f63d 9bcf 273e ab01 fcbb e1cc 503d
00000140: 9122 0b3e 2757 a53e b512 70bd 0483 5dbd
00000150: cbbf 1ebc 2c66 a9be 0efe dd3d 01d2 bc3b
00000160: 3fdf f63d 27a4 d03e 3274 25be b38c 4b3e
00000170: 2b3f 803d 66b0 e9bb 4b1d d9be d925 523a
00000180: fc8c b93e 9174 903d dc07 083e be0d 6b3e
00000190: 4edd abbc 8575 b1bd 6c5f a03c 6ecd 04be
000001a0: 5d61 323e 4550 113e b66c 5e3c 1d1d a3bd
000001b0: 43ff 41be 3cde dabe b9da 06be b7b3 053c
000001c0: 7e9b 31be 03fe 973c 9f0e 623e 1d10 78be
000001d0: 0f4a 08bc e4e4 043e 71fb 3f3e 4ac3 01be
000001e0: e5ee 2e3c bf0f 66be 6456 733e fe9c 003e
000001f0: a4b1 0f3e 4559 32be f1fd aebd ccdf d43e
00000200: 9b01 9b3e cccf 78be d784 02be 9ab3 0c3d
00000210: 8e91 5d3e 3040 0b3e 5052 e03d c8a4 56be
00000220: 084f df3c 5344 043e 344e 89bd 9769 b03d
00000230: 616c 47bd 5d14 02bd 8a50 923e 7fb1 bc3d
00000240: 7087 183e f08c 7a3e 1a4e 2c3d a6bf b9bd
00000250: 4a81 90be ea8c d9bd 3701 81be 1576 9bbe
00000260: 6349 c3be a7e9 0b3e 372c 85bd 3f62 f6bc
00000270: cf83 9c3d 3eb7 4d3e cc23 c63d 2136 083e
00000280: 49f1 e7bc c472 3cbe 1fe3 0fbe 1610 4ebe
00000290: dfd5 76be 320d b23c 5d82 c83d 6802 0cbe
000002a0: b091 fcbd bd17 25be e62d 023c 3c02 2d3e
000002b0: aa9a 173d d8d4 c2bd c602 8fbe 5f30 f5bc
000002c0: 7544 b93d 19fa 753d 507d aa3e bff2 453e
000002d0: 87fd 02bd 1c5e 673e b2a6 133d 2775 a0bd
000002e0: 44b7 b5bd d96a 03be 2805 db3d 2b4d 113f
000002f0: 390c 8ebe 23aa ef3d 53df 013e 67ce a43c
00000300: 3600 393e 1d9b 603d 2b59 933e f442 94bd
00000310: a0f3 babe 0cf4 97be 7aef 983e db6e 0dbe
00000320: 49b4 ecbd db5b 903e 28c8 923c 926b bf3d
00000330: 5ec3 033e c0d5 7f3e 5dec 48be 09f2 823e
00000340: 942c 143e 88ba 9ebb 4a73 afbd 312e 003d
00000350: e59f 20be d61f 233c 9724 bdbe 8a8f 09be
00000360: a683 c6bc ded3 f0bd 3a97 0dbe b23e 81be
00000370: 531e 88be fdf7 603e bd70 583d a273 ec3c
00000380: 8666 1b3c bb0d 083d 5d94 823e 041d b53c
00000390: bedd 10be 2d72 e0bd ce76 61be a978 f93c
000003a0: 88e5 12bc 90c7 edbd b33b 27be c66b 88be
000003b0: 2025 063e 12b0 edba 4fbe 0fbe 9836 62be
000003c0: aae1 4f3e 2282 37bc b15d 673c f0aa a23e
000003d0: 262d aa3e 04aa cf3d c8d5 4cbc d373 343e
000003e0: 79df e23c 86b9 02be f652 78be ba7c babe
000003f0: 20bf 92bc 2c64 19be 8a8f e53c 29c2 02be

2.bias f4 [7]
0.035527885 0.030952176 -0.022141548 -0.0009914956 0.011588262 -0.018529816 -0.03009408
00000000: b085 113d 6b8f fd3c 3162 b5bc 12f5 81ba
00000010: b2dc 3d3c d7cb 97bc dc87 f6bc

0.weight f4 [64, 84]
-0.0349126 0.17194931 -0.008343433 -0.08473584 -0.17332171 -0.061661232 0.3051354 0.02942626
0.11858879 -0.3015393 0.1063462 -0.06382098 -0.10116056 0.055502553 0.026876718 0.029061688
-0.16904853 0.082376435 0.24728772 -0.033391688 0.053047746 -0.095702864 -0.11393373 0.26061463
-0.0375765 -0.24026464 -0.07123554 -0.057259113 0.0019268192 0.28907293 0.08002928 0.2236991
-0.11456519 0.11928002 -0.16696504 -0.34367374 0.20595567 0.24880332 -0.18348648 0.30886155
0.043199547 0.01868956 -0.03576911 -0.17387195 0.15579116 -0.37457553 -0.052511595 -0.25076476
-0.079226464 -0.20257199 -0.06414832 -0.12965594 0.12895067 0.14508632 -0.1048475 -0.04524428
-0.0507209 -0.024160383 0.2363411 -0.14352311 0.0009695067 -0.032034982 -0.06890023 0.13366924
-0.100646935 -0.056173 0.10637509 0.2477259 0.29517427 0.051936273 0.15017737 0.09019956
0.110573165 -0.07040787 0.2154383 0.00075781543 -0.113802604 -0.09968654 -0.12204239 -0.1779651
-0.14946786 -0.21836627 0.14754297 -0.036445554 -0.06774708 0.35752216 -0.0453767 -0.11160652
0.09868206 -0.15598267 0.16165373 0.2608996 0.007764912 0.16881718 -0.068320595 -0.008680908
-0.0015973647 0.07818282 -0.041587416 -0.052957494 -0.01727924 0.09082828 -0.060749363 -0.19505477
-0.2662527 0.09324436 -0.16838865 -0.07317194 0.26846492 0.04853667 -0.3958657 0.048951864
-0.17421642 -0.347542 -0.08903737 -0.11494718 0.22563076 -0.039432418 -0.33939627 -0.086467646
0.20255797 -0.0948542 0.096244 0.12675466 0.025476381 0.06950835 0.008657173 0.029658323
0.038231757 0.03541618 0.07507779 0.18434879 -0.09190481 -0.21969558 -0.08977024 0.07448944
-0.053834494 0.031491153 0.02768611 -0.03795544 -0.013788533 0.089022376 0.14493507 -0.19264655
-0.2979719 -0.12872285 -0.0038320287 -0.18306497 -0.015019269 0.028571125 -0.20258677 0.00051312445
0.0010334384 -0.22579682 0.11725481 0.13656914 -0.28140008 0.22123966 0.034389563 0.20930184
0.018762613 0.054126326 -0.11874525 -0.04542649 -0.28210515 0.25281203 -0.033384003 -0.1943964
0.1547804 0.17405874 -0.19270809 -0.19778574 0.13341042 0.18644693 -0.116931275 -0.0038847178
0.21489936 0.2551288 0.033866987 0.23557524 0.18784134 -0.1304385 0.17397442 -0.10233416
-0.057440232 0.09291708 0.07446491 -0.094621435 -0.1362906 -0.00922476 -0.26364797 0.023305982
0.09867178 -0.13154744 0.37727743 -0.08632777 0.034689784 -0.24955814 -0.066591896 0.05566389
-0.33668593 0.15923983 -0.17882194 -0.1717327 -0.07234776 -0.05500086 0.08003766 -0.24196695
-0.17541641 0.04225689 0.11365062 0.014550817 -0.10609998 -0.2386826 0.13919212 -0.30350685
-0.25970858 -0.08204456 -0.041591916 -0.13264915 -0.2652812 0.14193097 0.16404678 -0.10119529
0.08578188 -0.058428835 -0.078780696 0.07112944 -0.09108407 0.01758687 -0.18171734 0.18100932
-0.080174565 0.30203584 0.09006555 -0.04454102 -0.10119365 0.03505025 0.011487725 -0.06212764
-0.0129650645 0.03849007 -0.07154422 -0.3182855 -0.22071569 -0.015974535 0.047187146 0.15075904
-0.08392783 0.13921216 -0.14515728 -0.03617372 -0.110921726 0.06895126 -0.063603655 -0.2600072
00000000: 8400 0fbd 7b13 303e e5b2 08bc fc89 adbd
00000010: 3f7b 31be 7d90 7cbd b53a 9c3e 570f f13c
00000020: aede f23d 5c63 9abe 09cc d93d 93b4 82bd
00000030: 452d cfbd a556 633d 902c dc3c c712 ee3c
00000040: 0f1b 2dbe fab4 a83d fe38 7d3e b9c5 08bd
00000050: 9848 593d ddff c3bd 1656 e9bd 486f 853e
00000060: d1e9 19bd ef07 76be f0e3 91bd 8888 6abd
00000070: 538d fc3a 5e01 943e 64e6 a33d 6011 653e
00000080: 28a1 eabd 1549 f43d e2f8 2abe 01f6 afbe
00000090: 0be6 523e 4cc6 7e3e e1e3 3bbe 1a23 9e3e
000000a0: 02f2 303d d91a 993c a182 12bd 7d0b 32be
000000b0: b887 1f3e 5dc8 bfbe 6616 57bd 3d64 80be
000000c0: 7c41 a2bd 086f 4fbe 3260 83bd 87c4 04be
000000d0: a50b 043e 8291 143e 49ba d6bd 1152 39bd
000000e0: b8c0 4fbd ffeb c5bc 6703 723e b9f7 12be
000000f0: 7e26 7e3a 1d37 03bd 901b 8dbd 97e0 083e
00000100: fb1f cebd a915 66bd 2fdb d93d dcab 7d3e
00000110: 1521 973e 21bb 543d 19c8 193e 8cba b83d
00000120: 2f74 e23d 0032 90bd dc9b 5c3e 22a8 463a
00000130: 5711 e9bd 7528 ccbd 5cf1 f9bd 7c3c 36be
00000140: 1a0e 19be 689b 5fbe 8115 173e ef47 15bd
00000150: fbbe 8abd 250d b73e ebdc 39bd f691 e4bd
00000160: d219 ca3d ecb9 1fbe 8e88 253e a294 853e
00000170: ce70 fe3b 69de 2c3e abeb 8bbd 5e3a 0ebc
00000180: aa5e d1ba 501e a03d 9157 2abd f5e9 58bd
00000190: 318d 8dbc 2d04 ba3d 53d4 78bd 70bc 47be
000001a0: 4652 88be e6f6 be3d 136e 2cbe 2cdb 95bd
000001b0: 3c74 893e 63ce 463d e9ae cabe c081 483d
000001c0: ca65 32be 06f1 b1be 3a59 b6bd 6d69 ebbd
000001d0: c00b 673e e383 21bd 59c5 adbe f315 b1bd
000001e0: 5b6b 4f3e eb42 c2bd 931b c53d f9cb 013e
000001f0: d8b3 d03c 655a 8e3d d1d6 0d3c 03f6 f23c
00000200: e798 1c3d 8e10 113d 62c2 993d eec5 3c3e
00000210: 9738 bcbd e1f7 60be 76d9 b7bd eb8d 983d
00000220: 8f81 5cbd defc 003d fbcd e23c 2a77 1bbd
00000230: 4de9 61bc 5d51 b63d dc69 143e 2345 45be
00000240: c68f 98be eccf 03be c622 7bbb 6275 3bbe
00000250: 6113 76bc fe0d ea3c e872 4fbe 3383 063a
00000260: 7074 873a 4837 67be 4a23 f03d c8d8 0b3e
00000270: ac13 90be a68c 623e 12dc 0c3d 3953 563e
00000280: 0db4 993c 91b3 5d3d b630 f3bd 2111 3abd
00000290: 1670 90be 9470 813e aabd 08bd da0f 47be
000002a0: c17e 1e3e 743c 323e 4555 45be 5888 4abe
000002b0: be9c 083e f2eb 3e3e aa79 efbd c096 7ebb
000002c0: 940e 5c3e 3ea0 823e 1cb8 0a3d a33a 713e
000002d0: 7b59 403e ac91 05be 5a26 323e 9294 d1bd
000002e0: 7346 6bbd 4f4b be3d 0f81 983d e2c8 c1bd
000002f0: c38f 0bbe 7323 17bc defc 86be 30ec be3c
00000300: 6e14 ca3d 5fb4 06be 822a c13e 9dcc b0bd
00000310: e016 0e3d 2b8c 7fbe 5561 88bd d2ff 633d
00000320: 1962 acbe c40f 233e 191d 37be b2da 2fbe
00000330: 102b 94bd 9548 61bd c9ea a33d 2fc6 77be
00000340: 5ca0 33be 9015 2d3d a8c1 e83d 8d66 6e3c
00000350: f24a d9bd 3669 74be 6188 0e3e 4065 9bbe
00000360: 86f8 84be fa06 a8bd 495c 2abd 2ed5 07be
00000370: f0d2 87be 5a56 113e e1fb 273e 7a3f cfbd
00000380: 69ae af3d 1353 6fbd c657 a1bd 50ac 913d
00000390: 498a babd 5712 903c 1c14 3abe 825a 393e
000003a0: 9032 a4bd 71a4 9a3e 4974 b83d a570 36bd
000003b0: 9e3e cfbd da90 0f3d 0337 3c3c 8d79 7ebd
000003c0: 6c6b 54bc c3a7 1d3d c785 92bd 51f6 a2be
000003d0: 4b03 62be 07dd 82bc 4f47 413d 9460 1a3e
000003e0: 5be2 abbd a28d 0e3e 1ca4 14be e52a 14bd
000003f0: ee2a e3bd 5136 8d3d a242 82bd aa1f 85be

0.bias f4 [64]
0.013375008 -0.0032143022 0.011716074 -0.0153167015 0.0018669404 0.006337477 0.0041248226 0.016571034
-0.019377815 -0.039149392 -0.0090337815 -0.00799085 0.033972293 -0.010738591 -0.013047174 -0.010655633
-0.008586747 -0.0125475805 0.0056099063 -0.01669916 -0.014127702 0.012676565 0.0018709602 0.0039363117
-0.0056328247 0.022485232 0.006617182 -0.01767263 0.0015535168 0.005012995 0.004210014 0.0051726126
-0.018678194 0.017548935 -0.015954647 0.0010509853 0.020312348 -0.03363411 -0.0050167087 0.0052875145
0.0070170066 0.0064939437 -0.0012851551 0.0004889602 -0.01384668 0.0046773986 -0.019853013 -0.0073931627
-0.0090300515 0.005510315 0.00048681482 -0.0056922296 0.013448671 0.017025733 -0.028335558 -0.009470899
0.001396489 -0.0023093736 -0.0009412142 -0.0009015084 0.0013856206 0.0022243415 -0.0058015464 -0.01751291
00000000: d922 5b3c 0ba7 52bb c7f4 3f3c e7f2 7abc
00000010: 20b4 f43a 9caa cf3b 8529 873b fabf 873c
00000020: 39be 9ebc 1d5b 20bd 6d02 14bc 0eec 02bc
00000030: 8826 0b3d eaf0 2fbc d0c3 55bc f794 2ebc
00000040: 6daf 0cbc 5e94 4dbc 4ed3 b73b adcc 88bc
00000050: e177 67bc 5eb1 4f3c 023b f53a 2dfc 803b
00000060: 8f93 b8bb f332 b83c f2d4 d83b 31c6 90bc
00000070: 609f cb3a 0d44 a43b 28f4 893b 057f a93b
00000080: 0303 99bc c9c2 8f3c 52b3 82bc 37c1 893a
00000090: 1566 a63c ecc3 09bd 3463 a4bb e342 ad3b
000000a0: ebee e53b 26cb d43b a672 a8ba 902d 003a
000000b0: 2fdd 62bc dd44 993b c9a2 a2bc 5842 f2bb
000000c0: c8f2 13bc df8f b43b 2e3b ff39 e285 babb
000000d0: d157 5c3c 8d79 8b3c f91f e8bc d42b 1bbc
000000e0: 650a b73a dc58 17bb d1bb 76ba 3453 6cba
000000f0: b69d b53a 42c6 113b e61a bebb 3c77 8fbc

2.weight f4 [1, 64]
-0.025012461 0.18329199 0.053279445 0.1512466 -0.035054207 0.13014269 -0.16176535 0.032607988
-0.21828046 0.25330734 -0.21140502 -0.08217582 0.046194363 -0.2655628 -0.14093177 0.0722398
-0.27573648 0.11048849 -0.16144074 -0.054740973 -0.14505704 0.04763223 -0.04816423 0.07373275
0.006631408 0.077694505 -0.03487003 -0.16984802 -0.2012177 -0.0483884 0.14198709 -0.063437216
-0.1569637 0.03683197 0.40329888 0.25099972 0.041107945 0.3005017 0.16334131 -0.033686318
0.052131206 0.097129785 -0.14965981 -0.06313607 0.006771711 -0.041161735 0.27662033 -0.18264486
0.08049586 -0.22865058 0.17352076 0.003234174 0.0055955905 0.046011165 -0.30284545 0.1617111
0.10247964 0.05849179 -0.17003193 0.1377505 -0.08524971 -0.081535496 -0.12732923 0.078777514
00000000: efe6 ccbc e5b0 3b3e 8c3b 5a3d 64e0 1a3e
00000010: 0095 0fbd 2044 053e d1a5 25be f48f 053d
00000020: ea84 5fbe 80b1 813e 8f7a 58be cc4b a8bd
00000030: 4d36 3d3d d9f7 87be 6b50 10be 76f2 933d
00000040: 552d 8dbe ca47 e23d b950 25be 1238 60bd
00000050: d589 14be 031a 433d db47 45bd 3201 973d
00000060: 484c d93b 4c1e 9f3d e0d3 0ebd a4ec 2dbe
00000070: 030c 4ebe ea32 46bd 1065 113e 5feb 81bd
00000080: 18bb 20be 1fdd 163d 317d ce3e 0983 803e
00000090: ce60 283d 5cdb 993e f242 273e aafa 09bd
000000a0: 8887 553d fbeb c63d 6c40 19be 7c4d 81bd
000000b0: 3be5 dd3b 3599 28bd 2ea1 8d3e 4107 3bbe
000000c0: 03db a43d 6123 6abe 6daf 313e 70f4 533b
000000d0: 375b b73b 3476 3c3d 8f0e 9bbe 9897 253e
000000e0: d8e0 d13d 1695 6f3d da1c 2ebe 780e 0d3e
000000f0: 6697 aebd 15fc a6bd 9862 02be 1b56 a13d
