saved_models/A2C/using_uniform_for_matchmaking/model1.pth (torch, 48436 bytes, 7 tensors)

0.weight f4 [64, 84]
-0.1040245 0.21902771 -0.124664076 -0.005356798 0.20602483 -0.19257686 0.010841094 0.17366658
0.07876215 -0.06412318 0.25242752 -0.21257435 -0.02711749 -0.2271781 -0.3592067 0.14582649
-0.053526033 0.3094536 -0.0901252 0.069955386 -0.119596645 0.17194647 -0.004384453 -0.08283568
-0.06167478 -0.011454401 -0.19190346 0.17744984 0.07081514 -0.07417278 0.07665175 0.1751821
-0.18428658 0.042242385 -0.0128000565 -0.3943671 -0.104544714 -0.006079709 0.10416451 0.12916331
0.15138118 0.1868473 -0.04686117 -0.088693015 0.06345358 0.0007502485 0.23906355 -0.073414676
-0.21770717 0.020886889 -0.009406373 0.0033147887 0.3245315 -0.16437538 -0.2842966 0.17821676
0.0368596 0.0737856 -0.16891421 0.27825326 -0.08582233 0.2564017 0.16438901 0.011243553
0.022085633 0.12668604 0.08887312 0.106941275 0.16294934 -0.23287337 -0.034580924 0.11199246
-0.1302636 0.15425304 -0.06215286 0.114102006 0.18611445 -0.25807333 -0.047019463 0.28511733
0.100797996 0.048993513 0.14132911 -0.022561137 0.088451594 0.06554994 0.120432526 0.10639482
-0.07594645 0.09465178 -0.026895357 -0.019401655 -0.10963939 0.30609974 -0.2973284 -0.05156913
-0.1441342 -0.03173896 0.11643521 0.106216036 0.07823129 0.11828119 0.075043134 -0.009143441
-0.11799016 0.17580776 -0.39071125 0.20926602 -0.162925 -0.3167929 -0.095601685 0.23371205
-0.27193195 0.05037806 -0.011168687 -0.12853627 0.24603711 -0.026073964 0.2137087 -0.085633874
0.022374457 -0.08097159 0.17223401 0.11515394 0.07352535 -0.12555854 -0.2445034 0.062401526
0.01157609 -0.016722126 0.14456211 0.048775896 -0.03696937 0.08595424 -0.1340446 -0.23334856
0.32212847 0.112011835 0.046604075 -0.11550822 0.18962164 0.017112255 0.1532892 -0.11017391
0.047246214 0.1951123 0.00900579 0.15140735 0.24330397 -0.12390908 0.20115805 0.19587462
-0.14437501 -0.0449549 0.07136365 -0.16907538 -0.1588869 -0.02024261 0.07054178 -0.19455911
-0.098154545 0.33728543 -0.07029221 0.1561705 0.05410677 -0.021191342 0.2971745 -0.09408762
-0.09959287 0.24243523 0.38650867 -0.27148497 0.27739194 0.07397944 0.07832656 0.097148776
0.020425465 0.001394307 -0.27794433 0.08205783 -0.21691705 -0.29994518 -0.023287168 0.052706014
0.1407086 0.06864675 -0.00632184 -0.17126721 -0.39825925 -0.0847453 0.023475636 -0.005152042
-0.12985778 0.07383155 0.08048687 0.06399985 -0.114963375 0.13421765 -0.11281564 -0.23509409
0.053266827 0.12446381 -0.31664306 -0.1259536 0.00023082596 0.2994454 -0.058198713 0.13913488
0.01776185 -0.094896324 -0.025090424 -0.040545978 -0.061273627 -0.11227945 0.09152676 0.13503046
-0.124914944 0.09107865 0.11612439 0.2134376 0.093447976 0.1876263 0.06635681 0.05160248
-0.016103452 -0.13462949 -0.13040471 -0.064754784 -0.15038091 0.020546874 -0.08975907 -0.20885396
-0.19099341 0.16579354 0.11065012 -0.39822936 -0.09355921 0.021855019 -0.18303928 0.12766805
0.058593795 -0.053901087 -0.05625948 -0.037288062 -0.2796834 -0.038097143 -0.050566144 -0.21361218
0.069059685 -0.024845053 -0.047855046 0.19608709 -0.24033187 -0.016445804 -0.0950149 -0.050266184
00000000: cc0a d5bd cd48 603e e14f ffbd 1488 afbb
00000010: 2cf8 523e de32 45be d89e 313c a7d5 313e
00000020: 0d4e a13d 0453 83bd 2e3e 813e 17ad 59be
00000030: 8025 debc 60a1 68be f1e9 b7be 8a53 153e
00000040: 1d3e 5bbd b470 9e3e 9093 b8bd c544 8f3d
00000050: 16ef f4bd bc12 303e 75ab 8fbb c1a5 a9bd
00000060: b29e 7cbd 3dab 3bbc 5782 44be 69b5 353e
00000070: 8707 913d e6e7 97bd 98fb 9c3d f062 333e
00000080: 9fb5 3cbe 5a06 2d3d 54b7 51bc 7cea c9be
00000090: 8a1b d6bd 4c38 c7bb 3454 d53d 6343 043e
000000a0: ab03 1b3e e654 3f3e 80f1 3fbd afa4 b5bd
000000b0: f3f3 813d 53ac 443a 13cd 743e 6f5a 96bd
000000c0: a1ee 5ebe fb1a ab3c 301d 1abc ed3c 593b
000000d0: fe28 a63e 0552 28be 538f 91be 747e 363e
000000e0: 18fa 163d e81c 973d d9f7 2cbe 3677 8e3e
000000f0: 9ec3 afbd 1547 833e 9855 283e e136 383c
00000100: eeec b43c fcb9 013e 1c03 b63d 0704 db3d
00000110: 31dc 263e 5b76 6ebe baa4 0dbd 4e5c e53d
00000120: d263 05be 82f4 1d3e ff93 7ebd 50ae e93d
00000130: c994 3e3e 3022 84be 7b97 40bd e6fa 913e
00000140: 2e6f ce3d 6cad 483d 94b8 103e 22d2 b8bc
00000150: 1c26 b53d 0c3f 863d 54a5 f63d 87e5 d93d
00000160: d089 9bbd cbd8 c13d a753 dcbc 38f0 9ebc
00000170: 9e8a e0bd 1bb9 9c3e 6e3b 98be 273a 53bd
00000180: ea97 13be b600 02bd 9575 ee3d cb87 d93d
00000190: ba37 a03d 693d f23d 37b0 993d 5fce 15bc
000001a0: d3a4 f1bd f306 343e 4e0b c8be d549 563e
000001b0: d0d5 26be ae32 a2be d1ca c3bd 3652 6f3e
000001c0: aa3a 8bbe 3a59 4e3d defc 36bc 039f 03be
000001d0: 27f1 7b3e 1199 d5bc 74d6 5a3e d060 afbd
000001e0: a34a b73c 6fd4 a5bd 1d5e 303e d4d5 eb3d
000001f0: 7594 963d 6b92 00be 195f 7abe be98 7f3d
00000200: a4a9 3d3c d7fc 88bc 1708 143e 3cc9 473d
00000210: 326d 17bd c708 b03d fd42 09be edf2 6ebe
00000220: 06ee a43e 7666 e53d eae3 3e3d 938f ecbd
00000230: 2d2c 423e 002f 8c3c d8f7 1c3e dca2 e1bd
00000240: 3f85 413d 85cb 473e 058d 133c 870a 1b3e
00000250: ad24 793e 0bc4 fdbd 60fc 4d3e 5b93 483e
00000260: 0bd7 13be a122 38bd 1b27 923d 1922 2dbe
00000270: 3fb3 22be d4d3 a5bc 3578 903d 813a 47be
00000280: 4005 c9bd adb0 ac3e 5df5 8fbd 29eb 1f3e
00000290: 0f9f 5d3d 7799 adbc 4227 983e 03b1 c0bd
000002a0: 59f7 cbbd f140 783e 77e4 c53e 1400 8bbe
000002b0: 5106 8e3e 8882 973d ad69 a03d f0f5 c63d
000002c0: 4e53 a73c 2ec1 b63a b84e 8ebe f00d a83d
000002d0: 811f 5ebe 6a92 99be bbc4 bebc 43e2 573d
000002e0: ea15 103e ab96 8c3d 7027 cfbb ac60 2fbe
000002f0: a3e8 cbbe f28e adbd fa4f c03c 76d2 a8bb
00000300: 70f9 04be ff34 973d 4dd6 a43d 5a12 833d
00000310: eb71 ebbd 5a70 093e e30b e7bd 81bc 70be
00000320: 512e 5a3d e2e6 fe3d 0a1f a2be fbf9 00be
00000330: df09 7239 e850 993e c661 6ebd 6079 0e3e
00000340: 4d81 913c 0159 c2bd 6f8a cdbc 8a13 26bd
00000350: 0efa 7abd c5f2 e5bd 6272 bb3d 6d45 0a3e
00000360: 68d3 ffbd 7187 ba3d a0d2 ed3d 638f 5a3e
00000370: a761 bf3d 1c21 403e 14e6 873d 1f5d 533d
00000380: 63eb 83bc 50dc 09be d088 05be 289e 84bd
00000390: 74fd 19be eb51 a83c 9ad3 b7bd d0dd 55be
000003a0: c793 43be c8c5 293e 889c e23d b8e4 cbbe
000003b0: f99b bfbd 4c09 b33c a66e 3bbe 6abb 023e
000003c0: 0c00 703d 63c7 5cbd 5770 66bd 5ebb 18bd
000003d0: aa32 8fbe c00b 1cbd 721e 4fbd 27bd 5abe
000003e0: 2a6f 8d3d da87 cbbc a703 44bd 0ecb 483e
000003f0: 8f19 76be 5ab9 86bc 2c97 c2bd eae3 4dbd

0.bias f4 [64]
0.037702907 -0.011379716 -0.0123504875 -0.0038565274 -0.006204283 0.024093196 0.041487683 0.013248947
0.048162226 0.03065158 -0.00841937 0.035575878 -0.0154213505 -0.021796137 -0.01867293 0.0024203612
-0.038873404 -0.012010278 -0.011815625 -0.009259256 -0.02374031 -0.012285772 -0.020326002 -0.056965064
-0.004449825 -0.024451075 0.015417989 -0.013210585 0.029022284 0.0578663 0.0114093255 -0.0073615955
-0.023622537 -0.004958751 -0.013027594 0.015913177 -0.0046851924 0.0253493 -0.016812101 -0.01964151
-0.020950556 -0.017140443 -0.0119173555 -0.029676063 -0.0061463728 0.0385079 0.012217739 -0.04579735
0.01899619 -0.0238484 -0.0229918 0.013321861 0.058333997 0.03929528 0.030416878 -0.027786348
0.03328089 -0.008544115 -0.0131725315 0.029100029 0.003269692 0.03445983 0.0135121755 0.021479584
00000000: 5d6e 1a3d fd71 3abc b359 4abc cbbd 7cbb
00000010: 4c4d cbbb 185f c53c fdee 293d 1d12 593c
00000020: c145 453d 0619 fb3c 66f1 09bc 03b8 113d
00000030: d5a9 7cbc d08d b2bc f9f7 98bc ec9e 1e3b
00000040: b839 1fbd c2c6 44bc 5396 41bc 22b4 17bc
00000050: 0a7b c2bc 434a 49bc b782 a6bc 3354 69bd
00000060: d6cf 91bb 9f4d c8bc bc9b 7c3c 3671 58bc
00000070: 24c0 ed3c 3705 6d3d 2eee 3a3c 8a39 f1bb
00000080: 0d84 c1bc 057d a2bb b171 55bc 5a5c 823c
00000090: 3e86 99bb 56a9 cf3c 88b9 89bc 3be7 a0bc
000000a0: 80a0 abbc 1d6a 8cbc 0341 43bc 371b f3bc
000000b0: 8367 c9bb 76ba 1d3d e92c 483c 0196 3bbd
000000c0: e69d 9b3c b85d c3bc 4d59 bcbc ef43 5a3c
000000d0: a1ef 6e3d 16f4 203d d12c f93c 32a0 e3bc
000000e0: 8b51 083d 9efc 0bbc 9ad1 57bc 2f63 ee3c
000000f0: 5448 563b c025 0d3d 2c62 5d3c f4f5 af3c

2.weight f4 [7, 64]
0.11260963 -0.17854266 0.17667827 -0.018051127 0.18635605 -0.09325918 -0.23019324 0.35485324
0.25436845 0.108996995 -0.21492891 -0.4035553 -0.08950771 -0.0859101 -0.06914964 0.077040166
0.005667884 -0.056976683 0.020614723 0.020630507 0.17077382 -0.12431019 0.15627487 -0.10582772
0.052840855 -0.23986188 0.25905877 -0.16363445 0.08264987 0.11301756 0.48015046 0.42157918
-0.14323126 -0.064903215 -0.11510544 -0.08319631 -0.3194439 0.11213818 -0.03582258 -0.026738904
-0.35620812 -0.06696508 -0.042483203 0.17963749 -0.032649495 -0.08132431 0.1139017 0.1992024
-0.039401088 0.07738995 0.39835256 0.02242296 -0.024684502 -0.12385151 0.076963834 0.06483429
0.057331312 -0.09307774 -0.05729151 -0.14707895 -0.110245906 -0.20277025 0.0067733526 0.05746603
-0.15267707 -0.23852722 0.058503464 0.11945977 0.3922185 0.03086603 0.012784506 -0.06754155
0.21441029 -0.3049163 0.0020196878 -0.023738865 -0.20902121 0.18982844 0.020983715 -0.24712203
0.01902395 0.3520989 0.13544454 0.1918958 -0.028930632 0.24613555 -0.26710942 0.2339306
-0.14448906 -0.10285496 -0.21384054 0.047364783 0.0483337 -0.08339476 0.14713274 0.08981636
0.2347002 0.3247592 -0.22665392 0.2307519 0.14471559 -0.003928416 0.14491345 0.17407154
0.028255844 0.11814766 -0.01257713 0.08224891 0.2555049 -0.23413068 -0.23309307 0.222998
0.048444353 -0.32773226 0.107643634 -0.021357995 0.009527736 -0.14700246 -0.048384365 0.032108977
-0.40636805 -0.044100787 -0.18754618 -0.0502063 0.032733906 -0.14212833 -0.102617085 0.0478102
-0.41423523 -0.0023535704 -0.008569483 -0.26485845 -0.12406404 0.28271624 -0.0627483 -0.07052777
-0.07543486 -0.09747783 0.05088001 -0.13094753 -0.106136955 -0.27707592 0.038046893 -0.07674433
-0.037420996 0.11221833 0.01290701 0.094065465 -0.06089593 -0.10067528 -0.16642165 -0.13153327
0.08622885 0.3265161 0.011855047 -0.067355305 0.050325822 -0.15629955 -0.0058549223 0.29177502
0.29688674 -0.008374397 -0.038173378 -0.28581473 0.030816916 -0.23248798 0.4030046 0.18762086
-0.12989967 0.10123154 -0.21411085 -0.05149491 -0.07694476 -0.05676922 0.21985167 -0.18663642
-0.34167564 0.039049294 -0.099134944 0.043503016 -0.0010944252 0.14586717 -0.1318198 0.035561062
0.061102703 0.049427733 0.23103169 0.12478533 -0.059162594 -0.49974963 0.19094582 0.36345264
-0.10805824 0.19244318 0.3566675 0.22333601 0.029375404 -0.010363415 -0.39527494 -0.03241744
-0.19049175 0.123405814 0.0054612258 -0.14214313 0.0452331 0.00037972766 0.036453128 0.4003927
-0.0051347227 0.14747435 0.24546042 0.007643879 -0.14554897 0.24835601 0.10558787 0.07246071
0.2212593 0.13633442 0.29535478 0.43139043 0.089095056 9.146426e-05 -0.12063219 -0.05599587
0.17729504 -0.057642628 0.041759726 0.024772469 0.1267488 0.004848945 0.09439589 0.11581365
0.08336391 -0.028386284 0.308621 -0.10559318 -0.03813193 0.074390315 0.13863434 0.17463195
0.27064735 0.29530764 0.11099348 0.064331636 -0.2707334 -0.26243722 -0.018552793 -0.112246
-0.0774492 0.13241985 -0.08584484 0.17935853 -0.004817833 -0.170594 -0.2514357 0.17642382
00000000: e19f e63d e3d3 36be 26eb 343e f5df 93bc
00000010: 1fd4 3e3e abfe bebd c7b7 6bbe 53af b53e
00000020: 953c 823e d139 df3d 5316 5cbe cd9e cebe
00000030: d14f b7bd a2f1 afbd 549e 8dbd 3cc7 9d3d
00000040: a8b9 b93b 6260 69bd 35e0 a83c 4f01 a93c
00000050: 55df 2e3e 5796 febd 8506 203e 34bc d8bd
00000060: a76f 583d 5a9e 75be 5aa3 843e ca8f 27be
00000070: 5644 a93d c075 e73d 48d6 f53e 3ad9 d73e
00000080: 37ab 12be faeb 84bd 67bc ebbd d462 aabd
00000090: 278e a3be b4a8 e53d b3ba 12bd 8c0b dbbc
000000a0: e960 b6be fd24 89bd de02 2ebd e4f2 373e
000000b0: 7abb 05bd 5c8d a6bd 4b45 e93d b7fb 4b3e
000000c0: 0963 21bd 9f7e 9e3d def4 cb3e 5bb0 b73c
000000d0: 2737 cabc dca5 fdbd 379f 9d3d d7c7 843d
000000e0: 3dd4 6a3d 8b9f bebd 81aa 6abd dd9b 16be
000000f0: 9bc8 e1bd 01a3 4fbe 00f3 dd3b 8061 6b3d
00000100: 6157 1cbe 7b40 74be 54a1 6f3d 53a7 f43d
00000110: ddd0 c83e c2da fc3c 1b76 513c 3953 8abd
00000120: 5f8e 5b3e fd1d 9cbe bd5c 043b 0278 c2bc
00000130: a809 56be 6362 423e 0ae6 ab3c 8f0d 7dbe
00000140: 1dd8 9b3c 4f46 b43e f9b1 0a3e 5580 443e
00000150: efff ecbc f50a 7c3e 91c2 88be 818b 6f3e
00000160: f1f4 13be 9fa5 d2bd 04f9 5abe 9301 423d
00000170: 8ff9 453d dfca aabd f7a9 163e a4f1 b73d
00000180: 4055 703e d646 a63e f717 68be 3a4a 6c3e
00000190: 5330 143e f1b9 80bb 3164 143e cf3f 323e
000001a0: cd78 e73c 66f7 f13d 4f10 4ebc 1e72 a83d
000001b0: 8ad1 823e f4bf 6fbe f3af 6ebe 9659 643e
000001c0: 966d 463d 86cc a7be 4474 dc3d f6f6 aebc
000001d0: 391a 1c3c d087 16be af2e 46bd b484 033d
000001e0: 790f d0be 07a3 34bd 1b0c 40be 1fa5 4dbd
000001f0: fd13 063d 178a 11be e828 d2bd a1d4 433d
00000200: a416 d4be 5c3e 1abb 0467 0cbc 879b 87be
00000210: 4a15 febd 2fc0 903e 2e82 80bd dd70 90bd
00000220: 987d 9abd 75a2 c7bd 8f67 503d 1c17 06be
00000230: 555e d9bd e5dc 8dbe 0fd7 1b3d 222c 9dbd
00000240: c246 19bd b9d2 e53d ec77 533c 65a5 c03d
00000250: 036e 79bd d72e cebd 706a 2abe a8b0 06be
00000260: c098 b03d 1e2d a73e ac3b 423c 94f1 89bd
00000270: 7322 4e3d fd0c 20be a6da bfbb 8963 953e
00000280: 8a01 983e c434 09bc b05b 1cbd 4f56 92be
00000290: c273 fc3c 5411 6ebe 9e56 ce3e af1f 403e
000002a0: 6b04 05be 7b52 cf3d e03f 5bbe 54ec 52bd
000002b0: 3795 9dbd d786 68bd cc20 613e 9e1d 3fbe
000002c0: 1cf0 aebe 27f2 1f3d 4307 cbbd 3830 323d
000002d0: d172 8fba 345e 153e c5fb 06be 7aa8 113d
000002e0: d446 7a3d bc74 4a3d 9293 6c3e 738f ff3d
000002f0: 7a54 72bd 2fdf ffbe 4d87 433e 7716 ba3e
00000300: a34d ddbd d30f 453e 1f9d b63e 32b2 643e
00000310: b0a4 f03c 50cb 29bc 7a61 cabe 26c8 04bd
00000320: 4510 43be 30bc fc3d 15f4 b23b f88d 11be
00000330: 5846 393d 2f16 c739 e04f 153d 4600 cd3e
00000340: 2d41 a8bb 8403 173e fa59 7b3e 8179 fa3b
00000350: ca0a 15be 0a51 7e3e 743e d83d 4866 943d
00000360: cc91 623e 409b 0b3e be38 973e 35df dc3e
00000370: 7877 b63d 80d0 bf38 020e f7bd ed5b 65bd
00000380: d58c 353e ad1a 6cbd 3f0c 2b3d a2ef ca3c
00000390: 70ca 013e e6e3 9e3b a252 c13d b52f ed3d
000003a0: b3ba aa3d 5a8a e8bc 9203 9e3e 3d41 d8bd
000003b0: 3a30 1cbd f359 983d 29f6 0d3e b8d2 323e
000003c0: 4a92 8a3e 9032 973e 8d50 e33d 4ec0 833d
000003d0: 919d 8abe 2c5e 86be 07fc 97bc 3be1 e5bd
000003e0: b09d 9ebd 1299 073e 6bcf afbd c3a9 373e
000003f0: eade 9dbb 32b0 2ebe 2ebc 80be 72a8 343e

2.bias f4 [7]
0.008726735 -0.026045186 -0.031086544 -0.036090888 0.01308533 -0.015536173 0.06485127
00000000: 94fa 0e3c b75c d5bc 35a9 febc 0ad4 13bd
00000010: da63 563c 6f8b 7ebc bed0 843d

0.weight f4 [64, 84]
-0.020605497 -0.1531625 -0.088487096 -0.19183724 -0.18528831 -0.06702526 -0.31003347 -0.02159386
-0.13153496 -0.015060036 -0.24318978 0.10651795 -0.022902556 0.16040999 -0.109534755 0.098661445
-0.19827114 -0.12065398 -0.125917 -0.24931122 -0.06828845 0.033090554 0.120155804 0.27896598
-0.14513324 -0.09592154 -0.03768982 0.15262529 0.04661322 -0.25925305 -0.07036025 -0.04556511
-0.12844247 0.008572186 0.18243235 -0.043054756 0.05400901 -0.021505617 -0.09314753 -0.017535947
-0.13819143 -0.03694887 0.040336158 -0.10968172 0.17564054 0.04215204 -0.18145491 -0.0102926325
0.13313633 -0.13997342 -0.17954507 -0.3454876 0.30578423 0.10216317 -0.056203604 -0.2816133
-0.07064463 -0.16758777 0.1591571 0.1422086 -0.23799857 -0.10705047 0.12468479 0.06353149
0.14841112 -0.24089055 0.04455184 0.082172126 0.19926164 -0.19100171 -0.1653868 -0.16916814
0.19804691 -0.056759425 0.05450134 -0.11444243 0.18975995 0.004735677 -0.05097115 0.3073704
-0.15839885 0.069012254 -0.25381202 0.0838995 0.015517036 -0.28017655 -0.044821985 0.16357909
0.0054145213 -0.057570226 -0.0533176 0.022100732 0.0740099 -4.2139975e-05 0.14024353 0.027389023
-0.21608333 -0.0592167 0.06577638 0.07282547 -0.30927718 0.20609245 -0.10809218 0.09175983
-0.009526138 0.065225616 -0.09326256 0.01450508 0.1396231 0.075899 -0.14544259 0.16498555
9.8834695e-05 -0.0082874065 0.021229574 -0.19440612 -0.15753022 -0.122739725 -0.25966534 -0.12325249
-0.21217266 -0.07273293 -0.06692408 -0.28045335 -0.21660393 -0.023289917 0.03134292 0.092708156
-0.03910569 0.21081746 -0.089123406 0.09526745 -0.11887279 0.36081782 0.021226775 -0.22183661
0.07137325 0.2488844 0.15639302 -0.43193394 0.014759527 -0.08271627 -0.26680732 0.14798072
0.30870804 -0.118865944 -0.062446106 -0.04911923 -0.2286706 -0.18763895 0.07996144 0.16165105
-0.09205883 0.19462371 0.013823516 -0.03276937 -0.07815548 0.016802996 -0.13387226 0.06992094
0.010742018 0.14518607 0.03801059 -0.17835732 -0.26461968 0.2210876 0.0321762 -0.043294046
0.07320703 0.3036182 -0.106628045 0.008420922 -0.24219249 0.21501093 -0.109837756 0.103948236
0.08043509 -0.117901206 0.16354194 0.10034852 0.012184742 0.15634537 0.18667114 -0.20581263
-0.18347539 0.014241672 -0.0578598 -0.06933138 -0.05466414 -0.10124764 -0.030355005 -0.26237425
0.19818722 -0.1014531 0.13784298 -0.13468689 0.21491243 0.08290908 0.012028245 0.116311386
0.25261778 0.049538836 0.14131604 -0.05525595 -0.047974914 0.0920242 0.18359165 0.12180271
0.073162995 -0.15072866 -0.042261202 0.17561604 -0.21342438 0.19582602 0.034633595 -0.18554586
-0.04519542 -0.18391676 -0.31407574 -0.100206695 0.22230636 -0.122101106 -0.005924361 -0.052979857
0.047631215 0.17854767 -0.16310091 0.32889032 0.28468373 0.0040923213 -0.22687443 -0.011908164
-0.0375221 -0.14281867 -0.12148594 0.25763783 -0.12560901 -0.16648869 -0.17602049 -0.018493285
-0.32894397 0.040710773 -0.045450665 -0.07581298 0.09801156 0.087871864 -0.066138536 0.20523366
-0.04899113 -0.17299281 -0.115769945 -0.28147388 -0.30352408 0.1749296 0.16719373 0.05720224
00000000: dccc a8bc a1d6 1cbe b938 b5bd fb70 44be
00000010: 38bc 3dbe 8a44 89bd b5bc 9ebe 9be5 b0bc
00000020: 1ab1 06be 5fbe 76bc be06 79be 1526 da3d
00000030: 249e bbbc 8442 243e c253 e0bd 030f ca3d
00000040: 9707 4bbe 6f19 f7bd 63f0 00be 714b 7fbe
00000050: d1da 8bbd f689 073d 3f14 f63d a1d4 8e3e
00000060: cf9d 14be 8372 c4bd a460 1abd ce49 1c3e
00000070: 81ed 3e3d d1bc 84be 0919 90bd 7ba2 3abd
00000080: 6c86 03be 5b72 0c3c 8ccf 3a3e 2f5a 30bd
00000090: 8d38 5d3d 8c2c b0bc 22c4 bebd 8ca7 8fbc
000000a0: 0e82 0dbe b357 17bd 8737 253d cfa0 e0bd
000000b0: 1ddb 333e 9ea7 2c3d 51cf 39be 6ea2 28bc
000000c0: e454 083e 3155 0fbe aada 37be c0e3 b0be
000000d0: c08f 9c3e ed3a d13d c035 66bd 9e2f 90be
000000e0: 22ae 90bd 219c 2bbe 14fa 223e 229f 113e
000000f0: e6b5 73be 473d dbbd bd5a ff3d cc1c 823d
00000100: 16f9 173e 03ac 76be fd7b 363d dc49 a83d
00000110: 3e0b 4c3e f495 43be 285b 29be 6a3a 2dbe
00000120: cfcc 4a3e 927c 68bd cc3c 5f3d cb60 eabd
00000130: 6f50 423e bd2d 9b3b 20c7 50bd a75f 9d3e
00000140: 4f33 22be 4c56 8d3d a6f3 81be 80d3 ab3d
00000150: 2b3b 7e3c 4d73 8fbe 4297 37bd 4781 273e
00000160: 4c6c b13b c2ce 6bbd 8e63 5abd 980c b53c
00000170: 8192 973d 74bf 30b8 009c 0f3e f25e e03c
00000180: f344 5dbe 368d 72bd c4b5 863d 8525 953d
00000190: 9459 9ebe e609 533e 6f5f ddbd 94ec bb3d
000001a0: 8513 1cbc 0295 853d 7100 bfbd b7a6 6d3c
000001b0: 5cf9 0e3e ef70 9b3d e7ee 14be f9f1 283e
000001c0: 7945 cf38 e7c7 07bc a5e9 ad3c 6612 47be
000001d0: 9a4f 21be f75e fbbd dbf2 84be cd6b fcbd
000001e0: ca43 59be 01f5 94bd 7e0f 89bd 9597 8fbe
000001f0: 6ccd 5dbe 7fca bebc 6f61 003d c6dd bd3d
00000200: 4a2d 20bd 88e0 573e 5586 b6bd 951b c33d
00000210: 9473 f3bd 1dbd b83e c6e3 ad3c 2329 63be
00000220: 232c 923d 8ddb 7e3e 7e25 203e 7226 ddbe
00000230: f1d1 713c 2667 a9bd f89a 88be 4288 173e
00000240: fb0e 9e3e fd6f f3bd 7dc7 7fbd 3f31 49bd
00000250: a028 6abe 6d24 40be d3c2 a33d da87 253e
00000260: 5789 bcbd 704b 473e 077c 623c 2d39 06bd
00000270: fb0f a0bd 70a6 893c cf15 09be b632 8f3d
00000280: 4aff 2f3c a8ab 143e feb0 1b3d 4da3 36be
00000290: 3b7c 87be ca64 623e 31cb 033d 1955 31bd
000002a0: 91ed 953d d873 9b3e ce5f dabd e8f7 093c
000002b0: 4f01 78be d32b 5c3e 9ef2 e0bd d0e2 d43d
000002c0: 27bb a43d 3076 f1bd 8a77 273e 8683 cd3d
000002d0: 83a2 473c 0019 203e b826 3f3e 8cc0 52be
000002e0: f9e0 3bbe e755 693c 66fe 6cbd 9cfd 8dbd
000002f0: 81e7 5fbd ec5a cfbd 0fab f8bc eb55 86be
00000300: 97f1 4a3e a5c6 cfbd b626 0d3e 5ceb 09be
00000310: 0112 5c3e 3ccc a93d 1e12 453c aa34 ee3d
00000320: 1e57 813e 3ce9 4a3d 27b5 103e 1054 62bd
00000330: 5881 44bd 2f77 bc3d 73ff 3b3e b373 f93d
00000340: 7bd6 953d 9d58 1abe 151a 2dbd b1d4 333e
00000350: ec8b 5abe 9e86 483e f5db 0d3d bcff 3dbe
00000360: d51e 39bd ad54 3cbe 89ce a0be 2b39 cdbd
00000370: 47a4 633e 2510 fabd 2421 c2bb 6801 59bd
00000380: f318 433d 33d5 363e ed03 27be 5064 a83e
00000390: 11c2 913e e118 863b c551 68be 761a 43bc
000003a0: c6b0 19bd 0f3f 12be 9fcd f8bd 1be9 833e
000003b0: a69f 00be 037c 2abe b73e 34be 3b7f 97bc
000003c0: 586b a8be 57c0 263d 7a2a 3abd d643 9bbd
000003d0: 49ba c83d 2af6 b33d a473 87bd c628 523e
000003e0: ecaa 48bd 0725 31be cb18 edbd 581d 90be
000003f0: 8267 9bbe bf20 333e d534 2b3e e54c 6a3d

0.bias f4 [64]
-0.024220357 -0.02093596 -0.0022565974 0.00023088534 0.014479115 0.014310424 -0.018299462 -0.0044444134
-0.0015629851 -0.009944308 0.0005171819 -0.005722023 -0.04773801 0.012270104 -0.019763723 -0.006775579
0.0019580508 -0.028906204 -0.0060742623 -0.008230349 -0.006929896 -0.008052434 -0.02749008 -0.020754244
-0.011566604 0.005992161 -0.008952935 -0.030470619 -0.0047408156 -0.0012604804 0.014107531 0.007991572
-0.0005321978 0.020084813 -0.018328017 0.0011892379 0.013954184 -0.033909637 -0.039853107 -0.0061201197
-0.0071170633 0.008534107 0.016920147 -0.043255083 0.00893744 -0.005195172 -0.0030526503 -0.016564218
-0.031653564 -0.005728192 0.0045756167 0.005138119 0.0047752354 -0.01109965 -0.0006991228 0.0038330911
0.0014327508 0.0074576875 0.006378392 0.010120667 0.005611934 -0.034689773 -0.011927862 -0.020741448
00000000: c569 c6bc e481 abbc 6ce3 13bb d019 7239
00000010: cf39 6d3c 4576 6a3c c1e8 95bc 71a2 91bb
00000020: 14dd ccba 73ed 22bc 7d93 073a cf7f bbbb
00000030: ee88 43bd 8c08 493c 88e7 a1bc ad05 debb
00000040: a452 003b b4cc ecbc 9b0a c7bb 96d8 06bc
00000050: 2e14 e3bb 5bee 03bc e032 e1bc ce04 aabc
00000060: da81 3dbc e459 c43b 55af 12bc 859d f9bc
00000070: d858 9bbb b436 a5ba 4623 673c 15ef 023c
00000080: 3183 0bba e888 a43c a324 96bc 34e0 9b3a
00000090: 17a0 643c d5e4 0abd 033d 23bd 498b c8bb
000000a0: 4136 e9bb a4d2 0b3c 1f9c 8a3c 3e2c 31bd
000000b0: 576e 123c 433c aabb f90e 48bb afb1 87bc
000000c0: 2ba7 01bd 8fb3 bbbb 0eef 953b ab5d a83b
000000d0: 9479 9c3b 4edb 35bc 5645 37ba 9934 7b3b
000000e0: 24cb bb3a 9e5f f43b d501 d13b 27d1 253c
000000f0: 50e4 b73b dd16 0ebd 146d 43bc f8e9 a9bc

2.weight f4 [1, 64]
-0.33088285 0.23972672 -0.11383626 -0.1713372 0.02853006 0.06919365 -0.14662434 0.01516082
0.053798582 -0.032816205 0.040926203 0.059140295 -0.11357529 -0.17541671 -0.18523817 -0.028864225
-0.051865276 0.106595136 0.15885486 -0.1905171 0.004554661 0.15308657 0.16174135 0.18245955
0.18327394 0.11741108 0.1665565 -0.3359016 0.054581337 -0.16553916 0.11186075 -0.13019966
-0.10819211 0.021597836 -0.044549678 -0.012884692 -0.062485836 -0.14044484 -0.31994554 -0.081411436
0.14458048 0.2126681 0.114536695 0.15296312 0.10842918 0.1858752 0.05520914 0.1798347
-0.17179488 0.09751728 -0.055050306 0.14186071 0.04488701 0.13192968 0.17807028 0.077604026
-0.36430693 0.09380918 0.07944647 0.07378129 -0.06311983 -0.123282894 -0.004797655 -0.2733693
00000000: 7a69 a9be ec7a 753e fc22 e9bd 0573 2fbe
00000010: dfb7 e93c 66b5 8d3d b124 16be 1765 783c
00000020: e75b 5c3d 496a 06bd 3ca2 273d 183d 723d
00000030: 299a e8bd 70a0 33be 13af 3dbe ab74 ecbc
00000040: af70 54bd 8d4e da3d d9aa 223e ea16 43be
00000050: 443f 953b bac2 1c3e 869f 253e add6 3a3e
00000060: 2aac 3b3e 3875 f03d ca8d 2a3e 4bfb abbe
00000070: ae90 5f3d 1983 29be 4017 e53d 0f53 05be
00000080: d393 ddbd f2ed b03c b979 36bd 511a 53bc
00000090: 26f1 7fbd c6d0 0fbe e7cf a3be 0abb a6bd
000000a0: e80c 143e abc5 593e 3792 ea3d 5da2 1c3e
000000b0: 1e10 de3d 1256 3e3e fb22 623d 9626 383e
000000c0: ffea 2fbe 24b7 c73d 6e7c 61bd ef43 113e
000000d0: 71db 373d 9318 073e 0e58 363e dcee 9e3d
000000e0: 7086 babe 071f c03d d5b4 a23d a51a 973d
000000f0: f844 81bd be7b fcbd a635 9dbb 10f7 8bbe
