saved_models/A2C/using_uniform_for_matchmaking/model0.pth (torch, 48436 bytes, 7 tensors)

0.weight f4 [64, 84]
00000000: 94eb 53be 7764 90be f2ce 853e 2c4e 153e
00000010: c40a d1bd 1fa0 543e 4294 63be 7f97 fbbd
00000020: e62e 373e 15b0 283d b1d2 8b3e cc5a d23d
00000030: 12f1 10be 3f75 06be 52ae a2bc 5075 9b3d
00000040: 3d62 34be 6a2e 4bbe 5b12 df3d 845d ad3d
00000050: 4034 943d 2e21 86bc 85c9 4cbd f108 2fbe
00000060: 9bac 7f3e 533a c2bd ea01 e03e ebb1 0cbe
00000070: 660f 0ebd 5d82 173e a5a3 49be 97da 953b
00000080: 4ec4 fa3d 25af 353e 6cc3 f4bd 72d7 be3e
00000090: 1b68 ff3d 36c8 0ebc 3491 013e 75c8 213d
000000a0: e73e 813c 0422 60bd 500f 95bd f2a6 8d3d
000000b0: 5628 e1bd 4ab0 7cbd 236b cebd 35fe c3bd
000000c0: ed2a 2ebc 8287 5bbd 29d8 8f3d d30b 803e
000000d0: de06 c3bd daa6 673e 7c44 ffbd 20fb 26be
000000e0: 772f 803d 78d3 0dbe f6e4 8d3d 5f3f 153e
000000f0: ff0f 363e b681 273d 7a93 b43d 281a d83d
00000100: e85d 5a3e ff45 e6bd 1533 9cbe 2690 5bbe
00000110: 6475 203c 38c6 0ebe 0e24 153e d9e8 00bd
00000120: ed71 2cbe 1a08 873d 7678 333e 32da d7bd
00000130: cd12 12be 9f12 4d3e e0d6 963c b682 62be
00000140: f7d4 0e3e 9213 d4bc 1623 113e 30a8 3a3d
00000150: f2f6 d13d 5f5c 323e be1c 0cbd 9e36 fcbd
00000160: 32ab 90bb a852 89be 3c98 a9bd c0b2 16bd
00000170: 8785 15be b354 8fbb ac80 a03e b440 6dbd
00000180: 80d3 6d3d ea6a fdbd 42f6 803e f488 c3bc
00000190: 0134 033e 2e7d f1be 305b 30bd 4c0f efbd
000001a0: 787a d6bd 8ca2 213e 192c 5abe 64b4 773d
000001b0: d1bd 38be 395f cd3d 2d51 c53d ff64 063e
000001c0: 5cc6 f5bd fb43 a13e 7f56 0fbd 7153 3cbe
000001d0: f66f 17be 9dbb 0dbd a340 8b3d 37bf 073e
000001e0: d193 64bd b6d9 e83c 51bf abbd e9e5 993e
000001f0: afd1 debd f8e3 aabc 0be4 6e3e fcff 923d
00000200: 8df8 d53c 5610 b53d 8cf5 d43d 9943 4fba
00000210: 003a c6bd b50f febd 93d0 ba3d 4bf4 c53c
00000220: 6635 f7bd c160 bc3d 0423 9c3e a0bd 62bd
00000230: 4f39 d4bd 2344 93bd 56b3 99bd 8c8b 42bd
00000240: 815c db3d 48e6 71bc eb98 debd 4703 13be
00000250: 5576 08bd 4266 a63d a994 46be 7ed3 7ebe
00000260: 6b30 f7bd 9f70 7a3d 5460 10be 4479 0a3e
00000270: 81f2 87bd 9e17 173e 4f15 003d dccd b3be
00000280: 511f ca3d 0fa6 403e c3d2 0fbe fb68 a4bc
00000290: 0929 cabe 4992 5c3e 3dad 4cbc a3a7 35be
000002a0: 28f9 dfbc 0214 e2be c8a2 7f3d 093b 823b
000002b0: 9c7e ba3d a4ce c7bd dd5c 7e3e 8fd9 81be
000002c0: 2aef 813e 0d61 e63d 1794 6f3d 99e0 863e
000002d0: 685c e03e 8bdb bb3a 6142 b03d 2ddd b23e
000002e0: 0b31 22be 1bb0 55be 8827 91bd 27dd 12be
000002f0: 321c b2bd 1410 2d3e 6855 a6bd 071b 593e
00000300: 6045 d2be 4043 b5bc bb1c 32be 9726 e2bd
00000310: 80d7 513d 5447 f43d e003 e13d 75e2 e13c
00000320: 739d 683e 071c 4f3d 9d70 b7bd d869 d8bb
00000330: 5eb3 f9bd 31c1 2cbe 3aa3 9c3d 7093 79be
00000340: 1140 85be 635c 16bd 2d10 0cbe a250 61bd
00000350: 60ed 3ebe 0165 d53d ce50 b7bd 53b8 c33d
00000360: df99 993d 2dab 213e c794 5d3c 405e cabd
00000370: f699 88bd 5543 a2bd f8ca 05be 4f48 a6bc
00000380: a264 893e 0865 f73d 3f66 943d bf5d 08be
00000390: ac72 5bbe 69ed ee3d 5e99 1cbe 0bf9 e4bd
000003a0: 2027 cb3d 4063 d9bc 06b9 14bd 5939 efbc
000003b0: 7fff 3bbd 8b98 4fbe 6530 0bbd 780a a7bd
000003c0: 480f aebd 41ac dabd cc69 cebb 0667 a2bc
000003d0: 8b0b d5bd ef90 0c3e d4bc 84bd b364 e03d
000003e0: ec8b d0bd cb99 943c 738b e1bd 2c0b 1dbd
000003f0: aa35 233e 3e07 19be 42b4 333e ca36 383b
-0.20695335 -0.2820165 0.2613445 0.14580601 -0.102071315 0.20764206 -0.22224525 -0.12284755
0.17888984 0.04118355 0.27309182 0.102712244 -0.14154461 -0.13130663 -0.019858513 0.07590735
-0.176156 -0.19841924 0.10892173 0.08465102 0.072365284 -0.016373243 -0.04999687 -0.17093255
0.24968188 -0.09483781 0.4375146 -0.13739745 -0.034682654 0.14795823 -0.19691332 0.004573177
0.122444734 0.17742594 -0.11951336 0.37273747 0.124710284 -0.008714726 0.12653047 0.03949781
0.015777064 -0.05471994 -0.07278311 0.06916608 -0.109940216 -0.06169156 -0.100790285 -0.095699705
-0.0106303515 -0.053596027 0.07023651 0.2500902 -0.09522794 0.22622243 -0.12464234 -0.16306734
0.06259053 -0.138502 0.069284365 0.14574955 0.1777954 0.040895186 0.088171914 0.10551864
0.21324885 -0.112438194 -0.30507722 -0.21441707 0.009793613 -0.13942802 0.14564535 -0.03147206
-0.16840334 0.06593342 0.17526421 -0.10539664 -0.14264984 0.20026635 0.018413007 -0.22120175
0.13948427 -0.025888238 0.1417354 0.045570552 0.10252179 0.1741805 -0.0342071 -0.12315105
-0.0044149393 -0.26820874 -0.082809895 -0.036791563 -0.14601718 -0.0043741106 0.3134817 -0.057923034
0.05806303 -0.12373908 0.2518788 -0.023869015 0.12812807 -0.47165817 -0.043055713 -0.116728395
-0.10472578 0.15784663 -0.21305884 0.06047477 -0.18041159 0.10027928 0.09634624 0.13124464
-0.12000725 0.31497177 -0.0349946 -0.18391205 -0.14788803 -0.03460275 0.06799438 0.13256536
-0.05580503 0.028424125 -0.083861 0.3005822 -0.10879838 -0.020860657 0.23329179 0.071777314
0.026119495 0.088410065 0.10398397 -0.0007906496 -0.09679031 -0.1240534 0.091218136 0.02416434
-0.12070732 0.09198142 0.30495465 -0.05535662 -0.10362493 -0.071907304 -0.07504909 -0.047496364
0.10711003 -0.014764376 -0.108690105 -0.14356719 -0.033315975 0.08124973 -0.19392647 -0.24885365
-0.12069782 0.06114256 -0.14099246 0.13522822 -0.06638051 0.14755103 0.03127032 -0.35117996
0.098692544 0.18813346 -0.14045243 -0.02006959 -0.39484432 0.21540178 -0.012492475 -0.1773973
-0.027340487 -0.4415589 0.0624111 0.0039743227 0.0910618 -0.097562104 0.24840112 -0.25361297
0.2537778 0.1124898 0.05849084 0.2634323 0.438205 0.0014332397 0.08606411 0.3493437
-0.15839021 -0.2086796 -0.07087618 -0.14342175 -0.08696784 0.16900665 -0.08121759 0.21201716
-0.41068554 -0.022126794 -0.17393772 -0.11042517 0.051230907 0.11927667 0.10987067 0.027573803
0.22716312 0.05056384 -0.08957026 -0.0066044144 -0.12192415 -0.16870572 0.076483205 -0.24372649
-0.2602544 -0.0367092 -0.13678046 -0.055008538 -0.18645239 0.104196556 -0.08950959 0.095566414
0.07500052 0.15787955 0.013524241 -0.09881258 -0.06669991 -0.07922999 -0.13065708 -0.020298151
0.2683459 0.12079817 0.072460644 -0.13317011 -0.21430463 0.11666376 -0.1529288 -0.11180314
0.09919572 -0.026536584 -0.036309265 -0.02920215 -0.045897957 -0.20273034 -0.0339817 -0.08156294
-0.084990084 -0.10677386 -0.006299233 -0.019824516 -0.10402592 0.13727163 -0.064813286 0.10956707
-0.10182938 0.01813974 -0.11012926 -0.038340732 0.1593844 -0.14944169 0.17549232 0.0028108829

0.bias f4 [64]
00000000: 6faf bdbc 0bc3 8bbb ab1c 133b c643 843c
00000010: 6535 bf3c c5d1 ea3b 7d0c 983c c51d c9bb
00000020: f0bd 2cbd 52d1 ef3b fa1d 803c 6f7d 04bc
00000030: f961 303c 3483 e33c 5631 3f3d bc16 16bb
00000040: fe6c 3439 ad91 b1bc 93d3 0cbd 248a 243c
00000050: 3344 e53c dfc9 79bc df53 22bc bc53 dabc
00000060: 2634 d6ba e83e 043d e61f 5a3d 148a 403a
00000070: 055a c63c dabf b4b9 e974 2d3d 21ec e23c
00000080: b05c 85bc 2367 5bbc e0a7 f63c 905a a1bc
00000090: 2154 003d 0ce1 023d e7d9 78bc 35b3 74ba
000000a0: 54f3 5b3b 26b4 063c ae55 6e3c 41b9 11bd
000000b0: 7432 87b9 91b6 94bc 90eb 153c 1ba2 803c
000000c0: 84ec b33c ecd6 3f3d af63 6abc e419 8abc
000000d0: d0b0 b7bb 5085 93bc 0099 1639 26b2 dcbc
000000e0: d820 22bc 467c 073d 2f15 2dbd 17e2 ecbb
000000f0: 0593 eb3b 706b e1bc 9aa1 883c a210 38bb
-0.023154942 -0.0042651943 0.0022447507 0.016145598 0.02334089 0.0071661198 0.018560642 -0.006137582
-0.042173326 0.007318654 0.015639294 -0.008086546 0.010765546 0.027772523 0.04667791 -0.0022901734
0.0001720674 -0.021675909 -0.03438146 0.010042701 0.027986621 -0.015245884 -0.009907692 -0.026651256
-0.0016342446 0.032286555 0.053253077 0.0007344794 0.024212847 -0.00034475216 0.042347822 0.027700486
-0.016279548 -0.013391289 0.030109346 -0.019696504 0.03133023 0.031952903 -0.015188671 -0.0009334565
0.0033561783 0.008221662 0.014546795 -0.035577063 -0.00025786797 -0.01815346 0.009150401 0.015702298
0.021963365 0.046835825 -0.014305993 -0.016858049 -0.0056057945 -0.018007904 0.00014362112 -0.026940417
-0.009895526 0.0330775 -0.04225653 -0.0072291004 0.007189157 -0.02751705 0.01667862 -0.0028086086

2.weight f4 [7, 64]
00000000: e253 26be ffec 0abd 0122 50bb 5538 3c3e
00000010: a7a6 183e 9d70 37bd dd86 143e ad3e 0a3b
00000020: 9ef1 08be c5b3 8d3d 3732 af3e 82ae eabd
00000030: 55be c2bd 504c af3e a33b bcbd 6669 d53e
00000040: 139a 50be 8c64 afbe 1e32 ad3d 70b9 51bd
00000050: 7a7d e63d 398a e9bc e2c4 2d3e 0309 383d
00000060: 4d27 3a3e f063 853e edd1 5d3e 3c39 e03d
00000070: 7113 253d 3667 43bd 8a37 833e 3cb2 3abe
00000080: 0db3 84be 3ba7 ecbd 77bd 103e e752 7ebe
00000090: 9509 9fbe 0952 0d3e e8ae 67bd c34c 5c3e
000000a0: 9973 3abe 7e3a 143e b75c cbbb c54d 1dbe
000000b0: 1bf3 013e c57c a2bd 458d d8bd 839f 93bd
000000c0: 3bcc 4b3d f8a0 6e3e d549 cd3d 2e0e 6abe
000000d0: f9ed 9abe d23c 1abe a674 693d ed5f 02be
000000e0: b6e6 5b3c 3bc9 00be 9568 62be 348a 403b
000000f0: 18ec a3bd 7745 77be ac4a 6c3e e641 753e
00000100: fc01 c13d f1a0 79bd acb0 20be 5849 5ebe
00000110: 07b7 1e3e f372 aa3e 9b56 29bd 71d6 fe3e
00000120: eb02 0fbe b3ef 44be 9ebe 20be b9d1 1a3d
00000130: 6675 88bd 3580 1c3d 2129 5d3d 37f3 84bd
00000140: 5cb4 cf3e e571 2abe e365 02bd da81 693e
00000150: c6ea cabd 5316 d2bd deb3 a33e 4cb5 af3d
00000160: db3f e13d d57c 413e 982e d9bd b171 4c3e
00000170: a781 a33d 8a93 c83d 35dc 123e 8315 2c3d
00000180: b4df 5e3e 9c90 363d 824c dd3c 9662 77be
00000190: 7e7c 07be 71af 21bc 3435 61be 84f8 923b
000001a0: 15e0 963e 745d 973e 42d5 d6be fad3 cc3d
000001b0: ccac e6bc 195b 903e a3b8 27be f8a9 733e
000001c0: 1488 5fbc affd a4bd c544 b63d 43a4 f93c
000001d0: 5971 303e 5c54 08be c372 b0bd be60 4e3b
000001e0: 2cf4 edbc 42e1 5bbe 9f95 c2bd b26e 053e
000001f0: 38fb 2bbe 2de5 c0bd 312c 163e 8e21 27be
00000200: df06 b7bc 8287 583d 517b 113e 2029 84be
00000210: 8a59 4d3d 2359 a33d 17b1 5fbe 0038 453d
00000220: e662 3e3e 8092 583e ec20 42bd 7aa8 cf3b
00000230: d671 0fbe 14cc 593e d5db 59be 38d7 7a3e
00000240: 490d 44be 3038 a43e 8c9b 34bd a432 9e3e
00000250: 4686 bebd c244 75bc 889a bd3d 812e ba3d
00000260: a5eb c13e c4f0 7ebe 20e1 3cbe 0e32 183e
00000270: 69e0 4dbe 28d1 263e f84b ebbc 2f2f 18be
00000280: 8eb6 15be 192d a4bd 649f afbe ba78 183b
00000290: ad4a 8abe 5e35 743d 35a1 94be f9d5 903d
000002a0: da46 6ebe 45d3 a5be 159c 8b3d 63cc b93d
000002b0: df15 16be ae3a 4c3e ce6b ebbd 3caf 83be
000002c0: 2e4c ebbd faf5 afbd e9b4 16be 647b 1c3e
000002d0: b82b 3c3e 5e7c 5f3e a7d0 49be e220 61bc
000002e0: 2c6b fd3c 899e 34bd 74c7 c5bd 0532 acbd
000002f0: b21e a2be 8042 5fbd 6e40 cfbd 80ff 5e3e
00000300: 843d a7bd 936e 63bd 8cfc ab3e 1786 bbbd
00000310: 0ad5 d03e dd89 98bd 8620 ce3d e06c 75be
00000320: f3cc cfbd 5bbc 8a3e 03c8 2cbe 66d2 253d
00000330: bc4a f23d 2af5 283d 4fa4 063e 1809 243d
00000340: 5697 8ebd cb2a 24bc 9009 263d fddb 81bc
00000350: c191 53bd c3d9 50bb 8b2b 473d 3cdb 82be
00000360: 1387 e0bb b67b d83d 7881 a03d dc99 573d
00000370: e0f6 6d3e 05ea 393e 86dc 253e 6b74 8d3e
00000380: 4ab0 6cbe 5c43 49be 4efb 913e c7cd c53d
00000390: 3c94 673e 8d3e 463e b823 a9be a24d 91be
000003a0: 4c93 c63e da17 b9bd c103 08bd d3c1 c6bd
000003b0: 2c31 b2be 9b92 023e a83a ff3d 8f44 28bd
000003c0: 7b2b 24be de21 ab3e 6316 593e 062b 5d3e
000003d0: 1d3e a83d 5f7f 9bbd e4ad 76be 31dd 29be
000003e0: c480 0ebe 1072 4e3e c21e 00be 8625 4cbd
000003f0: c579 683d dee0 6ebd 41eb 57bd 924f 2fbd
-0.16242936 -0.033917423 -0.003175855 0.18380864 0.14907323 -0.04478513 0.14504571 0.0021094487
-0.1337342 0.06919054 0.34217998 -0.11459066 -0.09508959 0.3423791 -0.09191062 0.41681975
-0.20371275 -0.342564 0.08456825 -0.051202238 0.112544015 -0.028508293 0.16969636 0.04493047
0.18179055 0.2605281 0.21662112 0.109484166 0.040301744 -0.04770585 0.2562831 -0.18232054
-0.25917855 -0.11555334 0.14134775 -0.24836312 -0.31061998 0.13800825 -0.056563288 0.21513657
-0.1820816 0.14475438 -0.006206121 -0.15361698 0.12690394 -0.07933954 -0.1057382 -0.07208159
0.049755316 0.23303592 0.10023848 -0.22856972 -0.30259684 -0.15062264 0.05699601 -0.12731905
0.013421705 -0.12576763 -0.22110207 0.002937925 -0.08004016 -0.24147592 0.2307536 0.2395092
0.094242066 -0.0609445 -0.15692395 -0.21707666 0.15499507 0.33290824 -0.04134236 0.4977298
-0.13965957 -0.19232063 -0.15697715 0.037797663 -0.06663017 0.038208205 0.0539943 -0.06491702
0.4056729 -0.1664501 -0.031835448 0.2280344 -0.09908061 -0.10258164 0.31973165 0.085795015
0.109985076 0.18895276 -0.1060459 0.19965245 0.079837136 0.09793766 0.14341815 0.042012703
0.21765023 0.044571504 0.02701402 -0.24158701 -0.13231084 -0.009868489 -0.21992952 0.004485192
0.29467836 0.29563487 -0.41959578 0.10001369 -0.028158568 0.28194502 -0.16379027 0.23795307
-0.013643283 -0.08056199 0.088998355 0.030473834 0.17230739 -0.1331343 -0.08615639 0.0031490768
-0.029047094 -0.21472648 -0.09501194 0.13030508 -0.16795051 -0.09418712 0.14665295 -0.16321394
-0.022342144 0.052863605 0.14207198 -0.25812626 0.05013422 0.07975986 -0.21844898 0.04814911
0.18592414 0.21149635 -0.047394678 0.0063372226 -0.14008269 0.21269256 -0.21275266 0.24496162
-0.19145693 0.32074118 -0.044093654 0.3089801 -0.093029544 -0.014970006 0.0925799 0.09090901
0.37875095 -0.24896532 -0.18445253 0.14862844 -0.20105137 0.16290724 -0.028722748 -0.14861749
-0.1462042 -0.08016414 -0.34301293 0.0023265318 -0.27010098 0.059621207 -0.2902924 0.07072062
-0.23269215 -0.32387748 0.0681688 0.09072187 -0.1465678 0.1994426 -0.114951715 -0.2571963
-0.114891395 -0.08591838 -0.14717449 0.15281445 0.18376052 0.21824786 -0.19708501 -0.01374075
0.030934893 -0.044096503 -0.09657183 -0.08407978 -0.31664044 -0.05450678 -0.10119711 0.21777153
-0.0816603 -0.055525374 0.33591115 -0.09156435 0.40787536 -0.0744817 0.10064797 -0.23967314
-0.10146513 0.2709683 -0.16873173 0.040483855 0.11830661 0.04124943 0.13148616 0.040047735
-0.06962459 -0.010019968 0.040536463 -0.015851969 -0.051652674 -0.0031868077 0.04862551 -0.25557888
-0.0068520396 0.10570471 0.07837194 0.052636966 0.23238707 0.18155678 0.16197404 0.27627882
-0.23114124 -0.19654602 0.28512043 0.096583895 0.2261514 0.19359799 -0.33035064 -0.28379542
0.38784254 -0.090377524 -0.033206705 -0.09704938 -0.3480314 0.12751238 0.1246236 -0.041081008
-0.16032211 0.33424276 0.21199946 0.21598443 0.08214972 -0.075926535 -0.24089772 -0.16588284
-0.13916308 0.20160699 -0.12511733 -0.049840473 0.056756753 -0.05831992 -0.05271459 -0.042800494

2.bias f4 [7]
00000000: 171f fa3c 340f 0fbb 7224 bbbc 17c9 4b3d
00000010: 6042 293b 563e acbc 07e4 21bd
0.030532403 -0.002182913 -0.022844527 0.04975232 0.0025826916 -0.021025818 -0.039524104

0.weight f4 [64, 84]
00000000: eb27 e0bd 5085 69bd 63dd a5bc a9e8 46be
00000010: f508 9c3d 4ac9 60be 11b2 2d3e df3a fe3d
00000020: e632 1a3e 1fdf 1e3e 502b 94bc c41a b1bb
00000030: 1b4c 1f3e 17fc 58be e144 59bd 56f6 d43c
00000040: abcb 113d 0789 ac3e b3c1 4a3e 13b1 08be
00000050: 278c bd3d 45f5 d3be 27c2 b83d 11c8 3bbe
00000060: 06fb 673d a090 3cbe f5dd f63c f549 023e
00000070: 9afe 733e 4a59 223e b6d3 a23d f9ad 8b3d
00000080: a17f e93d 3eab 613e d453 e2bd 91e7 31be
00000090: 9830 b0bc e806 5d3e 9b8f dfbd 3e67 1b3e
000000a0: 13e5 3dbd a707 ebbc 6167 54be 6d40 90bd
000000b0: 69ff 3ebd a166 8f3e 48d9 f93d 5efc 043e
000000c0: a7a1 24bd 37e9 a73d 83ef 333e 4c06 543e
000000d0: 8e41 9d3c 4c34 de3c 4cf7 403e 3929 dd3d
000000e0: 8411 91be ad06 6fbc 60e0 a7bd dfbd 483d
000000f0: 826e 103e 3e58 ef3d 5d70 cabd 30ca 21be
00000100: 8dc8 7bbe db0b d73d ec3e aa3d de91 9ebd
00000110: 137c a0bd 104a 5e3c 81d3 7c3e 4c91 b43b
00000120: d833 c53e 8adc 49be 70af 5ebe 893a f4bd
00000130: 5389 023e 7398 d53d e1e5 38be 9f59 eabd
00000140: 0be8 7c3e d22c 63bd 1ea0 e7bc f38c e1bc
00000150: 366b 9bbe 2a71 d43d afcd ff3d 6bce 283c
00000160: 7f53 8c3d d1da af3e 2f36 45bd 65b5 83bc
00000170: 771a f83c 1f7e e43c 146e 69bd 5b50 493d
00000180: 48a0 6c3d 6551 85be c026 2e3e 93aa 61be
00000190: bc6f 173c 81f9 943e d32d 063e 685f 7f3e
000001a0: 1d13 6dbe 95b5 42ba afba fa3c a715 373d
000001b0: f4f8 9d3b 8382 3abe 023e 603e 052e a63d
000001c0: def9 c03b e353 503e dc99 683d 8fe8 acbc
000001d0: 46a8 64be e0e0 373e 44ff 8cbd ce86 c03e
000001e0: a128 f4bd 7b16 13be e774 f63c 2908 b5ba
000001f0: b904 7fbe f804 22bd 103e a13e dd04 9ebd
00000200: da2a 07be e735 d7bd aec8 973e c69c 0f3d
00000210: 7ff0 d73d 2933 02be af41 bc3d 9fbd 93bb
00000220: 6867 bd3c b630 e7bd 074c 163e 5169 93bd
00000230: 892a 693e cbd9 38be 3486 5abe fa6d 9a3d
00000240: 0287 413c 79a7 0d3e 8fbe 2d3e b663 acbd
00000250: e572 c83c b2a5 293d d5c3 333e 8091 263e
00000260: f01b 78bd e3fc 9abd ca1d 0bbd be52 83bd
00000270: 3c0b 96be 4c7c ffbc 02ae afbe bb64 d33d
00000280: c0d2 e5bc 5e10 3e3c b069 9e3d 47a6 c13d
00000290: 3ed0 053e 3e7e 0cbe caab 07be 6257 91be
000002a0: 9749 50be 4ba3 d83c b59f e5bb 525a e4bc
000002b0: 11c5 a23d dade b3ba 4263 f43e 4727 21be
000002c0: e6e5 913c e775 36bc 2cee 06bc 21b5 c43d
000002d0: cbcc 9fbd e2db f1be f338 5abe 6098 10bd
000002e0: 68d6 8dbe c959 05bd cbf0 3cbe 63ab b93d
000002f0: 91ef 03be 627c 06be 1af7 463e d9f2 d73d
00000300: 5e88 403e ebaa ec3c f5c9 a13c 0e12 373e
00000310: 53a8 b1be f96b 1d3d c1d2 a23d 975b 173d
00000320: a091 933e 95b4 25be 1d22 a73e 5b75 e23d
00000330: 47e4 1e3e e09f 113e b72a 4dbd 3e2d ee3d
00000340: 256f bf3d 8cb8 f43d 39f8 9a3d 8cec 24be
00000350: 7a2e e5bd cdec 643e 3628 053d c8f9 17be
00000360: 5c7b fd3d e085 d83d 6522 56bd 2bff 5cbd
00000370: 6011 06be 72be 99bd a701 43be 4841 213d
00000380: 31ef 54bd 9adb d43d b3bc e43c e756 4dbe
00000390: 6d91 f13d 55ff 90be 45df a63d da58 abbb
000003a0: 91a4 243e 54b6 9c3d 2293 71bd 272a 09be
000003b0: 26eb 22be 69b7 4d3e 20af c53d 336e 3f3e
000003c0: 9cf8 28be db56 8c3c 063b b1bd a4dd d1bd
000003d0: ab5c ac3d 8c5d b8bd e061 f53d 1fd6 7e3e
000003e0: fb3a 5cbc a1de 733d 35e7 673e 4b1b 843d
000003f0: e378 85bd 12bb c73d 3653 89bd 625d 66be
-0.10945114 -0.057011902 -0.020247167 -0.1942469 0.07618896 -0.21951786 0.16962458 0.124135725
0.15058479 0.15514801 -0.01808706 -0.005404802 0.15556376 -0.21189915 -0.053044204 0.025996368
0.035594624 0.33698294 0.19800453 -0.13348798 0.092552476 -0.41398063 0.090214066 -0.18338038
0.05663588 -0.18414545 0.030135134 0.12723525 0.23827592 0.15854374 0.07950537 0.06820292
0.114012964 0.2203798 -0.11051145 -0.17373492 -0.021507546 0.21584666 -0.109160624 0.15176103
-0.04636104 -0.028690172 -0.20742561 -0.07043538 -0.046630297 0.28007987 0.12199646 0.12986895
-0.040193226 0.08198779 0.17571835 0.20705527 0.019196298 0.027124546 0.18844336 0.10798878
-0.28333676 -0.014588994 -0.08197093 0.0490092 0.14104655 0.11686753 -0.09884713 -0.15799785
-0.24588223 0.10500308 0.08312783 -0.07742666 -0.07836165 0.013567463 0.24690057 0.005510485
0.38516116 -0.19713035 -0.21746612 -0.11925227 0.12747698 0.10429468 -0.18056442 -0.11442875
0.24697892 -0.055462666 -0.028274592 -0.02753303 -0.30355233 0.10373147 0.12490403 0.01030312
0.06851863 0.3434663 -0.048147377 -0.016077707 0.030286057 0.02789217 -0.056989744 0.0491489
0.057770044 -0.26038662 0.1700697 -0.22037725 0.009242948 0.29096606 0.13103418 0.24938738
-0.23151822 -0.00074275705 0.030606596 0.044698384 0.0048209373 -0.18213849 0.21898654 0.08114246
0.0058891615 0.203445 0.056787357 -0.021106986 -0.22329816 0.17956877 -0.068846256 0.37602848
-0.11921812 -0.14364044 0.03008504 -0.0013811636 -0.24904145 -0.03955552 0.31492662 -0.07715771
-0.1319994 -0.10508328 0.29645294 0.03506162 0.10543918 -0.12714829 0.09192216 -0.0045086886
0.023120597 -0.11288588 0.1467744 -0.07197822 0.22770132 -0.18051831 -0.21340257 0.075405076
0.0118119735 0.13833417 0.16967224 -0.08417456 0.024468848 0.041417785 0.17555173 0.16266441
-0.06057352 -0.075677656 -0.033963956 -0.06412266 -0.29305446 -0.031187199 -0.34312445 0.10321947
-0.028054595 0.011600582 0.07735002 0.09455543 0.1306772 -0.13720033 -0.13249126 -0.2838698
-0.20340572 0.026445052 -0.007007564 -0.0278751 0.07947744 -0.0013723031 0.47731978 -0.1573764
0.01780982 -0.011136509 -0.008235496 0.0960486 -0.07802733 -0.4723807 -0.21310787 -0.035301566
-0.2770264 -0.03255633 -0.1845123 0.090658925 -0.12884356 -0.13133386 0.194302 0.105443664
0.1880202 0.028890094 0.01974962 0.17877981 -0.34698734 0.03843305 0.07950354 0.03695258
0.2882204 -0.16182168 0.32643214 0.1105754 0.15516768 0.14221144 -0.050089564 0.11629723
0.09347371 0.11949262 0.07566876 -0.1610586 -0.11190505 0.22355957 0.03250905 -0.14841378
0.123770446 0.1057241 -0.052278895 -0.053954285 -0.13092566 -0.07507028 -0.19043599 0.039368898
-0.051985923 0.10393448 0.02792201 -0.20052682 0.11795316 -0.28319803 0.08148054 -0.005229098
0.16078402 0.07651964 -0.058978207 -0.13394986 -0.15910015 0.20089497 0.09652543 0.18694381
-0.16501087 0.01713126 -0.08653836 -0.10247353 0.084161125 -0.09002218 0.11981559 0.24886368
-0.013441796 0.059538487 0.22646792 0.06450518 -0.06517198 0.09752478 -0.06705324 -0.2249656

0.bias f4 [64]
00000000: 9924 cabb daed 783c 6d1b 213d dd23 adbb
00000010: 1dc9 36bc f06a 77bc 3576 1abd ca08 673c
00000020: e6d9 24b9 9dd8 a4bc f131 4abc 165e 04bd
00000030: ba21 74bd ec8d 9e3c 9557 443c 5f5c 40bd
00000040: e223 f2bc 18c7 fdbb d440 7e3b 0611 bebb
00000050: 3e94 0d3c 7687 4dbc 7903 373c 0891 8a3b
00000060: 61d9 d0bc 6312 3cbc a29e 82bc 2d94 14bd
00000070: d32d 3abb fb31 d3bb f570 103c e5eb 42bc
00000080: 04e4 0a3c 6699 b3bc 242c c6bb 1590 8cbc
00000090: 64c0 c8b9 1194 a43b 463c 8dbc 7c9a 46bc
000000a0: 770b 90bc cd87 a63c e7f8 733c 3d04 94bb
000000b0: 6c92 64bb 3f91 063c 4230 d0bc a9a4 e0bb
000000c0: d4a2 9dbc e5a5 0bbb 09ea 6c3c 0f7f cc3c
000000d0: 7fb1 26bd a94e 483c 9965 7abb 4335 c9bb
000000e0: da2c 913b 85cd bd3c 2c4e b8bc 7f18 5fbd
000000f0: 77ed 0e3c a399 0abb 28b4 913c 5b9c 0a3c
-0.0061689136 0.015193427 0.039332796 -0.0052838163 -0.011156348 -0.0151011795 -0.037710387 0.014101217
-0.00015721432 -0.02012282 -0.0123410085 -0.03231629 -0.059602477 0.019354783 0.011983772 -0.046963092
-0.029558126 -0.007744681 0.0038795965 -0.005800369 0.008641301 -0.012544503 0.011170262 0.004228715
-0.02549428 -0.011478993 -0.015944783 -0.036274124 -0.002840866 -0.006445167 0.008815994 -0.011897062
0.008477215 -0.021923732 -0.0060477424 -0.017158547 -0.00038290315 0.0050225337 -0.017240655 -0.012121793
-0.017583592 0.020328427 0.014890886 -0.004517107 -0.0034877313 0.00821334 -0.025413636 -0.0068555665
-0.019242682 -0.0021308598 0.014460095 0.02496293 -0.040696617 0.012225785 -0.003820753 -0.0061403825
0.0044303956 0.023169288 -0.022498213 -0.05446672 0.008723608 -0.0021148704 0.0177861 0.00846013

2.weight f4 [1, 64]
00000000: 1173 553c 742a 823d 1424 73bd cb27 03be
00000010: fe8f 683c 4526 333b ec4e 1b3e ac01 adbd
00000020: 085f 90bd 799a 5d3d d067 1c3e 31af 9cbe
00000030: bd9f d13e 1d19 03bd 4633 77bd b474 91be
00000040: d8a9 4b3e 856e a4be 5d9b 88bd 72a8 243d
00000050: f301 dfbd a342 6a3d c79c f93d ce43 b3bd
00000060: 1cbb 7c3e 24c6 633e 109a a93d a209 1abe
00000070: 29c8 c23d 6192 e6ba 46df a43c 2114 bcbd
00000080: c048 98bd 72d5 4ebe c1f2 6d3e b0f7 3b3e
00000090: 930d 51be bad4 acbd a503 2abd 3769 8ebd
000000a0: 4132 b93a 1dfe 48bd cd22 8bbc 7954 85be
000000b0: 74c1 c7bd 08ed 81be 3606 213e 2b6f 64be
000000c0: c56b 973d 3627 debc 8aef edbc 3245 c1bd
000000d0: 70a4 af3e 6893 fcbc 25f3 523d 9184 59bd
000000e0: 6e39 9ebd db97 38bd 6ac9 a13d f7e8 c93d
000000f0: 05fc c03d a557 19bd a272 48bd 1495 2dbd
0.013027922 0.063557535 -0.05936058 -0.12808149 0.014194487 0.0027336043 0.15166825 -0.084475845
-0.07049376 0.054102395 0.15273976 -0.3060241 0.40942183 -0.03200637 -0.060351633 -0.2840935
0.19889009 -0.3211557 -0.06670258 0.040199704 -0.10889044 0.057192456 0.12188106 -0.08753167
0.24680752 0.22243553 0.08281338 -0.15042737 0.09510834 -0.0017591232 0.020125996 -0.09183527
-0.07435751 -0.2019861 0.23237135 0.18356204 -0.20415334 -0.08439012 -0.041507382 -0.06953662
0.0014129357 -0.049070466 -0.016984368 -0.2604101 -0.09753695 -0.25376153 0.15725026 -0.22308032
0.07393602 -0.027118307 -0.029044885 -0.09437026 0.34305143 -0.030832008 0.051501412 -0.05310494
-0.077257976 -0.045066696 0.07899745 0.09858888 0.09423069 -0.0374371 -0.048937447 -0.0423785
