saved_models/A2C/using_uniform_for_matchmaking/model10.pth (torch, 48448 bytes, 7 tensors)

0.weight f4 [64, 84]
0	0xbe48e02e	-0.19616768
1	0xbe2f7ebc	-0.17138189
2	0xbe1907fd	-0.14944454
3	0xbe1b813b	-0.15186016
4	0x3ea2c537	0.31791088
5	0x3cc8e23d	0.024521941
6	0x3d2a9b9a	0.0416523
7	0x3aca7ba0	0.001544822
8	0x3e5300db	0.20605795
9	0xbe6a605e	-0.22888324
10	0x3e176dfb	0.14788048
11	0x3ddafc54	0.10692659
12	0x3dec0985	0.11525253
13	0xbc4c87f9	-0.01248359
14	0x3c6141ca	0.0137485955
15	0xbe536c7b	-0.20646851
16	0x3d09bee4	0.033629313
17	0xbe78e97b	-0.24307816
18	0xbd920789	-0.071303435
19	0xbe6e8e6a	-0.23296514
20	0x3a6f91df	0.0009138863
21	0xbc58d1fc	-0.013233658
22	0xbd5b7687	-0.053579833
23	0xbe4b9d83	-0.19884305
24	0x3edb3e41	0.42820933
25	0xbc1eddcf	-0.009696438
26	0x3cf7c93b	0.030247321
27	0xbde00839	-0.10939068
28	0x3e03f251	0.12885405
29	0xbe32318c	-0.17401713
30	0x3d4f1793	0.05055959
31	0x3eea507d	0.45764533
32	0xbcce2d57	-0.025168104
33	0xbe372dcd	-0.17888565
34	0xbe253eae	-0.16137192
35	0x3e4786a5	0.19484957
36	0xbd046ed1	-0.032332245
37	0xbcfbdda0	-0.030745327
38	0xbd87155b	-0.0659587
39	0xbe23afea	-0.15985075
40	0x3e08bd44	0.13353449
41	0x3cd7a77e	0.026324984
42	0x3e2d2cbe	0.16911599
43	0x3df3f970	0.11912811
44	0x3ddbad6a	0.107264355
45	0x3e4a910b	0.19781892
46	0x3d488dcd	0.048963357
47	0x3cb4e255	0.02208058
48	0xbe0121ea	-0.12610593
49	0xbc9d4f7f	-0.019202946
50	0x3e5deab2	0.2167156
51	0xbe0cf2b3	-0.13764457
52	0x3ce7a0a4	0.028274842
53	0xbc950d2f	-0.018194763
54	0xbe8305b2	-0.25590283
55	0xbde19bba	-0.110160306
56	0xbbf86e38	-0.0075814985
57	0x3e37bd12	0.17943218
58	0xbe0aed50	-0.1356709
59	0x3e4c431a	0.19947472
60	0x3ce6f640	0.028193593
61	0x3d99a81d	0.07502768
62	0x3db67960	0.08909869
63	0xbda35408	-0.07975012
64	0x3d3ee8c8	0.046608716
65	0x3c216b5f	0.009852259
66	0xbe36008a	-0.17773643
67	0x3e835901	0.25653842
68	0x3e402926	0.18765697
69	0xb9603a09	-0.00021383924
70	0x3e55cfc5	0.20880039
71	0x3e90a386	0.28249758
72	0x3e20afe1	0.15692092
73	0x3e2d4563	0.16921
74	0x3d657ab5	0.056025226
75	0x3e1c5506	0.15266809
76	0xbe15b9d4	-0.14621669
77	0xbc89658b	-0.016772052
78	0x3c62299e	0.013803868
79	0x3be289d0	0.006913401
80	0x3e4de296	0.20105967
81	0x3d56045c	0.05225025
82	0x3e003d47	0.12523375
83	0xbe5817f6	-0.2110289
84	0xbe3dab5e	-0.18522403
85	0x3d7be111	0.061493937
86	0x3dde7282	0.108616844
87	0x3dc6df02	0.09710504
88	0x3dd0e927	0.1020072
89	0xbd619cf6	-0.05508133
90	0xbd1a3027	-0.037643578
91	0x3db0af6c	0.08627209
92	0x3e208478	0.15675533
93	0xbc3b5206	-0.01143313
94	0x3e831a5a	0.25606042
95	0xbd77d1a4	-0.060502663
96	0x3e433ea7	0.19066869
97	0xbdec600b	-0.11541756
98	0x3ddd9e39	0.10821194
99	0x3e5f40e1	0.21802093
100	0x3d63902a	0.055557407
101	0xbbb1c67d	-0.005425273
102	0x3ef8f19a	0.48621827
103	0xbd1e97ef	-0.038719114
104	0xbda9fc0b	-0.083000265
105	0xbd960d4f	-0.07326757
106	0x3d3d25c0	0.04617858
107	0x3d100d56	0.03516897
108	0x3e17db1f	0.14829682
109	0x3da2cfca	0.07949789
110	0xbe04f173	-0.1298273
111	0x3cfa028b	0.03051879
112	0x3e1728f5	0.14761718
113	0xbe8dbd58	-0.2768352
114	0x3dd9f674	0.1064271
115	0x3df70efc	0.12063405
116	0x3d8692c3	0.06570961
117	0x3e8b0f51	0.27160123
118	0x3e51f058	0.2050184
119	0x3d67f5a1	0.056630734
120	0x3db2e3fe	0.08734892
121	0xbd6a9fc5	-0.057281274
122	0x3deb3c99	0.114861675
123	0x3e1910e7	0.14947854
124	0xbe376c50	-0.17912412
125	0x3e7c6d12	0.24650982
126	0x3ddd7d2e	0.10814892
127	0xbdb50987	-0.08839708
128	0xbe6ba356	-0.23011526
129	0x3e446fe4	0.19183308
130	0x3e0133ee	0.12617466
131	0xbcf0efeb	-0.029411277
132	0x3e8dd02a	0.2769788
133	0x3d957bcd	0.07299004
134	0x3abe64fa	0.0014525943
135	0x3cf20bd2	0.029546652
136	0xbdad1d19	-0.084528156
137	0x3bf5af62	0.007497714
138	0x3c4294eb	0.011876325
139	0x3d18d361	0.03731096
140	0xbe4ccb4c	-0.19999427
141	0x3e821bdc	0.2541188
142	0xbdcc4e77	-0.099759035
143	0xbd2ec45a	-0.042667724
144	0xbc695626	-0.014241731
145	0xbbfa083b	-0.0076303757
146	0xbd21bf41	-0.039489035
147	0xbec6811e	-0.38770384
148	0x3e02d9f6	0.12778458
149	0xbe250fe4	-0.16119343
150	0x3c91fa4e	0.01781955
151	0xbddbc00f	-0.10729992
152	0xbe115e6a	-0.14196172
153	0x3e8b82bf	0.2724819
154	0x3e0d6bf9	0.1381072
155	0xbe99f976	-0.30073136
156	0x3e165911	0.14682414
157	0x3e0d81bf	0.13819025
158	0xbd8c997a	-0.06865211
159	0x3d8e48fd	0.06947515
160	0x3c87769e	0.016536053
161	0x3e38b4b4	0.18037683
162	0x3dd86802	0.10566713
163	0xbea17237	-0.31532452
164	0xbdb92c5f	-0.09041666
165	0x3dee90ec	0.116487354
166	0xbe36b660	-0.17843008
167	0x3e748e82	0.23882487
168	0x3e8c02cf	0.27345893
169	0x3e812ea5	0.252309
170	0xbc2ffc6b	-0.0107413335
171	0x3e050bb5	0.12992747
172	0x3dca9580	0.09891796
173	0xba8f62ff	-0.0010939537
174	0xbdf5fcea	-0.1201113
175	0xbec67d82	-0.3876763
176	0x3dcdd9e1	0.10051323
177	0x3e778bf7	0.24174486
178	0xbeb2c3cc	-0.34915006
179	0xbddc6a22	-0.10762431
180	0x3e3ad8ef	0.18246816
181	0x3e42acdd	0.19011255
182	0x3e725e3d	0.23668762
183	0x3c3659b6	0.011129787
184	0xbd2d7a96	-0.042353235
185	0xbca1de86	-0.019759428
186	0x3dec422c	0.11536059
187	0x3df2de69	0.118588276
188	0xbd1a4e05	-0.03767206
189	0x3e22f6af	0.15914415
190	0xbdc543a0	-0.09632039
191	0xbe06a69d	-0.13149495
192	0x3e017bcb	0.1264488
193	0x3dddd5e6	0.108318135
194	0x3d119bab	0.035548847
195	0xbe417e68	-0.18895876
196	0x3de98d64	0.11403921
197	0xbe2e3a68	-0.17014468
198	0x3de5ce16	0.112209484
199	0x3b055e92	0.0020350558
200	0x3dd246bb	0.10267397
201	0x3e104888	0.14090168
202	0x3d8341f8	0.06409067
203	0xbd1e8fec	-0.038711473
204	0xbe9cfa00	-0.30659485
205	0xbe170072	-0.14746264
206	0xbd7cbd42	-0.061703928
207	0x3b41a947	0.002955036
208	0xbcfc1a5b	-0.030774286
209	0x3dcc570c	0.099775404
210	0xbeb85413	-0.36001644
211	0x3b98aa66	0.004658985
212	0x3e40865c	0.18801254
213	0x3d7016bc	0.05861543
214	0x3dcd7341	0.100317486
215	0xbd34ba6a	-0.04412309
216	0xbda1895e	-0.07887529
217	0x3dcf2dd9	0.101161666
218	0xbe384622	-0.17995504
219	0xbd9663ca	-0.07343252
220	0x3d970413	0.07373824
221	0xbc2d8fb4	-0.0105933435
222	0x38f095f0	0.0001147202
223	0x3dedffaf	0.116210334
224	0x3cac1696	0.021006864
225	0xbe698ee1	-0.2280841
226	0x3dcce758	0.10005063
227	0xbca43fbb	-0.02004992
228	0x3db218a3	0.08696105
229	0xbdebe86a	-0.11518939
230	0xbe07d3a5	-0.1326433
231	0x3dd638ff	0.1046009
232	0xbe2e6307	-0.17029963
233	0x3dc5b7dd	0.0965421
234	0xbe7d6aaf	-0.24747728
235	0x3e843c71	0.25827363
236	0x3c9a2892	0.018818174
237	0xbbc5707e	-0.006025373
238	0x3dd7ca87	0.10536676
239	0xbdd0e05a	-0.10199042
240	0x3e93615a	0.2878521
241	0x3d07ad48	0.03312424
242	0x3cbd979b	0.02314358
243	0xbdeeb487	-0.116555266
244	0x3e365d6c	0.17809075
245	0x3df1f0c3	0.118135
246	0x3cc7e50a	0.024401207
247	0xbeab54e6	-0.3346321
248	0x3c6c5c16	0.014426252
249	0x3e4a301c	0.19744915
250	0x3da59495	0.080849804
251	0xbe97a1ac	-0.29615533
252	0xbde4a2ca	-0.11163862
253	0xbe09faca	-0.13474575
254	0xbe32dd2e	-0.17467186
255	0x3dd5c4a7	0.10437899

0.bias f4 [64]
0	0xba10f542	-0.00055297103
1	0x3b9c00c1	0.004760832
2	0xbc9cf8d2	-0.019161616
3	0x3d3e2798	0.04642448
4	0xbc84f197	-0.01622848
5	0x3cf46453	0.029832995
6	0x3ce47cd0	0.027891546
7	0xbc95d139	-0.018288242
8	0xbc0fe89d	-0.008783487
9	0x3d0721dd	0.03299128
10	0xbc7bf6ff	-0.015378713
11	0x3c893381	0.016748192
12	0x3cb2873b	0.021792999
13	0x3c8594cd	0.016306305
14	0x3cf58033	0.029968357
15	0x3d473b13	0.048640322
16	0x3d5b971a	0.0536109
17	0xbc0c53d0	-0.008564904
18	0x3c36a9f0	0.011148915
19	0x3c3742e3	0.011185381
20	0x3c3e4f25	0.011615549
21	0x3cb3256b	0.021868428
22	0xbd21a0f7	-0.03946015
23	0x3ce2a87d	0.027668232
24	0x3cf8d8ef	0.03037688
25	0xbc084b45	-0.008318727
26	0xbd274c15	-0.04084404
27	0x3d1dc470	0.038517416
28	0xbcf07cef	-0.029356448
29	0x3d26fa7a	0.040766217
30	0xbc80f65f	-0.015742479
31	0xbcd2b03a	-0.025718797
32	0x3d6f910d	0.05848794
33	0xbcc20918	-0.023685977
34	0x3cef5e34	0.029219724
35	0xbc765dad	-0.0150369825
36	0xbca0034d	-0.019532824
37	0x3d04f970	0.032464445
38	0xbbf399b6	-0.0074340953
39	0xbd1da11e	-0.03848373
40	0x3cb0ae44	0.021567471
41	0xbc0c5522	-0.008565219
42	0x3d25a450	0.040439904
43	0xbc89a6a3	-0.016803091
44	0x3cf1c86a	0.02951451
45	0x3ce3c775	0.02780507
46	0xbc27f35f	-0.010250895
47	0xbbe73aae	-0.0070565557
48	0x3bd73d27	0.006568569
49	0xbc55036c	-0.013001304
50	0xbbebb553	-0.0071932464
51	0xbd06be94	-0.032896593
52	0xbcc5370e	-0.024074104
53	0xbc6d192a	-0.014471332
54	0x3d99cce4	0.07509783
55	0xbcae1cdd	-0.021253997
56	0x3d7f3ac6	0.06231191
57	0x3cdb20b4	0.026748993
58	0xbc5051db	-0.012714828
59	0xbc1e0568	-0.009644844
60	0x3d7048e5	0.058663268
61	0x3c401079	0.011722677
62	0x3af3a580	0.0018588752
63	0x3caed77e	0.021342989

2.weight f4 [7, 64]
0	0x3e494411	0.19654872
1	0xbd97a8af	-0.07405221
2	0x3d718d64	0.05897273
3	0xbd99cf6a	-0.07510264
4	0x3d1c90ff	0.038224217
5	0xbd750a90	-0.059824526
6	0xbe86d026	-0.2633068
7	0x3e8f8de3	0.28037938
8	0x3c41fcb9	0.011840039
9	0xbe58b1c6	-0.21161565
10	0x3dd66fac	0.104705185
11	0xbc0510a8	-0.008121647
12	0x3c04b456	0.008099636
13	0x3d35e7a3	0.04441036
14	0x3d544e41	0.05183244
15	0xbea94e7b	-0.33067688
16	0xbeaacea0	-0.33360767
17	0x3cbe723c	0.02324783
18	0x3cd7fc2e	0.026365366
19	0xbdaf3b4c	-0.08556232
20	0x3cf05ba2	0.029340569
21	0xbe83778f	-0.25677153
22	0x3e94cf26	0.29064292
23	0x3db7cc41	0.08974505
24	0xbec5b4d3	-0.3861452
25	0x3db81e6a	0.08990176
26	0x3eaa622f	0.33278033
27	0xbbc0630e	-0.0058711832
28	0x3ead73d7	0.3387744
29	0xbead221a	-0.3381508
30	0x3e925d43	0.28586778
31	0xbe52bdad	-0.20580168
32	0xbe28e844	-0.16494852
33	0x3d1aae68	0.037763983
34	0x3df3435b	0.118780814
35	0x3dca1e25	0.09869031
36	0xbe84470d	-0.25835457
37	0x3e121265	0.1426483
38	0xbe50491a	-0.20340386
39	0x3d4b4663	0.049627673
40	0xbb93b748	-0.004507933
41	0x3ded3fce	0.115844354
42	0xbd04c4f4	-0.03241439
43	0x3d0c06a9	0.03418604
44	0x3d784794	0.060615137
45	0xbc89d313	-0.01682428
46	0x3eba3b41	0.36373332
47	0xbc1f5b7e	-0.009726403
48	0xbc9ee1cc	-0.019394778
49	0xbcae672b	-0.021289429
50	0x3e05affc	0.13055414
51	0xbce9b524	-0.028528757
52	0x3e031ac0	0.12803173
53	0xbd4b8f72	-0.049697347
54	0xbebf43d7	-0.37356445
55	0x3e3b745b	0.18306105
56	0xbe98a548	-0.298136
57	0x3cb943e2	0.022615377
58	0xbc87af44	-0.016563065
59	0xbcf2744f	-0.029596476
60	0xbe0ddd75	-0.1385401
61	0xbd63b91f	-0.055596467
62	0x3e8b6f7d	0.27233496
63	0x3dba0ef5	0.09084884
64	0x3e44401f	0.19165085
65	0x3cf838ec	0.03030058
66	0x3dab148d	0.08353529
67	0x3eb3cdc0	0.35117912
68	0xbe809221	-0.25111488
69	0x3e1ec25f	0.15503834
70	0x3cadd798	0.021220967
71	0xbd5e7be8	-0.054317385
72	0xbbe4a255	-0.0069773593
73	0x3dd7d63b	0.10538908
74	0xbdca6c79	-0.09883971
75	0x3e46b787	0.19405948
76	0x3e500707	0.2031518
77	0x3e77cfb9	0.24200334
78	0x3e628c97	0.22123943
79	0x3eacfaef	0.33785197
80	0x3e2f3ca8	0.17112982
81	0xbcda6407	-0.026659025
82	0x3e11c770	0.14236236
83	0x3c8b6987	0.017018093
84	0xbd8733da	-0.06601687
85	0xbc846d4a	-0.016165394
86	0xbd58d833	-0.05294056
87	0x3e7bf540	0.24605274
88	0xbbd69745	-0.0065487945
89	0x3ae10d1c	0.0017170045
90	0xbdf5a02f	-0.11993443
91	0x3eb93f3b	0.36181054
92	0x3d88b0e7	0.066743664
93	0x3e49ec96	0.19719157
94	0x3da94224	0.082645684
95	0xbe75d318	-0.24006307
96	0x3ea92c66	0.33041686
97	0xbe138d6d	-0.14409418
98	0x3e990b9c	0.2989167
99	0x3c310d6a	0.010806421
100	0xbe92b4db	-0.28653607
101	0x3e60c5cc	0.21950454
102	0xbe23e67c	-0.16005892
103	0xbd2d46a8	-0.04230371
104	0x3e360be1	0.17777969
105	0x3c19c684	0.009385709
106	0x3e7098f6	0.2349585
107	0x3bfe6faa	0.0077647762
108	0x3e85be6a	0.26121837
109	0x3e47adc8	0.19499886
110	0x3e43633b	0.19080822
111	0xbc814bae	-0.015783157
112	0x3dba04f2	0.090829745
113	0x3d10f57a	0.035390355
114	0x3cb999ab	0.022656282
115	0xbe604450	-0.21901059
116	0xbd95191f	-0.07280182
117	0xbeadc310	-0.33937883
118	0x3ea9154e	0.33024067
119	0xbd062ce5	-0.03275766
120	0x3e372324	0.17884499
121	0x3ef625c4	0.48075688
122	0x3da56486	0.08075814
123	0xbdf7cf27	-0.12100058
124	0x3ea61e5e	0.32445043
125	0x3d39b393	0.04533727
126	0x3e74328a	0.23847404
127	0x3e1093eb	0.14118926
128	0x3e188924	0.14896065
129	0x3e22e4f6	0.15907654
130	0x3cb7c525	0.022432873
131	0x3d556fe0	0.052108645
132	0x3da11c16	0.07866685
133	0x3de80fe7	0.11331158
134	0x3ebe9f4a	0.37230903
135	0xbe8fc371	-0.28078797
136	0x3d87ff88	0.066405356
137	0xbe00c8d0	-0.12576604
138	0x3e0b4864	0.13601834
139	0x3e770dda	0.24126378
140	0x3e86b9b5	0.26313558
141	0xbebbad7b	-0.36655793
142	0xbe3eca88	-0.18631947
143	0xbddbd08f	-0.10733139
144	0x3e735d50	0.23766065
145	0xbe591695	-0.2120002
146	0x3ea7af62	0.32750994
147	0xbe06bf79	-0.13158979
148	0x3d944a07	0.07240682
149	0x3dfce7a3	0.12348869
150	0x3dfb9a1e	0.12285255
151	0xbe10cbec	-0.1414029
152	0xbe9c8667	-0.3057129
153	0xbda4c609	-0.08045585
154	0xbcb83e8e	-0.022490766
155	0xbe4a45a6	-0.19753131
156	0x3c4c8f17	0.012485287
157	0x3e8ef4de	0.27921194
158	0x3e14eca6	0.14543399
159	0xbe53370b	-0.20626466
160	0x3e0b1ca4	0.13585144
161	0x3e441d01	0.19151689
162	0xbe2cb3fa	-0.1686553
163	0x3e3a2ca8	0.18181098
164	0x3e3d5741	0.18490316
165	0x3d17a7b9	0.037025187
166	0xbd15d927	-0.036584046
167	0x3e86d957	0.26337692
168	0x3cc7dad7	0.024396343
169	0xbe8afddf	-0.27146813
170	0xbccb1426	-0.024789881
171	0x3d27b0b6	0.04094001
172	0x3e68906c	0.22711343
173	0x3e70903d	0.23492523
174	0x3ef4b273	0.47792396
175	0x3e36126f	0.1778047
176	0xbdefa6cb	-0.11701735
177	0xbcdc4c9b	-0.026891997
178	0x3dc28757	0.0949847
179	0x3c0883de	0.008332221
180	0x3dd5896b	0.10426601
181	0xbd0b0359	-0.03393874
182	0x39ac6511	0.00032881697
183	0xbdfc20b0	-0.12310922
184	0x3e73c3cb	0.23805158
185	0xbe2309d2	-0.15921715
186	0x3c57b7d3	0.013166386
187	0x3e00b568	0.12569201
188	0xbdb291ee	-0.0871924
189	0x3d53140f	0.0515328
190	0xbe12a65d	-0.14321275
191	0x3e01a3ff	0.12660216
192	0x3e9b5446	0.30337733
193	0xbe89dc94	-0.269261
194	0x3edeff43	0.43554124
195	0xbe88bbd9	-0.26705816
196	0xbe456db4	-0.1928013
197	0x3eb41005	0.35168472
198	0xbe3dfaaa	-0.18552652
199	0xbe890bfa	-0.2676695
200	0x3e0eefe5	0.139587
201	0x3e21159f	0.15730904
202	0xbe12f0f2	-0.14349726
203	0xbe20140d	-0.15632649
204	0xbdd9733d	-0.10617683
205	0xbe8120a4	-0.25220215
206	0x3e37ea63	0.17960505
207	0x3d6368d5	0.055519897
208	0xbdf9169f	-0.12162518
209	0xbd27f982	-0.041009434
210	0x3db736d8	0.089460075
211	0xbdc24eaf	-0.09487664
212	0x3deb0dad	0.11477218
213	0x3d862a8f	0.06551086
214	0xbc28e068	-0.010307409
215	0x3e2b7998	0.16745603
216	0xbd31877b	-0.043342095
217	0xbe4aece8	-0.19816935
218	0xbc348e17	-0.011020205
219	0xbd1858b2	-0.03719396
220	0xbdf971c5	-0.12179903
221	0xbca44a7e	-0.020055052
222	0xbd90f917	-0.0707876
223	0x3e044c24	0.1291967
224	0xbdaf2ec0	-0.08553839
225	0x3cb5ebfa	0.022207249
226	0xbe9a9e25	-0.3019878
227	0xbdc59ec9	-0.096494265
228	0xbe501059	-0.20318736
229	0x3ebf07a4	0.37310517
230	0x3e2c34d1	0.16817023
231	0xbdeb4824	-0.11488369
232	0x3d2acd50	0.041699708
233	0x3de39831	0.111130126
234	0xbd98b592	-0.07456507
235	0x3e3b68ca	0.18301693
236	0xbd05001c	-0.032470807
237	0x3e8f926c	0.280414
238	0x3d2cc942	0.042184122
239	0xbe85158d	-0.25993004
240	0xbe06871d	-0.13137479
241	0x3c3297c3	0.010900441
242	0xbd7000b7	-0.05859443
243	0x3dd948b2	0.10609569
244	0xbe80e350	-0.25173426
245	0x3e75b00f	0.23992942
246	0xbe0dfb6a	-0.13865438
247	0x3cb6295c	0.022236519
248	0x3aff4a22	0.0019477049
249	0xbe2e8677	-0.17043482
250	0x3e3390a1	0.1753564
251	0x3db4076f	0.0879048
252	0x3ea60db6	0.32432336
253	0xbdfc6f3f	-0.12325906
254	0xbdac9bf8	-0.08428186
255	0x3e30147b	0.17195313

2.bias f4 [7]
0	0xbd6b0294	-0.057375506
1	0x3d856dd8	0.06515092
2	0x3bf3c9b3	0.007439816
3	0xbba0aa2b	-0.004903098
4	0xbbbec104	-0.005821349
5	0xbc117c52	-0.008879738
6	0xbc6942c0	-0.014237106

0.weight f4 [64, 84]
0	0xbd17bbcb	-0.037044328
1	0xbd249409	-0.04018024
2	0xbe316374	-0.17323095
3	0x3b64c00e	0.0034904513
4	0xbc710e10	-0.014712825
5	0x3d92620e	0.07147609
6	0x3d723e83	0.059141647
7	0xbd1b1fb9	-0.03787205
8	0xbc865185	-0.016396293
9	0x3e465b53	0.19370775
10	0x3da71fe6	0.08160381
11	0xbdca60d6	-0.09881751
12	0x3c38ea01	0.01128626
13	0x3dc5ca47	0.09657722
14	0xbde06fbc	-0.10958812
15	0xbdad6b8b	-0.08467778
16	0x3e8508d4	0.25983298
17	0xbd789665	-0.060690302
18	0xbe055b12	-0.13023022
19	0x3d6802ed	0.056643415
20	0xbd494842	-0.049141176
21	0xbe14ca87	-0.14530383
22	0xbe84a71e	-0.2590875
23	0x3cc11bfc	0.023572914
24	0x3d184539	0.03717539
25	0x3e688525	0.2270704
26	0xbe9fcf3f	-0.31212804
27	0x3dfa94a7	0.122353844
28	0x3d349205	0.044084568
29	0xbecd64c0	-0.4011593
30	0xbe6de213	-0.23230772
31	0x3ce10783	0.027469402
32	0xbde91834	-0.113815695
33	0x3d2a9385	0.04164459
34	0xbe34db64	-0.17661816
35	0x3dfe84ea	0.12427695
36	0x3e7f34c5	0.24922474
37	0xbe344c18	-0.17607152
38	0xbe435918	-0.19076955
39	0xbe3575d1	-0.17720725
40	0x3d2c2cc7	0.04203489
41	0xbdf58c95	-0.119897045
42	0xbe0c3e52	-0.13695648
43	0xbe087af2	-0.1332815
44	0x3e283a85	0.16428573
45	0x3d8bd468	0.06827623
46	0xba6c8d9f	-0.0009023789
47	0xbe0a89bd	-0.13529105
48	0xbdfd7605	-0.12376026
49	0xbe0f4823	-0.13992362
50	0x3e1715ab	0.1475436
51	0xbe034748	-0.1282016
52	0x3e264b89	0.16239752
53	0xbdc18e88	-0.09451014
54	0xbd89b8a5	-0.06724671
55	0x3d9ffa00	0.078113556
56	0xbdb0fffc	-0.08642575
57	0xbdd8f15a	-0.10592909
58	0xbd429730	-0.047507465
59	0xbb90cf79	-0.004419264
60	0x3df8789b	0.12132379
61	0xbe3bb133	-0.18329315
62	0x3bc4408f	0.0059891413
63	0x3d364c08	0.044506103
64	0xbe5e3cc2	-0.21702865
65	0x3e86332d	0.2621092
66	0x3d8106c4	0.063001186
67	0x3e2bd9fa	0.1678237
68	0xbd1363f0	-0.03598398
69	0xbe2c6503	-0.16835408
70	0x3deb4475	0.114876665
71	0x3dcf6dcf	0.10128366
72	0x3e781719	0.24227561
73	0x3ea4c6e3	0.3218299
74	0x3ca2fbfd	0.019895548
75	0x3e7a96bc	0.24471563
76	0xbda31ebf	-0.07964849
77	0xbe0c1c5d	-0.13682695
78	0x3e61f9f3	0.22068004
79	0x3e7285c5	0.23683842
80	0xbe5e79f1	-0.21726204
81	0x3d1b45e3	0.037908446
82	0xbe891fd3	-0.26782092
83	0xbdbedb7e	-0.093192086
84	0xbe042ab1	-0.1290691
85	0x3e365ae7	0.17808114
86	0xbdabab46	-0.08382277
87	0xbd5b5031	-0.053543273
88	0x3c7d97f4	0.015478123
89	0xbd99db9e	-0.07512592
90	0x3c58a1ed	0.0132222
91	0xbe2b8855	-0.16751225
92	0xbe911b9d	-0.2834138
93	0x3d07376c	0.03301184
94	0x3d1d3c56	0.03838762
95	0xbdd70f4e	-0.10500966
96	0x3d93c41f	0.072151415
97	0xbd53c3a2	-0.051700242
98	0x3b5af1f7	0.0033408382
99	0xbd2b000f	-0.041748103
100	0x3e40c8d7	0.18826614
101	0xbdf1f678	-0.11814588
102	0x3cb6e1d5	0.022324482
103	0xbc70ff03	-0.014709237
104	0xbe6b1a81	-0.22959329
105	0x3d945366	0.072424695
106	0x3cabf5a0	0.020991147
107	0x3d411c6d	0.04714625
108	0x3e40a725	0.1881376
109	0x3d266879	0.040626977
110	0x3e80ca03	0.25154123
111	0xbde94b84	-0.113913566
112	0xbe85af07	-0.26110098
113	0x3dc448cc	0.095841974
114	0xbcb6c4e8	-0.02231069
115	0x3dfa3c39	0.12218518
116	0x3e303c2b	0.17210452
117	0xbdd60722	-0.10450579
118	0x3e2ff20a	0.17182174
119	0xbea4e319	-0.32204512
120	0x3c712e36	0.01472049
121	0xbf2df230	-0.67947674
122	0x3e190ca9	0.14946236
123	0x3e60cff1	0.21954323
124	0x3dab651e	0.08368896
125	0xbe070af4	-0.13187772
126	0xbca09cab	-0.019605955
127	0xbdae62bc	-0.08514926
128	0x3ba0f029	0.004911442
129	0xbd6cb0e5	-0.057785887
130	0xbe6a44c3	-0.22877793
131	0xbdc9da1d	-0.09856055
132	0xbdc4d3ea	-0.09610732
133	0x3de26fbb	0.11056467
134	0xbcfcdf95	-0.030868331
135	0x3e14134b	0.14460485
136	0x3e812e2f	0.25230548
137	0xbd24f0b0	-0.0402686
138	0xbbede656	-0.007260124
139	0xbe0b38cb	-0.13595884
140	0x3e373aa5	0.17893465
141	0xbc11a5c5	-0.00888962
142	0x3e940b28	0.28914762
143	0xbd1ff1bc	-0.039048895
144	0x3dd5bbaf	0.104361884
145	0x3dc327c3	0.09529068
146	0x3e6a405f	0.22876118
147	0xbd488f93	-0.048965048
148	0xbd969006	-0.07351689
149	0x3e1fef9b	0.15618746
150	0x3d948ed8	0.07253808
151	0xbc908d7d	-0.017645592
152	0x3b0fc439	0.0021937026
153	0xbe3b5934	-0.18295747
154	0x3e7b282e	0.24527046
155	0x3dce81e9	0.10083372
156	0xbd25488a	-0.04035238
157	0xbc992899	-0.018696116
158	0xbe063077	-0.13104425
159	0xbda9b399	-0.08286209
160	0x3e2e92d4	0.17048198
161	0xbc9d4424	-0.019197531
162	0x3d5d46fe	0.05402278
163	0xbe457d5b	-0.192861
164	0xbd0e8618	-0.03479585
165	0x3e8e5624	0.27800095
166	0x3dd0bf00	0.1019268
167	0xbe2df114	-0.16986495
168	0xbd914858	-0.070938766
169	0xbe5f30b7	-0.21795927
170	0xbdfcac36	-0.12337534
171	0xbd7e0e88	-0.062025577
172	0x3b2aedfc	0.002608179
173	0x3cf8082a	0.03027733
174	0xba7464b7	-0.0009322869
175	0x3e4a93c0	0.19782925
176	0xbd5ebd71	-0.054379884
177	0xbd388e4f	-0.04505759
178	0xbdd52d39	-0.10409016
179	0x3dad94e2	0.08475663
180	0xbc36b24a	-0.011150906
181	0x39ce03cd	0.00039294214
182	0xbe05b87e	-0.1305866
183	0x3d82e4b1	0.06391276
184	0xbe8a5d36	-0.2702424
185	0xbde47449	-0.11154992
186	0x3d13fa3e	0.03612732
187	0xbe1c2553	-0.15248613
188	0x3dc12787	0.09431367
189	0x3e1981fc	0.14990991
190	0x3d39389c	0.045220003
191	0x3cc94010	0.02456668
192	0x3dea1cd2	0.11431278
193	0xbcfcb946	-0.030850064
194	0xbe4d3c88	-0.20042622
195	0x3e4a672f	0.19765924
196	0xbe650a9f	-0.22367333
197	0x3e6dad41	0.23210622
198	0x3e1337d6	0.14376768
199	0xbd514ad2	-0.051096745
200	0x3d89e95a	0.067339614
201	0xbd659163	-0.056046855
202	0x3e5879cd	0.21140213
203	0xbdafb5da	-0.08579607
204	0xbe730dea	-0.23735777
205	0xbdf39139	-0.118929334
206	0xbe883799	-0.26604918
207	0xbde6509e	-0.11245845
208	0xbeac228b	-0.33620104
209	0xbe8863af	-0.26638553
210	0xbe9d98b4	-0.30780566
211	0xbd8f1a4b	-0.06987437
212	0xbe1e768b	-0.15474908
213	0xbd5be583	-0.053685676
214	0xbd140615	-0.036138613
215	0xbe483e98	-0.19555128
216	0x3c09dcaf	0.0084144315
217	0xbc9c77b7	-0.019100053
218	0x3e0084bc	0.12550634
219	0xbebeb65d	-0.37248507
220	0x3dfca3ca	0.12335928
221	0x3e12040f	0.1425936
222	0x3d2cd9bf	0.042199846
223	0x3df03673	0.11729135
224	0x3db4999e	0.08818363
225	0xbe02b78e	-0.12765333
226	0xbe1f5a53	-0.155618
227	0x3e56eaf3	0.20988064
228	0x3c588bdd	0.01321694
229	0x3e075dca	0.13219371
230	0x3da058b3	0.07829418
231	0xbd7c8cfc	-0.06165789
232	0x3dcc36ae	0.09971367
233	0xbe2f846f	-0.17140363
234	0xbd0d5b04	-0.034510627
235	0x3dac1ed5	0.08404318
236	0x3ef3e0ba	0.4763239
237	0x3cb3ac54	0.021932758
238	0xbc996301	-0.018723967
239	0x3e007d22	0.12547734
240	0xbcf5ca93	-0.030003821
241	0xbd13697d	-0.035989273
242	0xbda73877	-0.08165067
243	0xbdc4cb7d	-0.09609125
244	0xbe1ed693	-0.15511541
245	0xbdfb0542	-0.12256862
246	0x3e92c26e	0.28663963
247	0xbcab4728	-0.020907953
248	0xbe658b4b	-0.22416417
249	0x3d85dae7	0.06535893
250	0x3c1e33fe	0.009655951
251	0x3e1fb10c	0.15594882
252	0x3e2626d2	0.16225746
253	0x3ec151a3	0.37757596
254	0xb9379af7	-0.00017509969
255	0xbb66fddc	-0.0035246527

0.bias f4 [64]
0	0xbc52fd8c	-0.012877833
1	0x3b428c23	0.0029685579
2	0xbd23971a	-0.039939024
3	0x3b9b15e4	0.004732834
4	0xbc7424cf	-0.014901354
5	0x3c210359	0.009827458
6	0x3bbba80b	0.0057268194
7	0x3c80fd2f	0.015745727
8	0xbc7fb343	-0.015606704
9	0xbb7e59cf	-0.0038810854
10	0x39e4c3aa	0.0004363333
11	0x3bf3267f	0.0074203606
12	0x3a1b456b	0.0005923125
13	0xbc88ab33	-0.016683197
14	0x3c4260a8	0.011863865
15	0xbc1eef59	-0.00970062
16	0x3c583310	0.013195768
17	0xbcd638b8	-0.026150092
18	0x3a0801e8	0.00051882723
19	0xbc08c0ec	-0.008346777
20	0xbad50ddd	-0.0016254742
21	0x3ca6be0a	0.02035429
22	0x3c97149e	0.018442448
23	0xbcd84f5b	-0.026405027
24	0xba67f80a	-0.00088489114
25	0x3d286ce6	0.04111948
26	0xba35238c	-0.0006909899
27	0xbc64ef75	-0.013973107
28	0x398c24a4	0.0002673018
29	0x3cd09bbc	0.025464885
30	0x3ae32289	0.0017329018
31	0x3b1b7ddd	0.0023726143
32	0xbba54683	-0.005043806
33	0xbc877d94	-0.016539373
34	0xbbe839af	-0.0070869545
35	0x3b61422a	0.0034371712
36	0x3b969e28	0.0045964904
37	0xbad57418	-0.0016285209
38	0xbcdeb966	-0.027188014
39	0xbb7de8aa	-0.0038743415
40	0xbbaf05a2	-0.0053412477
41	0xbb5e1db0	-0.0033892207
42	0xbc806369	-0.015672402
43	0x3d0d316c	0.03447096
44	0xbaa05705	-0.0012232965
45	0xbd23a8c5	-0.039955873
46	0xbabed66a	-0.001455975
47	0x3d27af0e	0.04093843
48	0x3ce4c777	0.027927143
49	0x3bb24a07	0.0054409537
50	0x3c9e6504	0.019335277
51	0x39e8e3db	0.00044420254
52	0x3cc6eca9	0.02428277
53	0x3bd721c1	0.006565303
54	0xbc9cbec1	-0.019133927
55	0x3c53721f	0.012905627
56	0x3b6f6cd0	0.0036533363
57	0xba19f3c3	-0.000587281
58	0xbc41dff1	-0.011833177
59	0xbc61e2fb	-0.0137870265
60	0x3b85b637	0.0040805596
61	0x3d0d16c9	0.034445558
62	0x3d674f65	0.0564722
63	0xbd019a07	-0.031641033

2.weight f4 [1, 64]
0	0xbe4d324d	-0.2003872
1	0x3e07e16e	0.13269588
2	0xbe7c68ff	-0.24649428
3	0x3ddee046	0.108826205
4	0xbc9e673c	-0.019336335
5	0x3d419aad	0.04726665
6	0xbde2639b	-0.110541545
7	0xbd4bd8e1	-0.04976738
8	0xbe484ca2	-0.19560483
9	0x3d96514a	0.073397234
10	0xbe2a2e47	-0.16619216
11	0x3d848973	0.06471529
12	0x3d60513d	0.054764975
13	0xbd9a3b51	-0.07530845
14	0xbd0d2e57	-0.03446802
15	0xbde32ed4	-0.11092916
16	0xbe6271d6	-0.22113737
17	0xbe4c9d40	-0.19981861
18	0x3e27dd06	0.16392908
19	0xbebc9521	-0.36832526
20	0x3d89497b	0.067034684
21	0xbd50b82a	-0.050956883
22	0xbdc74715	-0.09730355
23	0x3e4ff402	0.20307925
24	0x3cf7eb67	0.030263616
25	0xbe361a03	-0.1778336
26	0x3e84583a	0.25848562
27	0xbda5ca97	-0.080952816
28	0x3dc078b1	0.0939802
29	0xbe748ecb	-0.23882596
30	0x3d87f9fa	0.06639476
31	0x3d87ec0f	0.066368215
32	0xbc868f4c	-0.016425751
33	0xbe34e2ed	-0.1766469
34	0xbd2c276d	-0.042029787
35	0x3d883041	0.06649829
36	0x3da29b05	0.07939724
37	0x3e3325b9	0.17494859
38	0xbdbde8a1	-0.09272886
39	0xbe846a11	-0.25862172
40	0x3df2b428	0.11850768
41	0x3e2c5b68	0.16831744
42	0xbcfa2f5b	-0.030540159
43	0xbcc8b337	-0.024499519
44	0x3e173923	0.1476789
45	0xbe43dd3b	-0.19127361
46	0x3e290ae1	0.16508056
47	0xbdc67254	-0.09689775
48	0xbe231a9a	-0.15928116
49	0xbdb7d37e	-0.08975886
50	0xbd7dee24	-0.061994687
51	0x3ed1e54f	0.4099526
52	0xbe43a87a	-0.19107237
53	0x3d342b96	0.04398688
54	0xbe32a43d	-0.17445464
55	0xbd180883	-0.037117492
56	0x3c504682	0.012712123
57	0x3db04575	0.08606998
58	0x3e05bb7e	0.13059804
59	0xbe88cdaf	-0.26719424
60	0x3dbe6dc0	0.09298277
61	0xbda75ff0	-0.081725955
62	0xbd0740ed	-0.033020902
63	0xbe9b0530	-0.30277395
