saved_models/DQN/using_melo_for_matchmaking/model8.pth (torch, 49972 bytes, 8 tensors)

0.weight f4 [64, 84]
-0.13052522 -0.0496073 -0.2957023 0.30375946 -0.049322408 0.18194611 0.29353708 0.1504603
-0.04935726 -0.45937446 -0.121465385 0.075621665 -0.12548912 0.057129268 -0.03512278 -0.23270205
0.1956137 0.1530065 0.3850153 0.33583054 0.150685 0.09840468 0.0922884 -0.05996511
-0.09948794 0.06609804 -0.27088138 -0.19462585 -0.5974127 0.04398117 0.1068498 0.14425963
-0.5760337 -0.08979492 -0.22500809 0.04457229 -0.09634086 0.10742907 0.1082278 0.2565184
0.059401054 0.025266416 -0.35516497 -0.34707856 0.4293846 -0.25088954 -0.08087488 -0.03591578
0.016137602 -0.053875133 -0.24892338 0.14976676 -0.21975988 0.19752115 -0.040326677 0.08146269
0.10810208 -0.19677514 -0.06432191 0.005763266 -0.17070074 -0.037109163 0.11538504 0.15322678
0.15166514 0.02938403 0.5665809 -0.06988035 0.14245833 0.32476702 0.22034176 0.34792057
0.2487142 -0.3573057 -0.30000973 -0.02655275 0.12481959 0.10700623 0.60001296 -0.279008
0.21646897 0.026746899 0.20046991 0.33514762 0.026017822 -0.04618248 -0.104867145 0.30684644
-0.0725292 0.01930104 0.033424564 0.19761024 -0.03814759 0.124654524 0.027696077 -0.07088317
0.076868154 0.07503253 -0.026990175 0.010369735 0.12548634 0.10881612 -0.47075382 0.24431047
-0.017933622 0.24271174 0.19468403 0.027149081 -0.064800896 0.084178664 0.024605341 0.010119782
-0.09593341 0.059226785 -0.10859226 0.32729352 -0.12795733 0.13169245 0.026005179 0.34646028
0.21225706 0.06410705 0.053121246 -0.027305586 -0.077913344 -0.07912985 0.28765467 0.18621427
0.06528321 0.2417312 -0.036407944 0.24798879 -0.09300338 0.38419902 0.2329625 0.14878596
0.1266457 0.19526796 0.19804765 -0.20516701 0.3654316 -0.033931248 0.12001154 0.28740516
0.08249079 0.3597817 0.037058532 0.6472779 0.07473 0.35920635 0.13539638 0.8595765
0.17318204 -0.26337117 0.08355553 -0.14407004 0.077767015 0.354815 0.198173 0.5505277
0.2656903 1.3828802 0.4402525 0.33271363 0.34756312 0.70247334 0.13898169 -0.1705188
0.013449667 0.12295606 -0.37232375 -0.13285574 -0.33652022 -0.06692783 0.20513983 -0.021552606
-0.16601549 0.046298355 -0.16961919 -0.24005987 0.111376874 -0.2997538 0.13864812 -0.16896255
-0.1270323 -0.08416817 -0.78328294 0.11807995 -0.023771724 0.24564953 0.1680529 -0.1799869
-0.2710815 0.16539323 -0.10388635 -0.14717457 -0.2348649 -0.09351456 0.053177487 0.18676944
-0.18097913 0.27179918 0.13302778 0.64716023 -0.14898895 -0.120039694 -0.12805709 -0.43675804
-0.24795426 -0.28460172 0.10383387 -0.048746042 -0.22548144 -0.24219581 -0.034746822 0.1813505
0.08824955 0.38441628 -0.15436834 -0.18429513 -0.16188942 -0.0043095606 -0.3247193 -0.36365345
0.23721598 -0.10240487 0.09512271 -0.2828609 -0.056476522 0.2597533 0.13300002 0.6301961
-0.27031836 -0.12079249 0.042377118 0.8113615 -0.28312856 -0.5394587 -0.35114607 -0.07325988
-0.07648972 -0.09244835 0.46332398 0.51530457 0.15201959 1.3924394 -0.10763571 0.0872711
0.5340761 0.37020454 -0.018430596 -0.7321521 0.07635985 -0.18508697 -0.37713757 0.273778
00000000: 67a8 05be 0631 4bbd 4b66 97be 5c86 9b3e
00000010: 4b06 4abd 1550 3a3e 7e4a 963e 4412 1a3e
00000020: d72a 4abd 2133 ebbe d8c2 f8bd 88df 9a3d
00000030: 3880 00be 6100 6a3d e7dc 0fbd 7249 6ebe
00000040: f54e 483e bcad 1c3e ba20 c53e fbf1 ab3e
00000050: 2b4d 1a3e 6588 c93d b301 bd3d fa9d 75bd
00000060: 55c0 cbbd 695e 873d f7b0 8abe 004c 47be
00000070: 0af0 18bf 9925 343d 11d4 da3d ccb8 133e
00000080: f276 13bf 66e6 b7bd 8568 66be 6f91 363d
00000090: 5b4e c5bd c603 dc3d 89a6 dd3d 6156 833e
000000a0: 854e 733d 84fb ce3c 2fd8 b5be 48b4 b1be
000000b0: 4cd8 db3e 9874 80be bba1 a5bd 6d1c 13bd
000000c0: 0133 843c 2cac 5cbd c5e5 7ebe 755c 193e
000000d0: bc08 61be fc42 4a3e 962d 25bd e9d5 a63d
000000e0: a064 dd3d 6c7f 49be 35bb 83bd c7d9 bc3b
000000f0: 2dcc 2ebe c7ff 17bd fe4e ec3d 7be7 1c3e
00000100: 1b4e 1b3e c7b6 f03c 720b 113f 6e1d 8fbd
00000110: 99e0 113e dd47 a63e 45a1 613e a522 b23e
00000120: efae 7e3e c6f0 b6be e09a 99be 2785 d9bc
00000130: 6aa1 ff3d 1526 db3d 739a 193f 23da 8ebe
00000140: 0baa 5d3e 501c db3c fc47 4d3e 7898 ab3e
00000150: 5423 d53c d729 3dbd 96c4 d6bd fa1a 9d3e
00000160: 308a 94bd 371d 9e3c 32e8 083d 575a 4a3e
00000170: a640 1cbd df4a ff3d e2e2 e23c 322b 91bd
00000180: 0d6d 9d3d a8aa 993d 801a ddbc d2e5 293c
00000190: 7e7f 003e fcda de3d a506 f1be 862c 7a3e
000001a0: 88e9 92bc 6d89 783e 405b 473e c067 de3c
000001b0: 55b6 84bd dd65 ac3d 2491 c93c 71cd 253c
000001c0: bc78 c4bd c997 723d 9e65 debd 0493 a73e
000001d0: 3f07 03be 63da 063e d008 d53c 3e63 b13e
000001e0: ea59 593e 8f4a 833d aa95 593d f7af dfbc
000001f0: 0891 9fbd d50e a2bd 7947 933e f4ae 3e3e
00000200: 34b3 853d 6288 773e 7f20 15bd c6f0 7d3e
00000210: 8e78 bebd bcb5 c43e b98d 6e3e 595b 183e
00000220: 69af 013e 53f4 473e 01cd 4a3e 4d17 52be
00000230: da19 bb3e 7efb 0abd 9cc8 f53d c526 933e
00000240: eef0 a83d 4f35 b83e b0ca 173d 01b4 253f
00000250: 0b0c 993d e5e9 b73e 59a5 0a3e 350d 5c3f
00000260: a256 313e 96d8 86be 291f ab3d 1987 13be
00000270: 5044 9f3d 50aa b53e dded 4a3e 62ef 0c3f
00000280: 8f08 883e 3802 b13f c768 e13e 7159 aa3e
00000290: cbf3 b13e 4bd5 333f 3751 0e3e 7b9c 2ebe
000002a0: fe5b 5c3c 63d0 fb3d 38a1 bebe 560b 08be
000002b0: 614c acbe 7511 89bd 2d10 523e 178f b0bc
000002c0: f7ff 29be 58a3 3d3d a7b0 2dbe 41d2 75be
000002d0: 8f19 e43d 5479 99be c6f9 0d3e 8504 2dbe
000002e0: c114 02be 5d60 acbd 3b85 48bf e7d3 f13d
000002f0: ebbc c2bc 8d8b 7b3e 0f16 2c3e 7c4e 38be
00000300: 32cb 8abe d85c 293e 5ec2 d4bd eeb4 16be
00000310: 6d80 70be 9084 bfbd a3d0 593d 7d40 3f3e
00000320: 9852 39be 4329 8b3e 6f38 083e 4bac 253f
00000330: 8f90 18be 5fd7 f5bd 6621 03be c09e dfbe
00000340: b9e7 7dbe 51b7 91be daa6 d43d eea9 47bd
00000350: 9be4 66be 2e02 78be af52 0ebd f2b3 393e
00000360: 2ebc b43d 36d2 c43e bc12 1ebe ddb7 3cbe
00000370: 57c6 25be 3737 8dbb 9c41 a6be c930 babe
00000380: bfe8 723e a5b9 d1bd b2cf c23d 25d3 90be
00000390: ed53 67bd 62fe 843e 2831 083e 8854 213f
000003a0: 2b67 8abe 0e62 f7bd a193 2d3d 63b5 4f3f
000003b0: 3af6 90be f719 0abf 6bc9 b3be 4709 96bd
000003c0: a4a6 9cbd 8f55 bdbd cd38 ed3e 00eb 033f
000003d0: 06ab 1b3e 743b b23f 1c70 dcbd 31bb b23d
000003e0: 36b9 083f 738b bd3e c3fb 96bc 526e 3bbf
000003f0: 8e62 9c3d 7087 3dbe 2d18 c1be a12c 8c3e

0.bias f4 [64]
-0.21156469 2.5899813 2.2161021 2.219746 2.348279 2.4877055 -0.35449636 2.608191
2.4358866 2.465267 2.3626118 -0.016744051 2.2665403 2.391313 1.0001582 2.5271568
-0.0023140914 2.459217 0.11994446 2.7138727 2.3642712 2.0336208 2.2718885 2.3729556
-0.2359477 2.5047507 2.4383345 2.4969404 2.5998101 2.4367263 1.7035248 1.5628747
1.5535679 2.4484854 1.7220268 -0.27736327 2.570732 -0.56023496 -0.3475534 2.429261
2.6943533 1.5273621 0.30727866 0.5646952 -0.09350162 -0.39437315 2.3757093 -0.17426151
2.4156344 -0.3778747 1.8816167 2.457171 2.50786 2.2424736 2.4774485 1.3889872
2.454525 2.5079653 1.8805054 2.1834743 3.3004574e-06 0.0042049806 2.4993973 1.8535547
00000000: 6aa4 58be 41c2 2540 9ed4 0d40 5210 0e40
00000010: 344a 1640 9136 1f40 8c80 b5be 9aec 2640
00000020: 91e5 1b40 efc6 1d40 0835 1740 d22a 89bc
00000030: ff0e 1140 460b 1940 2f05 803f f0bc 2140
00000040: 03a8 17bb d063 1d40 71a5 f53d 17b0 2d40
00000050: 3850 1740 d826 0240 9f66 1140 81de 1740
00000060: 469c 71be d64d 2040 ac0d 1c40 dfcd 1f40
00000070: 4a63 2640 53f3 1b40 1a0d da3f 470c c83f
00000080: 50db c63f fcb3 1c40 606b dc3f 8f02 8ebe
00000090: e086 2440 8f6b 0fbf 85f2 b1be 0379 1b40
000000a0: 4970 2c40 9a80 c33f a153 9d3e dd8f 103f
000000b0: c77d bfbd 47eb c9be 9f0b 1840 9c71 32be
000000c0: c199 1a40 cb78 c1be d1d8 f03f 4a42 1d40
000000d0: c780 2040 b084 0f40 848e 1e40 55ca b13f
000000e0: f016 1d40 8182 2040 67b4 f03f 0bbe 0b40
000000f0: 6d7d 5d36 efc9 893b 20f6 1f40 4841 ed3f

2.weight f4 [7, 64]
0.80750793 0.7916542 1.3279208 1.1866356 1.4009073 0.7565664 0.6926519 0.8580668
0.8152229 0.84166867 1.0057665 -0.31928197 1.0372713 1.1744591 0.5174351 1.1383308
1.0273875 0.9266019 0.7477947 1.059221 0.9066827 1.1861578 0.901604 0.945791
0.24734345 1.091484 0.9761417 1.0073099 1.0252935 0.9541535 0.7874847 1.0238025
0.9344374 1.1901386 0.8075366 0.784929 1.0182723 -0.29843885 0.13822854 0.9569422
1.0733608 1.2846378 1.4023672 1.2167448 1.1866 0.31527334 0.9012821 0.45410737
1.0120382 1.1837163 0.76547825 0.96479106 0.9620612 0.9747243 0.95058304 1.0794158
1.1891085 0.72395384 1.0401434 0.80496347 -0.67965525 0.8835439 0.7214421 1.0568286
-0.0141634075 0.9851536 1.2705104 1.1748998 1.3513653 0.8678147 0.13426813 0.9743316
1.1121743 0.81321216 0.9306664 0.47079778 1.2685628 1.1632214 0.88778716 1.5756967
0.6286738 1.6058824 0.57814896 0.95803094 0.8026642 0.707778 1.4241691 0.9114691
-0.13957906 1.6155608 1.0189049 1.3695974 0.9280198 1.5121343 1.7365899 0.8804166
1.0992488 1.3768663 1.3379748 0.63855875 0.9616189 -0.52606785 -0.677727 0.744551
1.1257167 1.0295473 0.8749331 0.5982577 -0.12982014 -0.76078135 0.74269223 -0.50168484
0.9292443 0.0926369 1.1547226 0.9539558 1.3178899 1.4331492 0.9883733 0.9924243
0.8577366 1.2973558 1.0230578 0.76030374 0.06513026 -0.19014607 0.9857796 0.78716105
0.69234085 0.8370718 0.9390754 1.0106274 1.5006495 0.99739575 0.4072718 0.9909955
1.3798801 0.70210874 0.79160714 0.00082251674 1.3187082 0.94997054 0.78566056 1.7230841
-0.30731165 1.5371559 0.4504137 0.84209085 0.9628771 0.85134286 1.2564025 0.9107897
0.5003102 1.2289042 1.007537 1.2151867 1.0308777 1.6072378 0.21855433 1.3660713
1.0014511 1.185896 1.418326 -0.118902326 0.9866478 -1.2468697 0.1884796 1.0651287
1.2777917 0.13945432 0.27874726 0.93899566 0.5551832 -0.5891788 0.8195668 0.33521608
0.45207193 -0.7855074 0.8104827 0.94846874 1.2857857 1.3473252 1.0972565 0.598959
1.2610294 1.3315622 0.89988655 0.7131718 -0.22105336 0.80793774 1.1434801 1.1126074
-0.8096211 1.0526106 1.1167947 1.2770797 1.5441701 1.0398328 -1.4103302 0.901321
0.9935844 0.96339345 1.009977 -0.77089036 1.3932524 1.1275162 1.3477367 1.1685396
-0.2512063 1.7035075 1.4096382 0.8000303 0.80280495 0.9772605 1.8357543 0.95366764
-1.060648 1.1977614 0.8709001 1.2550929 1.1139675 1.4140365 0.9199557 0.6332073
1.2323945 1.3294872 1.0076886 -0.9095233 1.0483524 -0.26769498 -1.1417357 0.9918787
1.243725 1.3149388 1.1265159 -0.46022388 -0.77946496 -1.2565492 1.0380827 -0.8790543
0.91898555 -0.80119544 1.4480472 1.3022407 1.2664982 1.5582376 1.0667261 0.93424594
0.9214519 1.1424329 1.1682248 0.98040056 -0.33134365 0.83741957 0.9068617 1.9316883
00000000: d7b8 4e3f daa9 4a3f 4ff9 a93f ade3 973f
00000010: ee50 b33f 56ae 413f a351 313f 44aa 5b3f
00000020: 73b2 503f 9977 573f f5bc 803f ed78 a3be
00000030: 4ec5 843f ad54 963f a076 043f d3b4 913f
00000040: 6f81 833f c835 6d3f 796f 3f3f 8e94 873f
00000050: 5c1c 683f 05d4 973f 85cf 663f 5c1f 723f
00000060: 9a47 7d3e bfb5 8b3f 6ce4 793f 88ef 803f
00000070: d13c 833f 6743 743f 9998 493f f60b 833f
00000080: 4a37 6f3f 7656 983f b8ba 4e3f 1bf1 483f
00000090: bf56 823f facc 98be c88b 0d3e 2afa 743f
000000a0: e363 893f 036f a43f c580 b33f 4bbe 9b3f
000000b0: 82e2 973f 826b a13e 6cba 663f c380 e83e
000000c0: 788a 813f 0484 973f 62f6 433f 8cfc 763f
000000d0: a549 763f 8887 793f 6959 733f 4c2a 8a3f
000000e0: b534 983f 0a55 393f 6b23 853f 1612 4e3f
000000f0: e3fd 2dbf ef2f 623f 6eb0 383f 2946 873f
00000100: a30d 68bc 0733 7c3f 16a0 a23f 1e63 963f
00000110: 8af9 ac3f 1b29 5e3f 967d 093e cc6d 793f
00000120: ba5b 8e3f ac2e 503f 2740 6e3f 680c f13e
00000130: 4460 a23f 70e4 943f 0546 633f 6eb0 c93f
00000140: c4f0 203f 8e8d cd3f 9201 143f 8441 753f
00000150: 677b 4d3f f030 353f 2c4b b63f 0a56 693f
00000160: d0ed 0ebe b2ca ce3f 7a6b 823f f84e af3f
00000170: b592 6d3f 9e8d c13f 9448 de3f fb62 613f
00000180: 2fb4 8c3f 283d b03f c242 ab3f 9678 233f
00000190: a82c 763f 62ac 06bf 847f 2dbf e59a 3e3f
000001a0: 7c17 903f 35c8 833f 9efb 5f3f 6b27 193f
000001b0: 92ef 04be 91c2 42bf 1421 3e3f 6b6e 00bf
000001c0: f4e2 6d3f 6ab8 bd3d f3cd 933f 7336 743f
000001d0: 9eb0 a83f 6f71 b73f 0806 7d3f 850f 7e3f
000001e0: a094 5b3f c10f a63f 8ff3 823f 44a3 423f
000001f0: 0463 853d a7b5 42be 0d5c 7c3f 6383 493f
00000200: 403d 313f 564a 563f 3f67 703f 3d5c 813f
00000210: 4815 c03f 5455 7f3f ee85 d03e e2b1 7d3f
00000220: e99f b03f 66bd 333f c4a6 4a3f 2a9e 573a
00000230: 6ecb a83f 4531 733f 0d21 493f 058e dc3f
00000240: f457 9dbe 86c1 c43f a09c e63e 4493 573f
00000250: 1d7f 763f 9bf1 593f ccd1 a03f 8429 693f
00000260: 5414 003f bc4c 9d3f f9f6 803f 3d8b 9b3f
00000270: cdf3 833f f8b9 cd3f b5cc 5f3e 6ddb ae3f
00000280: 8d2f 803f 71cb 973f b58b b53f 1083 f3bd
00000290: f394 7c3f 6d99 9fbf cc00 413e 2356 883f
000002a0: ae8e a33f 1dcd 0e3e f6b7 8e3e 0562 703f
000002b0: 7c20 0e3f 6cd4 16bf 21cf 513f 71a1 ab3e
000002c0: f975 e73e 0317 49bf cb7b 4f3f d9ce 723f
000002d0: a094 a43f 2775 ac3f e772 8c3f 6155 193f
000002e0: 6969 a13f a170 aa3f f75e 663f 6d92 363f
000002f0: d05b 62be 02d5 4e3f 8e5d 923f eb69 8e3f
00000300: 5443 4fbf f2bb 863f 21f3 8e3f 5977 a33f
00000310: 5ea7 c53f 3e19 853f b385 b4bf f9bc 663f
00000320: 8c5b 7e3f f4a0 763f ed46 813f 1259 45bf
00000330: 1856 b23f 7352 903f a382 ac3f b592 953f
00000340: 1d9e 80be 890c da3f 066f b43f c9ce 4c3f
00000350: a084 4d3f be2d 7a3f fff9 ea3f 9023 743f
00000360: 50c3 87bf 3f50 993f 4ff3 5e3f e2a6 a03f
00000370: 7d96 8e3f 26ff b43f 3782 6b3f e019 223f
00000380: 1abf 9d3f a32c aa3f f1fb 803f 85d6 68bf
00000390: 6930 863f 510f 89be 6524 92bf c3eb 7d3f
000003a0: 6132 9f3f ea4f a83f ac31 903f 77a2 ebbe
000003b0: 048b 47bf 9bd6 a0bf e5df 843f b409 61bf
000003c0: a342 6b3f 251b 4dbf 9c59 b93f d3af a63f
000003d0: 9d1c a23f 5474 c73f 7b8a 883f be2a 6f3f
000003e0: 46e4 6b3f 3e3b 923f 6488 953f 88fb 7a3f
000003f0: e0a5 a9be 2161 563f 1728 683f 9041 f73f

2.bias f4 [7]
0.89630824 1.1143891 1.1732707 1.0982138 1.2195017 1.1834073 1.286293
00000000: 7574 653f 4da4 8e3f bc2d 963f 4592 8c3f
00000010: a218 9c3f e479 973f 40a5 a43f

0.weight f4 [64, 84]
-0.1300703 -0.04770269 -0.29284874 0.3067354 -0.045907985 0.17988665 0.29333526 0.15117842
-0.0430134 -0.4629969 -0.11561823 0.07309447 -0.12350168 0.06039069 -0.03427427 -0.2282651
0.19847229 0.15525812 0.37942317 0.33310428 0.15513834 0.101482496 0.08459609 -0.05786475
-0.10536315 0.06848505 -0.26861912 -0.19310005 -0.5944813 0.04369791 0.109692775 0.14554231
-0.57572913 -0.09309764 -0.22504602 0.04275678 -0.09543951 0.0987325 0.10836601 0.2645217
0.06062879 0.03320187 -0.34699234 -0.34864512 0.42973906 -0.25373718 -0.0811402 -0.030719465
0.019612445 -0.04713886 -0.25727192 0.14425474 -0.21785122 0.1933278 -0.044856187 0.0881624
0.10835158 -0.18632247 -0.062375046 0.0068108668 -0.17139243 -0.03676618 0.11572962 0.15158778
0.14375478 0.01724298 0.569224 -0.078963496 0.13683555 0.32660377 0.21230388 0.34642288
0.2508364 -0.35390484 -0.2967613 -0.024745373 0.12445002 0.10764093 0.59077895 -0.28763193
0.21600786 0.022662185 0.19544925 0.33547702 0.023841431 -0.055645265 -0.111446045 0.3072031
-0.07267556 0.018846044 0.03428983 0.19701236 -0.036873005 0.12194201 0.02542513 -0.06428655
0.06921527 0.071037345 -0.033193525 0.0088156285 0.12748535 0.104858495 -0.4742653 0.24654801
-0.01758558 0.23860474 0.19266471 0.027674384 -0.061020233 0.072515704 0.01982538 0.004137196
-0.09886066 0.05472982 -0.11189447 0.32681698 -0.12875372 0.13284688 0.02773255 0.34751964
0.21462215 0.06488118 0.05290145 -0.019964093 -0.08070804 -0.084095635 0.28585818 0.18120988
0.06876704 0.2379098 -0.032168724 0.2442317 -0.08914257 0.37774315 0.23575465 0.15524949
0.13312522 0.20001677 0.18712373 -0.20942318 0.36161184 -0.0421506 0.121329494 0.27908623
0.08533365 0.35907924 0.037906434 0.64272267 0.07485521 0.36359033 0.13014385 0.8628552
0.16307157 -0.2660595 0.071942635 -0.14347827 0.08220882 0.34216782 0.19956334 0.5402537
0.26423544 1.3637067 0.43391207 0.32703972 0.33977503 0.6908007 0.13639069 -0.16654985
0.011311989 0.111894615 -0.3792056 -0.13145883 -0.33674967 -0.06828312 0.20597781 -0.02284823
-0.16368853 0.043317217 -0.17197986 -0.23367973 0.104213744 -0.3041366 0.13354018 -0.16938078
-0.123719856 -0.087633565 -0.7879173 0.11984628 -0.023888037 0.24174215 0.16484629 -0.1790216
-0.26753062 0.15459925 -0.108619705 -0.15427618 -0.2370438 -0.09760995 0.04966519 0.18750694
-0.1826422 0.2718167 0.13474664 0.6473151 -0.14627485 -0.12066665 -0.12855007 -0.4305432
-0.25120473 -0.2894342 0.10389747 -0.054338235 -0.22195156 -0.24645244 -0.031526707 0.17676069
0.09102015 0.37823993 -0.15309204 -0.17810115 -0.15684749 -0.0005352206 -0.3362469 -0.36799863
0.23397721 -0.10962692 0.09716332 -0.29167318 -0.054407172 0.25795898 0.13324662 0.62421525
-0.27173278 -0.11736103 0.036394183 0.81291366 -0.29431173 -0.5421671 -0.3638086 -0.072082356
-0.0717181 -0.10577364 0.463583 0.5049496 0.14969164 1.3729811 -0.114971794 0.08135954
0.5258528 0.3572547 -0.02165049 -0.72864383 0.07336249 -0.19309115 -0.38374355 0.27435666
00000000: 2631 05be e563 43bd 45f0 95be 6c0c 9d3e
00000010: 030a 3cbd 3534 383e 0a30 963e 84ce 1a3e
00000020: d22e 30bd ee0d edbe 40c9 ecbd 8eb2 953d
00000030: 73ee fcbd 3a5c 773d 2d63 0cbd 54be 69be
00000040: 523c 4b3e fcfb 1e3e c143 c23e a58c aa3e
00000050: 96dc 1e3e 0ed6 cf3d b740 ad3d 9703 6dbd
00000060: a3c8 d7bd e441 8c3d 7288 89be 05bc 45be
00000070: ed2f 18bf 94fc 323d 9ba6 e03d 0b09 153e
00000080: fc62 13bf faa9 bebd 7772 66be bc21 2f3d
00000090: ca75 c3bd 4434 ca3d 00ef dd3d 636f 873e
000000a0: e555 783d affe 073d fba8 b1be 9d81 b2be
000000b0: c206 dc3e d7e9 81be d52c a6bd 63a7 fbbc
000000c0: 47aa a03c ad14 41bd 25b9 83be 84b7 133e
000000d0: 6414 5fbe b9f7 453e 1fbb 37bd 7d8e b43d
000000e0: 6fe7 dd3d 51cb 3ebe fa7c 7fbd b12d df3b
000000f0: 7f81 2fbe 2298 16bd a703 ed3d d439 1b3e
00000100: 7434 133e 2641 8d3c aab8 113f 9db7 a1bd
00000110: 9e1e 0c3e 9c38 a73e 3066 593e 575e b13e
00000120: a16d 803e 0433 b5be 19f1 97be cfb6 cabc
00000130: a7df fe3d d972 dc3d 4a3d 173f 7e44 93be
00000140: 2a31 5d3e 0ca6 b93c d923 483e a5c3 ab3e
00000150: 1b4f c33c 4aec 63bd d33d e4bd ba49 9d3e
00000160: edd6 94bd 0563 9a3c 7e73 0c3d 9cbd 493e
00000170: 2608 17bd bcbc f93d 5d48 d03c aba8 83bd
00000180: bcc0 8d3d 077c 913d eff5 07bd 6d6f 103c
00000190: 858b 023e 0dc0 d63d e7d2 f2be 1577 7c3e
000001a0: a20f 90bc cd54 743e e649 453e 64b5 e23c
000001b0: 5af0 79bd 1d83 943d d668 a23c 5191 873b
000001c0: 7577 cabd 602c 603d ee28 e5bd 8e54 a73e
000001d0: 04d8 03be 0309 083e 5f2f e33c 18ee b13e
000001e0: e9c5 5b3e 6de0 843d 31af 583d bd8b a3bc
000001f0: 424a a5bd 553a acbd 015c 923e 158f 393e
00000200: bcd5 8c3d a09e 733e 5ac3 03bd e017 7a3e
00000210: 6190 b6bd 8d67 c13e ab69 713e b9f9 1e3e
00000220: fa51 083e 32d1 4c3e 5d9d 3f3e 0873 56be
00000230: 3025 b93e 1ca6 2cbd 997b f83d 64e4 8e3e
00000240: 69c3 ae3d 3cd9 b73e c743 1b3d 7989 243f
00000250: b04d 993d 8328 ba3e 6e44 053e 14e4 5c3f
00000260: 3cfc 263e f338 88be a956 933d f8eb 12be
00000270: 195d a83d 9f30 af3e 555a 4c3e 114e 0a3f
00000280: de49 873e f18d ae3f b929 de3e c071 a73e
00000290: fef6 ad3e 51d8 303f 00aa 0b3e 0b8c 2abe
000002a0: ec55 393c 0129 e53d 3d27 c2be 259d 06be
000002b0: 746a acbe 05d8 8bbd d9eb 523e 362c bbbc
000002c0: f79d 27be 656d 313d 7d1b 30be bd49 6fbe
000002d0: 046e d53d cbb7 9bbe c2be 083e 2872 2dbe
000002e0: d660 fdbd 3a79 b3bd f3b4 49bf f771 f53d
000002f0: d8b0 c3bc 418b 773e 77cd 283e 7051 37be
00000300: c6f9 88be 444f 1e3e 0274 debd 93fa 1dbe
00000310: 9cbb 72be bae7 c7bd ba6d 4b3d d201 403e
00000320: 8f06 3bbe 8f2b 8b3e 06fb 093e 71b6 253f
00000330: 13c9 15be 1420 f7bd a1a2 03be 2970 dcbe
00000340: e89d 80be b830 94be 32c8 d43d c591 5ebd
00000350: 4547 63be 075e 7cbe 2622 01bd c100 353e
00000360: c668 ba3d aaa8 c13e 29c4 1cbe 2660 36be
00000370: a19c 20be 0c4e 0cba 8e28 acbe 516a bcbe
00000380: b997 6f3e 1484 e0bd 90fd c63d 3056 95be
00000390: 0eda 5ebd 3313 843e cd71 083e 92cc 1f3f
000003a0: 8f20 8bbe fb5a f0bd 1112 153d 1c1b 503f
000003b0: 07b0 96be 77cb 0abf 1f45 babe ea9f 93bd
000003c0: f0e0 92bd da9f d8bd c05a ed3e 6144 013f
000003d0: c448 193e d8bd af3f 5576 ebbd d59f a63d
000003e0: 4a9e 063f 17ea b63e 5e5c b1bc 6788 3abf
000003f0: 133f 963d b0b9 45be 097a c4be 7a78 8c3e

0.bias f4 [64]
-0.21055102 2.565836 2.1918705 2.195831 2.3248546 2.4634655 -0.35203812 2.5838597
2.412125 2.4410408 2.3383489 -0.013855109 2.2428415 2.3676214 0.9790968 2.5044346
-0.0019873963 2.4365587 0.11127765 2.6896582 2.3400657 2.0091803 2.249489 2.348634
-0.2335847 2.4810677 2.4146714 2.4732409 2.5756931 2.413648 1.6815026 1.5388998
1.5324858 2.4246616 1.699104 -0.27493757 2.5467203 -0.55673903 -0.34463772 2.4050045
2.6704485 1.5045463 0.29685888 0.549137 -0.09447649 -0.39310965 2.3515363 -0.16875765
2.3916054 -0.37537372 1.8578923 2.4336686 2.4838908 2.2199838 2.4532754 1.3666999
2.430323 2.4838831 1.8568441 2.1593502 0.0009770927 0.00437959 2.4754853 1.8310499
00000000: b09a 57be a836 2440 9b47 0c40 7f88 0c40
00000010: 6bca 1440 6ba9 1d40 573e b4be f55d 2540
00000020: 4260 1a40 033a 1c40 82a7 1540 8a00 63bc
00000030: b78a 0f40 1c87 1740 16a6 7a3f a848 2040
00000040: fa3e 02bb 94f0 1b40 89e5 e33d 5c23 2c40
00000050: a3c3 1540 6996 0040 a1f7 0f40 0550 1640
00000060: d430 6fbe d0c9 1e40 fa89 1a40 9449 1e40
00000070: 28d8 2440 3579 1a40 7a3b d73f abfa c43f
00000080: 7f28 c43f a82d 1b40 3d7c d93f 9ec4 8cbe
00000090: 77fd 2240 7386 0ebf 5b74 b0be 98eb 1940
000000a0: a1e8 2a40 f994 c03f e3fd 973e 3e94 0c3f
000000b0: e47c c1bd ab45 c9be 927f 1640 cece 2cbe
000000c0: 1010 1940 fc30 c0be 6acf ed3f 3ac1 1b40
000000d0: 11f8 1e40 3714 0e40 7702 1d40 06f0 ae3f
000000e0: 698a 1b40 f1f7 1e40 11ad ed3f cb32 0a40
000000f0: ca11 803a aa82 8f3b 5a6e 1e40 d85f ea3f

2.weight f4 [7, 64]
0.80622935 0.78391385 1.3196379 1.178622 1.3872311 0.7489941 0.67948765 0.8502896
0.8049032 0.83406204 0.9982954 -0.31996652 1.0274336 1.1659408 0.51093966 1.1263641
1.0215008 0.91522795 0.7343369 1.0517181 0.89912504 1.1794115 0.88972837 0.93878746
0.24370757 1.0800558 0.9681783 0.9973297 1.0179904 0.9435716 0.7760651 1.016081
0.92449516 1.1797994 0.79687446 0.7736448 1.0109192 -0.2947075 0.12984502 0.9485333
1.0650718 1.2779992 1.3885926 1.2043778 1.1791579 0.30565086 0.89396626 0.45093068
1.0041454 1.1774558 0.75676405 0.95620275 0.9528695 0.96221906 0.94266057 1.0715712
1.179696 0.7152878 1.0325412 0.79731476 -0.6736892 0.87978715 0.71393526 1.0467225
-0.01848988 0.97705823 1.262787 1.166436 1.3438131 0.85988635 0.13344131 0.9664793
1.1044008 0.8056119 0.92293584 0.46363944 1.2606397 1.1547359 0.8811056 1.5686142
0.61984205 1.5973904 0.57325643 0.9502091 0.794859 0.6994148 1.4160197 0.90360254
-0.14548337 1.6076937 1.010638 1.361017 0.92042315 1.5055962 1.7276545 0.872157
1.0914088 1.3692622 1.3294239 0.632892 0.9538868 -0.53061765 -0.67584056 0.7367007
1.1174395 1.0236372 0.867328 0.5895734 -0.13246171 -0.7602328 0.73539853 -0.5023579
0.921156 0.091198854 1.1468107 0.9464278 1.3096393 1.4259201 0.98063534 0.98334414
0.84966564 1.2888613 1.0155935 0.75252783 0.06170995 -0.19367146 0.97733086 0.7804604
0.6872643 0.8269501 0.9294425 1.0001642 1.4864405 0.98768663 0.39532068 0.98124486
1.3677592 0.69251996 0.78197217 -0.0018112963 1.3084226 0.93958867 0.7740647 1.7091669
-0.3132908 1.5229318 0.43558988 0.83264506 0.953245 0.8418664 1.2442247 0.9013128
0.49453595 1.216348 0.99686944 1.204608 1.0216374 1.5948609 0.20592616 1.3545506
0.9905596 1.1739341 1.4059696 -0.1302371 0.9772109 -1.2421106 0.18792945 1.0552996
1.2676424 0.1297963 0.26798263 0.9241513 0.54756135 -0.58634543 0.81005234 0.33152774
0.44263524 -0.78674126 0.799889 0.93880713 1.2752234 1.3345636 1.0871567 0.58855516
1.2506948 1.3210286 0.88920677 0.70334923 -0.22554357 0.79325944 1.1335436 1.1013749
-0.8050693 1.0408657 1.1044569 1.2643301 1.528321 1.0287833 -1.4028344 0.8903221
0.979183 0.95184994 0.99899936 -0.7793394 1.3800569 1.1145638 1.3314638 1.1528001
-0.25761053 1.6856376 1.3950294 0.7886501 0.7919551 0.9651725 1.8188767 0.9426787
-1.0563712 1.1841385 0.8586208 1.2411935 1.102741 1.4001963 0.9031014 0.6207234
1.2210934 1.3163364 0.99621755 -0.91123235 1.0361686 -0.25700498 -1.130997 0.98018926
1.2315195 1.3003111 1.1150165 -0.46850467 -0.7752309 -1.2404277 1.0268883 -0.87692904
0.9069774 -0.80017173 1.4350278 1.2898384 1.2542014 1.5429872 1.0550207 0.9235854
0.9097132 1.1305772 1.1542982 0.96935374 -0.33903253 0.8300538 0.8942064 1.9166545
00000000: 0c65 4e3f 94ae 483f e5e9 a83f 16dd 963f
00000010: ca90 b13f 14be 3f3f e7f2 2d3f 94ac 593f
00000020: 230e 4e3f 1785 553f 4a90 7f3f a7d2 a3be
00000030: f282 833f 8c3d 953f f1cc 023f b32c 903f
00000040: 8ac0 823f 614c 6a3f 81fd 3b3f b39e 863f
00000050: 0f2d 663f f5f6 963f 3dc5 633f 6054 703f
00000060: 7a8e 793e 453f 8a3f 88da 773f 0051 7f3f
00000070: 824d 823f e98d 713f 34ac 463f f10e 823f
00000080: b7ab 6c3f ab03 973f f7ff 4b3f 960d 463f
00000090: cd65 813f e7e3 96be 18f6 043e 14d3 723f
000000a0: 4654 883f 7a95 a33f 67bd b13f 0d29 9a3f
000000b0: a5ee 963f 457e 9c3e f9da 643f 63e0 e63e
000000c0: d687 803f dfb6 963f 4abb 413f b4c9 743f
000000d0: 41ef 733f fd53 763f 3452 713f 3f29 893f
000000e0: 4700 973f 1a1d 373f 4f2a 843f d21c 4c3f
000000f0: e576 2cbf bb39 613f 76c4 363f 01fb 853f
00000100: 1778 97bc 7d20 7a3f 01a3 a13f c64d 953f
00000110: 1102 ac3f 8321 5c3f d7a4 083e 306b 773f
00000120: 015d 8d3f 953c 4e3f 8645 6c3f 2662 ed3e
00000130: a45c a13f 63ce 933f 2390 613f 5ac8 c83f
00000140: f8ad 1e3f 4a77 cc3f efc0 123f e740 733f
00000150: e17b 4b3f d90c 333f 2240 b53f 7f52 673f
00000160: 98f9 14be e8c8 cd3f 965c 813f ce35 ae3f
00000170: daa0 6b3f 60b7 c03f c823 dd3f ae45 5f3f
00000180: 49b3 8b3f fc43 af3f 902a aa3f 3605 223f
00000190: ed31 743f 8fd6 07bf e303 2dbf 6b98 3c3f
000001a0: 4208 8f3f 8b06 833f 3509 5e3f 48ee 163f
000001b0: 0ba4 07be 9e9e 42bf 1443 3c3f 879a 00bf
000001c0: e1d0 6b3f 77c6 ba3d b1ca 923f 1849 723f
000001d0: 43a2 a73f 8d84 b63f eb0a 7b3f 71bc 7b3f
000001e0: b083 593f 68f9 a43f f8fe 813f aaa5 403f
000001f0: 93c3 7c3d d051 46be 5b32 7a3f 41cc 473f
00000200: 8ef0 2f3f 00b3 533f f2ef 6d3f 6105 803f
00000210: af43 be3f 08d9 7c3f 7967 ca3e dd32 7b3f
00000220: bc12 af3f fd48 313f 542f 483f 0569 edba
00000230: 647a a73f e288 703f 1b29 463f fbc5 da3f
00000240: a767 a0be 6eef c23f a305 df3e 3a28 553f
00000250: dd07 743f 8e84 573f c142 9f3f 70bc 663f
00000260: d133 fd3e 4bb1 9b3f d632 7f3f 9830 9a3f
00000270: 04c5 823f 6724 cc3f 4fde 523e ea61 ad3f
00000280: 5095 7d3f 7943 963f d0f6 b33f e05c 05be
00000290: 7e2a 7a3f 7bfd 9ebf 9470 403e 0f14 873f
000002a0: 1b42 a23f 52e9 043e 0535 893e 2e95 6c3f
000002b0: fb2c 0c3f bc1a 16bf 975f 4f3f 01be a93e
000002c0: 16a1 e23e e067 49bf 87c5 4c3f aa55 703f
000002d0: 853a a33f fbd2 aa3f f327 8b3f 8dab 163f
000002e0: c416 a03f 7717 a93f 0ea3 633f b20e 343f
000002f0: e5f4 66be 0d13 4b3f f517 913f daf9 8c3f
00000300: 0619 4ebf 163b 853f d85e 8d3f 92d5 a13f
00000310: 06a0 c33f 2caf 833f 1490 b3bf 26ec 633f
00000320: bdab 7a3f 70ac 733f 6cbe 7f3f c982 47bf
00000330: b4a5 b03f 07aa 8e3f 686d aa3f f48e 933f
00000340: 87e5 83be f9c2 d73f 5390 b23f f9e4 493f
00000350: 92bd 4a3f 8c15 773f f4d0 e83f 6453 713f
00000360: 2c37 87bf da91 973f 93ce 5b3f 6edf 9e3f
00000370: 9e26 8d3f a239 b33f a731 673f bbe7 1e3f
00000380: ca4c 9c3f b67d a83f 1d08 7f3f 8646 69bf
00000390: 2ca1 843f 2896 83be 82c4 90bf afed 7a3f
000003a0: 6ea2 9d3f 9870 a63f dcb8 8e3f d8df efbe
000003b0: 8875 46bf 56c6 9ebf 1371 833f 6c7e 60bf
000003c0: ac2f 683f 0ed8 4cbf feae b73f 6d19 a53f
000003d0: ac89 a03f 9b80 c53f eb0a 873f 1870 6c3f
000003e0: f7e2 683f c1b6 903f 0bc0 933f 9127 783f
000003f0: ac95 adbe 687e 543f b6ea 643f ef54 f53f

2.bias f4 [7]
0.8897481 1.1066549 1.16353 1.0853794 1.2104102 1.1689715 1.2774622
00000000: 88c6 633f dea6 8d3f 8dee 943f b6ed 8a3f
00000010: b9ee 9a3f dca0 953f e283 a33f
