saved_models/DQN/using_melo_for_matchmaking/model6.pth (torch, 49972 bytes, 8 tensors)

0.weight f4 [64, 84]
00000000: b28c ba3e 1f27 94be be2a 0d3e 77d0 9c3e
00000010: a599 723f ee79 493f aeaf 3ebe d9f1 7dbe
00000020: e2f4 b0be a6a4 debc 983e 04bf abc7 c5be
00000030: ee41 1abe 7fa0 423e d23d cabe cd2b 7c3e
00000040: de21 d63e 6a1d acbd 9a9d 983f d368 693f
00000050: 99f7 8e3e 695f 2fbf 9c6e a0be 1b38 62bd
00000060: ecfc 06be 7f30 bebe 43d2 f8bc b178 963e
00000070: e350 c03e 3b6e 0f3d 5602 05bd 1d2f e73e
00000080: d221 4d3f 34b6 663f df02 2dbf f8ab f4bd
00000090: 9f11 49bf 0b26 49bc 9af8 da3c e649 91be
000000a0: 8370 7ebe 299b f33e 7538 603d 159a 0a3e
000000b0: 3b47 48bd 26e8 183f d75f 843f 48f2 653f
000000c0: 4480 4dbd 11e0 ff3d 8011 45bf 0707 c9be
000000d0: ea0e fa3d a73d 8abe e5fb 0c3f 069b 6cbc
000000e0: a50d d23c ff7b 6d3f aabf d33e 5452 233f
000000f0: e9d0 6c3f bf8a a43f ce5d 5f3f fb88 91bc
00000100: 4b04 a3bc 3737 763d c2e4 d7bd 5d16 f53d
00000110: 5fee 8f3e 5b33 9e3d 4c0f b43f 884b c43f
00000120: 91dc 8c3f 98e8 9d3f 670d b83f ed42 d03f
00000130: 23d5 523f c3b8 9a3f 3f01 9d3f e1c2 e73e
00000140: 35b7 b23e 9f7b 603f 13b6 373f 0a2b 833f
00000150: 63d3 9e3e 4b1f 21bf 00af 02be c569 983e
00000160: 800d 763f 5007 783f 6ce6 4dbe 4a4a 7dbe
00000170: e7d6 54be d840 953e 5cd8 5dbe 0c98 b63d
00000180: 4c5e aabd f7a6 823e 8958 8abe 4394 493f
00000190: 2a06 603e 0210 213d e403 a33f d28c 2a3f
000001a0: 9cc3 113c aede 8cbe 1ebf 9ebe 00be ac3e
000001b0: 3945 bb3d fb76 fdbe 67c8 6fbd 130d 5b3e
000001c0: 9703 0f3e c68c b8bd 8203 9ebd 20ed 403f
000001d0: 5a89 793f cc98 9d3f 2d6e eebe c3a1 c7be
000001e0: d92a 8cbd 8233 873e 4e49 18be f791 c8bd
000001f0: fa88 28be 9742 cf3d 86c1 453e a140 fe3e
00000200: fab8 0d3d 8ce5 f63e 3592 8d3f 99b6 ba3f
00000210: 874e e4bd ef4a f8be 377d 70be 22a9 313f
00000220: 28ee dcbc 6109 cb3c c230 3c3e e6db 99bc
00000230: 1fe6 ca3e 1d08 7c3f 5d14 a13e 07aa 4f3f
00000240: 7fbe 8b3f f185 d93f 7498 0b3e e0e6 1b3e
00000250: 767a 613f 7f5f ea3e 6058 873e f80d 943d
00000260: df49 a13e 2f7d c03d e5e6 113f a9cc 0140
00000270: 6e63 a83f 7fe3 933f 01b5 d23f 3f1f dc3f
00000280: 6275 663f c297 3d3f 9eb9 b23f 5a05 523f
00000290: 93a0 8b3f 1fdd 653f d5c5 2f3f e38f 743f
000002a0: b421 813e a690 f6be 4c14 5b3d eb5e ac3e
000002b0: a21a 7f3f 5ed5 7d3f a430 3bbe af53 8a3d
000002c0: ef37 b7bd 8063 383e 58c6 95be 8b5c 14be
000002d0: 9393 5eb9 63a3 6e3d 2233 37be 096b 0e3f
000002e0: 8a55 ed3e 8793 273e 48cc a43f 9a2b 5b3f
000002f0: d754 153e e962 3abe db9c 89be f4e3 bc3e
00000300: 1e8d 973e 46fb c8be cfb5 2cbe 5c7f ed3d
00000310: 3688 ac3e 190e 163e 4a37 17bd 7f3a 303f
00000320: a258 753f ec5b bb3f 47c0 1dbf 525a 363e
00000330: 5edd 0b3e 0774 f13e 982a 783d 879e 08bb
00000340: 3afd 73bd eacd 113e 41c5 e93e 793a e23e
00000350: d9c8 133e 706d 133f 0420 6c3f 4b43 c93f
00000360: ce1a 4fbe 61f7 29be ce23 a2be cfbf 433f
00000370: d50b 313e f5d0 8b3c 8afb 163e 1f52 363d
00000380: e06a 683e 3964 a73f 1879 9c3e e9e6 423f
00000390: f9c6 873f a08f cd3f 8253 363f ac2d c83d
000003a0: 7702 7e3f df78 153f 54b0 8c3e fdf6 943e
000003b0: 468f fd3e 5000 b2bc e369 a33f 2086 0540
000003c0: 42d6 9c3f 2d45 b33f c9f9 c03f c816 dc3f
000003d0: 65a8 4e3f b4ed 7a3f d03d ac3f fda1 5a3f
000003e0: 22ed 753f 97cc 813f e23e 0e3f 34c8 9f3f
000003f0: f1b5 8b3e 338f 4fbe 2599 b93c e5d4 0abe
0.36435467 -0.28936097 0.13785836 0.30627796 0.9476569 0.78701675 -0.18621704 -0.24799289
-0.3456183 -0.02717812 -0.5165801 -0.38628897 -0.15064213 0.19006537 -0.3950029 0.24626084
0.41822714 -0.08404048 1.1923096 0.91175574 0.27923277 -0.6850496 -0.31334388 -0.055229288
-0.1318242 -0.37146375 -0.030373698 0.29388955 0.37561712 0.035017233 -0.03247293 0.45153132
0.8012973 0.9012177 -0.67582506 -0.11946863 -0.7854251 -0.012277137 0.02672987 -0.28376693
-0.24847607 0.47579315 0.05474134 0.1353534 -0.048896056 0.5972923 1.0341748 0.89822817
-0.05017115 0.12493909 -0.7697983 -0.39263174 0.12209876 -0.27000162 0.5507186 -0.014441257
0.025641272 0.9276733 0.41357166 0.637975 0.9250627 1.2854842 0.8725251 -0.017765513
-0.019899508 0.06011125 -0.10541679 0.11967156 0.2811155 0.07724639 1.4067168 1.533555
1.1004812 1.2336607 1.437909 1.6270424 0.8235647 1.2087635 1.2266005 0.45265868
0.349054 0.8768863 0.717622 1.024751 0.3102065 -0.62938374 -0.1276207 0.29768196
0.9611435 0.9688616 -0.2010743 -0.2473537 -0.20785104 0.29151034 -0.21664566 0.089157194
-0.08318767 0.2551801 -0.27020672 0.78741854 0.21877351 0.039321907 1.2735562 0.66621125
0.008896735 -0.2751364 -0.31005186 0.33738708 0.091440625 -0.49504837 -0.058540728 0.21391706
0.13966213 -0.090112254 -0.07715513 0.75361824 0.97475207 1.2312255 -0.46568432 -0.38990602
-0.0684411 0.26406485 -0.14871714 -0.097934656 -0.16458502 0.10120123 0.19312105 0.49658683
0.034600236 0.48222005 1.1060244 1.4586974 -0.111477904 -0.4849467 -0.23485266 0.693987
-0.02696903 0.024784746 0.18377975 -0.018781614 0.39628693 0.9844988 0.31460848 0.81118816
1.091751 1.6994001 0.13632375 0.1522479 0.88077486 0.45775983 0.26434612 0.07229227
0.31501672 0.09398877 0.5699294 2.0281165 1.3155344 1.1553801 1.6461488 1.7197036
0.9002286 0.7405969 1.3962896 0.82039416 1.0908378 0.8979053 0.6866124 0.95532054
0.25221026 -0.48157233 0.053486153 0.33666167 0.99650013 0.991537 -0.18280274 0.06754243
-0.08946215 0.18006706 -0.29252887 -0.14488427 -0.00021226546 0.058261286 -0.178906 0.5563207
0.46354324 0.16364871 1.2874842 0.85613406 0.14583145 -0.18201794 -0.26877484 0.36892664
0.2959985 -0.39254206 -0.1686623 0.115965575 0.3369767 0.14653815 -0.036917962 0.6883926
0.9583837 1.4637427 -0.61621517 0.17807892 0.13658664 0.47158834 0.060587496 -0.0020846443
-0.059567668 0.14238706 0.45658305 0.44185236 0.14432086 0.57588863 0.9223635 1.5723661
-0.20225069 -0.16598274 -0.31667942 0.7646455 0.1728967 0.017067412 0.14744392 0.04451191
0.2269702 1.307746 0.30561137 0.7613359 1.0607597 1.6059456 0.7122117 0.09774336
0.9922251 0.5838756 0.27478278 0.29094687 0.4952337 -0.021728665 1.2766689 2.0863113
1.2252886 1.4005486 1.5076228 1.7194452 0.807257 0.98018956 1.3456364 0.85403425
0.9606496 1.0140561 0.555647 1.2482972 0.27287248 -0.2026947 0.022656033 -0.13557775

0.bias f4 [64]
00000000: 6dfd 3340 0408 3a40 3477 5d40 24c9 1040
00000010: 9b85 3740 68f9 1d40 87d2 25bf bbc6 2840
00000020: 21eb 4f40 01b3 1f3f b657 80bf 3dfd 5440
00000030: d9dc 3d40 98ea 3a40 e78b 4a40 dd29 4540
00000040: e11c 3040 bbda a83f 390a 5240 b77b 1440
00000050: a57b 4440 b827 4640 f6fd 5240 884d 0540
00000060: da05 2f40 9a72 2c40 ef76 0e40 87e0 4840
00000070: 6302 3b40 a96e 1b40 83d5 3340 9537 c93f
00000080: 4f5a 4040 1034 4340 1dc4 3540 66d8 3140
00000090: 880b 4940 de76 4e40 df48 f73f 388e 3940
000000a0: e449 5240 41e8 5640 845f 5540 575a 3b40
000000b0: 15e7 5240 aa4b 5640 fbd0 4640 fb83 3740
000000c0: 541e 4b40 4831 4940 0900 41bf 7611 4040
000000d0: e6d1 4540 29ad 0340 02b0 4e40 04f7 3740
000000e0: 781a 5440 b887 4740 28df 5940 0d3a 4f40
000000f0: 8aa9 5640 4696 4a40 8120 5340 f319 5640
2.812343 2.9067392 3.4604006 2.2622766 2.8675296 2.4683475 -0.64774364 2.6371295
3.2487261 0.62382513 -1.0026767 3.3279564 2.9666045 2.9205685 3.164789 3.0806801
2.7517626 1.3191751 3.281874 2.320051 3.0700467 3.0961742 3.2967505 2.0828571
2.7347322 2.6944947 2.2260091 3.138704 2.9220207 2.4286292 2.8099067 1.5720087
3.005512 3.0500526 2.8400948 2.778833 3.1413288 3.226005 1.9319113 2.8993053
3.28576 3.3579257 3.3339548 2.927389 3.2953541 3.3483682 3.1065052 2.8674304
3.173726 3.143633 -0.7539068 3.0010657 3.0909362 2.0574439 3.2294927 2.8744516
3.3141155 3.1176586 3.4042454 3.2379181 3.3540978 3.165422 3.298859 3.3453338

2.weight f4 [7, 64]
00000000: 95dc c53f f3d3 f73f ce46 ed3f 18f4 f43f
00000010: c38e d73f 39d7 0640 2502 4bbf 65e5 1340
00000020: c819 f03f e476 df3e 140d 04be 259b d53f
00000030: c195 f23f 899a 0040 857c 1440 e419 0b40
00000040: b3c5 0640 466c 113f a065 e23f b091 0740
00000050: 4944 d63f a215 ec3f efc3 0240 f3a1 1b40
00000060: 2b66 bd3f 9657 cf3f d809 7e3f ffa1 0840
00000070: 583d e13f bfe2 0b40 836e cc3f 3701 243f
00000080: 694a 1140 27b4 cb3f c28d fe3f 6ac4 0a40
00000090: e597 de3f 6a53 f73f 5328 d33f f045 f33f
000000a0: 77a9 0940 188c fc3f 3579 1340 3a4b 0440
000000b0: 0190 e23f bec1 eb3f d762 dc3f 4430 d43f
000000c0: b434 1240 86f9 e63f deab 503d fce6 1640
000000d0: d45d eb3f fbf3 1d40 db75 f93f d15f f33f
000000e0: 0aa0 f23f 5edd 0340 8aea 1040 4fd5 0c40
000000f0: 0680 fb3f 6cb3 db3f 1b0d dc3f 1817 da3f
00000100: efc1 fd3f 0090 f33f f03e ef3f 3cba b73f
00000110: 35e0 0140 ac7f ea3f 4616 993e 9fcf f43f
00000120: 06f8 e63f d26b d63f 35fc cabe 8202 e03f
00000130: b23b e43f c41f 0640 93ce 0640 4cfd 0a40
00000140: 0d68 f33f af66 383f f5a7 df3f 7390 fd3f
00000150: bf99 e53f 876d e83f d03a e23f 8d91 d53f
00000160: 204a f83f d55f 0740 f3f0 d03f 6e3c 0740
00000170: 94bb ee3f 30fc 9f3f ddb7 ea3f 9600 9e3f
00000180: 8764 0440 d6b3 de3f 1ff3 db3f 1d65 0740
00000190: 5b29 0240 c28c fe3f e2e1 d63f 710a 0040
000001a0: 728c 1740 f271 f53f cdcc 1140 e71d 0e40
000001b0: 73b3 ed3f 4d8c f53f 18ca 0c40 1689 f93f
000001c0: 56ff 0540 3e9c d13f 8131 19bf ffbf ea3f
000001d0: 8b56 1140 34ad aa3f 44ca f63f 7fed f03f
000001e0: 4966 d93f 97c5 f13f 04e0 0940 034c 0e40
000001f0: d9e5 ee3f a5fe c33f e1ac f33f eacb e53f
00000200: 8180 0040 0b04 f63f ca06 0440 0236 fd3f
00000210: 54cf 1940 f3df 0340 5d36 9bbf 1057 1c40
00000220: 94a9 0640 df9d 80bd 9812 a4bf 2107 ee3f
00000230: 99f4 cf3f 0fed 1440 ebc9 1640 3c37 2a40
00000240: 4b4a f93f cb0c ba3f feea f33f bf79 c53f
00000250: e101 e23f 3ea3 0f40 70d1 fa3f cf86 0740
00000260: c098 fc3f 0279 0340 ca01 e53f 3a4f 1940
00000270: b4ea eb3f 0582 0240 41b5 d93f 694b d13f
00000280: c94f 2040 bcb7 0840 9710 e33f d4dc 1540
00000290: bd99 1040 070d 2440 ee62 833f 1ce5 0340
000002a0: 7bf4 1640 65c4 1640 0b7c 2c40 5c51 0d40
000002b0: b7d8 0740 b47b ed3f 0cb3 0740 b121 1b40
000002c0: f060 0f40 6e4b f43f 585c 8dbe 5612 2240
000002d0: 9e24 1f40 1321 f23f ac93 0c40 930a 1440
000002e0: 8f1b 0940 6eb6 1140 5909 2240 808b 1840
000002f0: bf95 0140 3d46 f03f ab56 0b40 7337 f73f
00000300: e27e f43f 9496 f43f fddd ed3f bb9a f93f
00000310: 09e0 0540 f79e c13f 7d00 d03d e293 ff3f
00000320: 37f4 d33f 8654 be3f 991f bc3d d681 e33f
00000330: 810e d93f 8af5 1240 9ce6 f43f 1fe4 0040
00000340: 2cb2 c13f d2a0 ae3f 294a db3f dd6e cd3f
00000350: 13db dd3f c9e2 f43f 10c1 fd3f 5011 a13f
00000360: 6aab b03f 65f1 c33f def3 cb3f 8d9d 0940
00000370: c6ad f33f 5e0b 0240 cdae f43f af8b 9d3f
00000380: ea44 1240 946c bf3f 4943 d73f c4b6 e73f
00000390: d342 ef3f 52dd 0340 5b92 bb3f b093 e73f
000003a0: 2971 0f40 5002 f83f d21e 1340 1664 f13f
000003b0: 2846 d23f a31b e03f ddec e43f 35f4 ff3f
000003c0: 6ad4 0540 b39c bb3f 782b fbbd a83a ec3f
000003d0: 29dd 0f40 f3d2 bc3f c4a4 de3f 6697 0340
000003e0: 0793 f33f 922a ee3f 30b0 0940 e34d fa3f
000003f0: 8dd2 db3f c0b2 d73f c353 cf3f 6b4a dc3f
1.5457941 1.9361557 1.8537233 1.9136992 1.6840442 2.1068861 -0.7930015 2.3108761
1.8757868 0.43645394 -0.12895614 1.6687971 1.8951951 2.009432 2.3201 2.1734552
2.1058166 0.5680584 1.7687263 2.118267 1.6739589 1.8444102 2.0432088 2.4317596
1.4796804 1.6198604 0.9923377 2.1348875 1.7596846 2.1857145 1.5971226 0.64064354
2.2701666 1.5914353 1.9887011 2.1682382 1.7390105 1.9322331 1.6496681 1.9005718
2.1509683 1.9730253 2.304273 2.0670915 1.7700197 1.84185 1.7217664 1.657723
2.2844667 1.8044899 0.050945155 2.3578482 1.8388009 2.4680164 1.9489092 1.9013616
1.895509 2.0603862 2.2643151 2.2005193 1.9648445 1.716413 1.71915 1.7038298
1.9824809 1.902832 1.8691082 1.4353709 2.0293095 1.8320212 0.29899806 1.9125861
1.8044441 1.6751654 -0.39645544 1.7500765 1.7830718 2.0956888 2.1063583 2.17171
1.9016129 0.7203168 1.7473131 1.9809707 1.7937545 1.8158425 1.7674198 1.6685044
1.9397621 2.1152241 1.6323532 2.1130633 1.8650994 1.2498837 1.8337361 1.2343929
2.0686357 1.7398632 1.718357 2.1155465 2.0337741 1.9886706 1.6787684 2.0006373
2.367947 1.9175398 2.278125 2.220575 1.8570389 1.9183441 2.1998348 1.949496
2.0937095 1.6375806 -0.5984116 1.8339843 2.2709072 1.3334107 1.9280477 1.8822478
1.698434 1.8888425 2.1542978 2.2233894 1.8663894 1.5312086 1.9037133 1.7952855
2.0078433 1.9219984 2.0629144 1.9782107 2.4032793 2.0605438 -1.2125965 2.4428139
2.1041002 -0.062801115 -1.2818174 1.8595926 1.624652 2.326969 2.356074 2.6596212
1.9475797 1.4535154 1.9056089 1.5427779 1.7656823 2.2443385 1.9595165 2.117603
1.9734116 2.0542607 1.7891171 2.3954606 1.8431001 2.0391858 1.7008439 1.6351138
2.5048697 2.1362143 1.7739438 2.3416033 2.2593834 2.5632951 1.0264566 2.0608587
2.358672 2.355737 2.695071 2.2080908 2.1226022 1.8553376 2.1203032 2.4239314
2.2402916 1.9085519 -0.27609515 2.5323691 2.48661 1.8916343 2.1965132 2.3131454
2.142307 2.2767596 2.5318205 2.3835144 2.0247648 1.8771435 2.1771648 1.9313797
1.9101222 1.9108453 1.858337 1.9500345 2.091799 1.5126637 0.10156343 1.9967005
1.6558903 1.4869545 0.09185714 1.7773998 1.6957551 2.2962365 1.9132876 2.0139234
1.5132499 1.3642828 1.7132007 1.6049458 1.7332481 1.9131709 1.9824543 1.2583408
1.3802311 1.5308043 1.5933797 2.1502411 1.9037406 2.0319438 1.9115845 1.2308253
2.2854562 1.495501 1.6817409 1.8102651 1.8692268 2.0603833 1.4654039 1.8091946
2.2412817 1.9375706 2.2987561 1.8858669 1.642766 1.7508434 1.7884785 1.9996401
2.0910897 1.4657196 -0.122641504 1.84554 2.2478735 1.4751877 1.7394032 2.0561156
1.9029244 1.8606741 2.1513786 1.9555019 1.717363 1.6851425 1.6197437 1.721021

2.bias f4 [7]
00000000: 00da e63f d66a f63f b5f0 0540 3d81 d33f
00000010: 0b3b f03f cf62 ef3f 5434 c03f
1.8035278 1.9251354 2.0928166 1.6523815 1.8768018 1.8702029 1.5015969

0.weight f4 [64, 84]
00000000: 9d26 a93e 1328 99be d8ca 033e 9b61 8d3e
00000010: 4259 663f b00a 3c3f 1b49 3bbe f808 7abe
00000020: 6004 b9be 4ab4 4abd 8e97 03bf 4044 cdbe
00000030: d889 28be 1da7 2b3e 6f13 ccbe fcca 503e
00000040: 66a2 c63e b699 cebd b6ca 913f 2c03 5d3f
00000050: 1a4b 893e 85bc 2fbf 4016 a7be 2bd5 b3bd
00000060: acde 13be 2628 c1be ddfd c9bc c671 863e
00000070: 142e ab3e 1121 70bb a4d2 5dbd 81a6 d43e
00000080: 95f5 403f a1ed 573f c700 2bbf 50a5 10be
00000090: bc87 50bf 4189 35bd 05cc c03b 141a 95be
000000a0: 1c10 89be 5bde e23e 6bc7 663a 1af4 bf3d
000000b0: d4aa afbd 37c4 0d3f aa39 7a3f 53d1 573f
000000c0: 91b2 8cbd 8cfb bf3d 9ab4 49bf 7995 e0be
000000d0: 53aa b83d a6fa 98be 5b62 043f a94d 6cbd
000000e0: 366b f5bc 0828 5e3f e720 bb3e 386c 153f
000000f0: 0ed2 5c3f 2792 9d3f 2f7a 523f a21d 54bd
00000100: b9b6 9dbd 9ddb 3c3c f647 19be f27b 823d
00000110: 2dc5 723e a837 a63c 8474 ac3f d06a bc3f
00000120: dc11 853f 3127 963f c2fa af3f 24d3 c83f
00000130: c01e 463f 9a3b 933f d2ec 943f dfac cb3e
00000140: cc6e 953e 7d28 503f 176e 2d3f e816 763f
00000150: 8b49 8c3e 1ea4 23bf 4e86 0bbe f0a7 873e
00000160: 1ec2 693f 7329 6a3f a909 4abe c468 7abe
00000170: 5783 65be 03f6 893e 95f3 5bbe 6849 933d
00000180: d940 cabd acd2 6c3e 8a16 8cbe 2ae4 3d3f
00000190: cab4 3d3e f58d ae3c d7fd 9b3f be2b 1e3f
000001a0: 327e 3fbb 7613 8ebe 4a31 a6be 6e09 9c3e
000001b0: f162 9b3d 2587 00bf ed8a 58bd e768 393e
000001c0: d672 c73d d3b1 06be f978 cdbd 81df 363f
000001d0: fa6a 6d3f fe12 963f ca30 ebbe d64d d4be
000001e0: f448 cbbd bdf5 6c3e fd80 2fbe a1ac dcbd
000001f0: 833b 3ebe 63e8 883d 701e 0c3e de04 e83e
00000200: 0473 99bb 6628 e03e 2521 863f f891 b33f
00000210: b9ad 08be 2668 04bf 619c 83be 75a3 253f
00000220: 8446 80bd b85e c4bb fe08 193e 2fe7 82bd
00000230: 9089 ad3e 0d52 6c3f c435 883e 6b59 413f
00000240: a9a2 833f e06d d23f 99cf ab3d 305c ed3d
00000250: b686 523f 9dd5 d03e 6566 5e3e 42b7 803c
00000260: 9bde 893e a1d2 113d bf74 023f c5a1 fb3f
00000270: 2969 a03f 6706 8c3f 6889 ca3f eca0 d43f
00000280: fd87 593f 1d56 2e3f 6ba2 aa3f 90ce 433f
00000290: da35 843f 8c82 553f 0c07 253f 2335 643f
000002a0: da25 5d3e e363 fbbe cdff 373d 2dcb 9b3e
000002b0: 85ce 723f a5ee 6f3f d1f0 36be e50d 903d
000002c0: 5d7d d7bd 4521 223e 519b 94be 1bdb 25be
000002d0: def1 7fbc 4b11 0c3d 4814 3abe d0b7 023f
000002e0: d62a dc3e 7987 153e b6c3 9d3f bede 4e3f
000002f0: c73c 093e e3a0 3cbe 97e5 90be a150 ac3e
00000300: dbcb 8f3e 5b8c ccbe 6bbf 26be 176a aa3d
00000310: 09de 963e 070f d73d 6c49 75bd 8034 263f
00000320: 6b4c 693f 22d4 b33f cd21 1cbf ef13 1d3e
00000330: 3379 d83d 15f5 e03e 650d 1b3d 69d1 3ebc
00000340: ff10 a5bd 796e dd3d bfe2 cc3e 25fb cb3e
00000350: 0ca0 d73d 161e 083f df32 5d3f f21f c23f
00000360: 2db1 65be 200d 4bbe ca8c adbe d4c0 373f
00000370: 2991 0c3e ab18 5ebc ab10 e83d ec62 3dba
00000380: 7ba8 2d3e b282 9f3f eec0 833e ec93 343f
00000390: 6b55 7f3f 3175 c63f 5fdf 283f c74e 7b3d
000003a0: d70b 6f3f 329f 083f 6edb 683e 0511 703e
000003b0: ca2a e63e a330 a4bd 1cb0 9b3f 648b 0140
000003c0: bcd8 943f 5a67 ab3f d5c8 b83f 7297 d43f
000003d0: adb7 413f 929f 6b3f a825 a43f b46e 4c3f
000003e0: ec0e 673f 253b 733f 8f86 033f d898 973f
000003f0: 7bfc 753e 7120 55be 9490 803c c9eb 25be
0.33037272 -0.29913387 0.12870347 0.2761353 0.89979947 0.7345381 -0.18289606 -0.24417484
-0.3613615 -0.049488343 -0.5140313 -0.40091133 -0.16458833 0.16762967 -0.39858577 0.20389932
0.38795775 -0.10087912 1.1389987 0.86332965 0.2681511 -0.6864703 -0.32634163 -0.08780893
-0.14440411 -0.37725943 -0.024657184 0.26258677 0.33433592 -0.0036640803 -0.05415596 0.41533282
0.7537473 0.8434697 -0.6679806 -0.14125562 -0.81457114 -0.04432035 0.005883696 -0.2912146
-0.26770103 0.4431027 0.00088035193 0.093727306 -0.08577505 0.55377525 0.9774424 0.8430378
-0.06869996 0.09374151 -0.787912 -0.4386404 0.09016862 -0.2987873 0.5171258 -0.05769125
-0.029958349 0.8677983 0.3654854 0.58368254 0.8625802 1.2310227 0.8221769 -0.051786073
-0.07700867 0.011526969 -0.14968857 0.06371297 0.23708029 0.02029021 1.3473058 1.4720097
1.0396075 1.173071 1.37484 1.5689435 0.7739067 1.1502564 1.1634772 0.39780328
0.29186094 0.8131178 0.6774611 0.961287 0.2739986 -0.639223 -0.13625452 0.26495314
0.91311824 0.91469496 -0.19730248 -0.24454027 -0.22413383 0.26945505 -0.21479638 0.071917355
-0.0987565 0.2312724 -0.27360946 0.74176276 0.18525997 0.021307925 1.2186841 0.61785495
-0.0029219505 -0.27749223 -0.3245948 0.30475944 0.07587231 -0.50206214 -0.052866865 0.18106423
0.097387 -0.13153772 -0.10032839 0.7143479 0.9274136 1.1724546 -0.4593566 -0.41465634
-0.09926024 0.23140617 -0.17139049 -0.10775114 -0.1857739 0.06684949 0.13683486 0.45316213
-0.0046829004 0.43780822 1.0478865 1.4028921 -0.1334752 -0.5172142 -0.25705245 0.6470254
-0.0626345 -0.0059927367 0.14944836 -0.06391751 0.33894014 0.923127 0.2660352 0.75527066
1.0284015 1.6439781 0.083892055 0.11589849 0.822368 0.40787974 0.21718748 0.015712384
0.26927647 0.035601262 0.5095939 1.9658743 1.2532092 1.0939454 1.5823183 1.661161
0.84973127 0.6810015 1.3330816 0.76487064 1.0328934 0.83402324 0.6446388 0.8914358
0.2159647 -0.49099645 0.044921685 0.30428448 0.94846374 0.9372352 -0.17865302 0.070339
-0.10521958 0.15833004 -0.29024747 -0.16196863 -0.0156216305 0.03419618 -0.18171799 0.51061726
0.4300143 0.1460246 1.2325351 0.8080863 0.13402091 -0.18420748 -0.28300163 0.33655265
0.28085217 -0.39950833 -0.16283958 0.08321016 0.29466274 0.10500913 -0.059884474 0.6492386
0.9113223 1.4049113 -0.60989076 0.15339635 0.10569992 0.43936983 0.03785457 -0.011646607
-0.080598824 0.108120866 0.40016744 0.39840046 0.105285734 0.5317091 0.8640575 1.5165999
-0.22430868 -0.19829226 -0.33896476 0.7177861 0.13727249 -0.013555686 0.11331304 -0.00072245183
0.16958801 1.246176 0.2573313 0.7053821 0.9973971 1.5504514 0.6596584 0.061354425
0.9337744 0.5336791 0.22739956 0.23443992 0.4495452 -0.08017089 1.2163119 2.0241327
1.1628642 1.3390915 1.4436289 1.6608717 0.7567089 0.9204036 1.2823992 0.7985642
0.90257144 0.9501212 0.51377195 1.1843519 0.24022095 -0.20813157 0.01569394 -0.16203226

0.bias f4 [64]
00000000: 330d 3040 ae13 3640 6784 5940 27d0 0c40
00000010: c899 3340 1407 1a40 6528 24bf ffdc 2440
00000020: 5df7 4b40 86ab 0d3f 07c7 79bf 5e05 5140
00000030: 42e1 3940 0001 3740 b4a2 4640 5344 4140
00000040: bb29 2c40 3768 a03f 4112 4e40 fe81 1040
00000050: 0b80 4040 3938 4240 910b 4f40 c856 0140
00000060: cc0d 2b40 0882 2840 3f77 0a40 eff8 4440
00000070: 030d 3740 0a78 1740 35dc 2f40 6f0f c13f
00000080: f772 3c40 3a3f 3f40 72cb 3140 1eee 2d40
00000090: 991e 4540 418e 4a40 c413 ef3f f89d 3540
000000a0: 0864 4e40 13fc 5240 bd7c 5140 0e70 3740
000000b0: 3cf4 4e40 2256 5240 43e2 4240 b098 3340
000000c0: 4035 4740 8c38 4540 6115 3dbf f827 3c40
000000d0: 24ec 4140 f65b ff3f f8bf 4a40 080a 3440
000000e0: 4628 5040 709a 4340 abf8 5540 f351 4b40
000000f0: 9bb6 5240 919b 4640 232f 4f40 ef22 5240
2.7508056 2.8449512 3.3987062 2.2002046 2.806261 2.406682 -0.6412414 2.5759885
3.1869729 0.5533985 -0.97569317 3.2659526 2.9043736 2.859436 3.1036806 3.0197952
2.690047 1.2531804 3.2198641 2.257934 3.0078151 3.0346816 3.235081 2.0209217
2.672717 2.6329365 2.1635282 3.0776937 2.8601692 2.3667016 2.7478154 1.5082835
2.944517 2.988234 2.7780423 2.7176585 3.0799925 3.1649325 1.8677907 2.8377666
3.2248554 3.2966354 3.2732384 2.8662143 3.233657 3.2865071 3.04506 2.8061943
3.1126251 3.0815763 -0.73860747 2.9399395 3.0300379 1.9949939 3.1679668 2.8131123
3.252458 3.056301 3.3433025 3.1768768 3.2923954 3.103245 3.237252 3.2833822

2.weight f4 [7, 64]
00000000: 0ff4 bd3f c00a f03f f590 e53f 9fef ec3f
00000010: cab6 cf3f 1ae7 0240 4251 56bf 2ff2 0f40
00000020: 4659 e83f 4077 be3e e5d4 11be 58e0 cd3f
00000030: d3cf ea3f 9651 f93f 6f92 1040 f331 0740
00000040: b0da 0240 c5ef 003f f7ac da3f ef99 0340
00000050: ac85 ce3f b448 e43f 55c7 fd3f 959d 1740
00000060: a98f b53f 8b72 c73f f32d 6e3f dfba 0440
00000070: 9963 d93f 33f0 0740 cf90 c43f ec50 133f
00000080: 6a5f 0d40 f6e9 c33f 45c2 f63f 20ce 0640
00000090: aacb d63f 9984 ef3f 1a3c cb3f 5176 eb3f
000000a0: 2cc2 0540 95c9 f43f 8e96 0f40 ad61 0040
000000b0: 62d2 da3f 980a e43f a59a d43f d559 cc3f
000000c0: 034d 0e40 9035 df3f 121c c03c 5df6 1240
000000d0: 708b e33f 45ec 1940 f9b2 f13f ec84 eb3f
000000e0: 1be1 ea3f 07f0 ff3f 640a 0d40 74ef 0840
000000f0: efc6 f33f 12f0 d33f 4e4c d43f 025c d23f
00000100: 8f8a f63f ea68 ec3f 1921 e83f 7c65 b03f
00000110: 3194 fc3f 2748 e33f 6a5c 793e 198d ed3f
00000120: 09d0 df3f 3892 ce3f fac3 d4be 77e6 d83f
00000130: c20e dd3f c876 0240 0731 0340 206b 0740
00000140: 8a37 ec3f 15fd 283f 3d86 d83f ad54 f63f
00000150: 9371 de3f e443 e13f df11 db3f 033a ce3f
00000160: a921 f13f 87cd 0340 24b1 c93f 15a6 0340
00000170: 1f92 e73f 2cb6 983f 6c87 e33f c06a 963f
00000180: 81cc 0040 a791 d73f 20c8 d43f 63ca 0340
00000190: 5729 fd3f c266 f73f 1c83 cf3f 44ea f83f
000001a0: d5fb 1340 c553 ee3f ef3a 0e40 0c88 0a40
000001b0: db94 e63f f16d ee3f af3a 0940 2460 f23f
000001c0: 1b67 0240 8974 ca3f a789 20bf 7286 e33f
000001d0: 3bc1 0d40 b333 a33f 3ba6 ef3f adb9 e93f
000001e0: 013f d23f e99e ea3f 584c 0640 e8b6 0a40
000001f0: 2dc5 e73f e4d2 bc3f af8e ec3f 1aad de3f
00000200: e41a f93f bb20 ee3f 6320 0040 b62c f53f
00000210: 29e0 1540 b0c7 ff3f f267 9bbf cd60 1840
00000220: bfbe 0240 f431 07be 2bf0 a1bf 9333 e63f
00000230: f710 c83f fffc 1040 acdf 1240 e54c 2640
00000240: aa60 f13f 759e b13f 8d15 ec3f ba74 bd3f
00000250: 2f22 da3f 5bb7 0b40 a2fc f23f 2e7d 0340
00000260: 16b0 f43f 950a ff3f 9efe dc3f 0c66 1540
00000270: 8c08 e43f 1c05 fd3f 65cd d13f 4c05 c93f
00000280: 0262 1c40 87ca 0440 a228 db3f 67e9 1140
00000290: c3ae 0c40 b424 2040 9477 763f abe7 ff3f
000002a0: 630c 1340 3dde 1240 d594 2840 2264 0940
000002b0: 8cef 0340 4ca9 e53f 7ac7 0340 0033 1740
000002c0: 4575 0b40 556f ec3f fefd 86be 8423 1e40
000002d0: 9e39 1b40 fd03 ea3f 62a9 0840 681b 1040
000002e0: 6031 0540 f8ca 0d40 e622 1e40 05a3 1440
000002f0: 375a fb3f b26a e83f 7d6e 0740 d966 ef3f
00000300: 3355 ed3f 0581 ed3f 3edb e63f dd4d f23f
00000310: c650 0240 1d69 ba3f 21a4 593d 9061 f83f
00000320: a9e3 cc3f 84d5 b63f 4b06 8f3d 797f dc3f
00000330: 78fe d13f b45b 0f40 c4c1 ed3f 4aa9 fa3f
00000340: 878f ba3f 9e22 a73f ee48 d43f 1a3f c63f
00000350: 15d2 d63f d7cc ed3f 75b2 f63f 26b2 993f
00000360: fe91 a93f 79d6 bc3f b3c4 c43f 060a 0640
00000370: f692 ec3f 15db fc3f 1b96 ed3f 2ef7 953f
00000380: 7cb2 0e40 0956 b83f 5a29 d03f 5692 e03f
00000390: 7225 e83f 8c52 0040 aa64 b43f 417d e03f
000003a0: 59e4 0b40 9bf7 f03f 1a92 0f40 203a ea3f
000003b0: 283f cb3f f814 d93f c9db dd3f 53cf f83f
000003c0: ba44 0240 438f b43f 3a5b 20be e90e e53f
000003d0: ff4b 0c40 936f b53f b78f d73f 2e04 0040
000003e0: 0285 ec3f b810 e73f f825 0640 132f f33f
000003f0: 58cf d43f d9a5 d03f 0847 c83f 0347 d53f
1.4840106 1.8753281 1.7934862 1.8510627 1.6227658 2.0453553 -0.8371774 2.2491567
1.8152244 0.37200356 -0.14241369 1.6084089 1.8344673 1.9478023 2.2589376 2.1124237
2.0445976 0.5036586 1.7084035 2.0562704 1.6134543 1.7834687 1.9826456 2.368993
1.4184467 1.5581831 0.9303886 2.0739057 1.698352 2.1240356 1.5356692 0.5754535
2.2089486 1.5305774 1.9278036 2.1063309 1.6780903 1.871234 1.5877717 1.8395482
2.0899763 1.9124018 2.2435641 2.0059617 1.7095454 1.7815733 1.6609694 1.5964915
2.2234504 1.7438221 0.023450885 2.2962868 1.7776928 2.4050457 1.8882743 1.839994
1.8349947 1.9995126 2.2037592 2.139615 1.9045085 1.6557639 1.6585786 1.6434329
1.9261035 1.8469517 1.8135101 1.378097 1.9732724 1.7756394 0.2435166 1.8558685
1.7485362 1.6138372 -0.41555768 1.6945332 1.7270129 2.0384998 2.0498674 2.1159134
1.8454449 0.6601117 1.6915966 1.9244591 1.737841 1.7598844 1.7114829 1.6111454
1.8838397 2.0594194 1.5757184 2.0570118 1.8091468 1.1930594 1.7775702 1.1751328
2.012482 1.6841325 1.6623573 2.0592277 1.9778241 1.9328234 1.6211886 1.9446492
2.3122456 1.8619314 2.222347 2.1645536 1.8014177 1.8627301 2.1442068 1.893559
2.037543 1.5816814 -0.6271004 1.7775404 2.2149189 1.2750152 1.8722605 1.8259789
1.6425477 1.8329746 2.0984097 2.1674137 1.8107048 1.4751859 1.8481044 1.7396576
1.9461331 1.8603739 2.0019767 1.915427 2.3418067 1.9982815 -1.2141097 2.3809083
2.0428922 -0.1320265 -1.2651418 1.7984489 1.5630177 2.2654417 2.2949018 2.5984433
1.8857625 1.3876482 1.8444077 1.4801247 1.7041682 2.1830661 1.8983347 2.0545154
1.9116237 1.9925104 1.7265203 2.3343534 1.7815108 1.9767184 1.6390806 1.5704741
2.443482 2.0748613 1.7121775 2.2798707 2.1981666 2.5022402 0.9627621 1.9992574
2.297631 2.2948143 2.634084 2.1467366 2.0614958 1.794229 2.05905 2.3624878
2.1790326 1.8471476 -0.26365656 2.4709177 2.4253917 1.8282467 2.1353383 2.2516727
2.0811386 2.2155132 2.47088 2.32245 1.9636906 1.8157561 2.1161187 1.8703262
1.8541626 1.8554999 1.8035657 1.8930012 2.03618 1.4563328 0.05313504 1.9404774
1.6006976 1.428391 0.06983622 1.7226402 1.6405783 2.239972 1.8574758 1.9582913
1.4575051 1.3057439 1.6584756 1.5488007 1.6782862 1.8578137 1.9273211 1.2007492
1.3247678 1.4752952 1.5372528 2.0943618 1.8482349 1.9754359 1.8561434 1.1716058
2.2296438 1.4401256 1.626262 1.7544658 1.8136427 2.0050383 1.409322 1.7538224
2.1858122 1.8825563 2.2432923 1.8298988 1.5878649 1.6959524 1.7332698 1.943827
2.0354447 1.410622 -0.156598 1.7895175 2.1921384 1.4174675 1.6840733 2.000255
1.8478091 1.8051977 2.0960674 1.8998741 1.6625776 1.6300613 1.5646677 1.6662296

2.bias f4 [7]
00000000: da17 e03f 8036 f03f 986b 0240 6331 cd3f
00000010: 3a6f e93f 3dd1 e83f ccbb b93f
1.7507279 1.8766632 2.037817 1.6030697 1.8237069 1.8188854 1.4510436
