saved_models/DQN/using_melo_for_matchmaking/model7.pth (torch, 49972 bytes, 8 tensors)

0.weight f4 [64, 84]
0	0x3f156f47	0.5837292
1	0x3f451666	0.769873
2	0x3f2c5aab	0.6732585
3	0xbe66661e	-0.22499892
4	0x3e04812d	0.12939902
5	0x3e9ab4ef	0.30216166
6	0x398a6f7d	0.00026404476
7	0x3f7cba71	0.98721987
8	0xbf32c367	-0.6982941
9	0x3eecbeca	0.4623931
10	0xba548bdf	-0.00081080006
11	0x3dc8120e	0.09769069
12	0xbe2c26f2	-0.16811731
13	0x400aab46	2.1667037
14	0x3f60817d	0.87697583
15	0x3f0bebcf	0.5465669
16	0xbecf0863	-0.40436086
17	0x3ec93569	0.3929856
18	0x3d902292	0.07037844
19	0x3f25d2fe	0.64775074
20	0x3f55008b	0.83203954
21	0x3f223c00	0.633728
22	0x3f280efc	0.65647864
23	0xbd3cf969	-0.046136294
24	0x3d18234f	0.037143048
25	0x3e4e7134	0.20160371
26	0x3fdd46d1	1.7287236
27	0x3b0649b7	0.0020490715
28	0x3f1dc735	0.6163209
29	0x3ead62b7	0.33864376
30	0xbe95a3da	-0.2922657
31	0x3f0ab106	0.54176366
32	0xbd897d10	-0.06713307
33	0x3eae7b46	0.34078425
34	0xbe713581	-0.23555566
35	0x3fa4205b	1.2822374
36	0x3ea94e7e	0.33067697
37	0x3db70df1	0.08938206
38	0xbd90cb82	-0.07070066
39	0xbe5ea06f	-0.21740888
40	0xbdc7f84c	-0.09764156
41	0x4059e113	3.4043624
42	0x3f5127b7	0.81701225
43	0x3dbd12c7	0.09232097
44	0xbe073298	-0.13202894
45	0x3ef8f638	0.4862535
46	0x3cefc384	0.029268034
47	0x3e286931	0.16446377
48	0x3f68bce4	0.90913224
49	0x3e8d6464	0.27615654
50	0x3f10874d	0.5645645
51	0x3da68586	0.08130936
52	0x3dc5a8a8	0.09651309
53	0xbd5f9904	-0.054589286
54	0x3fbcaf21	1.4740945
55	0x3e335ddd	0.17516275
56	0x3f32b96d	0.6981419
57	0x3f8c36ac	1.0954185
58	0x3f467b1a	0.7753159
59	0x3ef2bb4c	0.4740852
60	0x3eb166b0	0.34648657
61	0xbe4809d6	-0.19535002
62	0x3f213f6b	0.62987393
63	0x3fa0497d	1.2522427
64	0x3f81504b	1.0102628
65	0x3cd40e18	0.025885627
66	0x3e3ec6d1	0.1863053
67	0x3c2a5aed	0.010397655
68	0x3f83f48a	1.0309002
69	0x403c72b6	2.9445014
70	0x3fa7073b	1.3049082
71	0x40099a94	2.1500597
72	0x3fbb06be	1.4611433
73	0x3fdb0c46	1.711312
74	0x3fc84e5e	1.5648916
75	0x3f7fae42	0.9987527
76	0x400ef645	2.233781
77	0x3fa3528c	1.2759566
78	0x3f8d4d0a	1.1039135
79	0x3f377d65	0.7167571
80	0x3fc531d6	1.5405834
81	0x3ed86cef	0.4227061
82	0x4006368a	2.0970788
83	0x400287fd	2.03955
84	0x3e8626c5	0.26201454
85	0x3e6b770d	0.22994633
86	0x3eef0dd1	0.4669023
87	0xbefef043	-0.4979268
88	0xbdb9ba28	-0.090687096
89	0x3f0246eb	0.5088946
90	0xbdb23ed0	-0.08703387
91	0x3f9de3a9	1.2335101
92	0xbf2bde7d	-0.67136365
93	0x3eea7b77	0.4579732
94	0xbd26cb9a	-0.040721513
95	0x3cfff471	0.031244488
96	0xbf347038	-0.7048373
97	0x401ccef0	2.4501305
98	0x3c288d0b	0.0102875335
99	0x3f07b6ad	0.53013116
100	0xbecab545	-0.39591423
101	0x3ea04b48	0.31307435
102	0x3e6920a1	0.22766353
103	0x3ead0f53	0.33800754
104	0x3f4c6622	0.7984334
105	0x3f0cf753	0.55064887
106	0x3e8d3869	0.275821
107	0xbef13519	-0.47110823
108	0x3df93c3c	0.12169692
109	0x3e76fc2a	0.2411963
110	0x400053f9	2.0051253
111	0xbe9ae49b	-0.30252537
112	0x3e7c5a5c	0.24643844
113	0xbe7ecf6c	-0.24883813
114	0xbede86cb	-0.43462214
115	0x3e39d590	0.18147874
116	0xbe4d314b	-0.20038335
117	0x3d030cca	0.03199462
118	0xbe49ed53	-0.19719438
119	0x3fc0f174	1.5073686
120	0x3d9cc0a8	0.07653934
121	0x3e1a0b85	0.15043457
122	0x3c2a35b0	0.010388777
123	0xbe25dda0	-0.16197824
124	0xbf0e0b25	-0.55485755
125	0x4056a38f	3.3537328
126	0x3e8e6071	0.27807954
127	0xbf2737a9	-0.65319306
128	0xbeca4bf0	-0.3951106
129	0x3f0cc8af	0.5499372
130	0xbda5490d	-0.08070574
131	0xbd5d728e	-0.054064326
132	0x3f395a17	0.7240309
133	0x3ebac3fc	0.3647765
134	0x3eabd05c	0.33557403
135	0xbe3f3840	-0.18673801
136	0xbe89ca64	-0.26912224
137	0xbe628e1b	-0.22124521
138	0x3fbbba3d	1.466621
139	0xbe65ac88	-0.22429097
140	0x3d81429a	0.06311531
141	0x3f60935b	0.87724847
142	0x3e72fc7e	0.2372913
143	0x3eabacc7	0.33530256
144	0x3e413420	0.1886754
145	0xbeb92404	-0.3616029
146	0x3f1322eb	0.57475156
147	0x3fc3dafb	1.5301203
148	0x3f4d5206	0.8020328
149	0xbf7b54e0	-0.98176384
150	0x3d75f7f9	0.06005094
151	0xbeb47232	-0.35243374
152	0x3f883bac	1.064321
153	0x403d033d	2.9533226
154	0x3f9817b8	1.1882238
155	0x3fdb9a26	1.7156417
156	0x3f9adcb3	1.2098602
157	0x3fa40b7b	1.2816004
158	0x3f848668	1.0353518
159	0x3f9cf3c9	1.2261897
160	0x400c4266	2.1915526
161	0x3f8603ff	1.046997
162	0x3f432c03	0.7623903
163	0x3eda8bd1	0.42684796
164	0x3fc40667	1.5314454
165	0x3e9c9f0c	0.30590093
166	0x40081ce7	2.126764
167	0x3fd917d3	1.6960396
168	0xbd580c20	-0.05274594
169	0x3ee910e3	0.45520696
170	0x3e2ed6b1	0.17074086
171	0xbd946bb9	-0.07247109
172	0x3ee9d753	0.45672092
173	0x3e9eb2a4	0.30995667
174	0x3f21899d	0.63100606
175	0x3ec16b70	0.3777728
176	0xbe728fbe	-0.23687646
177	0x3d0267dd	0.031837333
178	0xbe8152b5	-0.25258413
179	0x3ec1e076	0.37866563
180	0xbe1cee5b	-0.153253
181	0x3d4c3381	0.049853805
182	0x3f4661cc	0.77492976
183	0xbdfd3208	-0.12363058
184	0xbe09ac71	-0.13444687
185	0x3e7a6a7f	0.24454688
186	0xbdf54ab1	-0.11977137
187	0x3ef98abb	0.48738655
188	0x3e43d437	0.19123922
189	0x3ef59446	0.47964686
190	0x3f07ef03	0.5309908
191	0xbee55ee4	-0.44798958
192	0x3dda52b1	0.106603034
193	0x3d92c60f	0.07166683
194	0x3f08b483	0.5340044
195	0x3f27a6c6	0.6548885
196	0xbdc57e97	-0.09643286
197	0x3ebab545	0.36466423
198	0xbe8ffce9	-0.28122643
199	0x3edd9543	0.4327794
200	0xbe4e9e7c	-0.20177644
201	0x3ef65422	0.48111063
202	0xbd01fd54	-0.031735733
203	0x3f2e4c88	0.6808553
204	0xbde4e63f	-0.111767285
205	0xbe147c66	-0.14500579
206	0xbd9b19e3	-0.07573297
207	0x3e216a4d	0.15763207
208	0x3db34409	0.08753211
209	0xbf265bb7	-0.64983696
210	0xbe437567	-0.19087754
211	0x3fa45bd3	1.2840523
212	0xbe94af5a	-0.29040033
213	0x3f04f1ba	0.51931345
214	0xbcf7f394	-0.030267514
215	0xbe47909d	-0.1948876
216	0x3eaea8e0	0.34113216
217	0x3db0155e	0.085978255
218	0x3e99ae24	0.3001567
219	0x3e2d713f	0.16937731
220	0x3e7489b9	0.23880662
221	0x3ea4760f	0.32121322
222	0x3f929497	1.1451596
223	0x3ffaf47a	1.9605858
224	0xbd5afc31	-0.053463165
225	0xbd00943d	-0.03139137
226	0x3f3c67a4	0.73595643
227	0x3f5441cb	0.8291289
228	0x3d599f0b	0.05313019
229	0x3f339605	0.70150787
230	0x3f08ba32	0.5340911
231	0x3fb7103e	1.4301832
232	0x3f28ffbe	0.6601523
233	0x3f522286	0.8208393
234	0x3ecf49c8	0.40485978
235	0x3dcd42f9	0.1002254
236	0x3f62f6df	0.88657945
237	0x3e89dee8	0.26927876
238	0x3f904a7d	1.1272732
239	0x3e2209ce	0.15824053
240	0x3f5e7fbc	0.8691366
241	0x3fd32d39	1.6498176
242	0x3fbd1f5a	1.4775193
243	0x3f9fcfb2	1.2485259
244	0x40072386	2.1115432
245	0x3fc00108	1.5000315
246	0x3f3ff9fe	0.7499083
247	0x3f82b53b	1.0211557
248	0x3fae4b7b	1.3616785
249	0x3fb5ae26	1.4193771
250	0x3fdd664b	1.7296842
251	0x402c8820	2.6958084
252	0x3f34054e	0.70320594
253	0x3f114f95	0.5676206
254	0x3f116a3d	0.5680273
255	0xbeb2cc9e	-0.34921736

0.bias f4 [64]
0	0x40889464	4.268114
1	0x40823d57	4.069988
2	0x4030bffc	2.7617178
3	0x408f2f99	4.4745603
4	0x4082da59	4.089154
5	0x40852c4b	4.161657
6	0x4061712b	3.5225322
7	0x408f6709	4.4813275
8	0x408eefce	4.466773
9	0x40863d61	4.1949925
10	0x408850e0	4.2598724
11	0x40821e05	4.0661645
12	0x40830e24	4.095476
13	0x408e6369	4.449635
14	0x408d7125	4.4200616
15	0x407bdc0d	3.9353058
16	0x408486b8	4.141445
17	0x408b68a8	4.3565254
18	0xbe508320	-0.2036252
19	0xbf0879a0	-0.53310585
20	0x40760362	3.8439565
21	0x407cb398	3.9484615
22	0xbec2fec4	-0.38084996
23	0x405bdc7d	3.4353325
24	0x408e98bc	4.4561443
25	0x406c61b5	3.6934636
26	0x408de269	4.433888
27	0x4087a1c1	4.2384953
28	0x408c0e9e	4.3767843
29	0x407fff3f	3.999954
30	0xbe229a28	-0.15879118
31	0x408cdd0b	4.401983
32	0x406e3794	3.7221422
33	0x40830efd	4.0955796
34	0x4086dbda	4.2143373
35	0x40839157	4.1114917
36	0x4077699b	3.8658206
37	0x4086ae9f	4.208816
38	0x4072996b	3.790614
39	0x4084fee3	4.156114
40	0x40881386	4.252383
41	0x408e26c2	4.442231
42	0x4087f32b	4.2484336
43	0x408a8525	4.328753
44	0x40905018	4.509777
45	0x406510d3	3.5791519
46	0x408c0090	4.3750687
47	0xbdbb33b8	-0.09140724
48	0x408419d9	4.128155
49	0x4081ac41	4.052277
50	0x3fea857c	1.8321986
51	0x40812d46	4.0367765
52	0x408895a6	4.2682676
53	0x4091ea92	4.559884
54	0xbae109c8	-0.0017169053
55	0x405b5c47	3.4275072
56	0x408dde07	4.433353
57	0x4089e22d	4.3088593
58	0x408bf542	4.3736887
59	0x408acde9	4.3376355
60	0x406ee6df	3.7328413
61	0x4071b42c	3.7766218
62	0x408d010b	4.4063773
63	0x4079940c	3.899661

2.weight f4 [7, 64]
0	0x4017d43c	2.3723288
1	0x403c07d4	2.9379778
2	0x3ff85864	1.9401975
3	0x40217459	2.5227263
4	0x40357bb9	2.8356764
5	0x4017a3f0	2.369381
6	0x3ff524a5	1.9151808
7	0x401dad2c	2.4636946
8	0x403fb5f5	2.9954808
9	0x403056ba	2.7552934
10	0x40254c6e	2.58279
11	0x403fb13b	2.9951923
12	0x402df06e	2.7177997
13	0x40191191	2.3916972
14	0x401833cd	2.3781617
15	0x4021f1c9	2.5303824
16	0x402133d7	2.518789
17	0x4022d931	2.5445063
18	0x3f23bd1e	0.63960445
19	0x3f808a4b	1.0042204
20	0x4044991b	3.0718448
21	0x403a55d7	2.9114892
22	0xbdbe5df2	-0.092952624
23	0x401c2ed1	2.4403574
24	0x4017c664	2.3714838
25	0x403ba973	2.9322174
26	0x40196899	2.3970091
27	0x4031465f	2.76992
28	0x4016e9e0	2.3580246
29	0x400e567d	2.2240288
30	0x3fa118ab	1.2585653
31	0x4030e39c	2.7638922
32	0x402d2b10	2.7057533
33	0x40316071	2.7715113
34	0x40256d0f	2.5847814
35	0x403b208a	2.923861
36	0x401ee7c0	2.482895
37	0x400e9c6a	2.2282968
38	0x40219120	2.5244827
39	0x40376ccc	2.8660154
40	0x40165188	2.3487263
41	0x401b47f4	2.4262667
42	0x402eb808	2.7299824
43	0x40187ea8	2.3827305
44	0x403655c4	2.8489847
45	0x40257ffe	2.585937
46	0x403a33c9	2.9094107
47	0x3f82efcd	1.0229431
48	0x404dad07	3.2136858
49	0x4022b030	2.5420036
50	0x3f3cd229	0.7375818
51	0x40221ddb	2.5330722
52	0x400f8bfe	2.2429194
53	0x404341be	3.0508876
54	0x4016fff5	2.3593724
55	0x4023a919	2.557196
56	0x4013b2fa	2.3077989
57	0x401e0f94	2.4697008
58	0x401766e2	2.3656545
59	0x40166033	2.3496215
60	0x401867da	2.3813386
61	0x403bc366	2.9338012
62	0x4010da44	2.2633219
63	0x4025bc69	2.5896246
64	0x400963bf	2.146713
65	0x4025a966	2.5884643
66	0x400beab4	2.1862001
67	0x40085e82	2.1307683
68	0x40271e53	2.6112258
69	0x400053ca	2.005114
70	0x40038728	2.0551243
71	0x400b182b	2.17335
72	0x4027d511	2.6223795
73	0x401d5608	2.458376
74	0x40079433	2.1184204
75	0x402b4de9	2.6766303
76	0x40197b1a	2.3981385
77	0x400f33b1	2.23753
78	0x40119ba5	2.2751248
79	0x402bc0ce	2.6836429
80	0x400062ca	2.0060296
81	0x40160348	2.3439503
82	0x3fe30064	1.7734494
83	0x3f7ad22a	0.97976935
84	0x4022e8db	2.5454624
85	0x40217c05	2.5231946
86	0x3f63ac50	0.88934803
87	0x40093c66	2.1443114
88	0x4010fd2c	2.2654524
89	0x3fe4cf5a	1.7875779
90	0x3ff3b1ec	1.9038672
91	0x40143902	2.3159795
92	0x3ff34584	1.900559
93	0x4011a585	2.2757275
94	0x3f176ce2	0.59150517
95	0x402d12e3	2.7042778
96	0x4016354d	2.3470032
97	0x401da474	2.4631624
98	0x4014b59e	2.323585
99	0x40201d0c	2.5017729
100	0x402b2a80	2.674469
101	0x4011143f	2.2668607
102	0x4017dd16	2.372869
103	0x40167a41	2.3512118
104	0x400bf750	2.1869698
105	0x40153436	2.3313117
106	0x4029f2ea	2.6554513
107	0x4003d14f	2.0596502
108	0x4025e670	2.5921898
109	0x3ff12eb3	1.8842376
110	0x40246e3e	2.5692286
111	0x3fa25966	1.2683532
112	0x402d6174	2.709073
113	0x3fff2630	1.9933529
114	0x3ff652c5	1.9244009
115	0x40169681	2.352936
116	0x4003e8c8	2.0610828
117	0x40336eb6	2.8036323
118	0x3f927e97	1.1444882
119	0x3fe547f0	1.7912579
120	0x400fbe07	2.2459733
121	0x4005992a	2.0874734
122	0x40118a7e	2.274078
123	0x4002aeeb	2.0419261
124	0x3fe912c9	1.8208858
125	0x400777cf	2.1166875
126	0x400c3c19	2.191168
127	0x4021d230	2.5284538
128	0x400e660c	2.2249784
129	0x4024e61f	2.5765455
130	0x400dec22	2.2175374
131	0x40106d62	2.2566762
132	0x40298e75	2.64932
133	0x4016d103	2.356507
134	0x40279111	2.6182292
135	0x400dcc1d	2.215583
136	0x4026e68c	2.6078215
137	0x402dec41	2.7175448
138	0x40139c51	2.3064158
139	0x40349c64	2.8220453
140	0x40090b89	2.141329
141	0x400a846d	2.1643326
142	0x401113d3	2.266835
143	0x402ab95f	2.6675642
144	0x400f5c1c	2.239997
145	0x401923ad	2.3928025
146	0x3f1b5a9a	0.6068512
147	0xbf9dae98	-1.2318907
148	0x403b8932	2.9302487
149	0x40371428	2.8606052
150	0xbeaf4942	-0.3423558
151	0x40352470	2.830349
152	0x401d9d2f	2.4627187
153	0x400428f8	2.0650005
154	0x400a6bbe	2.162826
155	0x40301d1d	2.751777
156	0x4002cb5f	2.0436628
157	0x402327df	2.5493085
158	0x3ef158fd	0.47138205
159	0x40344a7f	2.8170469
160	0x402795ed	2.6185257
161	0x4028098b	2.6255825
162	0x402acd13	2.6687667
163	0x401fb453	2.495381
164	0x401ec980	2.4810486
165	0x400a7988	2.1636677
166	0x401fa758	2.4945889
167	0x403c6211	2.9434855
168	0x401c77fc	2.4448233
169	0x401560b9	2.3340285
170	0x40353bbe	2.8317714
171	0x400fb7ba	2.2455888
172	0x402bed4d	2.6863587
173	0x4017bc20	2.3708572
174	0x402ebe0b	2.7303493
175	0x3fdd8300	1.7305603
176	0x403c403a	2.94142
177	0x401b80b3	2.4297302
178	0x3ccaa47e	0.02473664
179	0x40176b73	2.3659332
180	0x400a122d	2.1573594
181	0x403cf994	2.952733
182	0x3f63bacc	0.88956904
183	0x40212866	2.5180907
184	0x400c3404	2.1906748
185	0x4019fdaf	2.4061086
186	0x40101de8	2.2518253
187	0x40062767	2.096155
188	0x401b004b	2.421893
189	0x40355c53	2.83376
190	0x4011d44f	2.2785833
191	0x40398a26	2.899057
192	0x4012fad0	2.2965584
193	0x402f9964	2.7437372
194	0x400abfc5	2.1679547
195	0x401db2ba	2.4640336
196	0x40231e89	2.5487387
197	0x401bfd68	2.4373417
198	0x405aa916	3.4165702
199	0x400c790d	2.1948884
200	0x40488915	3.1333668
201	0x404f75f6	3.2415748
202	0x401c9935	2.446851
203	0x403d4170	2.957119
204	0x403e22e7	2.9708803
205	0x401e14ff	2.4700315
206	0x4019ace6	2.401178
207	0x4047be3f	3.1209867
208	0x401fdb0c	2.4977446
209	0x402a8326	2.6642547
210	0x3f9035de	1.1266439
211	0x3e85545f	0.26040933
212	0x404044ae	3.0041919
213	0x40487428	3.1320896
214	0xbf472c83	-0.77802294
215	0x402f8c1c	2.7429266
216	0x40215124	2.5205774
217	0x40293ee1	2.6444628
218	0x401ee7f1	2.4829066
219	0x4039ec06	2.9050307
220	0x400a73fd	2.1633294
221	0x401907af	2.391094
222	0x3f9227d5	1.1418406
223	0x40377bb6	2.8669257
224	0x40312c02	2.768311
225	0x405599dd	3.337516
226	0x4039c664	2.9027338
227	0x40547478	3.3196087
228	0x40291a2b	2.6422222
229	0x401da6f1	2.4633143
230	0x401bd5c8	2.4349232
231	0x405ec04d	3.480487
232	0x402ad77f	2.6694028
233	0x40163793	2.347142
234	0x404549a4	3.0826197
235	0x40081a29	2.1265967
236	0x40471878	3.1108685
237	0x40424285	3.03531
238	0x40442521	3.0647662
239	0x3ff170f5	1.8862597
240	0x403f4770	2.9887352
241	0x402a0245	2.6563885
242	0x3fd66f57	1.6752728
243	0x4033eef5	2.8114598
244	0x4010ea6b	2.2643077
245	0x4052aaed	3.2916825
246	0xbdff83f0	-0.12476337
247	0x400633a0	2.096901
248	0x4019b8fe	2.401916
249	0x4013bc03	2.3083503
250	0x4028b3a1	2.6359637
251	0x40085f94	2.1308336
252	0x4019df93	2.404271
253	0x4033ca56	2.8092246
254	0x401de869	2.4673102
255	0x403967db	2.8969638

2.bias f4 [7]
0	0x400de21f	2.2169263
1	0x4009e0fe	2.1543574
2	0x40133f11	2.3007243
3	0x4039cdbc	2.903182
4	0x3ffb0237	1.9610051
5	0x4017101c	2.3603582
6	0x4033b19b	2.8077152

0.weight f4 [64, 84]
0	0x3f0c8f0c	0.5490577
1	0x3f3c0772	0.7344886
2	0x3f2b5a16	0.66934335
3	0xbe6a3208	-0.22870648
4	0x3dfc1062	0.12307812
5	0x3e94d919	0.29071882
6	0xbcfa6079	-0.03056358
7	0x3f72e06d	0.94873697
8	0xbf348a11	-0.7052317
9	0x3ee2430a	0.44191772
10	0xbcc3c4bb	-0.02389752
11	0x3d8bc828	0.06825286
12	0xbe55dad9	-0.20884265
13	0x40077b75	2.1169102
14	0x3f57015c	0.8398645
15	0x3f02c491	0.51081187
16	0xbed1f959	-0.4101055
17	0x3ec507fd	0.38482657
18	0x3d806e35	0.0627102
19	0x3f21ddc1	0.63228995
20	0x3f4aeff7	0.7927241
21	0x3f1a6ea1	0.60325056
22	0x3f2190ea	0.63111746
23	0xbd87b616	-0.06626527
24	0x3c3fe85b	0.011713113
25	0x3e2f9029	0.17144836
26	0x3fd6ee36	1.6791446
27	0xbd134d18	-0.035962194
28	0x3f13bd51	0.5771075
29	0x3e99487e	0.2993812
30	0xbe9a277c	-0.3010825
31	0x3f07d09b	0.5305268
32	0xbda4e601	-0.08051682
33	0x3ea535c6	0.32267588
34	0xbe89088a	-0.26764327
35	0x3f9ed4b7	1.2408665
36	0x3e9a9063	0.30188283
37	0x3d8cdc35	0.06877939
38	0xbdc53aa4	-0.096303254
39	0xbe802dfc	-0.25035083
40	0xbe0a4741	-0.13503744
41	0x4056bf38	3.355421
42	0x3f4611aa	0.77370703
43	0x3d5d1c84	0.053982273
44	0xbe144fc9	-0.1448356
45	0x3eeb411d	0.45948115
46	0x3b98d87d	0.0046644793
47	0x3e07215d	0.13196321
48	0x3f5ea010	0.86962986
49	0x3e75185a	0.2393507
50	0x3f094f5a	0.53636706
51	0x3d4600f4	0.048340753
52	0x3d6dd545	0.058064718
53	0xbd99407e	-0.07483004
54	0x3fb635de	1.4235189
55	0x3e105c1e	0.1409764
56	0x3f27deba	0.6557423
57	0x3f86364c	1.048532
58	0x3f40a8a0	0.752573
59	0x3edeede3	0.43540868
60	0x3e9e4412	0.3091131
61	0xbe72cc97	-0.23710857
62	0x3f16324c	0.58670497
63	0x3f9addd3	1.2098945
64	0x3f79b5bb	0.97542924
65	0xbc349cdd	-0.011023727
66	0x3e144cfa	0.14482489
67	0xbceefb1e	-0.029172476
68	0x3f7aebe8	0.98016214
69	0x40396756	2.8969321
70	0x3fa2415b	1.2676195
71	0x40066bb9	2.1003249
72	0x3fb76351	1.4327184
73	0x3fd51887	1.664811
74	0x3fc3f381	1.5308686
75	0x3f725458	0.9465995
76	0x400c1caf	2.1892507
77	0x3f9d33b4	1.2281404
78	0x3f88a62e	1.0675714
79	0x3f2ba1d5	0.6704381
80	0x3fbf768a	1.495805
81	0x3ec01313	0.37514552
82	0x4002c8a6	2.0434966
83	0x40000024	2.0000086
84	0x3e690700	0.22756577
85	0x3e476b0c	0.19474429
86	0x3eed0fbd	0.4630107
87	0xbf007681	-0.5018082
88	0xbdc69f76	-0.096983835
89	0x3efea440	0.49734688
90	0xbdf2554b	-0.118326746
91	0x3f98f84f	1.1950778
92	0xbf2da790	-0.67833805
93	0x3ee00a42	0.43757826
94	0xbd829662	-0.063763395
95	0x3adac23f	0.001668997
96	0xbf3edf5d	-0.74559575
97	0x4019a623	2.4007652
98	0xbcda2a1f	-0.026631413
99	0x3efd4b2c	0.49471414
100	0xbecdb5d3	-0.40177783
101	0x3e9c1489	0.30484417
102	0x3e6122fc	0.21986002
103	0x3ea53128	0.32264066
104	0x3f425912	0.7591716
105	0x3f052159	0.5200401
106	0x3e806e02	0.2508393
107	0xbefb928d	-0.49135247
108	0x3dc4a951	0.09602607
109	0x3e58278a	0.21108833
110	0x3ffa5cb9	1.9559547
111	0xbeae6c14	-0.34066832
112	0x3e548498	0.20753706
113	0xbe93632e	-0.28786606
114	0xbee320b2	-0.44360882
115	0x3e2e2f60	0.1701026
116	0xbe5aec2a	-0.21379152
117	0x3c61b8d3	0.013776976
118	0xbe6ae676	-0.22939476
119	0x3fbba8bb	1.4660867
120	0x3d447f22	0.047972806
121	0x3e0529c0	0.13004208
122	0xbc78d194	-0.015186686
123	0xbe479f67	-0.19494401
124	0xbf17b0a3	-0.592539
125	0x4053876a	3.30514
126	0x3e70b602	0.2350693
127	0xbf31053f	-0.6914863
128	0xbed0e009	-0.40795925
129	0x3f05eedf	0.52317613
130	0xbdd7cb31	-0.105368026
131	0xbdb12323	-0.0864928
132	0x3f2f484c	0.6846969
133	0x3ea7ece5	0.32797924
134	0x3e9d8068	0.3076203
135	0xbe60b4f5	-0.2194403
136	0xbe9d6782	-0.30743033
137	0xbe77a5fd	-0.24184413
138	0x3fb54a04	1.4163213
139	0xbe8466ce	-0.25859684
140	0x3caa77c4	0.020809062
141	0x3f54a216	0.83059824
142	0x3e5bb8aa	0.21457162
143	0x3e980917	0.29694435
144	0x3e1afb7e	0.15134999
145	0xbece78ae	-0.40326446
146	0x3f082ab5	0.53190166
147	0x3fbe7407	1.4879159
148	0x3f4477f7	0.7674555
149	0xbf825aa3	-1.018391
150	0x3c9b7df0	0.01898095
151	0xbec8bc0d	-0.3920597
152	0x3f81c2d3	1.0137581
153	0x4039fd38	2.9060802
154	0x3f93571c	1.1510959
155	0x3fd54804	1.6662602
156	0x3f973d24	1.1815534
157	0x3f9e23d8	1.2354689
158	0x3f8034cf	1.0016116
159	0x3f965143	1.1743549
160	0x40096e07	2.1473405
161	0x3f7fe19c	0.9995363
162	0x3f39f25a	0.72635424
163	0x3ec2fd9c	0.38084114
164	0x3fbe59f3	1.48712
165	0x3e84685e	0.25860876
166	0x4004b510	2.0735512
167	0x3fd4171c	1.6569552
168	0xbdb68fc1	-0.08914138
169	0x3ed6985d	0.4191312
170	0x3e2bea25	0.16788538
171	0xbda43c86	-0.080193564
172	0x3ee67b34	0.45015872
173	0x3e9754dc	0.2955693
174	0x3f18924d	0.5959824
175	0x3eac9072	0.33703953
176	0xbe79c7eb	-0.24392669
177	0x3c15c93a	0.009142214
178	0xbe8e2d7c	-0.27769077
179	0x3eb09b10	0.34493303
180	0xbe4711cb	-0.19440381
181	0xba90986d	-0.0011031755
182	0x3f3c7c07	0.7362675
183	0xbe253c0d	-0.16136189
184	0xbe159914	-0.14609176
185	0x3e724d32	0.2366226
186	0xbe075462	-0.13215783
187	0x3ef16afd	0.47151938
188	0x3e19c18c	0.15015239
189	0x3ee45437	0.445955
190	0x3f01b0fd	0.5066069
191	0xbef05e63	-0.4694701
192	0x3d9f9bda	0.07793398
193	0x3d1cf627	0.038320687
194	0x3ef76029	0.48315552
195	0x3f1d8608	0.6153264
196	0xbe0c57c1	-0.1370535
197	0x3ea5e9cf	0.32404944
198	0xbe9638f9	-0.29340342
199	0x3ed6801f	0.41894624
200	0xbe5d99f9	-0.21640767
201	0x3eeb467e	0.4595222
202	0xbd8767e3	-0.06611612
203	0x3f233dd2	0.63766205
204	0xbe108cc4	-0.14116198
205	0xbe2a7834	-0.16647416
206	0xbdd3b093	-0.10336413
207	0x3df8474a	0.12122972
208	0x3d3e87b8	0.04651615
209	0xbf33b4de	-0.70197856
210	0xbe7155d6	-0.235679
211	0x3f9ed9fa	1.2410271
212	0xbe9d026b	-0.30665907
213	0x3efa34f5	0.48868528
214	0xbd686ddd	-0.0567454
215	0xbe6d3a21	-0.23166706
216	0x3e99b9ec	0.3002466
217	0x3d44fb0a	0.048090972
218	0x3e8abbdc	0.2709645
219	0x3e0ab296	0.13544688
220	0x3e48bc6f	0.19603132
221	0x3e96e77f	0.29473493
222	0x3f8bd60e	1.0924699
223	0x3ff5ca40	1.9202347
224	0xbdc92b58	-0.0982272
225	0xbda92e65	-0.08260802
226	0x3f35ce04	0.7101748
227	0x3f49ecf1	0.7887717
228	0x3c6e3111	0.0145380655
229	0x3f2841c3	0.65725344
230	0x3efb5515	0.4908835
231	0x3fb16abc	1.3860698
232	0x3f1ff082	0.6247636
233	0x3f487ae3	0.7831251
234	0x3eb8e656	0.36113232
235	0x3d639924	0.05556597
236	0x3f54f80d	0.83190995
237	0x3e608658	0.21926248
238	0x3f8b39b0	1.087698
239	0x3dd75ee5	0.105161466
240	0x3f56bcfd	0.83882123
241	0x3fcd207d	1.602554
242	0x3fb8995b	1.44218
243	0x3f98fe6f	1.1952647
244	0x40043de4	2.0662775
245	0x3fb9aecd	1.450647
246	0x3f364f32	0.7121459
247	0x3f795bb8	0.97405577
248	0x3fa87362	1.3160212
249	0x3faf6786	1.3703468
250	0x3fd62f1c	1.6733127
251	0x402a19da	2.6578279
252	0x3f2b338d	0.66875535
253	0x3f084aea	0.5323931
254	0x3f1068e8	0.56410074
255	0xbeb49cf7	-0.35276005

0.bias f4 [64]
0	0x4086f1d9	4.2170224
1	0x40809e85	4.0193505
2	0x402d4b12	2.707707
3	0x408d8ec0	4.4236755
4	0x40813b69	4.038502
5	0x40838931	4.110497
6	0x405e338e	3.4718966
7	0x408dc2e0	4.4300385
8	0x408d529c	4.416334
9	0x4084a10e	4.14466
10	0x4086aecb	4.208837
11	0x40808159	4.0157895
12	0x40816ed3	4.0447783
13	0x408cc211	4.3986897
14	0x408bcf1f	4.3690333
15	0x4078a2ed	3.8849442
16	0x4082e5c2	4.0905466
17	0x4089c7ec	4.3056545
18	0xbe3e2260	-0.185678
19	0xbf069f69	-0.5258699
20	0x4072cbd1	3.79369
21	0x4079798f	3.8980443
22	0xbeba1e38	-0.3635118
23	0x4058a163	3.3848503
24	0x408cf80c	4.405279
25	0x40691d8c	3.6424284
26	0x408c3e74	4.3826237
27	0x40860509	4.1881146
28	0x408a6b55	4.325602
29	0x407cbaeb	3.9489086
30	0xbe14c78a	-0.14529243
31	0x408b3f9f	4.3515162
32	0x406af73f	3.6713407
33	0x4081725f	4.0452113
34	0x40853d30	4.163719
35	0x4081f45d	4.0610795
36	0x40742d1b	3.815253
37	0x40850d89	4.1579022
38	0x406f5bcb	3.7399776
39	0x40836316	4.1058455
40	0x4086740b	4.2016654
41	0x408c8489	4.3911786
42	0x408656ac	4.19808
43	0x4088e289	4.277653
44	0x408eb24d	4.459265
45	0x4061d43e	3.5285792
46	0x408a633e	4.3246145
47	0xbda39284	-0.0798693
48	0x40827e4e	4.077918
49	0x4080082b	4.000997
50	0x3fe3c73d	1.7795178
51	0x407f1dd9	3.9861968
52	0x4086f282	4.217103
53	0x40904f18	4.509655
54	0xb9de95d2	-0.00042454764
55	0x40581229	3.3761084
56	0x408c3c76	4.3823805
57	0x40883fb7	4.2577777
58	0x408a541b	4.322767
59	0x40892abf	4.286468
60	0x406ba607	3.6820085
61	0x406e7691	3.7259867
62	0x408b6006	4.3554716
63	0x40765a44	3.8492594

2.weight f4 [7, 64]
0	0x4014aaa4	2.322915
1	0x4038e087	2.888704
2	0x3ff1556c	1.8854194
3	0x401e4c50	2.4734077
4	0x403251ba	2.7862382
5	0x40147970	2.319912
6	0x3fee9e3b	1.8642038
7	0x401a85d8	2.4144192
8	0x403c8b74	2.9460115
9	0x402d2c8a	2.7058434
10	0x4022234f	2.533405
11	0x403c8de2	2.9461598
12	0x402ac736	2.6684089
13	0x4015e8cf	2.3423345
14	0x40150b7d	2.3288262
15	0x401ec792	2.4809308
16	0x401e0899	2.4692748
17	0x401fabe1	2.4948657
18	0x3f165513	0.5872356
19	0x3f74fedf	0.957014
20	0x40416d7d	3.0223076
21	0x40372f4c	2.8622618
22	0xbe0c1606	-0.13680276
23	0x401907be	2.3910975
24	0x40149d2e	2.3220935
25	0x40387667	2.8822267
26	0x40163efc	2.3475943
27	0x402e2071	2.72073
28	0x4013c1db	2.308707
29	0x400b2b2b	2.1745098
30	0x3f9a6086	1.2060707
31	0x402dbb67	2.7145631
32	0x4029fd51	2.6560862
33	0x402e357f	2.7220151
34	0x40224007	2.535158
35	0x4037f36c	2.8742323
36	0x401bc0b4	2.4336367
37	0x400b71d9	2.1788237
38	0x401e6633	2.4749877
39	0x40343936	2.8159919
40	0x401326d9	2.299246
41	0x40181f7e	2.3769221
42	0x402b8f32	2.680615
43	0x401557ac	2.333476
44	0x40332aa1	2.7994769
45	0x40225307	2.5363176
46	0x4037068a	2.859774
47	0x3f783e38	0.9696994
48	0x404a831d	3.1642525
49	0x401f824b	2.4923275
50	0x3f2e66ef	0.68125814
51	0x401ef1da	2.4835114
52	0x400c641a	2.1936097
53	0x40401898	3.001501
54	0x4013b828	2.308115
55	0x402078b2	2.5073667
56	0x40108b5c	2.2585058
57	0x401ae6cc	2.4203367
58	0x40143c81	2.3161929
59	0x40133807	2.3002946
60	0x40153e05	2.3319104
61	0x40389852	2.884297
62	0x400db0e9	2.2139227
63	0x40228d7c	2.5398855
64	0x40074a86	2.1139235
65	0x40238d99	2.5555174
66	0x4009aefc	2.1513052
67	0x40064154	2.0977373
68	0x4024ff06	2.5780654
69	0x3ffc6f87	1.9721535
70	0x400163fa	2.021727
71	0x4008fc4c	2.140399
72	0x4025ba25	2.5894864
73	0x401b3a9f	2.425453
74	0x400574fb	2.085265
75	0x40293e25	2.644418
76	0x4017607f	2.3652647
77	0x400d1676	2.204496
78	0x400f818e	2.2422824
79	0x4029a719	2.6508238
80	0x3ffc8405	1.9727789
81	0x4013e67c	2.3109426
82	0x3fde75f2	1.7379744
83	0x3f71ed5b	0.945028
84	0x4020cda7	2.512552
85	0x401f5ef9	2.4901717
86	0x3f5c7616	0.86117685
87	0x4007216f	2.1114156
88	0x400ee1f3	2.2325408
89	0x3fe07aad	1.7537438
90	0x3fef7262	1.8706782
91	0x40122448	2.2834644
92	0x3fef0a81	1.867508
93	0x400f8f64	2.2431269
94	0x3f0e2c8a	0.5553671
95	0x402af926	2.6714568
96	0x401416cc	2.3138914
97	0x401b8aba	2.4303422
98	0x40129876	2.2905555
99	0x401dfeea	2.4686837
100	0x402917da	2.6420808
101	0x400ef81b	2.2338932
102	0x4015c5d6	2.3402
103	0x40145923	2.3179405
104	0x4009da9c	2.1539679
105	0x40131a8b	2.298495
106	0x4027dcbd	2.6228478
107	0x4001b692	2.0267682
108	0x4023c876	2.5591102
109	0x3fece399	1.8506957
110	0x4022497e	2.5357356
111	0x3f9dc6b1	1.2326261
112	0x402b49e3	2.6763847
113	0x3ffae741	1.9601823
114	0x3ff177ac	1.8864646
115	0x4014743e	2.3195949
116	0x4001cc13	2.0280807
117	0x40315316	2.7706962
118	0x3f8deb00	1.1087341
119	0x3fe0fe5f	1.7577628
120	0x400da2fb	2.2130725
121	0x40037d10	2.0545082
122	0x400f6cb6	2.2410102
123	0x400091cd	2.008899
124	0x3fe4eafd	1.7884213
125	0x40055ebd	2.0839074
126	0x400a20a3	2.158242
127	0x401fb98b	2.4956996
128	0x400bf4e0	2.186821
129	0x40227810	2.538578
130	0x400b54d4	2.1770525
131	0x400dfc48	2.218523
132	0x40271f06	2.6112685
133	0x4014601f	2.3183668
134	0x4025083a	2.578627
135	0x400b5d6f	2.1775777
136	0x402473fb	2.569579
137	0x402b7838	2.6792126
138	0x40112c01	2.2683108
139	0x403230f6	2.7842383
140	0x40069687	2.1029375
141	0x40081105	2.1260388
142	0x400ea1f5	2.228635
143	0x4028450a	2.6292138
144	0x400ce7cb	2.2016475
145	0x4016b065	2.3545163
146	0x3f111564	0.56673265
147	0xbfa2676d	-1.2687813
148	0x4039147f	2.891876
149	0x4034a4c7	2.8225572
150	0xbebdbda1	-0.37058738
151	0x4032b3ee	2.792232
152	0x401b2cf5	2.424619
153	0x4001ae23	2.0262535
154	0x4007fab6	2.1246772
155	0x402dace8	2.7136784
156	0x4000598b	2.0054653
157	0x4020b5e5	2.511102
158	0x3edd0804	0.43170178
159	0x4031d93e	2.7788844
160	0x40251e4b	2.579974
161	0x40259499	2.5871947
162	0x402857ec	2.6303663
163	0x401d3ccb	2.4568355
164	0x401c56b0	2.442791
165	0x4008044a	2.1252618
166	0x401d3277	2.4562051
167	0x4039e6c8	2.9047108
168	0x401a02df	2.4064252
169	0x4012f0cf	2.2959478
170	0x4032c79c	2.7934332
171	0x400d4819	2.2075255
172	0x40297cd1	2.6482432
173	0x4015418f	2.3321264
174	0x402c4b90	2.692112
175	0x3fd85b27	1.6902817
176	0x4039cec5	2.9032452
177	0x40190ef7	2.3915384
178	0xbca57a7c	-0.020200007
179	0x4014f3ad	2.3273728
180	0x4007a127	2.119211
181	0x403a8664	2.9144526
182	0x3f599297	0.84989303
183	0x401eb117	2.4795587
184	0x4009c273	2.1524932
185	0x40178d9f	2.3680189
186	0x400dab88	2.2135944
187	0x4003b677	2.0580118
188	0x4018891d	2.3833687
189	0x4032e9d1	2.795521
190	0x400f6262	2.2403798
191	0x403710f3	2.8604095
192	0x400feefd	2.2489617
193	0x402c8b3f	2.695999
194	0x4007899d	2.1177742
195	0x401aa7b8	2.4164867
196	0x40201155	2.5010579
197	0x4018f04a	2.389666
198	0x405789e0	3.3677902
199	0x40096fea	2.1474557
200	0x40457bd4	3.0856829
201	0x404c6852	3.1938672
202	0x40198da8	2.399271
203	0x403a32ca	2.90935
204	0x403b12c5	2.9230206
205	0x401b0ab1	2.4225276
206	0x4016a239	2.3536513
207	0x4044ada2	3.0730977
208	0x401ccd69	2.4500372
209	0x4027755e	2.6165385
210	0x3f8a4228	1.0801439
211	0x3e68d20b	0.22736375
212	0x403d3517	2.9563653
213	0x404564bb	3.084273
214	0xbf4d5aea	-0.8021685
215	0x402c7a91	2.6949809
216	0x401e45bc	2.4730062
217	0x402626e8	2.5961246
218	0x401bdce3	2.4353569
219	0x4036dbe0	2.85717
220	0x40076952	2.1158032
221	0x4015f82d	2.3432724
222	0x3f8c1945	1.0945212
223	0x403470d0	2.8193855
224	0x402e1a16	2.7203422
225	0x405288dd	3.2896035
226	0x4036b6fd	2.8549187
227	0x4051651c	3.2717962
228	0x40260d67	2.594568
229	0x401a9a06	2.4156508
230	0x4018c50f	2.3870275
231	0x405bab93	3.432347
232	0x4027ca7e	2.6217341
233	0x40132c51	2.2995799
234	0x40423d09	3.0349753
235	0x40050fc5	2.0790875
236	0x40440c7f	3.0632627
237	0x403f2f7b	2.987273
238	0x4041181c	3.0170965
239	0x3feb6662	1.839062
240	0x403c310a	2.940493
241	0x4026f3c2	2.6086278
242	0x3fcf8c47	1.6214684
243	0x4030e095	2.7637074
244	0x400ddf17	2.2167413
245	0x404f9ee7	3.2440736
246	0xbe30ba7b	-0.17258637
247	0x40032212	2.0489545
248	0x4016ae64	2.354394
249	0x4010b0cf	2.2607915
250	0x4025a702	2.5883183
251	0x40055469	2.083277
252	0x4016ce94	2.3563585
253	0x4030b7f4	2.7612276
254	0x401adca1	2.4197161
255	0x4036559a	2.8489747

2.bias f4 [7]
0	0x400b0cb5	2.1726506
1	0x400815ba	2.126326
2	0x40112dbc	2.2684164
3	0x4037157b	2.860686
4	0x3ff645ec	1.9240088
5	0x40146b74	2.3190584
6	0x4030a92a	2.760325
