saved_models/DQN/using_melo_for_matchmaking/model5.pth (torch, 49972 bytes, 8 tensors)

0.weight f4 [64, 84]
000000 b7 2a d9 bd 17 cf b2 be f3 d9 4d 3e 4e 6f 2f be
       -0.1060385 -0.34923622 0.20102672 -0.17132303
000010 6a 6c be bd 18 31 8f be 45 b3 af bd f9 b6 19 be
       -0.09298022 -0.27967143 -0.08579115 -0.15011205
000020 ca 62 c9 bd eb ba 2c 3e 34 3d b0 bd 3e c9 01 3e
       -0.09833296 0.16868179 -0.086054236 0.12674424
000030 98 88 1b 3d c0 e8 26 3e da 99 b1 3d 5e ad 34 3c
       0.037972063 0.16299725 0.08671923 0.011027662
000040 e1 08 88 bd 1d 27 e9 3d 0b 21 6a 3d 82 85 6b bc
       -0.066423185 0.113844134 0.05716042 -0.014375092
000050 ed 3d 11 3f 3d 10 0c 3f 58 04 3a ba 27 68 06 3d
       0.56735116 0.5471228 -0.0007095984 0.03281417
000060 21 38 98 3e a8 e8 da 3e da 87 14 3e 99 c7 35 bd
       0.29730323 0.42755628 0.14504948 -0.044379804
000070 f3 35 8f 3e 7e b7 f2 be fe 21 61 bc c4 5b 1e 3e
       0.27970847 -0.47405618 -0.0137410145 0.15464693
000080 a5 13 80 be 7c 42 e7 ba 17 25 ab 3e 2a 27 89 3d
       -0.25014988 -0.0017643715 0.33426735 0.06696923
000090 8f 55 37 3e c6 b2 cb 3c 85 7a ab 3e 80 aa d0 3d
       0.17903732 0.02486552 0.33491912 0.1018877
0000a0 bd 86 7f be 8b 77 97 3e 11 98 cc bd c8 39 34 be
       -0.24953742 0.29583392 -0.09989942 -0.17600167
0000b0 65 65 0b bb a2 13 16 3d e0 c3 96 3e ed bb e5 bd
       -0.0021270153 0.036639817 0.29446316 -0.112174846
0000c0 d6 cd 63 3e ad a9 76 3e d3 9a 92 3c ae 69 1e be
       0.22246489 0.24088164 0.017896092 -0.15470001
0000d0 06 1f e8 3e ad 3a de 3d a3 cf cd 3d 2d dc 28 3d
       0.4533617 0.10851035 0.10049369 0.0412256
0000e0 94 fd c2 bd 5f 5a ac bc bd 3b 90 3d f0 d9 ef 3e
       -0.095210224 -0.021039186 0.07042644 0.4684596
0000f0 44 71 91 3e b4 c7 92 3d 95 98 0f 3b 9c 0c 1c be
       0.28406727 0.071669966 0.0021911014 -0.15239185
000100 ce 7b 05 be 97 6f dc bc ee 08 40 3e 67 cb 16 3d
       -0.13035509 -0.026908679 0.18753406 0.036815073
000110 44 ad b2 3d 67 77 8f 3d 14 53 99 3e cd 24 b7 3e
       0.08724454 0.07005196 0.29946196 0.35770264
000120 6a 48 8a bd bc fc e3 3d d7 9d c1 3d 44 6b 1a 3e
       -0.06752093 0.1113219 0.09453934 0.15079981
000130 e6 aa 39 be ba d1 9e be 9c bc ab be bd f7 b9 3c
       -0.18131599 -0.31019384 -0.33542335 0.022701139
000140 c9 7d e1 3e d5 6a 0f bc 51 6e b3 3d e7 dd 0e 3e
       0.4404128 -0.008753498 0.087612756 0.13951837
000150 63 40 eb bd 60 d5 e0 bc 57 73 4d be a6 7b 28 3d
       -0.1148689 -0.027445495 -0.2006353 0.041133545
000160 ef 79 9d 3d d4 c2 41 bd 3b 80 19 be 05 e1 a7 3d
       0.076892726 -0.047304943 -0.14990322 0.08197216
000170 f6 b3 d3 be 62 64 8a 3b c8 46 82 be 2c e5 07 bd
       -0.41348237 0.0042233923 -0.25444627 -0.03317754
000180 f9 9e c3 bd d3 4f f6 be 93 cb 29 be 96 ec 21 be
       -0.09551806 -0.48107776 -0.16581564 -0.15812907
000190 32 61 56 bd 19 eb 46 3d 9f bf 2c 3e f4 28 a2 bd
       -0.052338786 0.04856405 0.16869973 -0.079179674
0001a0 98 d2 bd bd 2f 24 1f be 0f fa c6 be be 42 13 3d
       -0.09268683 -0.15541147 -0.38862655 0.035952322
0001b0 d5 bb e0 bd 5f bb f1 bc da 93 cb be 7a b4 16 3e
       -0.10973326 -0.02950829 -0.3976124 0.14717284
0001c0 cc 2c 78 3d d2 2b a2 be c5 f1 d5 3d 1b 6a 3a 3d
       0.060589597 -0.31674057 0.104465045 0.045511346
0001d0 72 61 15 3e 3d 98 2f ba 7b ca c5 3d 52 d1 3f bd
       0.14587954 -0.00066984055 0.09657761 -0.046830483
0001e0 25 f5 74 be a5 cc 25 be 87 c4 49 bd 49 da b1 be
       -0.2392164 -0.16191347 -0.04925969 -0.3473685
0001f0 31 46 b4 bc 22 9a 1a be 53 ce bd be dc 47 3f 3e
       -0.022006126 -0.1509786 -0.37071475 0.18679756
000200 3c af 1f be 9c 80 fa 3d f1 5f 31 3d 09 e2 78 3e
       -0.1559419 0.122315615 0.043304387 0.24304976
000210 f8 f1 1b be 58 2c 68 3e 11 ec 45 bd 15 f3 6e be
       -0.15229023 0.22673166 -0.048320834 -0.23334916
000220 25 4b bd 3d 73 0f 4a bd d7 96 3c be 9d 86 f6 3e
       0.09242848 -0.04933114 -0.18416916 0.48149577
000230 07 0d 25 3d c9 c2 fb bd 68 d1 09 3e fd cb 74 bc
       0.040295627 -0.12293012 0.13458788 -0.014941213
000240 84 99 0d bc 8d 77 68 3e c0 03 2a 3e fb 4a 46 3d
       -0.008642558 0.22701855 0.16602993 0.04841135
000250 aa cc d4 be b0 f6 42 3e d4 b5 20 3e 07 0a 90 3d
       -0.41562396 0.19039416 0.15694362 0.070331626
000260 9a ba 7c 3d ac b1 91 be 8d a8 0e 3e 96 7b 1c 3e
       0.061701395 -0.28455865 0.13931485 0.1528152
000270 9c d4 1e 3e c1 7e cd 3e 51 7a 1c be e2 79 b0 3e
       0.15510792 0.40135768 -0.15281035 0.3446799
000280 cc af 54 3c bd 1f 5f 3e 06 db af bd 0f e2 c2 3e
       0.012981366 0.21789451 -0.08586697 0.38063094
000290 44 d8 12 3e 7e dc b2 be 86 8d 82 3e 6a ba 92 3e
       0.14340311 -0.34933847 0.254986 0.28657848
0002a0 20 12 27 be 25 c4 47 3e 7b a6 43 bc 48 14 f4 3d
       -0.16315508 0.19508417 -0.0119415475 0.11917931
0002b0 64 c7 c0 3c ca 02 ef bd 45 a4 cd bd f2 d4 32 3d
       0.023532577 -0.11670454 -0.100410976 0.04366011
0002c0 3a 0b 23 bc 20 79 88 bd d7 4e 42 be b3 0b 0c 3e
       -0.009951407 -0.06663728 -0.18975388 0.13676338
0002d0 36 89 f1 bd 9d 65 bc 3d c6 c0 ea bc 7e bd 88 3e
       -0.11793749 0.09199069 -0.028656375 0.2670707
0002e0 96 a6 30 be 57 3a 82 3d 1d 25 ce 3d 26 35 2b bd
       -0.17251047 0.06358784 0.100656725 -0.041798733
0002f0 f5 0b 10 be 2f 09 60 bd 06 f0 a5 ba 01 b4 02 3d
       -0.14067061 -0.05469626 -0.0012660034 0.031909946
000300 13 6b 10 3e f2 57 c4 bd d2 be 3c 3d 85 35 7c 3d
       0.14103346 -0.09587087 0.046080418 0.061574478
000310 7d a8 51 3e 4a cd 05 3e f3 c0 bb 3d 72 a5 0c 3e
       0.2047443 0.13066593 0.091676615 0.13734987
000320 16 10 ad bd ea 0d 3f 3d b3 98 4c bd 31 8d 8f 3d
       -0.08450334 0.04664413 -0.049950313 0.07009352
000330 82 57 83 bd 85 52 94 3c 9f 60 e6 3c 67 29 8f bd
       -0.06413175 0.018105755 0.028122244 -0.06990319
000340 2a df d0 bb 2e 5e b2 3e ff 0c e8 3c e4 b4 15 3e
       -0.0063742595 0.34837478 0.02832651 0.14619786
000350 ca 19 ef 3d b0 dd f6 39 5a 73 31 bd 06 41 a9 3e
       0.11674841 0.00047085946 -0.0433229 0.3305742
000360 91 33 2b bc a6 c6 69 3e 45 91 01 3d 1a cb 59 3d
       -0.010449306 0.22829685 0.03163268 0.05317221
000370 06 b6 70 3e b2 9e 82 3d 47 65 4f bd 5c 0e 97 3e
       0.23506936 0.06377925 -0.050633695 0.29503143
000380 14 d9 91 bc ff 47 80 3d ef 7b be 3d 2e 92 12 3e
       -0.017803706 0.06263732 0.09300982 0.14313576
000390 49 c5 e4 3d 69 b2 4e 3e 3f f5 73 3e cc 99 2c 3e
       0.11170442 0.20185246 0.23824023 0.16855544
0003a0 91 b8 1e 3e b3 aa b9 3d b6 73 58 3d 4c 01 5a 3e
       0.15500094 0.090657614 0.052844726 0.21289557
0003b0 4c d8 dd 3c 7b 3b 33 3d 97 49 d1 3e 5d 5a b7 3e
       0.027080677 0.043757897 0.40876457 0.3581113
0003c0 03 55 0e 3e c9 e9 53 3e ab 99 0c 3d 37 4f bb 3e
       0.13899617 0.2069465 0.034326237 0.36583874
0003d0 38 8a a8 3d 1d 76 10 3e 0e 7b 3a 3e c1 68 4b 3e
       0.08229488 0.14107557 0.18211004 0.19864179
0003e0 e5 81 72 3d d4 e2 74 3b 13 b1 64 3e 25 9c 08 3e
       0.05920591 0.0037366645 0.22333173 0.13340814
0003f0 5b 80 a1 3d cd 34 ac 3d 67 31 d6 be 7b f8 65 bd
       0.0788581 0.084085084 -0.41834566 -0.056145173

0.bias f4 [64]
000000 5f 2a 74 be a0 73 17 40 79 90 18 40 dc ba 13 3e
       -0.23844288 2.3664322 2.383818 0.1442675
000010 a4 de b1 be ca a0 0c 40 11 60 f8 3f 24 00 16 40
       -0.34740174 2.1973138 1.9404317 2.3437586
000020 04 1b 22 40 84 99 22 40 d4 84 09 40 8f a7 d0 3f
       2.532899 2.5406199 2.1487322 1.6301135
000030 fe e6 1d 40 5b b1 00 40 39 78 17 40 66 ed 13 40
       2.4672236 2.010825 2.3667128 2.3113647
000040 2d 66 f2 3f 07 18 10 40 c0 66 bc 3f 56 84 17 40
       1.8937432 2.2514665 1.4718857 2.3674521
000050 ce 18 11 40 87 84 d6 3f 8e c1 f3 3f 9c 01 58 3d
       2.267139 1.6759194 1.9043443 0.05273591
000060 2c 24 bf 3f 85 4e fe 3f 54 57 c4 be d4 16 a7 3d
       1.4932914 1.9867712 -0.38347876 0.08158651
000070 63 03 1a 40 cf 7a e0 be 28 52 06 40 c6 94 1a 40
       2.4064567 -0.43843696 2.0987644 2.4153304
000080 7b 0f a4 3f 8e ab 60 3a 11 09 10 40 1f 47 f6 3f
       1.2817224 0.00085704855 2.2505534 1.9240454
000090 46 70 a2 be 67 0e fd 3f e2 3d f3 3f 64 d9 04 40
       -0.31726283 1.977002 1.900326 2.0757685
0000a0 cd b5 0c ba a1 67 da 3f 84 a4 e5 3f 51 77 88 3f
       -0.00053676666 1.7062875 1.7940831 1.0661412
0000b0 3a 63 4f be c2 10 fc 3f 93 b6 04 40 95 be a2 3f
       -0.20252696 1.9692614 2.0736434 1.2714411
0000c0 1e fb 76 3d 89 ca e1 3f 73 22 0e 40 1a d4 12 40
       0.060298078 1.7639934 2.2208526 2.2941957
0000d0 80 6d c0 3f 8f ed e6 3f 00 22 17 40 73 24 9e be
       1.5033417 1.8041247 2.3614502 -0.30887184
0000e0 09 31 18 40 5b 6d 20 40 d5 4a 10 40 f5 5a b2 bd
       2.3779929 2.5066745 2.2545674 -0.08708755
0000f0 01 4c ec 3f 9e e0 f6 3f 2c d1 9d 3a 10 34 0a 40
       1.8460695 1.9287298 0.0012040487 2.1594276

2.weight f4 [7, 64]
000000 4c 45 e5 be d6 ca 63 3f c2 b7 08 3f b3 bd 87 3f
       -0.44779432 0.8898138 0.5340539 1.0604767
000010 3c fe ba be 13 1a 0d 3f 56 e0 93 3f 1c f2 b6 3f
       -0.3652209 0.5511791 1.1552837 1.4292636
000020 d0 f5 2e 3f f0 b8 74 3f 6a a3 ae 3f ba d3 4f 3f
       0.6834383 0.9559469 1.364362 0.81182444
000030 46 d9 4e 3f b5 06 56 3f 09 f9 84 3f 23 b3 23 3f
       0.8080028 0.83603984 1.03885 0.63945216
000040 c1 f2 58 3f 73 bd 52 3f a8 53 76 3f ba f0 7f 3f
       0.84745413 0.82320327 0.962214 0.99976695
000050 fc b4 ac 3f e1 68 a5 3f 7e b5 5a 3f d6 ee 8c 3c
       1.3492732 1.2922632 0.85433185 0.01720373
000060 0a d4 28 3f de 61 62 3f 9d 97 27 bf cd 26 8b bd
       0.65948546 0.88430583 -0.6546572 -0.0679451
000070 f5 5d 46 3f f9 e3 44 bf da 95 99 3f 0e 64 5b 3f
       0.7748712 -0.7691036 1.1998856 0.85699546
000080 33 4d 57 3f 54 5a cd 3e 63 42 84 3f 08 0d 85 3f
       0.8410217 0.40107977 1.033276 1.0394602
000090 76 a2 9d bc 64 6d 22 3f c1 dd 8c 3f 6c ae 80 3f
       -0.019242506 0.63448167 1.1005174 1.0053229
0000a0 06 98 bc 3e 8a 2b 9c 3f 56 a7 41 3f b3 66 96 be
       0.36834735 1.2200787 0.7564596 -0.29375228
0000b0 37 9b 2d bf de b7 59 3f d6 23 51 3f 17 52 8c 3f
       -0.67814964 0.85046184 0.81695306 1.0962552
0000c0 27 37 fe 3e a4 ab 82 3f d0 e9 15 3f 71 26 56 3f
       0.49651453 1.020863 0.58559895 0.83652407
0000d0 6c 63 5c 3f 2e 53 2d 3f ba 27 67 3f 8f 05 51 bf
       0.86089206 0.6770505 0.9029499 -0.81649107
0000e0 00 5d 53 3f df 38 3e 3f b9 b5 18 3f cf 06 3a be
       0.8256378 0.7430553 0.59652287 -0.1816666
0000f0 82 4e 3c 3f 79 35 9c 3f 6f 8b 52 3f bb 5d 56 3f
       0.73557293 1.2203819 0.8224401 0.8373677
000100 4f 1f c7 3d 25 ee 6b 3f 2c f1 3e 3f b0 ca 33 3f
       0.097227685 0.92160255 0.7458675 0.7023115
000110 fd 2c 4d bf 35 d1 fc 3e bd 39 ab 3f 1a 51 ac 3f
       -0.8014677 0.49378362 1.3376995 1.346225
000120 9e af 51 3f cc 6c 94 3f 74 59 9a 3f 96 9b 46 3f
       0.81908596 1.1595702 1.2058549 0.77581155
000130 9b d2 65 3f 21 1c 74 3f 43 0c 73 3f 2c d8 54 3f
       0.89774483 0.9535542 0.94940585 0.8314235
000140 9d 51 67 3f 10 9a 49 3f 23 a6 88 3f 70 65 93 3f
       0.90358907 0.78750706 1.0675701 1.1515331
000150 b0 b6 ad 3f 6e 7b 30 3f ee 28 8c 3f d8 c0 d5 3e
       1.3571377 0.6893834 1.0949991 0.4174869
000160 1d df 3a 3f 96 23 7c 3f 9e 04 86 bf 1d fc 2e bf
       0.72996694 0.984918 -1.0470159 -0.68353444
000170 d3 64 42 3f 53 3f c4 bd 16 51 c8 3f 0e 85 41 3f
       0.75935096 -0.09582391 1.5649745 0.7559365
000180 02 84 02 3f 36 2a 64 be 5b f8 7a 3f 85 f3 a3 3f
       0.5098268 -0.22281727 0.9803521 1.2808691
000190 72 17 db 3c 14 6e e3 3e cf 64 8e 3f ce 9a 98 3f
       0.026744578 0.4441992 1.1124514 1.1922243
0001a0 2d 97 16 3f 04 23 54 3f 7c 81 a2 3f 7f 96 3c 3f
       0.58824426 0.8286593 1.2695765 0.7366714
0001b0 8f db c3 be 7c 2f a0 3f 3d d5 1d 3f c0 4b 75 3f
       -0.38253447 1.2514491 0.616535 0.9581871
0001c0 41 29 44 3d b8 7f a6 3e 11 c3 3b 3f d4 9d 58 3f
       0.047890905 0.32519317 0.7334452 0.84615827
0001d0 6b a8 42 3f 93 cd 46 3f 66 e6 31 3f 23 a8 e8 be
       0.76038235 0.7765743 0.69492185 -0.45440778
0001e0 c2 0f 54 3f 99 3a 58 3f 40 f0 3f 3f 90 97 9b 3e
       0.82836545 0.8446441 0.7497597 0.3038907
0001f0 5b 11 83 3f f8 14 6b 3f f6 06 11 3f a6 73 2e 3f
       1.0239671 0.9182887 0.56651247 0.68145216
000200 35 b1 4a 3e 09 b7 68 3f 01 59 4a 3f 4e b0 28 3e
       0.19794162 0.9090429 0.7904206 0.16473505
000210 e0 3c 09 bf b1 33 2b 3f 99 b3 8d 3f e9 8c a1 3f
       -0.5360851 0.6687575 1.1070434 1.2621127
000220 05 4c 3b 3f 0c 55 87 3f 7e 41 a8 3f d8 cb 39 3f
       0.7316287 1.0572829 1.3144987 0.72576666
000230 74 79 4b 3f b6 23 11 3f 8d b1 51 3f cc 42 3e 3f
       0.794822 0.56695116 0.81911546 0.74320674
000240 b9 75 15 3f bb c3 51 3f 32 d3 ba 3e a0 d6 8f 3f
       0.58382756 0.81939286 0.36489254 1.1237373
000250 ac a2 9b 3f 89 eb 13 3f 3c f1 2e 3f 06 00 6e 3f
       1.2159019 0.57781273 0.68336844 0.92968786
000260 b1 ca 5d 3f ec 6e 7d 3f ac 41 34 bf 66 c7 0e 3f
       0.8663741 0.9899738 -0.7041271 0.5577301
000270 1c 04 25 3f 0d 55 9f 3d a4 71 99 3f 63 55 3b 3f
       0.64459395 0.07779894 1.1987805 0.73177165
000280 a1 15 6a 3f ff 0c 3c 3f ff cd 7f 3f c0 00 94 3f
       0.91439253 0.7345733 0.999237 1.1562729
000290 c1 f4 a2 be d7 b4 32 3f 20 94 97 3f 0e b9 56 3f
       -0.31827357 0.6980719 1.1842079 0.8387612
0002a0 cb 0e a1 3f 03 81 7d 3f 39 10 83 3f ab 06 f1 3e
       1.258264 0.9902498 1.0239326 0.470754
0002b0 13 34 13 3d 02 a0 4b 3f bf c9 7d 3f 2f fc 8a 3f
       0.035938334 0.7954103 0.99135965 1.085821
0002c0 a0 49 92 3d 77 90 28 3f 57 64 64 3f 84 e7 56 3f
       0.07142949 0.65845436 0.89215606 0.83947015
0002d0 7c e8 16 3f 6f c9 5b 3f 21 61 3d 3f f5 ef a9 bb
       0.58948493 0.8585424 0.7397633 -0.005186076
0002e0 66 9b 2a 3f 64 8c 47 3f 08 3d 16 3f 83 5f 53 3f
       0.6664337 0.77948594 0.58686876 0.82567614
0002f0 0f 09 81 3f b6 a3 88 3f c0 f3 98 3e 94 12 41 3f
       1.008089 1.0674961 0.29873466 0.7541897
000300 2b e5 5e bf f5 90 7c 3f dc 89 4d 3f ac 48 5e 3f
       -0.8706843 0.98658687 0.8028848 0.8682964
000310 b0 46 20 bf 50 79 43 3f a6 d4 90 3f 40 c2 9c 3f
       -0.6260786 0.76356983 1.1314895 1.224678
000320 a6 ed 2e 3f 1d 3f 96 3f d7 92 9e 3f d5 e9 3b 3f
       0.6833137 1.1738011 1.2388562 0.73403674
000330 be ea 25 3f 21 db 63 3f 01 84 5a 3f 52 48 32 3f
       0.64811313 0.8900624 0.8535767 0.696416
000340 16 84 56 3f 15 b3 28 3f 72 f0 64 3f 21 7c 82 3f
       0.837953 0.6589826 0.8942939 1.0194131
000350 b0 39 86 3f 13 5e 4d 3f 90 47 54 3f b0 f9 24 3e
       1.0486355 0.8022167 0.82921696 0.16110873
000360 58 51 71 3f cf 35 92 3f 2c 0a 0d bf 9d 50 b1 3e
       0.94264746 1.1422671 -0.55093646 0.34631816
000370 1d 3b 28 3f 9a 4e 1c 3e 96 e3 47 3f 27 ca 38 3f
       0.657152 0.15264359 0.78081644 0.7218346
000380 dc a9 49 3f 22 c5 e7 3e ed 7e 76 3f f1 26 9c 3f
       0.7877481 0.45267588 0.96287423 1.2199384
000390 dc f4 99 be 76 5b 30 3f ff 6a a8 3f dc c9 7e 3f
       -0.30069625 0.6888956 1.3157653 0.9952676
0003a0 45 b0 51 3e 0b c7 14 3f 87 fa 57 3f 24 89 5e 3e
       0.20477398 0.58116215 0.8436665 0.21732002
0003b0 f0 c2 cc bd cf 6b 60 3f ca f8 62 3f 88 6e 28 3f
       -0.09998119 0.876645 0.8866087 0.6579366
0003c0 a4 62 44 3f 93 e4 10 3f cf c4 6b 3f 52 ef 4c 3f
       0.76713014 0.56598777 0.9209718 0.80052674
0003d0 55 1b e9 3e c8 6f 49 3f 75 26 5d 3f 49 b7 2b bf
       0.45528665 0.7868619 0.86386806 -0.67076546
0003e0 e4 e9 30 3f 83 17 31 3f 71 c4 44 3f 7e fe a1 bb
       0.6910689 0.691765 0.76862246 -0.004943668
0003f0 b1 70 9a 3f bf 9e 83 3f bb 07 87 3f f0 53 80 3f
       1.2065641 1.028282 1.0549234 1.0025616

2.bias f4 [7]
000000 9b 44 71 3f c9 76 8a 3f ea cc 69 3f 29 66 78 3f
       0.9424531 1.08175 0.913283 0.97030884
000010 44 95 77 3f 2e 53 6c 3f 04 5b 8c 3f
       0.96712136 0.9231442 1.0965276

0.weight f4 [64, 84]
000000 17 11 db bd 45 c4 b5 be d2 77 4f 3e 7c 2c 2f be
       -0.10696619 -0.35501304 0.20260552 -0.17106813
000010 0a 17 bf bd 9c 2d 8d be 0a 9e b7 bd 5c af 19 be
       -0.09330566 -0.2757386 -0.089656904 -0.150083
000020 86 60 c5 bd e7 24 32 3e bb be b4 bd 96 2c 02 3e
       -0.09637551 0.1739689 -0.088254414 0.1271232
000030 6b 36 27 3d 27 d4 27 3e 5f 3e a8 3d 36 3f b7 3b
       0.04082338 0.16389523 0.08215021 0.005592252
000040 24 88 86 bd 1c bc eb 3d 2d d1 6e 3d 12 a2 8b bc
       -0.065689355 0.115104884 0.058304954 -0.017045055
000050 ec 26 10 3f be 3e 0b 3f 1c 2d 6d 3b 88 22 12 3d
       0.5630939 0.5439261 0.0036190217 0.035677463
000060 ac 41 96 3e ad ac d6 3e 4a c7 0f 3e 65 e0 27 bd
       0.2934698 0.41928616 0.14040866 -0.040985484
000070 29 a3 8d 3e e4 c3 f4 be 4b 36 62 bc 3a 5f 1e 3e
       0.27663544 -0.47805703 -0.01380689 0.15466014
000080 ba 4c 82 be 81 b8 9c 3b 0f a9 a9 3e 1d b3 80 3d
       -0.25449163 0.0047827368 0.33136794 0.06284163
000090 14 e1 39 3e 49 be d7 3c d4 38 a8 3e 8f 68 cb 3d
       0.18152267 0.026335852 0.32855856 0.09932052
0000a0 7f 04 81 be e2 eb 95 3e 07 f8 de bd 96 29 31 be
       -0.25198743 0.29281527 -0.10887151 -0.1730102
0000b0 4f 42 69 bb 6c f1 0b 3d aa 2c 97 3e 75 0d f2 bd
       -0.0035592502 0.034165785 0.29526263 -0.11818973
0000c0 1f 4b 61 3e 4d 54 7d 3e 2e 78 a2 3c 5e 3b 19 be
       0.22001313 0.2473919 0.019832697 -0.14964053
0000d0 bd 8e e5 3e 3f 02 ca 3d 89 86 ce 3d 67 c7 29 3d
       0.44835463 0.0986371 0.10084254 0.04144993
0000e0 61 f0 c1 bd e0 d9 8e bc 20 0e 94 3d 7e 22 eb 3e
       -0.09469677 -0.017437875 0.07229257 0.45924753
0000f0 51 b3 92 3e c7 61 8d 3d 49 f9 51 3b e2 37 1e be
       0.28652433 0.06903415 0.0032039455 -0.15451005
000100 6c 7a 02 be da fb f4 bc b3 e0 3d 3e 16 3c 0e 3d
       -0.12742013 -0.029905248 0.18542747 0.03472527
000110 43 a7 b8 3d d7 25 92 3d 1b 8c 95 3e 18 48 b6 3e
       0.09016278 0.071361236 0.29208454 0.35601878
000120 ea 26 85 bd e2 fb ca 3d c4 27 c5 3d 4d 0d 16 3e
       -0.06501563 0.09911324 0.09626725 0.14653511
000130 d6 40 3a be b7 10 9d be 90 6a ab be a3 6c e4 3c
       -0.18188795 -0.30676815 -0.33479738 0.027883833
000140 45 ca dd 3e a5 c3 93 bb 4a 56 ab 3d 9f 54 0e 3e
       0.43318382 -0.0045094066 0.08366068 0.13899468
000150 9d 2c e4 bd 97 32 ca bc 85 4a 4f be 2e d6 34 3d
       -0.11141322 -0.024682326 -0.2024327 0.04414957
000160 a1 66 9f 3d d6 9e 3c bd bc d4 14 be 0e 80 a7 3d
       0.07783247 -0.046049915 -0.14534277 0.08178721
000170 f1 56 d4 be 39 a1 b1 3a ff bd 7f be a7 2d 09 bd
       -0.4147258 0.0013552076 -0.24974822 -0.033490803
000180 01 ad cc bd 26 3c f6 be 9e 89 24 be 19 f9 20 be
       -0.099939354 -0.48092765 -0.16068122 -0.15720023
000190 d9 bb 58 bd d2 c2 40 3d be f1 2e 3e c2 d5 9f bd
       -0.05291352 0.047060795 0.17084405 -0.07804443
0001a0 75 9c bc bd a6 f7 1f be 58 ae c7 be 80 2e 15 3d
       -0.09209529 -0.15621814 -0.390002 0.0364213
0001b0 17 3a e0 bd 8c 91 eb bc 45 16 cb be a8 74 15 3e
       -0.1094858 -0.028755926 -0.39665428 0.14595282
0001c0 10 8c 7d 3d 66 ec a1 be 69 a3 d6 3d 4d 31 34 3d
       0.061901152 -0.3162567 0.10480387 0.04399233
0001d0 0d 81 16 3e 3c 66 2f 3b 12 a4 ca 3d 14 cb 3f bd
       0.14697666 0.0026763817 0.09894575 -0.04682453
0001e0 96 30 74 be 9b 35 2b be a7 97 4d bd cd ba b1 be
       -0.23846659 -0.16719668 -0.050193455 -0.3471283
0001f0 94 01 9d bc b1 07 1a be 38 e2 bb be 98 51 39 3e
       -0.019165792 -0.15041997 -0.3669603 0.18097532
000200 24 19 21 be 87 e7 fc 3d f2 f7 3b 3d ce 19 78 3e
       -0.15732247 0.12348848 0.045890756 0.24228594
000210 bb c5 1c be 64 4d 64 3e 1c 5a 45 bd 6a 98 6e be
       -0.15309803 0.22295147 -0.048181638 -0.23300329
000220 ec d9 b9 3d e8 8a 32 bd a5 07 3d be e8 e5 f5 3e
       0.090747684 -0.043589503 -0.18459947 0.48026967
000230 4b 7a 23 3d 19 33 04 be 93 c3 08 3e 72 86 13 bc
       0.03991155 -0.12910117 0.13355856 -0.009004222
000240 6b b9 c2 bb 79 6c 68 3e b3 e6 27 3e 3e 96 37 3d
       -0.0059425137 0.22697629 0.16396599 0.044821016
000250 c0 2c d5 be 40 48 48 3e 75 db 1f 3e da df 8c 3d
       -0.41635704 0.19558811 0.1561106 0.06878634
000260 9a d8 78 3d b6 3d 91 be 62 ab 0f 3e a9 1d 1a 3e
       0.060753442 -0.28367394 0.14030221 0.15050377
000270 b5 2d 1e 3e ab a4 cf 3e 1e 30 1b be 1d 6f ad 3e
       0.15447123 0.4055532 -0.15155074 0.33873835
000280 7f 01 0e 3c b3 ba 5c 3e 3d c9 ae bd f0 6e c5 3e
       0.008667349 0.21555595 -0.08534477 0.385612
000290 e8 8d 14 3e 0f c1 b1 be d3 97 81 3e bb 8e 8f 3e
       0.14507258 -0.34717605 0.25311145 0.28038582
0002a0 5d 68 23 be 2a 52 4a 3e 90 07 5c bc 5a a3 f8 3d
       -0.1595778 0.19757906 -0.013429537 0.12140532
0002b0 0f 5b c9 3c 13 56 ed bd e6 00 c5 bd b1 8c 30 3d
       0.024579553 -0.11588683 -0.09619312 0.043102924
0002c0 60 80 3c bc 80 c6 8f bd 31 53 3e be f1 cf 0b 3e
       -0.011505216 -0.07020283 -0.18586423 0.13653542
0002d0 40 4c fb bd 09 b7 bc 3d 25 45 c2 bc 04 c3 88 3e
       -0.12270403 0.09214599 -0.023714611 0.26711285
0002e0 e6 a0 31 be f2 63 7f 3d 22 a2 d1 3d 68 6a 26 bd
       -0.17346534 0.062351175 0.102360025 -0.04062882
0002f0 df 8b 0f be 90 5f 65 bd 77 ac 5d bb 5e c9 02 3d
       -0.140182 -0.05599934 -0.003382472 0.03193032
000300 91 66 10 3e bf 74 c4 bd 04 84 40 3d 19 eb 78 3d
       0.14101626 -0.0959258 0.0470009 0.06077108
000310 3f 61 52 3e 76 d0 06 3e 2b a6 bc 3d bb fd 0a 3e
       0.20544909 0.13165459 0.092113815 0.13573353
000320 b1 eb aa bd f5 87 4c 3d 21 e7 44 bd 76 28 8f 3d
       -0.08345736 0.049934346 -0.048071984 0.06990139
000330 e4 c7 82 bd 06 22 4f 3c da a3 d6 3c ac f9 8d bd
       -0.06385782 0.012642389 0.026201177 -0.06932387
000340 ba 5c 4e bb f5 d3 b2 3e 05 58 03 3d aa 6f 0f 3e
       -0.0031488375 0.34927335 0.032066364 0.1400744
000350 da 5a ed 3d 0d e8 c2 3a c2 09 28 bd 96 93 a8 3e
       0.11589594 0.0014870182 -0.04102493 0.329251
000360 0e c1 3c bc 9d 1b 66 3e 8d b1 ff 3c 85 1d 5a 3d
       -0.011520637 0.22471471 0.031212592 0.05325081
000370 6f ff 6e 3e 59 27 8d 3d 6a a5 4e bd 6a 1b 97 3e
       0.23339628 0.068922706 -0.05045072 0.29513103
000380 32 9e 93 bc be ab 67 3d bc 8e bc 3d 88 a6 18 3e
       -0.01801977 0.05656027 0.09206912 0.14907277
000390 1c 51 e9 3d a5 b2 4e 3e d6 c9 71 3e 04 3a 29 3e
       0.113924235 0.20185335 0.2361215 0.16526037
0003a0 7a 6d 1d 3e a2 c7 c2 3d 20 1d 54 3d b4 d5 58 3e
       0.15373793 0.09510733 0.05178559 0.21175271
0003b0 f2 2a e4 3c 10 f3 3a 3d e2 85 d1 3e f0 59 b6 3e
       0.02785251 0.04564196 0.40922457 0.35615492
0003c0 de 48 0e 3e ce 46 58 3e 34 a3 11 3d 53 12 b8 3e
       0.13894984 0.2112076 0.035556033 0.3595148
0003d0 03 90 9f 3d 5d 44 0f 3e fc 52 3b 3e a9 a7 50 3e
       0.0779114 0.13990922 0.18293375 0.20376457
0003e0 91 8f 78 3d 54 a2 e8 3b c4 8e 63 3e cd f5 02 3e
       0.06068379 0.007099429 0.2222243 0.12789078
0003f0 97 1e a2 3d fa 47 a2 3d e6 d9 d5 be 61 3e 59 bd
       0.07915991 0.07923885 -0.41767806 -0.053038005

0.bias f4 [64]
000000 57 7e 74 be b8 a4 16 40 7b c7 17 40 36 a7 11 3e
       -0.2387632 2.3538036 2.3715503 0.14223942
000010 25 0e b2 be 68 ca 0b 40 dc f9 f6 3f 68 46 15 40
       -0.34776416 2.184229 1.9295001 2.3324223
000020 8d 4f 21 40 22 d2 21 40 38 d5 08 40 9a fb ce 3f
       2.5204804 2.5284505 2.1380138 1.6170533
000030 9d 1a 1d 40 b0 db ff 3f 90 a7 16 40 2d 21 13 40
       2.4547493 1.9988918 2.3539772 2.2989
000040 13 de f0 3f 5a 55 0f 40 a5 f0 ba 3f 9e bd 16 40
       1.8817772 2.2395844 1.4604689 2.3553233
000050 64 50 10 40 3a ca d4 3f ca 3e f2 3f 37 45 56 3d
       2.2549067 1.6624215 1.8925412 0.052312102
000060 b1 8f bd 3f 2a e4 fc 3f b5 c9 c4 be 2e 5d a0 3d
       1.4809476 1.975713 -0.3843514 0.078302726
000070 9c 36 19 40 40 67 df be 32 96 05 40 35 c3 19 40
       2.393958 -0.4363346 2.0872922 2.4025395
000080 cd ba a2 3f 16 9b 86 3a af 3e 0f 40 9a e6 f4 3f
       1.2713257 0.0010269608 2.238201 1.9132874
000090 28 f2 a0 be 96 7c fb 3f 4e c8 f1 3f dc 0c 04 40
       -0.3143475 1.9647396 1.8889253 2.0632849
0000a0 ca c5 a8 b8 02 c5 d8 3f 92 11 e4 3f 5d e9 86 3f
       -8.047705e-05 1.6935122 1.7817862 1.0539967
0000b0 35 30 50 be 48 8c fa 3f 23 e9 03 40 17 78 a1 3f
       -0.2033089 1.957406 2.0611045 1.2614774
0000c0 db 5c 7b 3d 43 20 e0 3f 76 55 0d 40 aa 0e 12 40
       0.06136785 1.7509845 2.2083411 2.282145
0000d0 7d dc be 3f 16 66 e5 3f 06 58 16 40 81 91 9d be
       1.4911038 1.7921779 2.3491225 -0.30775073
0000e0 14 67 17 40 4a a0 1f 40 04 85 0f 40 32 14 af bd
       2.3656664 2.4941583 2.2424936 -0.08548774
0000f0 79 a3 ea 3f af 60 f5 3f c9 24 9c 3a 37 69 09 40
       1.8331138 1.917013 0.0011912818 2.1470468

2.weight f4 [7, 64]
000000 99 30 e5 be 13 8d 62 3f cf 8e 07 3f b3 2d 87 3f
       -0.4476364 0.8849651 0.52952284 1.0560821
000010 96 75 ba be 04 e4 0b 3f 59 5f 93 3f 4a 93 b6 3f
       -0.36417836 0.546448 1.1513473 1.4263699
000020 a7 c5 2d 3f 7f b1 73 3f 10 32 ae 3f f2 07 4f 3f
       0.6787972 0.9519271 1.3609028 0.808715
000030 d3 87 4d 3f 00 ea 54 3f 99 62 84 3f 93 75 22 3f
       0.80285376 0.83169556 1.034259 0.63460654
000040 85 9a 57 3f 2a 96 51 3f 45 a9 74 3f 5b db 7e 3f
       0.84220153 0.8186976 0.95570785 0.9955346
000050 d9 13 ac 3f 1d 7e a4 3f 16 4c 59 3f 27 b8 5f 3c
       1.3443557 1.2850987 0.8488172 0.013654745
000060 8e d9 27 3f 0e 1e 61 3f ed ff 26 bf e2 9b 8f bd
       0.6556634 0.87936485 -0.6523426 -0.07012154
000070 7b 18 45 3f 9e 3c 44 bf 5b f5 98 3f 2c eb 59 3f
       0.7699048 -0.76654994 1.1949877 0.8512447
000080 f9 7c 56 3f 39 2e ca 3e 60 bb 83 3f 56 b1 84 3f
       0.83784443 0.3948839 1.0291557 1.0366619
000090 e0 d8 a5 bc 1a 0b 21 3f c4 37 8c 3f 82 ca 7f 3f
       -0.020245016 0.62907565 1.0954518 0.9991838
0000a0 d0 2c ba 3e 8d 67 9b 3f b3 04 40 3f 17 51 96 be
       0.36362314 1.2140976 0.7500717 -0.29358742
0000b0 54 34 2d bf 06 84 58 3f 21 13 50 3f 95 e0 8b 3f
       -0.6765797 0.8457645 0.8127919 1.0927912
0000c0 45 36 fc 3e a2 cf 81 3f 83 c7 14 3f 8d dc 54 3f
       0.49260154 1.014149 0.5811693 0.83149034
0000d0 f1 63 5b 3f 0f 5c 2c 3f 30 e0 65 3f 59 0a 50 bf
       0.85699373 0.6732797 0.8979521 -0.8126579
0000e0 91 26 52 3f b1 08 3d 3f 2d 8f 17 3f 41 75 3f be
       0.820901 0.7384139 0.59202844 -0.18697073
0000f0 ae bf 3a 3f 73 a4 9b 3f 43 31 50 3f 94 cb 54 3f
       0.7294873 1.2159561 0.8132517 0.83123136
000100 5d 9c c2 3d 26 3e 6b 3f ce 45 3e 3f 11 5a 33 3f
       0.0950248 0.91891706 0.74325264 0.70059305
000110 dd 68 4d bf cf ef fb 3e f1 32 aa 3f df ae ab 3f
       -0.80238134 0.49206397 1.3296796 1.3412741
000120 07 1e 51 3f 47 05 94 3f 00 a3 99 3f d5 8e 45 3f
       0.81686443 1.156411 1.2002869 0.7717107
000130 64 46 65 3f 34 76 73 3f 19 83 72 3f e0 43 54 3f
       0.8956053 0.9510224 0.9473129 0.8291607
000140 09 8e 66 3f 45 bc 48 3f 3d 1d 88 3f 33 05 93 3f
       0.9006048 0.78412277 1.0633923 1.1485962
000150 69 68 ad 3f 1e fb 2f 3f 03 c2 8b 3f 79 b1 d4 3e
       1.3547488 0.6874255 1.0918583 0.4154165
000160 9c 4a 3a 3f 1e f2 7a 3f c5 b6 85 bf a9 69 2e bf
       0.72770095 0.9802569 -1.0446402 -0.68129975
000170 d7 cf 41 3f 04 cd c1 bd 49 67 c7 3f f3 f9 40 3f
       0.75707763 -0.09462932 1.5578395 0.7538139
000180 c9 43 01 3f 56 f2 63 be 14 48 7a 3f de fc a2 3f
       0.50494057 -0.22260413 0.9776623 1.2733419
000190 ca f5 04 3d 9f 52 e2 3e 03 d2 8d 3f a4 3c 98 3f
       0.032460965 0.4420366 1.1079715 1.1893506
0001a0 27 2f 16 3f 96 a7 53 3f a8 3c a2 3f d8 81 3b 3f
       0.586657 0.8267759 1.2674761 0.73245
0001b0 d2 0b c3 be 3f a8 9f 3f 81 32 1d 3f a4 21 74 3f
       -0.38094956 1.247322 0.6140519 0.9536383
0001c0 a6 98 48 3d 83 99 a5 3e d4 18 3b 3f 3b 08 58 3f
       0.048973702 0.32343683 0.7308476 0.8438756
0001d0 10 6b 42 3f 2f e6 45 3f 4a 55 31 3f 0b 61 e8 be
       0.75944614 0.7730436 0.69270766 -0.45386538
0001e0 f8 63 53 3f f5 9a 57 3f 29 46 3f 3f e8 ee 9d 3e
       0.82574415 0.8422082 0.7471643 0.30846334
0001f0 18 da 82 3f d7 37 6a 3f 0b e3 10 3f 28 ec 2d 3f
       1.0222807 0.91491455 0.5659644 0.6793847
000200 94 b4 4b 3e 4d 8f 67 3f 11 23 49 3f 3c 3f 25 3e
       0.19893104 0.90453035 0.7856913 0.16137403
000210 15 2f 08 bf 30 15 2a 3f 83 af 8c 3f 96 bf a0 3f
       -0.5319684 0.6643858 1.0991062 1.2558467
000220 2c 30 3a 3f 27 ac 86 3f 0c 9d a7 3f 9b 5a 37 3f
       0.72729754 1.0521287 1.3094802 0.7162263
000230 ea 49 4a 3f 31 d6 0e 3f b7 85 50 3f e3 1d 3d 3f
       0.79019034 0.5579558 0.8145403 0.7387373
000240 fb 51 14 3f e5 a8 50 3f d1 cf b8 3e aa 04 8f 3f
       0.5793759 0.8150771 0.3609605 1.1173298
000250 42 e7 9a 3f 57 06 13 3f 0f 92 2d 3f 73 a6 6c 3f
       1.2101824 0.5743155 0.6780099 0.9244148
000260 47 90 5b 3f fa 40 7c 3f 5c e3 32 bf 09 bb 0d 3f
       0.85767025 0.98536646 -0.6987817 0.5536352
000270 8e f6 23 3f 02 6f a4 3d a1 c5 98 3f 81 35 3a 3f
       0.6404809 0.080289856 1.1935312 0.7273789
000280 3b ae 68 3f 26 cb 3a 3f da 8e 7e 3f da 90 92 3f
       0.90890855 0.7296623 0.99436724 1.1450455
000290 56 42 a2 be a9 87 31 3f 9e 6c 96 3f 3f 4d 55 3f
       -0.31691235 0.69347626 1.1751897 0.83320993
0002a0 44 75 a0 3f 27 70 7b 3f e6 04 82 3f c0 51 ee 3e
       1.2535787 0.98218006 1.0157745 0.46546745
0002b0 94 14 ec 3c 0d 59 4a 3f 49 aa 7c 3f 98 59 8a 3f
       0.028818406 0.7904213 0.98697335 1.0808592
0002c0 66 bf 8d 3d 16 8a 27 3f bc 21 63 3f e0 a2 55 3f
       0.06921272 0.6544508 0.8872335 0.8345165
0002d0 8f df 15 3f 0c ac 5a 3f 8a 3e 3c 3f 80 cf ff bb
       0.5854425 0.8541877 0.7353293 -0.0078067183
0002e0 81 84 29 3f b4 75 46 3f 20 17 15 3f 59 57 51 3f
       0.6621781 0.7752335 0.5823841 0.81773907
0002f0 4e 60 80 3f de e4 87 3f 09 5e 96 3e 3a dd 3f 3f
       1.002939 1.061672 0.29368618 0.7494694
000300 4a 03 5e bf 0d 4e 7b 3f 7c 91 4c 3f e2 a9 5d 3f
       -0.8672377 0.9816597 0.7990949 0.86587346
000310 e3 3d 1f bf 8f 74 42 3f cb 04 90 3f 66 02 9c 3f
       -0.62203807 0.75959104 1.1251463 1.2188232
000320 7f 07 2e 3f 78 b5 95 3f db b6 9d 3f e3 d4 3a 3f
       0.6798019 1.1696005 1.2321428 0.7298109
000330 bf f2 24 3f 04 e2 62 3f fa 35 59 3f 01 3f 31 3f
       0.644329 0.8862612 0.84847987 0.6923676
000340 52 c8 55 3f a5 c5 27 3f 8f fb 62 3f 29 cf 81 3f
       0.8350879 0.65535957 0.886651 1.0141345
000350 a8 33 85 3f ce 27 4c 3f 9b 58 53 3f 0d 82 1f 3e
       1.0406389 0.7974824 0.82557076 0.15576954
000360 e3 71 70 3f 2f 9d 91 3f 4c 06 0c bf e7 88 ae 3e
       0.9392378 1.1376094 -0.5469711 0.34088823
000370 d8 43 27 3f e3 49 1d 3e ed 7b 46 3f 48 c0 37 3f
       0.65337896 0.15360217 0.77532846 0.7177777
000380 e5 cf 47 3f e0 fe e4 3e d2 67 75 3f 95 60 9b 3f
       0.78051597 0.44725704 0.9586154 1.213885
000390 0e 1b 9c be 92 61 2f 3f 0a 95 a7 3f 64 6c 7d 3f
       -0.3048939 0.68508255 1.3092358 0.98993516
0003a0 fd 41 4a 3e 40 cb 13 3f a3 18 56 3f b8 94 5e 3e
       0.19751735 0.5773201 0.8363134 0.21736419
0003b0 89 87 c9 bd 09 24 5f 3f d0 38 61 3f a7 4d 27 3f
       -0.098403044 0.8716436 0.87977314 0.65352863
0003c0 04 5a 43 3f 7f 91 0f 3f e3 af 6a 3f 7d c7 4b 3f
       0.7630923 0.56081384 0.9167463 0.7960127
0003d0 ac 7c e7 3e 96 71 48 3f 1b 0c 5c 3f 96 5c 2a bf
       0.45212305 0.7829832 0.8595597 -0.66547525
0003e0 61 ea 2f 3f 25 31 30 3f 4d c5 43 3f c6 12 3c bc
       0.6871701 0.6882499 0.7647293 -0.011479085
0003f0 a0 a1 99 3f fb f1 82 3f 24 32 86 3f 9f 54 7f 3f
       1.2002449 1.0230097 1.0484052 0.99738497

2.bias f4 [7]
000000 1e ec 6f 3f 9f 30 8a 3f 23 59 68 3f 85 07 77 3f
       0.9371966 1.0796088 0.9076101 0.9649585
000010 47 21 76 3f 6a d9 6a 3f 8e 85 8b 3f
       0.9614453 0.91738 1.0900133
