saved_models/DQN/using_uniform_for_matchmaking/model4.pth (torch, 49972 bytes, 8 tensors)

0.weight f4 [64, 84]
0	0x3ec5bb42	0.3861943
1	0xbeb14467	-0.346225
2	0xbe835edd	-0.25658312
3	0x3e6863f9	0.22694387
4	0xbe557510	-0.20845437
5	0xbe8585ec	-0.26078737
6	0x3ca956c1	0.02067125
7	0x3ef3be13	0.47605953
8	0xbe224c51	-0.15849425
9	0xbe886647	-0.2664053
10	0xbe3e7f86	-0.18603334
11	0x3d00f16f	0.03148025
12	0xbf606642	-0.87656033
13	0x3da9d918	0.082933605
14	0xbeaf22e5	-0.3420631
15	0xbc49b5b7	-0.012311391
16	0x3c93ca71	0.018040868
17	0xbe3cbf37	-0.18432318
18	0x3db20935	0.08693162
19	0x3da017d9	0.078170486
20	0x3ef94a0c	0.48689306
21	0x3ea1c7e2	0.3159781
22	0xbeb42f69	-0.3519242
23	0x3ed49b11	0.41524556
24	0xbe91d30a	-0.28481323
25	0xbeb4408b	-0.35205492
26	0xbe54691a	-0.20743218
27	0xbf37a33e	-0.7173346
28	0xbda377e3	-0.07981851
29	0xbe767126	-0.240666
30	0xbe23a014	-0.15979034
31	0x3c98afe8	0.018638566
32	0xbe1a0c97	-0.15043865
33	0xbed5539e	-0.41665357
34	0x3e3edcfc	0.18638986
35	0x3f00a4f0	0.50251675
36	0x3e9c6538	0.30545974
37	0xbeb3d32a	-0.35122043
38	0xbea6c6d5	-0.32573572
39	0xbe95a49a	-0.29227144
40	0xbe1a6b9e	-0.15080115
41	0x3ded4252	0.11584915
42	0xbe14b9f9	-0.14524068
43	0xbd78a262	-0.060701735
44	0xbe7db781	-0.24777032
45	0x3dddd308	0.10831267
46	0xbe2c51fb	-0.16828148
47	0x3e9bc668	0.3042481
48	0x3eae9325	0.34096637
49	0x3e71046c	0.23536843
50	0xbe9389a7	-0.28815958
51	0x3f4fa44d	0.8111008
52	0xbe0a8b65	-0.13529737
53	0xbdbcb146	-0.092135
54	0xbf8b3998	-1.0876951
55	0xc0239047	-2.555681
56	0xbcb2e276	-0.0218365
57	0xbe5f2868	-0.21792758
58	0xbe65ee84	-0.22454268
59	0x3ee8257d	0.453411
60	0x3eb423ac	0.35183465
61	0x3e50209f	0.20324944
62	0x3e8f21d1	0.27955487
63	0x3e114104	0.14184958
64	0xbcb4839d	-0.022035414
65	0x3e5a2f1a	0.2130703
66	0x3e9dffa2	0.30859095
67	0xbba0cf0d	-0.004907495
68	0xbb9b8d55	-0.0047470727
69	0xbefa8749	-0.4893134
70	0x3ebe6cf5	0.37192503
71	0xbd270e15	-0.040784914
72	0x3ee98e9f	0.45616624
73	0x3e947082	0.28992087
74	0x3ec3d331	0.38247064
75	0x3e5ec9bb	0.21756642
76	0xbe11ca38	-0.14237297
77	0x3f91e89c	1.1399112
78	0x3ee60d50	0.44932032
79	0x3f7c65ce	0.9859284
80	0x3ea21745	0.31658378
81	0x3ea41f63	0.32055196
82	0x3ee6c63f	0.45073125
83	0x3fe1c8d8	1.7639418
84	0x3ec072f6	0.37587708
85	0x3e638de9	0.22222103
86	0x3dbecfcd	0.093169786
87	0xbd950770	-0.07276809
88	0x3dce2a7d	0.10066698
89	0x3e77741d	0.24165387
90	0x3ef8975c	0.48552978
91	0x3e9a2c89	0.30112103
92	0x3e394fbd	0.18096824
93	0xbe224261	-0.15845634
94	0x3e278083	0.16357617
95	0x3d9a6216	0.0753824
96	0x3f80eb2c	1.0071769
97	0x3e183d92	0.14867237
98	0x3e1bbbea	0.15208402
99	0xbd1e8d33	-0.038708877
100	0x3d46812c	0.04846303
101	0xbdc1cba5	-0.0946267
102	0xbe369690	-0.17830873
103	0x3ddfa6b5	0.10920469
104	0x3f0424b3	0.516185
105	0x3f15b46f	0.58478445
106	0x3edd52c0	0.43227196
107	0x3ddb6d27	0.107141785
108	0x3e831708	0.2560351
109	0xbef86c40	-0.48520088
110	0x3e7e0ab7	0.24808775
111	0x3f99e60c	1.202333
112	0x3ed3be5e	0.41356176
113	0x3e13343f	0.14375399
114	0x3d54393b	0.05181239
115	0xbe5682c0	-0.20948315
116	0x3e5ed7fb	0.21762078
117	0xbe772d81	-0.24138452
118	0x3e6f1d9b	0.23351137
119	0x3f5ab8c9	0.8543821
120	0x3e8e3bc6	0.2777998
121	0xbee4b92a	-0.4467252
122	0xbe9c7f9b	-0.30566105
123	0x3ecb7694	0.39738905
124	0x3f969fb0	1.1767483
125	0x3d4fa063	0.050690066
126	0x3e83f3d6	0.2577197
127	0xbd8501f9	-0.06494517
128	0x3ea843ca	0.3286422
129	0xbd285dc3	-0.041105043
130	0x3d351c10	0.044216216
131	0x3e9d2b84	0.30697262
132	0x3f3c8140	0.7363472
133	0x3f216bf0	0.63055325
134	0xbe18497c	-0.14871782
135	0x3e41ea49	0.18937029
136	0x3e4838a3	0.19552855
137	0x3ddff855	0.109360375
138	0x3e0c5ac4	0.137065
139	0x40170a12	2.3599896
140	0x3f156886	0.58362615
141	0xbe2b6841	-0.16738988
142	0x3efdabdc	0.4954518
143	0x3e8125f4	0.25224268
144	0x3ec80878	0.3906896
145	0xbe9ff16d	-0.3123888
146	0x3f0a54eb	0.54035825
147	0x3cd4cd89	0.025976913
148	0x3ee87ee0	0.45409298
149	0x3e0f2d6d	0.13982172
150	0x3dce7159	0.10080213
151	0xbca383cd	-0.019960308
152	0xbdbf644a	-0.093453005
153	0x40083d55	2.1287434
154	0x3f12782f	0.57214636
155	0x3cc699ac	0.024243198
156	0x3fcf68e4	1.6203885
157	0x3e0db1b4	0.1383732
158	0x3f82a723	1.0207256
159	0xbdd8b8e0	-0.10582137
160	0x3effd686	0.49968356
161	0x3fbeb400	1.4898682
162	0x3f2f971c	0.6858995
163	0x3f46a0b5	0.7758897
164	0x3f30a923	0.6900808
165	0x3eed51b9	0.46351412
166	0xbdd62ce7	-0.10457783
167	0x400f951a	2.2434754
168	0x3f258a28	0.64663935
169	0x3d9eb7a5	0.07749871
170	0x3d355693	0.044272017
171	0xbdcdf908	-0.100572646
172	0xbd31f39d	-0.04344522
173	0x3d4cc7d4	0.04999526
174	0xbce4dbec	-0.027936898
175	0x3ecefc42	0.40426832
176	0xbea88196	-0.32911366
177	0xbf243677	-0.64145607
178	0xbeafa327	-0.34304163
179	0x3e86fdf1	0.26365617
180	0xbe46ae82	-0.19402507
181	0xbeb52ea9	-0.3538716
182	0xbe2b80a5	-0.16748293
183	0x3d0d23bf	0.03445792
184	0xbe0c5b72	-0.13706759
185	0xbe22a297	-0.15882336
186	0xbe8c01a7	-0.2734501
187	0x3ce2af7b	0.027671566
188	0x3e67f354	0.22651416
189	0xbe2a1619	-0.16609992
190	0xbeac1d0b	-0.33615908
191	0xbd44d95b	-0.04805885
192	0x3ea86b13	0.3289419
193	0xbf18bef1	-0.59666353
194	0xbf046004	-0.5170901
195	0x3f0b3e4b	0.54391927
196	0x3db21171	0.08694733
197	0x3bd78531	0.006577157
198	0x3d880b31	0.066427596
199	0xbf2fb0bf	-0.6862907
200	0x3e486fe9	0.1957394
201	0xbe536ae4	-0.20646244
202	0xbe448a14	-0.19193298
203	0x3f81a0ec	1.0127234
204	0x3e3cedf5	0.18450148
205	0xbeb1f241	-0.34755138
206	0xbf0f75b3	-0.5603897
207	0xbd8015ff	-0.062541954
208	0xbd302467	-0.043003466
209	0xbeb2a580	-0.3489189
210	0x3e871a46	0.26387233
211	0x3adefffe	0.0017013547
212	0xbe8f187b	-0.27948365
213	0xbeb3c37c	-0.3511008
214	0x3d166870	0.036720693
215	0x3ea95f15	0.33080354
216	0x3f4ea4eb	0.80720395
217	0xbf182ee6	-0.5944656
218	0xbe81aaf7	-0.25325748
219	0xbea4bbc5	-0.32174507
220	0x3de06922	0.109575525
221	0x3e9bf901	0.30463412
222	0x3e185a2c	0.14878148
223	0x3f7aa43c	0.9790685
224	0x3ed083db	0.40725598
225	0xbe7c5ccb	-0.24644773
226	0xbecb4a58	-0.39705157
227	0xbdb0d669	-0.086346455
228	0x3e6c7fae	0.23095581
229	0xbee55966	-0.44794768
230	0x3f1bdf43	0.60887545
231	0x3e8aa5e4	0.2707969
232	0x3da40bf0	0.080100894
233	0x3de81552	0.113321915
234	0x3eeb9001	0.46008304
235	0xbd8a3711	-0.06748784
236	0xbd5b1e43	-0.053495657
237	0x3f821f2f	1.0165766
238	0x3eeb421b	0.45948872
239	0x3e4e4872	0.20144823
240	0x3f225e6f	0.63425344
241	0x3d0a9e43	0.033842336
242	0x3f23ed1b	0.6403367
243	0x3e20e3aa	0.15711847
244	0x3f173661	0.5906735
245	0x3f7db472	0.9910346
246	0x3ee54785	0.44781128
247	0x3f12a7c8	0.57287264
248	0x3f35ba2a	0.7098719
249	0x3ee32ed3	0.44371662
250	0xbe4c60d4	-0.19958812
251	0x3fae2e2d	1.3607842
252	0x3dcaaf57	0.09896725
253	0x3c35a87b	0.011087532
254	0xbcb33884	-0.021877535
255	0x3df4e744	0.11958173

0.bias f4 [64]
0	0x401b4deb	2.4266307
1	0x4068f9e2	3.6402516
2	0x40384a73	2.879544
3	0x406c74a1	3.6946185
4	0x40787169	3.881922
5	0x406b2197	3.6739252
6	0xbe884256	-0.2661311
7	0x40506b97	3.2565668
8	0x40654254	3.5821733
9	0x3fc75ce3	1.5575222
10	0x4070dc86	3.7634597
11	0x4066a55c	3.6038427
12	0x40691236	3.6417365
13	0x406ed863	3.7319572
14	0xbe2a8962	-0.1665397
15	0x406b1032	3.6728635
16	0x3fed7a0e	1.8552873
17	0x40790f40	3.8915558
18	0x3f62c9ab	0.8858897
19	0xbed07a72	-0.40718418
20	0x4054eb0c	3.3268461
21	0x406d7670	3.7103539
22	0x4008a2f2	2.1349454
23	0x4075c9d3	3.8404434
24	0x407b07c6	3.9223495
25	0xbb350ffa	-0.002762793
26	0xb9f6231e	-0.0004694694
27	0x4062a6d8	3.5414333
28	0x40276f12	2.6161542
29	0x40396ba3	2.8971946
30	0xba73d3af	-0.00093012577
31	0x4072f0a5	3.7959378
32	0x404bc94a	3.1841607
33	0x404f075c	3.2348242
34	0x4071c540	3.7776642
35	0x4063da81	3.5602114
36	0x40257513	2.5852706
37	0x407f8234	3.992322
38	0x4051da49	3.278948
39	0x4056182c	3.3452253
40	0x40669fc8	3.6035023
41	0x40371c6f	2.8611104
42	0x405d9d39	3.462721
43	0x40745569	3.817713
44	0x4076f4b5	3.8586857
45	0x406ebb96	3.7301993
46	0x40576a7b	3.365874
47	0x4052ae99	3.2919066
48	0x4072dca2	3.7947164
49	0x400963ce	2.1467166
50	0x4051fbc6	3.280992
51	0x3f4787cf	0.779416
52	0x40478955	3.117757
53	0x406fdb22	3.7477498
54	0x40486f4d	3.1317933
55	0x406627dc	3.5961828
56	0x4040d63d	3.013076
57	0x406d09df	3.7037275
58	0x4042fd6d	3.046718
59	0x4078f21b	3.889777
60	0x4057ec55	3.3737996
61	0x40696f21	3.6474078
62	0x4055c244	3.339982
63	0x406b5593	3.677098

2.weight f4 [7, 64]
0	0x3f9f2900	1.2434387
1	0x3fe744e7	1.8067902
2	0x3fd125c6	1.6339653
3	0x3fec63dc	1.8467975
4	0x4002a88a	2.0415368
5	0x3fd52e13	1.6654686
6	0x3f919232	1.137274
7	0x3ff81ac2	1.9383166
8	0x3fd4e156	1.6631267
9	0x3fa91207	1.3208627
10	0x3fcbb2d4	1.5913949
11	0x3ff9eba4	1.9525037
12	0x3feafc72	1.835829
13	0x3ffd90d1	1.980982
14	0x3f48c2b1	0.78422076
15	0x3fd3bae5	1.6541411
16	0x3fba76b1	1.4567472
17	0x3fd7ae91	1.6850148
18	0x3eb0577b	0.34441742
19	0xbf328db8	-0.69747496
20	0x4005686c	2.0844984
21	0x3fd8c191	1.6934072
22	0x3fdfc7c8	1.7482843
23	0x3fecb920	1.8493996
24	0x3fda5e2c	1.7059989
25	0x3fd0e890	1.6320972
26	0x3fedfeeb	1.859342
27	0x3fee8b8f	1.863634
28	0x3fdf28c3	1.7434314
29	0x3fc4208a	1.532243
30	0x3fa8d479	1.3189842
31	0x3fde1bf9	1.7352287
32	0x3fab9560	1.3404961
33	0x3feed6d2	1.8659308
34	0x3fe22cf0	1.7669964
35	0x3fd46c07	1.6595467
36	0x3fdf0248	1.7422571
37	0x3fde3d9e	1.7362554
38	0x3fe575b6	1.7926548
39	0x3fd0ac23	1.6302532
40	0x3fe6db1d	1.8035618
41	0x3ff4364a	1.9079068
42	0x3fc7a188	1.559617
43	0x3ff689ee	1.9260843
44	0x3fce8c27	1.6136521
45	0x3fe53aa9	1.7908527
46	0x3fdf1033	1.7426819
47	0x3fc50039	1.5390693
48	0x3fe67381	1.8003999
49	0x3fbb6b60	1.4642143
50	0x40028582	2.0393987
51	0x3f627e0d	0.8847359
52	0x40061c12	2.0954633
53	0x400e7aed	2.2262528
54	0x3fe64f18	1.7992887
55	0x4005d142	2.090897
56	0x3ffa0861	1.9533807
57	0x40052565	2.0804074
58	0x3fee8f35	1.8637453
59	0x400e1922	2.220284
60	0x3ff26a06	1.8938606
61	0x3fe73374	1.8062577
62	0x4003371e	2.050239
63	0x3fcb614c	1.5889068
64	0x40104131	2.253979
65	0x40097b38	2.1481457
66	0x4029b4cc	2.65166
67	0x4009914e	2.1494937
68	0x40241a3e	2.5641017
69	0x40089973	2.1343658
70	0xc00c25a7	-2.189798
71	0x3ff6623b	1.9248728
72	0x40144523	2.3167198
73	0x3f7021aa	0.9380137
74	0x3fefc0d0	1.8730717
75	0x403a0b40	2.9069366
76	0x4035d9f5	2.841428
77	0x4015b7c2	2.3393407
78	0xbffbde12	-1.9677145
79	0x4012feb4	2.2967958
80	0x3f3771f3	0.7165825
81	0x3ff8cd40	1.9437637
82	0x3f99c83c	1.2014232
83	0xbfc05c5d	-1.5028187
84	0x402323e2	2.549065
85	0x40189bf9	2.3845198
86	0x3fcf8835	1.6213442
87	0x400578a2	2.0854878
88	0x4009cc5c	2.153098
89	0xbff4447b	-1.9083399
90	0xbfefcd56	-1.8734539
91	0x4001da84	2.0289621
92	0x4028d180	2.6377869
93	0x40293ac6	2.6442122
94	0xbfe51510	-1.7897053
95	0x3ff3f25c	1.9058337
96	0x403b0988	2.9224567
97	0x402f0576	2.7347083
98	0x401f33bf	2.4875333
99	0x3fc4ff2f	1.5390376
100	0x404d9ad8	3.212576
101	0x3ff3221e	1.8994787
102	0x3fc298c2	1.5202868
103	0x4017caf9	2.3717635
104	0x4028e3db	2.6389072
105	0x4012d7df	2.2944257
106	0x401500d8	2.3281765
107	0x404a14f7	3.1575296
108	0x400dcbbe	2.2155604
109	0x3fe393cc	1.7779479
110	0x4024fc1a	2.577887
111	0x3f95d60e	1.1705949
112	0x3ffbe60d	1.9679581
113	0x3f7a00c9	0.9765745
114	0x40384198	2.8790035
115	0x3f2cbc38	0.674747
116	0x403936fe	2.8939815
117	0x402ad452	2.669209
118	0x3ffd147a	1.9771874
119	0x403ec738	2.9809093
120	0x40253d80	2.5818787
121	0x40004767	2.004358
122	0x4000b977	2.0113199
123	0x403828a1	2.8774798
124	0x402f27cb	2.7368038
125	0x4021b540	2.5266876
126	0x401b1f5f	2.4237897
127	0x4001c830	2.0278435
128	0x3f9d7290	1.2300587
129	0x3fe4cb57	1.7874554
130	0x40108c3a	2.2585588
131	0x3ff1faa9	1.890462
132	0x400d0b68	2.2038212
133	0x3fe3d198	1.7798338
134	0x3f7e1167	0.99245304
135	0x3ff93d19	1.947177
136	0x3fd6b1f4	1.6773057
137	0x3f7b5842	0.98181546
138	0x3fea6d29	1.8314563
139	0x400d7e51	2.2108347
140	0x401466f6	2.3187842
141	0x400034dd	2.0032265
142	0x3e9e2397	0.30886528
143	0x3ff85d65	1.9403502
144	0x3fb3c290	1.4043751
145	0x3fdd6765	1.7297179
146	0xbead3946	-0.3383276
147	0x3e09fb5c	0.13474792
148	0x3ff91aa7	1.9461259
149	0x3ff2f0a4	1.8979688
150	0x3f90c32e	1.1309564
151	0x3feeaf80	1.8647308
152	0x3feb1d17	1.8368253
153	0x3f04b961	0.51845366
154	0x3fac3bac	1.345571
155	0x3ff090fb	1.8794245
156	0x3fd88887	1.6916665
157	0x4007bad6	2.1207786
158	0x3f80016f	1.0000437
159	0x3fcea2c3	1.6143421
160	0x4020c8d5	2.5122578
161	0x4001bef4	2.0272799
162	0x40008b7a	2.008513
163	0x3fc3c0f0	1.5293255
164	0x3ffc6dae	1.9720972
165	0x3fcecf84	1.6157079
166	0x3fc1aa98	1.5130186
167	0x3ff803b6	1.9376132
168	0x3ff7c4a8	1.935689
169	0x3f9d7927	1.2302598
170	0x3fe29fa5	1.770497
171	0x402a9353	2.665242
172	0x3fde2d4d	1.7357575
173	0x3fe80679	1.8126975
174	0x4001284d	2.0180848
175	0x3fc2be0e	1.521425
176	0x3fdfd24f	1.7486056
177	0x3fc067e5	1.5031706
178	0x3ff3202e	1.8994195
179	0xbd7f5938	-0.062340945
180	0x400b3949	2.1753714
181	0x4016489b	2.3481815
182	0x3ffabe44	1.9589314
183	0x400e2571	2.2210352
184	0x3fcb56f2	1.5885909
185	0x3ffddb27	1.9832505
186	0x4007a3c8	2.1193714
187	0x401dbb7c	2.4645681
188	0x400fbc44	2.2458658
189	0x4004de09	2.076052
190	0x400d6efe	2.2098994
191	0x3fe43356	1.7828166
192	0x3fa6307e	1.2983549
193	0x3fffbdfc	1.9979854
194	0x3fc9057a	1.5704796
195	0x3ffa1f70	1.9540844
196	0x40073a36	2.112928
197	0x3fea7083	1.8315586
198	0xbeadb72a	-0.33928806
199	0x400c6e97	2.1942499
200	0x3fee309e	1.8608587
201	0x3f891b2d	1.0711418
202	0x3fdff922	1.7497904
203	0x40157512	2.3352704
204	0x401a3fda	2.4101472
205	0x4013ffd1	2.3124888
206	0xbe4038df	-0.18771695
207	0x40004c86	2.0046706
208	0x3f9e5a11	1.2371236
209	0x3ff7f730	1.9372311
210	0xbd431d67	-0.047635462
211	0x3d527b50	0.05138713
212	0x401c87b5	2.445783
213	0x3fe52548	1.7902002
214	0x4015cd02	2.3406377
215	0x3fe65c8d	1.7996994
216	0x3fd999fa	1.7000115
217	0x3fd00f93	1.6254753
218	0x3f5cdabd	0.8627127
219	0x40061293	2.0948837
220	0x3fdeb4de	1.7398946
221	0x400a6baf	2.1628225
222	0x3fc2b046	1.5210044
223	0x3fcf6d3c	1.6205211
224	0x3ff85f12	1.9404013
225	0x4012ae75	2.291898
226	0x400535b9	2.081404
227	0x3fdb4929	1.7131702
228	0x3fe0e94b	1.7571195
229	0x3fd32c23	1.6497844
230	0x3feba4b7	1.8409642
231	0x4005416a	2.0821176
232	0x3ffda7d4	1.9816842
233	0x3fb8eded	1.4447609
234	0x3ff6e4af	1.9288539
235	0x400e7e2e	2.2264514
236	0x3fd9b649	1.7008754
237	0x3fe07d0d	1.7538162
238	0x400c7a03	2.194947
239	0x3fd99f38	1.7001715
240	0x3fdc7cb6	1.7225559
241	0x400c544b	2.1926448
242	0x3fd00278	1.6250753
243	0x3f998d59	1.1996261
244	0x3fce5800	1.6120605
245	0x401bb80b	2.433108
246	0x4008b6db	2.1361606
247	0x40137ef9	2.3046248
248	0x3f941de6	1.1571624
249	0x3feb5980	1.8386688
250	0x4011ddc5	2.2791607
251	0x401353af	2.3019826
252	0x3fece509	1.8507396
253	0x3fe1ba6a	1.7635014
254	0x40133362	2.3000112
255	0x3ffb9649	1.9655238

2.bias f4 [7]
0	0x3fde4f6e	1.736799
1	0x402cfc20	2.7028885
2	0x400479d5	2.069936
3	0x3fdfae82	1.747513
4	0x3ff10851	1.8830663
5	0x3ff0ebba	1.8821938
6	0x3fb6fb6b	1.4295477

0.weight f4 [64, 84]
0	0x3ec04ab7	0.37557003
1	0xbeafe052	-0.3435083
2	0xbe87cd4f	-0.26523826
3	0x3e64914b	0.2232105
4	0xbe5d6f38	-0.21624458
5	0xbe8350a4	-0.2564746
6	0x3c35c328	0.011093892
7	0x3eea28b9	0.45734194
8	0xbe25699a	-0.16153565
9	0xbe8a0b4b	-0.2696174
10	0xbe3a6c58	-0.18205392
11	0x3d17864a	0.036993302
12	0xbf5eeb88	-0.8707814
13	0x3da60df0	0.08108127
14	0xbeaeb56a	-0.34122783
15	0xbc7f7c8e	-0.015593661
16	0x3c910658	0.01770322
17	0xbe45655d	-0.19276948
18	0x3db907eb	0.09034713
19	0x3d825471	0.06363762
20	0x3ef01250	0.4688897
21	0x3e9c85bc	0.3057078
22	0xbeb3d369	-0.3512223
23	0x3ecccc31	0.39999536
24	0xbe8fb1d4	-0.2806536
25	0xbeb21904	-0.3478471
26	0xbe4af9cb	-0.19821851
27	0xbf343c03	-0.7040407
28	0xbdb00edb	-0.085965835
29	0xbe76c020	-0.24096727
30	0xbe29ab80	-0.16569328
31	0x3ca18860	0.019718349
32	0xbe23fa3e	-0.16013429
33	0xbed4a7ed	-0.41534367
34	0x3e336023	0.17517142
35	0x3ef5fd0b	0.4804462
36	0x3e953df0	0.29148817
37	0xbeb40b15	-0.35164705
38	0xbea5017d	-0.32227698
39	0xbe976fa9	-0.29577377
40	0xbe0cdd6d	-0.13756342
41	0x3de8a998	0.113604724
42	0xbe19f35c	-0.1503424
43	0xbd845ddb	-0.06463214
44	0xbe7984df	-0.24367093
45	0x3dbb2ef0	0.09139812
46	0xbe3290fb	-0.17438118
47	0x3e94fe80	0.29100418
48	0x3ea31343	0.31850633
49	0x3e687f31	0.2270477
50	0xbe90db47	-0.28292295
51	0x3f4c3d4d	0.7978104
52	0xbe0fd636	-0.14046559
53	0xbdd9f10c	-0.10641679
54	0xbf8a509b	-1.0805849
55	0xc0218cd7	-2.5242212
56	0xbd06f420	-0.03294766
57	0xbe64559e	-0.22298285
58	0xbe5ee141	-0.21765615
59	0x3edc5933	0.43036804
60	0x3ea9f54b	0.33194956
61	0x3e482678	0.19545925
62	0x3e81429a	0.25246125
63	0x3e0f6007	0.14001475
64	0xbd05e410	-0.0326882
65	0x3e527624	0.2055288
66	0x3e9c912a	0.305795
67	0xbcbb398d	-0.02285459
68	0xbb5d65fd	-0.0033782714
69	0xbefedd6d	-0.4977831
70	0x3eb6c477	0.35696766
71	0xbd8cdf14	-0.06878486
72	0x3ed3820e	0.4131016
73	0x3e8ac30f	0.27101943
74	0x3eb6b5d0	0.35685587
75	0x3e47e73c	0.19521803
76	0xbe18a604	-0.1490708
77	0x3f8cdf45	1.1005636
78	0x3edd8c57	0.43271133
79	0x3f73543a	0.95050395
80	0x3e9fdd9a	0.31223756
81	0x3e951bbe	0.29122728
82	0x3ee37139	0.4442232
83	0x3fdc3361	1.720318
84	0x3ebbc4de	0.36673635
85	0x3e663c08	0.22483838
86	0x3db23113	0.087007664
87	0xbd97254a	-0.07380159
88	0x3dc03170	0.093844295
89	0x3e7947ac	0.24343747
90	0x3ef1e1b0	0.47242498
91	0x3e8ed66b	0.27897963
92	0x3e36821a	0.17823067
93	0xbe21e6ed	-0.15810747
94	0x3e2996b3	0.16561393
95	0x3da37c8f	0.07982742
96	0x3f81147e	1.0084379
97	0x3e155889	0.14584555
98	0x3e184b5b	0.14872496
99	0xbd1bef72	-0.03807015
100	0x3d3bc07b	0.04583786
101	0xbdc314e9	-0.09525473
102	0xbe323a43	-0.17405038
103	0x3dc113d5	0.09427611
104	0x3efcb1bc	0.4935435
105	0x3f12d7a6	0.57360303
106	0x3ede67b2	0.43438488
107	0x3dc59cb6	0.09649031
108	0x3e844b0e	0.25838512
109	0xbef60288	-0.48048806
110	0x3e804de6	0.25059432
111	0x3f9801fa	1.1875603
112	0x3ed129e5	0.40852275
113	0x3e0f938c	0.14021128
114	0x3d326e57	0.04356226
115	0xbe512370	-0.20423675
116	0x3e4dcf17	0.2009853
117	0xbe73c085	-0.23803909
118	0x3e61e36a	0.22059408
119	0x3f53fc9a	0.82807314
120	0x3e87b409	0.26504543
121	0xbedee493	-0.43533763
122	0xbe9b0643	-0.30278215
123	0x3ec8b83f	0.3920307
124	0x3f952dad	1.1654564
125	0x3d4a8766	0.049445532
126	0x3e7f5d27	0.24937879
127	0xbd9391e6	-0.07205562
128	0x3e9e7c10	0.30954027
129	0xbd87af7b	-0.06625267
130	0x3d037e27	0.03210273
131	0x3e94affe	0.2904052
132	0x3f365dce	0.71236885
133	0x3f1ebdbf	0.6200828
134	0xbe10592e	-0.1409652
135	0x3e3c74f3	0.18403988
136	0x3e40fabc	0.18845648
137	0x3dc49e6e	0.096005306
138	0x3e01ed3b	0.12688152
139	0x4015160d	2.3294709
140	0x3f11f221	0.57010084
141	0xbe3a122c	-0.18170995
142	0x3ef03575	0.46915784
143	0x3e694aee	0.2278249
144	0x3ebb7696	0.3661391
145	0xbea60068	-0.32422185
146	0x3f021cf2	0.5082542
147	0x3cdfab3e	0.027303334
148	0x3ee12b5b	0.4397839
149	0x3e07ce24	0.1326223
150	0x3dc4114b	0.09573611
151	0xbd18eedb	-0.037337165
152	0xbdc03f88	-0.093871176
153	0x40059b8c	2.0876188
154	0x3f0dbc86	0.5536579
155	0xbc06563b	-0.00819927
156	0x3fc91185	1.5708472
157	0x3ded5357	0.115881614
158	0x3f7c68ad	0.9859722
159	0xbe06bc5d	-0.13157792
160	0x3ef3b716	0.4760062
161	0x3fb971f7	1.4487904
162	0x3f2b17a0	0.66832924
163	0x3f3cc717	0.73741287
164	0x3f2db249	0.67850167
165	0x3edea98e	0.43488735
166	0xbde4ba1b	-0.11168309
167	0x400c9857	2.196798
168	0x3f235cd6	0.6381353
169	0x3da51281	0.0806017
170	0x3d2014f4	0.039082482
171	0xbdd082a9	-0.101811714
172	0xbd3fbcae	-0.0468108
173	0x3d5e8090	0.054321826
174	0xbd1f9922	-0.0389644
175	0x3ec470fb	0.38367447
176	0xbea8c173	-0.3296009
177	0xbf2364d2	-0.63825715
178	0xbeaeed3b	-0.34165367
179	0x3e8934be	0.26798052
180	0xbe416182	-0.18884853
181	0xbeb59a68	-0.35469365
182	0xbe2e7220	-0.17035723
183	0x3d15a2d3	0.036532234
184	0xbe0cd0b2	-0.13751486
185	0xbe231105	-0.15924461
186	0xbe88fdb4	-0.2675606
187	0x3c74d3ac	0.014943045
188	0x3e52446a	0.2053391
189	0xbe34833c	-0.17628187
190	0xbea9d32f	-0.33168933
191	0xbd69583d	-0.056968916
192	0x3ea9b46a	0.33145458
193	0xbf17c6de	-0.5928782
194	0xbf034a1e	-0.5128497
195	0x3f08a77d	0.53380567
196	0x3dab3875	0.08360378
197	0x3b7c7b1e	0.0038525532
198	0x3d78ab40	0.06071019
199	0xbf2dfc7f	-0.67963403
200	0x3e3a6371	0.18201996
201	0xbe4d76e8	-0.2006489
202	0xbe4f6ede	-0.20257136
203	0x3f7ce43d	0.98785764
204	0x3e31cca9	0.17363228
205	0xbeaa7d49	-0.3329871
206	0xbf0ec39c	-0.55767226
207	0xbd899bf5	-0.067191996
208	0xbd48b5f5	-0.049001653
209	0xbeb28f9d	-0.34875193
210	0x3e83b3cc	0.25723112
211	0xbb038543	-0.0020068444
212	0xbe9669e6	-0.2937767
213	0xbebf38eb	-0.37348112
214	0x3ce32543	0.027727729
215	0x3ea1d444	0.31607258
216	0x3f489e71	0.7836676
217	0xbf1a272d	-0.6021603
218	0xbe78bfa3	-0.24291854
219	0xbea677da	-0.32513314
220	0x3dd4167d	0.10355852
221	0x3e95f723	0.29290113
222	0x3e0f0e8e	0.13970396
223	0x3f736f09	0.950913
224	0x3eca84aa	0.3955434
225	0xbe82d4a2	-0.2555285
226	0xbed620e4	-0.4182197
227	0xbddc5b68	-0.10759622
228	0x3e55f7d7	0.20895325
229	0xbee9b857	-0.45648453
230	0x3f1420a7	0.57862324
231	0x3e8c14d5	0.27359644
232	0x3d8b0901	0.06788827
233	0x3ddeafa0	0.108733416
234	0x3ee8df21	0.45482734
235	0xbda80667	-0.08204346
236	0xbd5b043f	-0.053470846
237	0x3f79d2cb	0.9758727
238	0x3ee29643	0.44255266
239	0x3e2fa29f	0.17151879
240	0x3f15bf5a	0.58495104
241	0x3c42a66d	0.011880499
242	0x3f1b6317	0.60698074
243	0x3e081fad	0.13293333
244	0x3f11f0d2	0.5700809
245	0x3f7380af	0.9511823
246	0x3edc5617	0.4303443
247	0x3f09159f	0.53548616
248	0x3f333815	0.7000745
249	0x3ed58353	0.41701755
250	0xbe4fffb8	-0.20312393
251	0x3fa831cc	1.3140197
252	0x3db6fd25	0.08935002
253	0x3c5451f2	0.01295899
254	0xbce8bdba	-0.028410781
255	0x3df1a243	0.11798527

0.bias f4 [64]
0	0x401800e1	2.3750536
1	0x4065b33f	3.5890653
2	0x40350361	2.8283312
3	0x4069302a	3.6435647
4	0x40753258	3.8311977
5	0x4067d93b	3.6226337
6	0xbe7b6ab1	-0.24552418
7	0x404d24ed	3.2053788
8	0x4061fca2	3.5310445
9	0x3fc0a66d	1.5050789
10	0x406d909e	3.7119517
11	0x40636aeb	3.5534008
12	0x4065d6ec	3.5912428
13	0x406b9841	3.6811678
14	0xbe1f3220	-0.15546465
15	0x4067cc3b	3.6218402
16	0x3fe6c6da	1.8029435
17	0x4075c699	3.8402464
18	0x3f54b89f	0.8309421
19	0xbecb053d	-0.39652434
20	0x4051aacb	3.2760494
21	0x406a33a0	3.659401
22	0x40055440	2.0832672
23	0x407282bc	3.7892294
24	0x4077c068	3.8711185
25	0xbadec399	-0.0016995549
26	0xb9964849	-0.00028664086
27	0x405f5f64	3.4901972
28	0x40242939	2.565016
29	0x403620d0	2.8457527
30	0xb948fb14	-0.0001916702
31	0x406fa456	3.7444053
32	0x404888b7	3.1333444
33	0x404bc603	3.1839607
34	0x406e8393	3.7267807
35	0x40608714	3.5082445
36	0x4022324d	2.53432
37	0x407c369f	3.9408338
38	0x404e8844	3.227067
39	0x4052d54c	3.2942686
40	0x40635f79	3.5527022
41	0x4033d3b6	2.8097968
42	0x405a57dd	3.4116127
43	0x40711d26	3.767404
44	0x4073ad05	3.8074353
45	0x406b6e75	3.6786168
46	0x40542b25	3.3151333
47	0x404f56c1	3.23967
48	0x406f91d2	3.7432752
49	0x40060f88	2.094698
50	0x404ebc15	3.2302296
51	0x3f39dd16	0.72602975
52	0x40444a05	3.0670178
53	0x406c9fec	3.6972609
54	0x404528ba	3.0806108
55	0x4062eab2	3.5455747
56	0x403d9129	2.9619849
57	0x4069c1ee	3.6524615
58	0x403fb7bb	2.995589
59	0x4075b800	3.8393555
60	0x4054ad8c	3.3230925
61	0x40662d76	3.5965247
62	0x4052819e	3.2891612
63	0x40680ce0	3.6257858

2.weight f4 [7, 64]
0	0x3f9b2163	1.2119564
1	0x3fe2f85f	1.7732047
2	0x3fccba8c	1.599443
3	0x3fe80aea	1.8128331
4	0x40007c6e	2.0075946
5	0x3fd0e277	1.6319112
6	0x3f8d8804	1.1057134
7	0x3ff3c102	1.9043276
8	0x3fd08f53	1.6293739
9	0x3fa49173	1.2856888
10	0x3fc7671d	1.5578343
11	0x3ff59861	1.9187127
12	0x3fe6bc62	1.802624
13	0x3ff94567	1.9474305
14	0x3f3fea1a	0.74966586
15	0x3fcf688d	1.6203781
16	0x3fb5faf1	1.4217206
17	0x3fd368c2	1.6516345
18	0x3e9cfe1e	0.30662626
19	0xbf38c220	-0.7217121
20	0x40033f8e	2.050754
21	0x3fd471c6	1.6597221
22	0x3fdb538a	1.7134869
23	0x3fe86afd	1.815765
24	0x3fd61627	1.672551
25	0x3fcc7b54	1.5975137
26	0x3fe99cfb	1.8251032
27	0x3fea4620	1.830265
28	0x3fdac651	1.7091771
29	0x3fc026b4	1.5011811
30	0x3fa46510	1.2843342
31	0x3fd9d775	1.7018877
32	0x3fa74cb4	1.3070283
33	0x3fea8266	1.8321044
34	0x3fdde62c	1.7335868
35	0x3fd022be	1.6260602
36	0x3fdab89d	1.708759
37	0x3fd9f8f9	1.7029105
38	0x3fe124e7	1.7589387
39	0x3fcc4da3	1.5961193
40	0x3fe282ab	1.7696127
41	0x3fefd9a5	1.8738295
42	0x3fc349da	1.5256913
43	0x3ff24576	1.8927448
44	0x3fca455f	1.580242
45	0x3fe0f39e	1.7574346
46	0x3fdab956	1.708781
47	0x3fc0b373	1.5054764
48	0x3fe22898	1.7668638
49	0x3fb6f4da	1.4293473
50	0x400058d2	2.0054212
51	0x3f5a217c	0.85207343
52	0x4003f10c	2.0615873
53	0x400c53b7	2.1926095
54	0x3fe20d63	1.7660335
55	0x4003aacb	2.0572994
56	0x3ff5a552	1.9191077
57	0x4002fde6	2.0467467
58	0x3fea3d3e	1.829994
59	0x400bf3af	2.1867483
60	0x3fee108f	1.8598803
61	0x3fe2de3f	1.7724074
62	0x400108fc	2.0161734
63	0x3fc71621	1.5553628
64	0x400d1469	2.2043707
65	0x4006880e	2.102054
66	0x40268c67	2.6023195
67	0x400695e4	2.1028986
68	0x40211453	2.5168655
69	0x4005a5c2	2.088242
70	0xc00a6498	-2.1623898
71	0x3ff07c30	1.8787899
72	0x40114cf9	2.270323
73	0x3f64f4d4	0.8943608
74	0x3fe9e270	1.8272228
75	0x40370534	2.8596926
76	0x4032d93f	2.7945096
77	0x4012bce3	2.2927787
78	0xbff8225e	-1.9385488
79	0x401005bc	2.25035
80	0x3f2c8417	0.67389053
81	0x3ff2f397	1.8980588
82	0x3f93197c	1.1492152
83	0xbfbc9112	-1.4731772
84	0x402018b9	2.501509
85	0x40159f60	2.3378525
86	0x3fc9c9a3	1.576466
87	0x40028596	2.0394034
88	0x4006da8c	2.107089
89	0xbff26aaf	-1.8938807
90	0xbfee2d83	-1.8607639
91	0x3ffdd5c9	1.9830867
92	0x4025b78c	2.5893278
93	0x40260028	2.5937595
94	0xbfe41f15	-1.7821985
95	0x3fee1f09	1.8603221
96	0x4037e958	2.8736172
97	0x402bf09b	2.6865604
98	0x401c37bd	2.440902
99	0x3fbf423f	1.4942092
100	0x404a659e	3.1624522
101	0x3fed50b3	1.8540252
102	0x3fbcd87a	1.4753563
103	0x4014cb94	2.3249254
104	0x4025e545	2.5921185
105	0x400fd4c6	2.2473617
106	0x401202a6	2.2814116
107	0x40470628	3.1097507
108	0x400ad49c	2.1692266
109	0x3fddbcc6	1.7323234
110	0x4021fba9	2.530985
111	0x3f90367d	1.1266629
112	0x3ff60afe	1.9222105
113	0x3f6ea1d3	0.93215674
114	0x40353a39	2.8316786
115	0x3f1fc7c3	0.6241419
116	0x40362838	2.8462048
117	0x4027cb12	2.6217694
118	0x3ff72874	1.930922
119	0x403ba6a0	2.932045
120	0x40223871	2.534695
121	0x3ffaa9b4	1.9583039
122	0x3ffb8ca3	1.9652294
123	0x4035235e	2.8302836
124	0x402c1d55	2.6892903
125	0x401eb511	2.4798014
126	0x40182028	2.3769627
127	0x3ffdada0	1.9818611
128	0x3f9843f1	1.1895734
129	0x3fe0036c	1.7501044
130	0x400deed4	2.217702
131	0x3fed241f	1.8526648
132	0x400a97f1	2.1655238
133	0x3fdf096c	1.742475
134	0x3f78188e	0.9691247
135	0x3ff46908	1.9094553
136	0x3fd1e03d	1.6396557
137	0x3f716cdc	0.9430673
138	0x3fe5aafa	1.7942803
139	0x400b0c66	2.1726317
140	0x4011fae8	2.280939
141	0x3ffb925d	1.9654042
142	0x3e902e19	0.2816017
143	0x3ff38f0e	1.9028032
144	0x3faee81b	1.3664583
145	0x3fd8ab5c	1.6927295
146	0xbec29623	-0.3800517
147	0x3e02cca2	0.12773374
148	0x3ff424e9	1.9073764
149	0x3fee1a63	1.8601803
150	0x3f8bd542	1.0924456
151	0x3fe9eb0f	1.8274859
152	0x3fe659ba	1.7996132
153	0x3ef8850b	0.48539004
154	0x3fa81a94	1.3133111
155	0x3febc935	1.8420779
156	0x3fd37e7c	1.6522975
157	0x40052166	2.0801635
158	0x3f7772d4	0.9665959
159	0x3fc9e867	1.5774049
160	0x401e3ec9	2.472582
161	0x3ffe6753	1.9875282
162	0x3ffc4533	1.9708618
163	0x3fbf0936	1.4924686
164	0x3ff71928	1.9304552
165	0x3fca182d	1.5788628
166	0x3fbceef6	1.4760425
167	0x3ff32479	1.8995506
168	0x3ff2f058	1.8979597
169	0x3f988922	1.191685
170	0x3fddc2f9	1.7325126
171	0x40281b90	2.6266823
172	0x3fd963e7	1.6983613
173	0x3fe34989	1.7756816
174	0x3ffd677f	1.979721
175	0x3fbe0dd7	1.4847974
176	0x3fdb1385	1.7115332
177	0x3fbb8cc4	1.4652333
178	0x3fee271b	1.8605684
179	0xbdcf21ad	-0.10113845
180	0x4008b42a	2.1359963
181	0x4013d509	2.3098776
182	0x3ff5ec2e	1.9212701
183	0x400b989c	2.1811895
184	0x3fc65e39	1.5497504
185	0x3ff91296	1.9458797
186	0x40053f1c	2.081977
187	0x401b4231	2.425915
188	0x400d421e	2.2071605
189	0x400270d2	2.038136
190	0x400af681	2.1712954
191	0x3fdf6c4e	1.7454927
192	0x3fa0f0a1	1.2573434
193	0x3ffafb1a	1.960788
194	0x3fc3c558	1.52946
195	0x3ff548fa	1.9162896
196	0x4004c08d	2.0742524
197	0x3fe5abe9	1.7943088
198	0xbebbf387	-0.36709234
199	0x400a03f7	2.156492
200	0x3fe96037	1.8232487
201	0x3f8448ed	1.0334755
202	0x3fdb3b98	1.7127562
203	0x401301e5	2.2969906
204	0x4017d486	2.3723464
205	0x40119502	2.2747197
206	0xbe5d07d7	-0.21585022
207	0x3ffbc90b	1.9670728
208	0x3f9996d1	1.199915
209	0x3ff33f94	1.9003778
210	0xbdb52b30	-0.08846128
211	0x3d15c21d	0.036562074
212	0x401a0753	2.406697
213	0x3fe05143	1.7524799
214	0x4013657a	2.3030686
215	0x3fe19ec5	1.7626578
216	0x3fd4da54	1.6629128
217	0x3fcbd30e	1.5923784
218	0x3f5479a5	0.82998115
219	0x4003b20b	2.0577419
220	0x3fd9b487	1.7008218
221	0x4007be20	2.1209793
222	0x3fbe66b0	1.4875088
223	0x3fcab5b6	1.5836704
224	0x3ff34996	1.9006832
225	0x40102a53	2.2525833
226	0x4002ce68	2.043848
227	0x3fd696af	1.6764735
228	0x3fdb8420	1.7149696
229	0x3fce7ab0	1.6131191
230	0x3fe6ee37	1.8041447
231	0x4002cf00	2.0438843
232	0x3ff8d555	1.9440104
233	0x3fb40b65	1.4065977
234	0x3ff208dc	1.8908954
235	0x400c040e	2.1877475
236	0x3fd4f04d	1.6635834
237	0x3fdbc57a	1.716964
238	0x400a07d0	2.1567268
239	0x3fd4f761	1.6637994
240	0x3fd7c06b	1.6855596
241	0x4009ebbb	2.1550128
242	0x3fcb208a	1.5869305
243	0x3f94801a	1.1601593
244	0x3fc95c6f	1.5731333
245	0x401945aa	2.394877
246	0x40064ffc	2.0986319
247	0x4010ec5a	2.2644258
248	0x3f8f2f3a	1.1186287
249	0x3fe69460	1.801403
250	0x400f72d4	2.2413836
251	0x4010e1dc	2.2637854
252	0x3fe7f7e5	1.8122526
253	0x3fdce421	1.725712
254	0x4010c25c	2.2618628
255	0x3ff6cf11	1.9281942

2.bias f4 [7]
0	0x3fda9299	1.7075988
1	0x4029fea7	2.6561677
2	0x400231af	2.0342824
3	0x3fdafbc5	1.7108084
4	0x3fec3719	1.8454314
5	0x3fee0ab2	1.8597014
6	0x3fb2f4d9	1.3980972
