saved_models/DQN/using_uniform_for_matchmaking/model13.pth (torch, 49984 bytes, 8 tensors)

0.weight f4 [64, 84]
0.90441126 0.8997444 1.2828737 1.4512064 0.6406515 1.229606 1.8058423 1.6233544
0.6300325 0.6664241 2.8157363 2.328459 1.060353 0.94393814 0.85320175 1.4720058
1.7065485 1.5650753 0.19679132 1.3673203 1.870569 2.0319202 0.34085697 0.8062785
2.3973632 3.2231307 1.4341884 1.1082885 1.1167141 1.1259509 1.8573161 1.7891927
1.2570064 1.5589167 1.8702564 2.2249012 0.46853778 1.2071776 3.03846 2.5463202
1.7585857 0.8974427 1.4567544 1.6356727 2.105052 2.176906 1.830456 2.0001101
2.1416645 2.1134222 1.318554 1.4994552 2.2853959 3.8096538 1.6329966 1.7449144
2.166455 1.8693908 1.9194312 2.5712745 2.350508 2.632735 2.4653676 2.5603578
1.5775081 2.155525 3.0743032 3.0454266 2.1820862 1.9509574 2.176681 3.0493684
2.9388697 3.156316 2.9075103 3.619442 3.4543228 2.3577175 2.1403024 2.985006
3.0950162 3.8530424 2.1716657 3.0514317 0.65247935 0.83193654 1.1034606 1.4493692
0.70205003 1.0251625 1.8258581 1.6271951 0.45606872 0.53534037 2.9363456 2.2947843
1.205477 0.9320849 0.79884285 1.4614589 1.4501126 1.5233464 0.37270445 1.3904055
1.7832114 2.1208978 0.19022524 0.7390136 2.462851 3.2829256 1.4550326 1.0668856
0.9514596 1.283875 1.6899496 1.7663864 1.2646862 1.4166573 1.7421124 2.0270638
0.43124667 1.1376412 3.0182927 2.5042589 1.6676103 0.9097524 1.5474182 1.6904747
2.04622 2.2513862 1.6826063 2.1803005 2.1410947 2.1014335 1.3825262 1.7846277
2.5295153 3.8642013 1.5045987 1.5737131 2.130461 1.7690691 1.9847313 2.6804876
2.4046583 2.463583 2.302174 2.4364395 1.5186374 2.0930178 3.0060155 3.0602612
1.8951348 1.8515352 2.1569598 2.7878067 2.7862768 3.2471027 3.02819 3.2963915
3.4126077 2.3690443 2.2369897 2.9534528 2.9535382 4.0327163 2.431275 2.7035222
0.74488413 1.2160839 1.2066094 1.5965391 0.5521657 1.3350699 1.2659053 1.7407476
0.30829093 0.2658043 2.5877626 2.2017646 1.3258057 1.0785275 1.1429764 0.9801213
1.4051788 1.2831144 0.59617907 1.5242976 1.7251967 1.9547397 -0.1722366 0.5338755
2.5094283 3.0117037 1.4804341 1.0841612 0.818621 1.3950263 1.4368502 1.3787713
1.9295608 1.404965 1.9163339 1.9334542 0.76977736 1.280105 3.0152228 2.401927
1.5924915 1.0293514 1.5123957 1.4828234 2.231678 2.3018916 1.6714296 2.4101956
2.0544088 2.367208 1.6249343 1.9980544 2.5137196 3.1830394 1.5736269 1.8013153
2.0172222 1.7798212 2.369293 2.8550181 2.6178794 2.6781728 2.4812245 2.7448194
1.8258109 2.5042512 2.7294838 2.7908669 1.930163 2.28076 2.37286 2.6330054
2.753117 2.6538863 2.4589672 3.1493657 3.1482842 2.765949 2.3350337 2.8572009
3.006449 3.0612433 2.6253908 2.3329027 0.7153315 0.6939356 1.186723 1.5033139
00000000: 7f87 673f a655 663f 3535 a43f 22c1 b93f
00000010: bd01 243f bb63 9d3f d725 e73f 14ca cf3f
00000020: cf49 213f c59a 2a3f 0635 3440 7905 1540
00000030: a6b9 873f eea5 713f 6e6b 5a3f b06a bc3f
00000040: 2e70 da3f 6354 c83f aa83 493e 5a04 af3f
00000050: ce6e ef3f fb0a 0240 ce84 ae3e 4568 4e3f
00000060: 666e 1940 c647 4e40 7c93 b73f 66dc 8d3f
00000070: 7df0 8e3f 291f 903f 89bc ed3f 4404 e53f
00000080: 96e5 a03f 958a c73f 9064 ef3f c864 0e40
00000090: 2fe4 ef3e cc84 9a3f 2176 4240 e9f6 2240
000000a0: 5619 e13f cebe 653f ee76 ba3f b95d d13f
000000b0: 2cb9 0640 6e52 0b40 624c ea3f ce01 0040
000000c0: 0811 0940 4f42 0740 61c6 a83f 26ee bf3f
000000d0: ed43 1240 5ed1 7340 0806 d13f 5b59 df3f
000000e0: 33a7 0a40 3348 ef3f ecaf f53f c38f 2440
000000f0: b96e 1640 bb7e 2840 95c8 1d40 e7dc 2340
00000100: c9eb c93f 1ff4 0940 62c1 4440 45e8 4240
00000110: 4da7 0b40 f9b8 f93f be4e 0b40 da28 4340
00000120: 7116 3c40 1501 4a40 a614 3a40 f0a4 6740
00000130: a013 5d40 d8e4 1640 b7fa 0840 570a 3f40
00000140: bf14 4640 3f98 7640 92fc 0a40 a84a 4340
00000150: e308 273f cbf9 543f 323e 8d3f ee84 b93f
00000160: 8db9 333f 8638 833f b8b5 e93f ee47 d03f
00000170: d781 e93e 110c 093f 16ed 3b40 bfdd 1240
00000180: 124d 9a3f 1e9d 6e3f f780 4c3f 1611 bb3f
00000190: 4a9d b93f 04fd c23f 1ed3 be3e cff8 b13f
000001a0: 4540 e43f cabc 0740 68ca 423e ff2f 3d3f
000001b0: 5a9f 1d40 741b 5240 823e ba3f b58f 883f
000001c0: db92 733f 0456 a43f 4550 d83f f318 e23f
000001d0: 3de1 a13f 0755 b53f 8afd de3f 6abb 0140
000001e0: 5dcc dc3e 3a9e 913f b52b 4140 c745 2040
000001f0: 4174 d53f 89e5 683f cd11 c63f 7a61 d83f
00000200: 45f5 0240 b616 1040 a55f d73f 0b8a 0b40
00000210: b207 0940 e37d 0640 9ef6 b03f ae6e e43f
00000220: 94e3 2140 134f 7740 b196 c03f 6e6f c93f
00000230: 7959 0840 db70 e23f ad0b fe3f 1c8d 2b40
00000240: ece5 1940 58ab 1d40 d256 1340 a0ee 1b40
00000250: b662 c23f 01f4 0540 8f62 4040 52db 4340
00000260: c793 f23f 1bff ec3f a10b 0a40 6d6b 3240
00000270: 5c52 3240 88d0 4f40 ddcd 4140 14f8 5240
00000280: 2a68 5a40 6c9e 1740 d72a 0f40 5f05 3d40
00000290: c506 3d40 030c 8140 029a 1b40 8206 2d40
000002a0: bab0 3e3f a3a8 9b3f 2d72 9a3f 655b cc3f
000002b0: bb5a 0d3f 92e3 aa3f 2f09 a23f d1d0 de3f
000002c0: 4fd8 9d3e 8017 883e e79d 2540 b6e9 0c40
000002d0: 00b4 a93f 300d 8a3f 0d4d 923f 3be9 7a3f
000002e0: e6dc b33f 183d a43f 319f 183f 2f1c c33f
000002f0: 3fd3 dc3f e934 fa3f cb5e 30be 11ac 083f
00000300: 799a 2040 c1bf 4040 dd7e bd3f cbc5 8a3f
00000310: 2591 513f 3990 b23f b5ea b73f 947b b03f
00000320: d9fb f63f e5d5 b33f 6e4a f53f 6d7b f73f
00000330: 2110 453f 7bda a33f 69f9 4040 2cb9 1940
00000340: c3d6 cb3f c9c1 833f 2f96 c13f 28cd bd3f
00000350: d0d3 0e40 3152 1340 68f1 d53f a540 1a40
00000360: 6f7b 0340 5680 1740 d9fd cf3f 3fc0 ff3f
00000370: c8e0 2040 ebb6 4b40 9b6c c93f 8091 e63f
00000380: 2b1a 0140 2ed1 e33f 7fa2 1740 9eb8 3640
00000390: 568b 2740 2f67 2b40 62cc 1e40 1fab 2f40
000003a0: 2cb4 e93f a745 2040 ddaf 2e40 909d 3240
000003b0: 950f f73f f9f7 1140 f0dc 1740 2983 2840
000003c0: 1233 3040 46d9 2940 b85f 1d40 358f 4940
000003d0: 7d7d 4940 4f05 3140 3171 1540 61dc 3640
000003e0: a969 4040 69eb 4340 6706 2840 474e 1540
000003f0: f71f 373f c3a5 313f 8ae6 973f 976c c03f

0.bias f4 [64]
4.4427567 4.8428874 3.2613 4.302318 1.010828 4.512091 4.6050158 2.0004354
1.8076962 4.786122 4.644636 0.69512576 4.548611 4.6528945 4.6312556 4.079127
4.0966873 4.4516654 4.7058754 4.64504 4.7728376 4.5568275 4.268135 4.4982414
4.590529 4.4302363 4.565104 4.648718 2.0344167 4.747276 3.579407 4.403314
2.6445491 0.8697455 4.7125735 4.3624907 4.270074 4.408398 4.082384 4.5712614
4.6609473 4.5210323 4.265904 4.7876267 4.379752 3.1727962 2.8702142 4.514795
4.595026 4.223471 2.5522945 4.445821 4.589418 3.924372 4.2861743 4.7412605
4.03499 4.322549 4.792011 4.6265144 4.7084246 4.6973586 3.168168 4.681543
00000000: 102b 8e40 eff8 9a40 24b9 5040 97ac 8940
00000010: d062 813f 0d63 9040 4a5c 9340 2207 0040
00000020: 9762 e73f e927 9940 dca0 9440 c3f3 313f
00000030: 398e 9140 83e4 9440 3f33 9440 3588 8240
00000040: 1018 8340 0b74 8e40 8896 9640 2ba4 9440
00000050: 16bb 9840 88d1 9140 9094 8840 98f1 8f40
00000060: 9de5 9240 7fc4 8d40 5515 9240 4cc2 9440
00000070: e233 0240 afe9 9740 0115 6540 f3e7 8c40
00000080: 4b40 2940 a4a7 5e3f 67cd 9640 8699 8b40
00000090: 72a4 8840 9911 8d40 e4a2 8240 c647 9240
000000a0: 7b26 9540 4cac 9040 4982 8840 3d34 9940
000000b0: ee26 8c40 180f 4b40 97b1 3740 3379 9040
000000c0: 740a 9340 ad26 8740 cb58 2340 2a44 8e40
000000d0: 83dc 9240 e928 7b40 5728 8940 68b8 9740
000000e0: a31e 8140 5252 8a40 2758 9940 680c 9440
000000f0: 6aab 9640 c350 9640 44c3 4a40 33cf 9540

2.weight f4 [7, 64]
3.0363483 3.1347077 2.9498253 3.2006962 2.0367925 3.1508794 2.9950697 1.3561531
2.8011107 3.1963367 3.0952718 1.8859357 3.107057 2.9929624 3.07334 2.918686
3.1105483 3.195553 3.1167812 2.9888213 2.9365182 3.3219678 2.9572682 3.089768
3.1582913 2.9998665 3.2416885 3.1518486 2.7123358 3.1776211 3.1690993 3.2356796
2.9326842 2.5856419 3.2769036 3.3596787 3.1440377 3.5529776 2.8111763 3.4398892
3.4459445 3.336373 2.5655417 3.484262 3.1026003 2.9309325 3.100024 3.131844
3.2934127 3.150374 2.65667 2.7293568 3.240679 3.0669606 2.860418 3.365135
3.1196234 3.1219115 3.327315 3.1974587 3.141287 3.071789 3.2522044 3.001479
3.1361988 3.3195484 3.2894003 3.1021826 3.1040065 3.2578351 3.1247914 1.7063549
3.0145988 3.309041 3.2990599 2.4790576 3.5861056 3.409516 3.3385036 3.6607826
3.427567 3.6701102 3.2512448 3.4155939 3.318925 3.469112 2.9999034 3.3705347
3.4754095 3.3641067 3.209056 3.2651231 2.465288 3.3944976 3.0250437 3.1767118
2.8487046 1.7091076 3.4320576 3.5034854 3.2717524 3.4801211 3.008674 3.5351138
3.3705978 3.3774934 3.055253 3.4382083 3.6071975 3.0817673 3.364206 3.1924117
3.4345317 3.4418662 3.3667293 3.27811 3.5053709 2.664673 3.2672327 3.5169902
3.28925 3.344982 3.3931992 3.6133723 3.4589288 3.3762834 3.5031595 3.3679585
3.165751 3.1992598 2.3210433 3.192528 2.2979908 3.588197 3.2833004 2.199432
2.6426811 3.2626288 3.2260864 2.4512146 3.5073893 3.4776492 3.243065 3.1359558
3.197289 3.2524447 3.2676406 3.1196558 3.210919 3.3077729 3.0580974 3.0490317
3.2890446 3.3679163 3.3512948 3.1309617 1.0388199 3.3372629 3.2653127 3.242124
2.7495615 1.9854354 3.4267197 3.020325 3.472574 3.4807274 3.6334734 3.6010592
3.5055451 3.5234149 3.5401704 3.707353 3.4479847 3.3820167 2.443867 2.9881237
3.3162718 3.1365893 2.9013193 3.049933 3.6756337 2.9871879 3.485648 3.4777434
3.4249833 3.2553976 3.5457597 3.424876 3.2431154 3.3955882 2.9382262 3.1145124
3.873123 4.1085935 2.641584 4.2600064 0.6194616 4.390166 3.5151649 1.3668258
0.6936274 4.011694 3.66044 0.68303466 4.0466905 4.1949377 3.4933794 3.9890292
3.704219 4.322 3.9110355 3.967687 3.8672616 3.997374 4.0483046 3.3954773
4.155377 3.433682 4.089604 3.5387063 1.5484698 4.000728 2.9831176 4.468794
2.6951716 0.72387934 4.143756 3.7149987 3.902955 3.9327657 4.3217807 4.234888
4.2128744 3.6537945 4.4188313 4.042642 4.172602 1.7746625 2.5906703 3.7147162
3.7838998 3.3348584 1.2669357 3.7722108 4.2193093 3.9618049 4.1031194 4.124394
2.8424714 3.7320063 3.9429767 3.9408736 3.7544403 3.9404902 1.7987604 3.6902764
00000000: 8853 4240 0d9f 4840 f0c9 3c40 35d8 4c40
00000010: cf5a 0240 02a8 4940 39af 3f40 6d96 ad3f
00000020: 6645 3340 c890 4c40 ef18 4640 5766 f13f
00000030: 06da 4640 b28c 3f40 9ab1 4440 c0cb 3a40
00000040: 3913 4740 f183 4c40 5879 4740 d948 3f40
00000050: eaef 3b40 1f9b 5440 e243 3d40 c2be 4540
00000060: 7221 4a40 d0fd 3f40 d377 4f40 e3b7 4940
00000070: e996 2d40 255e 4b40 86d2 4a40 6015 4f40
00000080: 19b1 3b40 287b 2540 cab8 5140 fa04 5740
00000090: ea37 4940 fc63 6340 50ea 3340 2527 5c40
000000a0: 5b8a 5c40 2387 5540 d631 2440 26fe 5e40
000000b0: 0191 4640 6694 3b40 cb66 4640 2270 4840
000000c0: 46c7 5240 ba9f 4940 e206 2a40 c8ad 2e40
000000d0: 4967 4f40 1549 4440 1711 3740 5f5e 5740
000000e0: e9a7 4740 66cd 4740 bbf2 5440 2aa3 4c40
000000f0: d90a 4940 3198 4440 1e24 5040 3b18 4040
00000100: 7bb7 4840 7b73 5440 8985 5240 298a 4640
00000110: 0ba8 4640 5f80 5040 95fc 4740 d669 da3f
00000120: 30ef 4040 54c7 5340 cc23 5340 e1a8 1e40
00000130: c182 6540 8335 5a40 0baa 5540 434a 6a40
00000140: 425d 5b40 16e3 6a40 6514 5040 1799 5a40
00000150: 4469 5440 ee05 5e40 6bfe 3f40 d7b6 5740
00000160: 1c6d 5e40 864d 5740 2c61 4d40 c7f7 5040
00000170: 47c7 1d40 733f 5940 519a 4140 3f4f 4b40
00000180: 2d51 3640 0ac4 da3f d5a6 5b40 1b39 6040
00000190: 6464 5140 4eba 5e40 1d8e 4040 4e3f 6240
000001a0: e0b7 5740 da28 5840 4489 4340 9b0b 5c40
000001b0: 53dc 6640 ad3b 4540 274f 5740 7950 4c40
000001c0: 5ecf 5b40 8947 5c40 7e78 5740 8ecc 5140
000001d0: ff57 6040 018a 2a40 571a 5140 5e16 6140
000001e0: 1283 5240 2f14 5640 2d2a 5940 7e41 6740
000001f0: 175f 5d40 0715 5840 c433 6040 a28c 5740
00000200: aa9b 4a40 acc0 4c40 f98b 1440 6152 4c40
00000210: 4812 1340 05a5 6540 9821 5240 7ec3 0c40
00000220: b021 2940 e9ce 5040 3378 4e40 b3e0 1c40
00000230: 1179 6040 ce91 5e40 618e 4f40 80b3 4840
00000240: 62a0 4c40 0e28 5040 0621 5140 71a8 4740
00000250: b27f 4d40 8db2 5340 deb7 4340 5623 4340
00000260: b57f 5240 f18b 5740 9d7b 5640 ad61 4840
00000270: 0df8 843f b795 5540 e2fa 5040 f67e 4f40
00000280: d1f8 2f40 bf22 fe3f 604f 5b40 014d 4140
00000290: a73e 5e40 3dc4 5e40 d48a 6840 c177 6640
000002a0: da5a 6040 a17f 6140 2792 6240 4645 6d40
000002b0: c8ab 5c40 f672 5840 5168 1c40 6b3d 3f40
000002c0: cc3d 5440 e1bd 4840 37af 3940 1a32 4340
000002d0: 953d 6b40 162e 3f40 db14 5f40 5993 5e40
000002e0: ed32 5b40 6f58 5040 baed 6240 2b31 5b40
000002f0: 348f 4f40 5151 5940 e60b 3c40 2c54 4740
00000300: 3fe1 7740 9979 8340 b60f 2940 f951 8840
00000310: 0995 1e3f 3d7c 8c40 76f8 6040 26f4 ae3f
00000320: 9191 313f cc5f 8040 a644 6a40 5cdb 2e3f
00000330: 7d7e 8140 ee3c 8640 8793 5f40 414c 7f40
00000340: ed11 6d40 d34d 8a40 684e 7a40 95ee 7d40
00000350: 3781 7740 fad4 7f40 b68b 8140 804f 5940
00000360: d9f8 8440 72c1 5b40 09de 8240 2a7a 6240
00000370: 4234 c63f f705 8040 66eb 3e40 5c00 8f40
00000380: b17d 2c40 2850 393f a699 8440 8ac2 6d40
00000390: 04ca 7940 6fb2 7b40 074c 8a40 3484 8740
000003a0: decf 8640 c5d7 6940 1167 8d40 535d 8140
000003b0: f585 8540 2428 e33f 8bcd 2540 e9bd 6d40
000003c0: 6a2b 7240 526e 5540 f32a a23f e76b 7140
000003d0: 9504 8740 368e 7d40 c14c 8340 09fb 8340
000003e0: 0deb 3540 31d9 6e40 bb59 7c40 4637 7c40
000003f0: c048 7040 fe30 7c40 c83d e63f 7d2d 6c40

2.bias f4 [7]
2.665738 3.0922055 3.010979 3.9598897 2.634036 3.5191188 2.8254304
00000000: 749b 2a40 b2e6 4540 e1b3 4040 d56e 7d40
00000010: 0c94 2840 3e39 6140 dad3 3440

0.weight f4 [64, 84]
0.8829448 0.881095 1.2650028 1.424636 0.6338421 1.2114897 1.7850902 1.5921596
0.6130722 0.6484352 2.776843 2.2869718 1.0382782 0.92546445 0.8310847 1.4466037
1.6780286 1.5451132 0.1771501 1.3458714 1.8431858 2.0001912 0.3255882 0.7846138
2.3550344 3.1846483 1.4131736 1.0789931 1.091443 1.0981189 1.8278505 1.7603825
1.2316858 1.5329328 1.8421426 2.1916883 0.4599754 1.1784183 2.998835 2.5042582
1.7265012 0.87544125 1.4269416 1.6012454 2.073514 2.141817 1.7998109 1.9621384
2.1058562 2.0771084 1.2877433 1.4623952 2.2416916 3.7701983 1.6050828 1.7064894
2.132517 1.831575 1.8866487 2.533214 2.3140361 2.5944722 2.4263222 2.523448
1.5458945 2.115657 3.0326142 3.0033605 2.1489656 1.9096175 2.1411808 3.00933
2.9029734 3.1171627 2.8701375 3.5794694 3.4143274 2.326038 2.1052308 2.9449856
3.0524142 3.8146074 2.1376812 3.0100808 0.6309484 0.8131845 1.0855994 1.4227898
0.6952667 1.0070126 1.8051096 1.5959406 0.43915668 0.5172812 2.8975248 2.2532358
1.1833733 0.91370356 0.7766949 1.4359393 1.4216652 1.5033375 0.3530177 1.368849
1.7558415 2.0890913 0.17482932 0.7173087 2.420499 3.2445042 1.4340893 1.0377043
0.926081 1.2560688 1.6604887 1.7376012 1.2394171 1.3905888 1.7139578 1.9938276
0.42259884 1.1088263 2.978698 2.4621928 1.6356488 0.887778 1.5175768 1.6559893
2.0146317 2.2163517 1.6519402 2.1424081 2.1053233 2.0650342 1.3516966 1.7475749
2.4858878 3.8248496 1.4766254 1.5353565 2.0965502 1.7312421 1.9519641 2.6424804
2.3681808 2.4254086 2.263262 2.3995557 1.4870011 2.0532758 2.964437 3.018171
1.8619941 1.8102833 2.1214898 2.7478087 2.7504425 3.2080355 2.990816 3.2565558
3.3727722 2.3374007 2.2018878 2.9135315 2.9110696 3.9944112 2.397268 2.6622932
0.72327334 1.1978976 1.1890345 1.5700856 0.5456512 1.317561 1.2453741 1.7094793
0.29143688 0.24741553 2.5486176 2.1612885 1.3036216 1.0609589 1.1214793 0.9544052
1.37717 1.2633775 0.57657206 1.5036509 1.6980685 1.9229733 -0.1873271 0.5121636
2.4675078 2.9730585 1.460303 1.05512 0.79312396 1.3673726 1.4078327 1.3501183
1.904454 1.3794705 1.8885131 1.9000138 0.7612386 1.2512053 2.975395 2.3601663
1.5607716 1.0079001 1.4823456 1.4482542 2.2000487 2.2667139 1.6411215 2.3722816
2.0188086 2.3305485 1.5939778 1.9608516 2.47025 3.1434417 1.5457284 1.7635703
1.9830501 1.741786 2.3364427 2.8167112 2.5813594 2.6399093 2.442235 2.707553
1.7942345 2.4642568 2.6875887 2.749097 1.8969281 2.239474 2.3374019 2.5927396
2.7170117 2.614373 2.4213648 3.109318 3.1081588 2.7339885 2.2998571 2.8168626
2.963843 3.0226655 2.5913393 2.2911882 0.6938145 0.67502844 1.1688404 1.4767253
00000000: ac08 623f 718f 613f 9deb a13f 795a b63f
00000010: 7a43 223f 1812 9b3f d67d e43f e3cb cb3f
00000020: 4df2 1c3f d9ff 253f ccb7 3140 bf5d 1240
00000030: 4de6 843f 3deb 6c3f f8c1 543f 4f2a b93f
00000040: a4c9 d63f 45c6 c53f d666 353e 8445 ac3f
00000050: 83ed eb3f 2203 0040 7fb3 a63e 73dc 483f
00000060: e2b8 1640 47d1 4b40 dfe2 b43f 721c 8a3f
00000070: 67b4 8b3f 298f 8c3f 01f7 e93f 3754 e13f
00000080: e1a7 9d3f 2437 c43f 54cb eb3f 9f44 0c40
00000090: e581 eb3e 69d6 963f eaec 3f40 c445 2040
000000a0: fefd dc3f eb1c 603f 06a6 b63f 9cf5 cc3f
000000b0: 74b4 0440 8813 0940 3460 e63f 5a27 fb3f
000000c0: 59c6 0640 58ef 0440 c6d4 a43f c42f bb3f
000000d0: e077 0f40 ee4a 7140 5a73 cd3f 3f6e da3f
000000e0: 297b 0840 0d71 ea3f b47d f13f 2e20 2240
000000f0: 2b19 1440 d50b 2640 dd48 1b40 2c80 2140
00000100: dfdf c53f ed66 0740 5a16 4240 0f37 4040
00000110: a788 0940 596e f43f 1b09 0940 dd98 4040
00000120: 51ca 3940 987f 4740 55b0 3740 0716 6540
00000130: 5784 5a40 cedd 1440 1abc 0640 a57a 3c40
00000140: c15a 4340 8722 7440 c5cf 0840 2aa5 4040
00000150: d685 213f dc2c 503f ecf4 8a3f fa1d b63f
00000160: 00fd 313f cae5 803f d50d e73f c847 cc3f
00000170: 25d9 e03e 8a6c 043f 0c71 3940 0435 1040
00000180: c778 973f 7ae8 693f 7ad5 463f dccc b73f
00000190: 20f9 b53f 5d6d c03f bcbe b43e 7236 af3f
000001a0: 6abf e03f acb3 0540 7506 333e 8ba1 373f
000001b0: 75e9 1a40 f5a5 4f40 3d90 b73f 7fd3 843f
000001c0: a513 6d3f ddc6 a03f e58a d43f b769 de3f
000001d0: 38a5 9e3f d0fe b13f f862 db3f be35 ff3f
000001e0: e05e d83e 05ee 8d3f fda2 3e40 9194 1d40
000001f0: f15c d13f 6b45 633f f53f c23f 75f7 d33f
00000200: baef 0040 b5d8 0d40 c772 d33f 371d 0940
00000210: 9ebd 0640 8529 0440 6504 ad3f 89b0 df3f
00000220: c918 1f40 56ca 7440 1002 bd3f 9086 c43f
00000230: e12d 0640 5799 dd3f f6d9 f93f 661e 2940
00000240: 4690 1740 e539 1b40 49d9 1040 5292 1940
00000250: 0d56 be3f df68 0340 56b9 3d40 b729 4140
00000260: d355 ee3f 5db7 e73f 7dc6 0740 19dc 2f40
00000270: 4007 3040 7450 4d40 8869 3f40 696b 5040
00000280: 80db 5740 f997 1540 bbeb 0c40 4d77 3a40
00000290: f74e 3a40 6fa4 7f40 d76c 1940 0363 2a40
000002a0: 7128 393f b554 993f 4832 983f 91f8 c83f
000002b0: ccaf 0b3f d7a5 a83f 6b68 9f3f 38d0 da3f
000002c0: 3737 953e 7f5a 7d3e 8d1c 2340 8d52 0a40
000002d0: 13dd a63f 80cd 873f a28c 8f3f e653 743f
000002e0: 1b47 b03f 5bb6 a13f 3a9a 133f a277 c03f
000002f0: 4f5a d93f fd23 f63f add2 3fbe 271d 033f
00000300: a6eb 1d40 9746 3e40 35eb ba3f 2c0e 873f
00000310: 2c0a 4b3f 1106 af3f dd33 b43f add0 ac3f
00000320: 26c5 f33f 7d92 b03f ccba f13f a733 f33f
00000330: 88e0 423f 7f27 a03f df6c 3e40 f70c 1740
00000340: 5dc7 c73f df02 813f 80bd bd3f 6560 b93f
00000350: 99cd 0c40 d711 1140 4510 d23f 76d3 1740
00000360: 2934 0140 b527 1540 7707 cc3f 2ffd fa3f
00000370: 9318 1e40 262e 4940 6eda c53f acbc e13f
00000380: 96d4 fd3f d8f2 de3f 4788 1540 ff44 3440
00000390: fe34 2540 46f4 2840 944d 1c40 8c48 2d40
000003a0: 7aa9 e53f 62b6 1d40 7401 2c40 35f1 2f40
000003b0: 8ace f23f 8b53 0f40 fe97 1540 72ef 2540
000003c0: 85e3 2d40 e351 2740 a4f7 1a40 11ff 4640
000003d0: 13ec 4640 abf9 2e40 dc30 1340 7a47 3440
000003e0: 9baf 3d40 5a73 4140 81d8 2540 d4a2 1240
000003f0: d49d 313f aace 2c3f 909c 953f 5605 bd3f

0.bias f4 [64]
4.401466 4.8017263 3.219462 4.2611685 0.9645918 4.4710193 4.563654 1.9571614
1.7641722 4.74497 4.6033726 0.6478864 4.5074415 4.6117697 4.589924 4.0377355
4.0553966 4.410539 4.664654 4.6037827 4.731602 4.5156717 4.2269096 4.456813
4.549397 4.388893 4.5239577 4.6073527 1.9911017 4.706128 3.537579 4.3622055
2.60196 0.823115 4.671482 4.3212566 4.2289357 4.367273 4.0410028 4.5302196
4.619882 4.4798374 4.2246237 4.7465606 4.3386226 3.1308722 2.8278549 4.4735003
4.5538006 4.18198 2.5100186 4.404526 4.5483747 3.883109 4.244963 4.7001863
3.9934325 4.281329 4.7508864 4.5853677 4.667149 4.656167 3.1262965 4.640195
00000000: cfd8 8c40 bea7 9940 aa0b 4e40 7e5b 8840
00000010: 7def 763f 9712 8f40 7409 9240 4484 fa3f
00000020: 65d0 e13f cbd6 9740 d44e 9340 e2db 253f
00000030: f63c 9040 9e93 9340 a8e0 9240 2135 8140
00000040: cfc5 8140 2323 8d40 d844 9540 3052 9340
00000050: 4969 9740 6280 9040 d842 8740 369e 8e40
00000060: a994 9140 d071 8c40 43c4 9040 6f6f 9340
00000070: 6cdc fe3f 9a98 9640 b267 6240 3097 8b40
00000080: 8386 2640 aab7 523f c87c 9540 bc47 8a40
00000090: 7153 8740 b3c0 8b40 e54f 8140 8ff7 9040
000000a0: 13d6 9340 d45a 8f40 1e30 8740 d3e3 9740
000000b0: ffd5 8a40 3660 4840 93fb 3440 ea26 8f40
000000c0: bcb8 9140 c8d2 8540 25a4 2040 e1f1 8c40
000000d0: 498c 9140 dc84 7840 bdd6 8740 ed67 9640
000000e0: 6694 7f40 a600 8940 4307 9840 55bb 9240
000000f0: 4959 9540 52ff 9440 3e15 4840 7a7c 9440

2.weight f4 [7, 64]
3.005849 3.1041617 2.9193218 3.1700628 2.0049899 3.1200883 2.9645865 1.3244765
2.770487 3.1658497 3.064783 1.8539561 3.07643 2.9623053 3.0428953 2.8879778
3.0800037 3.1648376 3.0862887 2.9583082 2.906003 3.2913363 2.926647 3.0593777
3.1276534 2.9693563 3.2110496 3.1214514 2.6811862 3.1470878 3.1385741 3.2048836
2.9018633 2.5536518 3.2463067 3.3291283 3.113161 3.5224075 2.7800655 3.4092107
3.4153059 3.3057566 2.5345132 3.4536643 3.071909 2.9003313 3.0694454 3.1013625
3.2629411 3.1199732 2.6260746 2.6986914 3.2099333 3.0362232 2.8296592 3.3345947
3.0891478 3.0912848 3.2967682 3.1668258 3.1108234 3.0412545 3.2217555 2.971044
3.1013775 3.2847078 3.254364 3.0671103 3.067273 3.2226443 3.0900269 1.670045
2.9794903 3.2742274 3.2642813 2.4419637 3.5512323 3.3745463 3.3037806 3.625637
3.3927045 3.6350563 3.2164502 3.3807614 3.2841349 3.4341962 2.9648764 3.3358202
3.4404762 3.3293517 3.174102 3.230403 2.4294229 3.3596807 2.9901242 3.1415446
2.8132548 1.6720629 3.397174 3.468632 3.2366273 3.4452572 2.9730737 3.500152
3.335675 3.3426652 3.0198126 3.403336 3.5721893 3.0469236 3.329013 3.157613
3.3997538 3.4071317 3.3318076 3.2432048 3.4703815 2.6294646 3.2321162 3.4821475
3.2545133 3.3101013 3.358396 3.5784988 3.4241734 3.3414793 3.468285 3.333221
3.1310408 3.1645303 2.2862263 3.1576474 2.2618127 3.5531442 3.2486606 2.1636915
2.607855 3.2279022 3.19141 2.4147842 3.4726386 3.4428036 3.2084773 3.1010432
3.1625614 3.217542 3.2329435 3.0849376 3.1762311 3.2729657 3.023213 3.0144343
3.2542033 3.3332865 3.3164666 3.0963757 1.0033419 3.302539 3.2306151 3.2071059
2.7144508 1.9491162 3.391934 2.9855487 3.4375584 3.4459574 3.5982609 3.566182
3.4707167 3.4886453 3.5050206 3.67255 3.413115 3.3472877 2.408987 2.9534428
3.2815895 3.1019876 2.8665624 3.0151289 3.6407123 2.9522064 3.450658 3.4429874
3.390353 3.2205582 3.5110426 3.3900778 3.2084723 3.3608763 2.9034932 3.0798914
3.8310683 4.0666304 2.5989323 4.2177143 0.57350874 4.3479557 3.4731917 1.3225455
0.6503215 3.969747 3.6184773 0.63624746 4.004621 4.1529007 3.451424 3.9466383
3.6620028 4.279795 3.8690436 3.9256732 3.8253372 3.9553385 4.0060525 3.3534799
4.113313 3.3916652 4.04756 3.4967628 1.50445 3.9587574 2.940739 4.4265327
2.651833 0.6774855 4.101738 3.6729345 3.860736 3.8907025 4.279126 4.1928144
4.1708245 3.611772 4.3763666 4.000663 4.130458 1.7322437 2.547667 3.6726913
3.7418957 3.2927923 1.224255 3.730173 4.1772294 3.9193628 4.060911 4.082394
2.8003833 3.6899056 3.901019 3.8988743 3.7125 3.898515 1.7562965 3.6483393
00000000: d45f 4040 96aa 4640 2bd6 3a40 4fe2 4a40
00000010: c151 0040 87af 4740 c9bb 3d40 7288 a93f
00000020: a94f 3140 489d 4a40 6825 4440 6f4e ed3f
00000030: 3be4 4440 6996 3d40 ccbe 4240 a1d4 3840
00000040: c81e 4540 b38c 4a40 c185 4540 ec54 3d40
00000050: f4fb 3940 41a5 5240 2f4e 3b40 d8cc 4340
00000060: 792b 4840 ef09 3e40 d681 4d40 dcc5 4740
00000070: 8e98 2b40 e369 4940 66de 4840 d01c 4d40
00000080: 21b8 3940 086f 2340 7dc3 4f40 7010 5540
00000090: 083e 4740 206f 6140 98ec 3140 8230 5a40
000000a0: 5f94 5a40 8491 5340 7735 2240 d608 5d40
000000b0: 289a 4440 079f 3940 cb71 4440 b97c 4640
000000c0: 07d4 5040 a4ad 4740 9b11 2840 5cb7 2c40
000000d0: 8c6f 4d40 7b51 4240 2319 3540 006a 5540
000000e0: 99b4 4540 9cd7 4540 40fe 5240 46ad 4a40
000000f0: bb17 4740 eaa3 4240 3e31 4e40 9625 3e40
00000100: f87c 4640 a738 5240 8047 5040 894b 4440
00000110: 334e 4440 ce3f 4e40 00c3 4540 09c4 d53f
00000120: f8af 3e40 f18c 5140 fce9 5040 2249 1c40
00000130: 6447 6340 91f8 5740 2471 5340 700a 6840
00000140: 1222 5940 c3a4 6840 52da 4d40 655e 5840
00000150: 442f 5240 dfc9 5b40 89c0 3d40 147e 5540
00000160: c330 5c40 1914 5540 7d24 4b40 ecbe 4e40
00000170: aa7b 1b40 0205 5740 325e 3f40 110f 4940
00000180: 5e0c 3440 2806 d63f 4c6b 5940 11fe 5d40
00000190: e724 4f40 187f 5c40 d746 3e40 7e02 6040
000001a0: b37b 5540 3aee 5540 9c44 4140 42d0 5940
000001b0: c09e 6440 cc00 4340 8d0e 5540 5516 4a40
000001c0: 9195 5940 720e 5a40 563c 5540 ab90 4f40
000001d0: bb1a 5e40 2649 2840 feda 4e40 81db 5e40
000001e0: f249 5040 b3d8 5340 f6ef 5640 2006 6540
000001f0: a825 5b40 ccda 5540 62f8 5d40 7e53 5540
00000200: f962 4840 aa87 4a40 8851 1240 e516 4a40
00000210: 8ac1 1040 b766 6340 0eea 4f40 ec79 0a40
00000220: 19e7 2640 f395 4e40 1040 4c40 d38b 1a40
00000230: b63f 5e40 e556 5c40 b157 4d40 7e77 4640
00000240: 6867 4a40 35ec 4d40 8ce8 4e40 9e6f 4540
00000250: 5f47 4b40 4578 5140 527c 4140 7eec 4040
00000260: de44 5040 9154 5540 fd40 5440 052b 4640
00000270: 826d 803f cd5c 5340 66c2 4e40 3941 4d40
00000280: 90b9 2d40 a47c f93f 7215 5940 3b13 3f40
00000290: f500 5c40 918a 5c40 e849 6640 533c 6440
000002a0: 3920 5e40 f745 5f40 4252 6040 0f0b 6b40
000002b0: 7a70 5a40 f639 5640 d82c 1a40 3505 3d40
000002c0: 9005 5240 f786 4640 c275 3740 dff7 4040
000002d0: 6e01 6940 f3f0 3c40 95d7 5c40 e859 5c40
000002e0: 8bfb 5840 a01d 4e40 ecb4 6040 09f7 5840
000002f0: 9c57 4d40 9918 5740 d5d2 3940 f11c 4540
00000300: 3930 7540 d621 8240 e854 2640 84f7 8640
00000310: 78d1 123f 7422 8b40 c648 5e40 2c49 a93f
00000320: 787b 263f 5610 7e40 2295 6740 1de1 223f
00000330: db25 8040 90e4 8440 21e4 5c40 b995 7c40
00000340: 415e 6a40 15f4 8840 699e 7740 3b3e 7b40
00000350: 53d2 7440 4424 7d40 9531 8040 6a9f 5640
00000360: 43a0 8340 0b11 5940 9d85 8140 f6ca 5f40
00000370: d191 c03f 485c 7d40 1135 3c40 28a6 8d40
00000380: a2b7 2940 b16f 2d3f 7041 8340 5c11 6b40
00000390: 4c16 7740 4501 7940 9aee 8840 892b 8640
000003a0: 6577 8540 4627 6740 320b 8c40 6e05 8040
000003b0: b62c 8440 29ba dd3f fa0c 2340 600d 6b40
000003c0: 387b 6f40 1cbd 5240 63b4 9c3f 28bb 6e40
000003d0: ddab 8540 d7d6 7a40 fcf2 8140 f9a2 8240
000003e0: 7b39 3340 6a27 6c40 4caa 7940 2887 7940
000003f0: 9a99 6d40 4581 7940 53ce e03f 647e 6940

2.bias f4 [7]
2.635988 3.0594597 2.9784977 3.922634 2.6063492 3.4793775 2.7938905
00000000: 07b4 2840 30ce 4340 b59f 3e40 6f0c 7b40
00000010: 6dce 2640 1fae 5e40 1acf 3240
