saved_models/DQN/using_uniform_for_matchmaking/model14.pth (torch, 49984 bytes, 8 tensors)

0.weight f4 [64, 84]
0	0x3ebb82fc	0.3662337
1	0x3f038576	0.5137552
2	0x3e50e17c	0.20398515
3	0x3d617b48	0.05504921
4	0xbe0d3610	-0.13790154
5	0x3e0066d8	0.12539232
6	0x3d9ae96a	0.075640514
7	0x3e75325b	0.2394499
8	0xbe2710ca	-0.16314998
9	0x3ea8300f	0.32849166
10	0x3e2e326a	0.17011419
11	0xbd41a1ed	-0.047273565
12	0x3e889126	0.2667324
13	0x3de2a104	0.110658675
14	0x3ebb2e09	0.3655856
15	0x3e503102	0.20331195
16	0xbddc4a84	-0.107564
17	0x3e839e49	0.257067
18	0x3ebc1f51	0.36742643
19	0xbe8db9f8	-0.27680945
20	0xbd7c0997	-0.061532583
21	0xbb68189b	-0.0035415057
22	0xbe3b1bd9	-0.18272342
23	0x3eacba4e	0.3373589
24	0xbe5cd0dc	-0.21564049
25	0x3d030a76	0.0319924
26	0x3eb0a57b	0.34501252
27	0x3e8c1430	0.27359152
28	0x3ebbf637	0.36711285
29	0x3ee9d410	0.45669603
30	0xbe8430fd	-0.25818625
31	0x3e9fb21f	0.31190583
32	0x3e0dace1	0.1383548
33	0xbc2b18a0	-0.010442883
34	0xbd301880	-0.042992115
35	0x3f0b3b4e	0.54387367
36	0x3e6f5679	0.2337283
37	0x3d3ecd26	0.046582364
38	0xbdf4d3fe	-0.11954497
39	0x3e800e6b	0.25011
40	0x3e873a34	0.26411593
41	0x3e72607a	0.23669615
42	0x3d5c51a7	0.053788807
43	0x3f4ea6ce	0.80723274
44	0xbeb706fd	-0.3574752
45	0x3eedff59	0.46483877
46	0xbe927992	-0.28608376
47	0x3d4102b0	0.047121704
48	0xbe8069b6	-0.2508065
49	0x3e11ac86	0.14225969
50	0xbe94bbb2	-0.2904945
51	0x3e5fe1d7	0.21863495
52	0x3db09c37	0.086235456
53	0xbc3314a9	-0.010930219
54	0xbd6d5c61	-0.057949428
55	0x3d0adb15	0.03390034
56	0x3e8acace	0.27107853
57	0x3f914a96	1.1350887
58	0x3dcf0af9	0.10109515
59	0x3e8177f4	0.2528683
60	0x3d192248	0.03738621
61	0x3cc68378	0.024232611
62	0xbda42e49	-0.08016641
63	0x3e3796ca	0.17928615
64	0xbd4c4bc5	-0.049876947
65	0x3e8cb8de	0.27484792
66	0x3d936051	0.07196105
67	0x3c6ab937	0.014326385
68	0xbd3bedfd	-0.04588126
69	0x3e04e85a	0.1297926
70	0x3f24b8f5	0.6434472
71	0x3f86a9df	1.052059
72	0x3eec1957	0.46113083
73	0x3f531529	0.8245416
74	0x3ee4e440	0.4470539
75	0x3f06c94f	0.5265092
76	0x3e291a93	0.16514044
77	0x3e5f93d2	0.21833733
78	0x3ec10167	0.37696382
79	0x3f6f7596	0.93538797
80	0x3e529340	0.20563984
81	0x3e942a60	0.2893858
82	0x3eacd7fb	0.3375853
83	0x3ef1b605	0.47209182
84	0x3eed1c81	0.4631081
85	0x3ede8e38	0.4346788
86	0x3d4da782	0.050208576
87	0xbcb7537e	-0.02237868
88	0xbdbeaec1	-0.093106754
89	0xbde3eb8b	-0.11128911
90	0xbcc42250	-0.023942143
91	0x3e83c9c2	0.25739866
92	0xbe29245a	-0.16517773
93	0x3dd9698c	0.106158346
94	0x3d6e19b1	0.05812997
95	0xbd0b71aa	-0.034043945
96	0x3e53d702	0.20687488
97	0xbc5b0845	-0.013368671
98	0x3f09c513	0.53816336
99	0x3e801fbe	0.25024217
100	0xbd6d2e4e	-0.057905488
101	0x3e2da916	0.16959032
102	0x3f05f361	0.5232449
103	0xbd8e869f	-0.06959271
104	0x3df78133	0.1208519
105	0xbd40daa6	-0.04708352
106	0xbe645d00	-0.22301102
107	0x3e94b109	0.29041317
108	0x3d3a3cc5	0.04546811
109	0x3e93debb	0.28880867
110	0x3e5a5199	0.2132019
111	0x3df4c647	0.11951881
112	0x3ec6a889	0.38800457
113	0x3f032785	0.51232177
114	0xbe10bbd0	-0.14134145
115	0x3eb21195	0.3477904
116	0x3d29b69f	0.041433927
117	0xbd0aef16	-0.033919416
118	0xbe317755	-0.17330678
119	0x3e7d8163	0.24756388
120	0x3ee1d1d2	0.44105393
121	0x3d745f2c	0.059661075
122	0xbd2e06b2	-0.042486854
123	0x3e1d0943	0.15335564
124	0x3d9ea8e8	0.0774706
125	0x3e1de404	0.15419012
126	0x3e81ec06	0.25375384
127	0x3f8c4003	1.0957035
128	0xbc0fa9d3	-0.008768517
129	0x3e92952c	0.28629434
130	0xbe2c7585	-0.16841705
131	0x3e121293	0.14264898
132	0xbdd92efd	-0.106046654
133	0xbc001cc5	-0.007819359
134	0xbe37dd41	-0.17955495
135	0x3eb04cc3	0.34433565
136	0xbd500ced	-0.050793577
137	0xbcd01011	-0.025398286
138	0xbd929268	-0.07156831
139	0x3ca14670	0.019686908
140	0x3eb42f06	0.35192126
141	0x3f9c4057	1.2207135
142	0x3e898438	0.26858687
143	0x3e8ae3a6	0.27126807
144	0x3e152cc6	0.14567861
145	0xbdbdb87c	-0.09263703
146	0xbe302088	-0.1719991
147	0x3e42fd97	0.1904205
148	0xbe67f455	-0.22651799
149	0x3da34e87	0.07973962
150	0xbcc46ee5	-0.02397866
151	0xbc0a3ec1	-0.008437813
152	0x3c0605ee	0.008180125
153	0x3e87685e	0.26446813
154	0x3f1859e9	0.5951219
155	0x3f5c484a	0.86047804
156	0x3efbe0d5	0.4919497
157	0x3f59706d	0.84937173
158	0x3eefc686	0.4683115
159	0x3ecf586c	0.40497148
160	0x3eb52b7b	0.35384735
161	0x3eaf6e4f	0.34263846
162	0x3e942069	0.28930977
163	0x3f1f90e4	0.6233046
164	0x3ea485e0	0.3213339
165	0x3ef44079	0.4770544
166	0x3eeb8325	0.45998493
167	0x3f10f65b	0.5662591
168	0x3ec5874b	0.38579783
169	0xbd1b13cd	-0.03786068
170	0xbd5181bd	-0.05114912
171	0xbe8b3739	-0.2719057
172	0xbf11998e	-0.5687493
173	0xbec58a1e	-0.38581938
174	0xbe7d07ae	-0.24709961
175	0x3e5c7d79	0.21532239
176	0xbe8efd13	-0.27927455
177	0x3e8d0795	0.27544847
178	0xbd350b3c	-0.044200167
179	0xbea8680c	-0.3289188
180	0xbd63c097	-0.05560359
181	0xbe3a435c	-0.18189758
182	0x3ea3113a	0.3184908
183	0x3e825910	0.25458574
184	0xbe821c80	-0.2541237
185	0x3e92aef1	0.28649095
186	0xbe6b6f85	-0.2299176
187	0xbf5d5ce0	-0.8646984
188	0xbdda480f	-0.10658275
189	0x3dc4642b	0.09589418
190	0xbd222787	-0.039588477
191	0x3e34c3cc	0.17652816
192	0x3d56364a	0.052297868
193	0xbe306a6d	-0.17228098
194	0x3e95504a	0.29162818
195	0xbd329977	-0.043603387
196	0x3de7e083	0.11322119
197	0x3eea9c9c	0.45822608
198	0xbe1dd413	-0.15412931
199	0xbcbdf1f3	-0.02318666
200	0xbed746a8	-0.42046094
201	0xbee11bea	-0.4396661
202	0x3d6c64f8	0.05771348
203	0x3e9db05a	0.30798608
204	0x3e5d6e9f	0.2162423
205	0xbd7e4d38	-0.06208536
206	0xbe7f9139	-0.24957742
207	0xbc8d31b3	-0.017235612
208	0xbee49f5b	-0.4465283
209	0x3ea95994	0.33076155
210	0xbb25faa2	-0.002532639
211	0x3f5136ec	0.8172443
212	0xbe422615	-0.1895984
213	0xb946dcfc	-0.00018965075
214	0xbf5f608d	-0.872567
215	0xbd1c15d3	-0.03810675
216	0xbdc6e63f	-0.09711885
217	0xbe93be27	-0.28856012
218	0xbee5b9e6	-0.44868392
219	0xbc8e72bf	-0.0173887
220	0xbe57cf1a	-0.21075097
221	0x3c1c8994	0.009554286
222	0xbe1e4729	-0.15456833
223	0xbe1e0c43	-0.15434365
224	0xbe9404c0	-0.28909874
225	0x3f3bca71	0.73355776
226	0x3ded41d1	0.11584819
227	0xbe9e240d	-0.3088688
228	0xbe5c242f	-0.21498178
229	0x3ebfc80b	0.37457308
230	0xbf069678	-0.5257335
231	0xbdb7641a	-0.0895464
232	0x3d1893e2	0.037250407
233	0x3eb8aec8	0.36070848
234	0x3d1f59e9	0.038904104
235	0xbd585585	-0.052815933
236	0xbeec721c	-0.4618081
237	0xbd424fce	-0.04743939
238	0x3d9eefb4	0.077605635
239	0x3efcb48c	0.49356496
240	0x3e83bc28	0.2572949
241	0x3ea07d9e	0.31345838
242	0x3ed69bcd	0.41915742
243	0x3e99a0f5	0.30005613
244	0xbccfb208	-0.025353447
245	0xbcd25589	-0.025675552
246	0x3f02b898	0.5106292
247	0x3f1dfe98	0.61716604
248	0x3e275807	0.16342174
249	0xbe62fa23	-0.22165732
250	0x3e17b621	0.1481557
251	0x3e41e4c9	0.18934931
252	0x3e987e2e	0.29783767
253	0x3f123fc9	0.5712858
254	0xbd18af79	-0.03727672
255	0xbe43f6f0	-0.19137168

0.bias f4 [64]
0	0x4038c23b	2.886855
1	0x403c4d0c	2.9422026
2	0x402214ad	2.532512
3	0x4027b872	2.6206326
4	0x4024a10f	2.5723302
5	0x40076d82	2.1160588
6	0x400a4733	2.1605957
7	0x3fc145fe	1.5099485
8	0x40289022	2.6337972
9	0x40210324	2.5158167
10	0x40266099	2.5996459
11	0x4037ab33	2.8698242
12	0x401a3230	2.4093132
13	0x40374491	2.86356
14	0x402cc0cf	2.699268
15	0x402ee4c3	2.7327125
16	0x3fc32ef2	1.5248702
17	0x4032397d	2.7847588
18	0x402e0d1f	2.7195508
19	0xbd83467c	-0.06409928
20	0x3fcecbcd	1.6155945
21	0x4031e4e9	2.7795966
22	0xbec7e4da	-0.39041787
23	0x4012bfe8	2.292963
24	0x402c4406	2.6916518
25	0x4023e1ce	2.560657
26	0x403aa888	2.9165363
27	0xb9a2b001	-0.0003103018
28	0x40234dd0	2.5516243
29	0x4000a96a	2.0103402
30	0x400ad213	2.169072
31	0x4035f2a6	2.842935
32	0x402f10ce	2.7354007
33	0x401a6b61	2.412804
34	0x4015be9e	2.3397593
35	0x4034ed7b	2.8269947
36	0x401f1254	2.4854937
37	0x40069cf9	2.1033309
38	0x4027ff19	2.624945
39	0x3fd4721f	1.6597327
40	0x3fd53878	1.6657858
41	0xbf1f978e	-0.6234063
42	0x40386f89	2.8818076
43	0x401c9f2f	2.4472158
44	0x40285f5c	2.6308203
45	0x403762c8	2.8654041
46	0x3f58b4f6	0.84651124
47	0x403d68e5	2.9595273
48	0x4027a152	2.6192212
49	0x40356565	2.8343136
50	0x3918ab52	0.00014559671
51	0xb9abd7ba	-0.0003277639
52	0x402802bb	2.6251667
53	0x4029a857	2.6508996
54	0x4026b21d	2.6046212
55	0x4036245f	2.84597
56	0x403fc6b6	2.9965034
57	0x402dc5a8	2.715189
58	0x40388d95	2.8836415
59	0x4029d464	2.6535883
60	0x3fc2e476	1.5225971
61	0x403db370	2.964077
62	0x4025943a	2.587172
63	0x401aca5c	2.418601

2.weight f4 [7, 64]
0	0x3f8de62a	1.1085865
1	0x3fa79170	1.3091259
2	0x3ff4651a	1.9093354
3	0x3faff9ef	1.3748149
4	0x3f9ff5ce	1.2496889
5	0x3fe4c21c	1.7871737
6	0x3fbec47e	1.4903715
7	0x3fbfe149	1.4990627
8	0x3faa0af3	1.3284591
9	0x3fa7353c	1.3063121
10	0x3ff5b77f	1.9196624
11	0x3fb3611a	1.4014008
12	0x3fcf8e82	1.6215365
13	0x3fb16d0e	1.3861406
14	0x3fea8add	1.8323628
15	0x3fd69b3e	1.6766126
16	0x3fc2a3c9	1.5206233
17	0x3fc8421e	1.5645177
18	0x3fae317c	1.3608851
19	0xc00c97c3	-2.1967628
20	0x3fa088e3	1.2541775
21	0x3ff5b0cf	1.9194583
22	0xbfce78c3	-1.6130604
23	0x3fb28ede	1.394985
24	0x3fa4907c	1.2856593
25	0x3fc21c36	1.5164859
26	0x3ff93585	1.9469458
27	0xbfdaf283	-1.7105259
28	0x3fd1f6eb	1.6403478
29	0x3f087c0d	0.53314286
30	0x3fdae772	1.7101882
31	0x3fac8ea2	1.3481028
32	0x3f96125c	1.1724353
33	0x3ff2a6ef	1.8957194
34	0x3fd5a8e3	1.6692165
35	0x3fcae814	1.5852075
36	0x3fe0a189	1.7549297
37	0x3facbee6	1.3495758
38	0x3f9ecc92	1.240618
39	0x3fcd15ac	1.6022239
40	0x3f9bb5f9	1.2164909
41	0xbfc04493	-1.5020927
42	0x3f9da193	1.2314934
43	0x3fb9f2f7	1.4527272
44	0x3fa62f2c	1.2983146
45	0x3fc5a5d0	1.5441227
46	0x3ef30e0c	0.47471654
47	0x3fa27966	1.2693298
48	0x3f97ed7f	1.1869353
49	0x3f9ca60b	1.2238172
50	0xbfd4d312	-1.6626914
51	0xbfc4f433	-1.5387024
52	0x3fb37ca5	1.4022413
53	0x40051f40	2.0800323
54	0x4002b585	2.042329
55	0x3febd096	1.842303
56	0x3f8faa6c	1.1223884
57	0x3fc4d359	1.5376998
58	0x3fc2dea9	1.52242
59	0x3fd10e2e	1.6332452
60	0x3fcf976b	1.6218084
61	0x3f9bb1ad	1.2163597
62	0x3fc9cc7a	1.5765526
63	0x3fad01ce	1.3516176
64	0x3f8be5c0	1.0929489
65	0x3f888bb3	1.0667633
66	0x3fd33851	1.6501561
67	0x3f963a67	1.1736573
68	0x3fb182b9	1.3868018
69	0x3f8c47ce	1.0959413
70	0x3faef230	1.366766
71	0x3fc62013	1.5478538
72	0x3f598840	0.84973526
73	0x3faabb99	1.33385
74	0x3fe32011	1.7744161
75	0x3f8868a3	1.0656933
76	0x3fedcad1	1.857752
77	0x3fb798ca	1.4343503
78	0x3fc337a2	1.5251353
79	0x3fbe92bd	1.4888531
80	0x3f49f5c1	0.78890616
81	0x3fad7148	1.3550196
82	0x3fb8e0af	1.4443568
83	0x3f19c4bf	0.60065836
84	0x3eb8d338	0.36098647
85	0x3fecc076	1.8496234
86	0xbf1a2bc9	-0.6022306
87	0x3fb79b19	1.4344207
88	0x3fba80d5	1.4570566
89	0x3fdd05ad	1.7267357
90	0x3fde59d0	1.7371159
91	0x3f250e20	0.6447468
92	0x3fda23d2	1.7042181
93	0x3f608987	0.8770985
94	0x3ff95fc1	1.9482347
95	0x3f79cdc8	0.9757962
96	0x3faaf1d3	1.3355049
97	0x400692ee	2.1027179
98	0x3fd76111	1.6826497
99	0x3fbc14da	1.4693863
100	0x3fa73381	1.3062593
101	0x3fd734d1	1.6812993
102	0x3f7255fe	0.94662464
103	0x3fa02075	1.2509905
104	0x3f9b737d	1.2144619
105	0xbf39dd00	-0.72602844
106	0x3f84e676	1.0382831
107	0x3f84c02f	1.037115
108	0x3fbdd9a7	1.4832047
109	0x3f96195a	1.1726487
110	0xbed4233e	-0.41433138
111	0x3f944b7a	1.1585534
112	0x3faddbfd	1.358276
113	0x3f90eb48	1.1321802
114	0xbe934b97	-0.28768608
115	0x3f932adc	1.1497455
116	0x3fbdcb2e	1.482763
117	0x3fb6db58	1.4285688
118	0x3fda8e33	1.7074646
119	0x3fd287f2	1.6447737
120	0x3f8cd64b	1.1002897
121	0x3fb85c18	1.4403105
122	0x3fad8d02	1.3558657
123	0x3fc70b8a	1.5550396
124	0x3e56d5b5	0.2097996
125	0x3f90ad78	1.1302938
126	0x3fc921d7	1.5713452
127	0x3fa1d506	1.2643135
128	0x3f8fa2ec	1.1221595
129	0x3f99e86f	1.2024058
130	0x3f9de3fa	1.2335198
131	0x3fb3e391	1.4053823
132	0x3fcd84df	1.6056174
133	0x3f8ec8f2	1.1155074
134	0x3f89d3ed	1.07678
135	0x3dce12f6	0.1006221
136	0x3f94ee30	1.1635189
137	0x3f892169	1.0713321
138	0x400054e1	2.0051806
139	0x3fa43b92	1.283068
140	0x3fac5824	1.3464398
141	0x3fbb26ef	1.4621257
142	0x3fc7a8df	1.559841
143	0x3fcaeb94	1.5853143
144	0x3ef08631	0.4697738
145	0x3f9784e2	1.1837428
146	0x3fdc3301	1.7203065
147	0x3f08f3ae	0.53496826
148	0x3ebe22c4	0.371359
149	0x4003bb73	2.058316
150	0xbedbc785	-0.4292566
151	0x3f635b1e	0.8881091
152	0x3f9c969a	1.223346
153	0x3fe2e1e4	1.7725186
154	0x40024875	2.0356724
155	0x3f0f371a	0.55943453
156	0x3fff775d	1.9958302
157	0x3fba9c63	1.4578975
158	0x3fa51821	1.2897989
159	0x3fa27f69	1.2695132
160	0x3fe13650	1.75947
161	0x3fcdc1b0	1.6074734
162	0x3f6401b7	0.89065117
163	0x3fd0f838	1.632575
164	0x40007dbe	2.0076747
165	0x3f79706a	0.97437155
166	0x3f7b8fa3	0.9826605
167	0x3f88a335	1.0674807
168	0x3fa162ba	1.2608254
169	0xbf35b646	-0.7098125
170	0x3f93bc00	1.1541748
171	0x3f6507b1	0.8946486
172	0x3fada8c4	1.3567128
173	0x3fb27009	1.394044
174	0xbe461d09	-0.19347014
175	0x3f8cb91e	1.0993993
176	0x3fa20f8d	1.2660996
177	0x3f864902	1.049103
178	0x3ea46593	0.32108745
179	0x3f252a53	0.64517707
180	0x3fa0a862	1.2551386
181	0x3ffd6c53	1.9798683
182	0x3fc3b882	1.5290682
183	0x3ff31e4d	1.8993622
184	0x3f82536f	1.0181712
185	0x3fbd9d8d	1.4813706
186	0x3fe07aa8	1.7537432
187	0x3fdd14a2	1.7271922
188	0x3f96c951	1.1780187
189	0x3f80ef68	1.0073061
190	0x3fa61909	1.297639
191	0x3fa3b7f7	1.2790517
192	0x3f9b5fda	1.2138627
193	0x3f83005e	1.0234487
194	0x3fc8cf69	1.5688297
195	0x3faa0c28	1.328496
196	0x3f9408a2	1.1565135
197	0x3f7d2021	0.9887715
198	0x3fa042ff	1.2520446
199	0x3fab97fa	1.3405755
200	0x3faa08af	1.32839
201	0x3f8d19aa	1.1023457
202	0x3fcdc9ae	1.6077173
203	0x3f988cc0	1.1917953
204	0x3fbce3f6	1.4757068
205	0x3fa54df3	1.2914413
206	0x3fcee21f	1.6162757
207	0x3faf1014	1.3676782
208	0x3f8d1e83	1.1024936
209	0x3fa3a76f	1.2785472
210	0x3fb90be4	1.4456754
211	0x3ede0561	0.4336348
212	0x3f3754b5	0.7161363
213	0x3fc009be	1.5002973
214	0xbe89eaf2	-0.26937062
215	0x3f523c97	0.821237
216	0x3fade564	1.358563
217	0x3fbbed1a	1.4681733
218	0x3fc641fa	1.5488884
219	0xbd5995d2	-0.053121395
220	0x3fbee0ff	1.4912413
221	0x3f50b4ac	0.81525683
222	0x3fc008f7	1.5002736
223	0x3f76e374	0.96440816
224	0x3f8eeccf	1.1166018
225	0x3fb14b3d	1.3851086
226	0x3faf60a8	1.3701372
227	0x3fbfc020	1.4980507
228	0x3fbcbcdc	1.4745135
229	0x3f447364	0.7673857
230	0x3f9d9c2d	1.2313286
231	0x3ec876b2	0.39153057
232	0x3fb11b8d	1.3836533
233	0xbeaf2cce	-0.3421387
234	0x3f8e919c	1.1138186
235	0x3fa98c75	1.3245989
236	0x3fae4504	1.3614812
237	0x3f9eeded	1.2416359
238	0x3f5c3353	0.86015815
239	0x3f862b06	1.048188
240	0x3f9bee98	1.2182188
241	0x3f8d92e9	1.1060458
242	0x3f89f9e5	1.0779387
243	0x3d1f19e2	0.038843043
244	0x3fae6c5d	1.362682
245	0x3fca2ddf	1.5795249
246	0x3fe193e4	1.7623258
247	0x3fd2b8bc	1.6462626
248	0x3f8d963f	1.1061476
249	0x3fe95741	1.8229753
250	0x3fb35373	1.4009842
251	0x3fa53aa1	1.2908517
252	0x3f93a433	1.1534485
253	0x3f8c3e00	1.0956421
254	0x3fbd86f1	1.4806806
255	0x3f8bc988	1.0920877

2.bias f4 [7]
0	0x3fd2b77c	1.6462245
1	0x3fb3b817	1.4040555
2	0x3fa98e9a	1.3246644
3	0x3fb6e311	1.4288045
4	0x3fa8c60d	1.318544
5	0x3fa76f51	1.3080846
6	0x3fcbf96a	1.593549

0.weight f4 [64, 84]
0	0x3ebe2c88	0.3714335
1	0x3efe0452	0.4961267
2	0x3e51f8bb	0.2050504
3	0x3d68b21d	0.056810487
4	0xbe125744	-0.14291102
5	0x3df803dc	0.12110111
6	0x3da0cb14	0.07851234
7	0x3e791789	0.24325384
8	0xbe221c2c	-0.15831059
9	0x3ea79a50	0.3273492
10	0x3e3846ef	0.17995809
11	0xbd364399	-0.04449806
12	0x3e87cb6f	0.26522395
13	0x3dcd7979	0.10032935
14	0x3eb407f1	0.3516231
15	0x3e55c21c	0.20874828
16	0xbdd3d03b	-0.10342451
17	0x3e84105a	0.25793725
18	0x3eb92567	0.36161348
19	0xbe910f09	-0.28331783
20	0xbd70770c	-0.058707282
21	0x3b31e244	0.0027142921
22	0xbe366c30	-0.17814708
23	0x3eabbd2e	0.3354277
24	0xbe54759d	-0.20747991
25	0x3d0df047	0.034652974
26	0x3ea81e5b	0.3283566
27	0x3e889eff	0.26683804
28	0x3ebd354e	0.3695473
29	0x3edda559	0.43290213
30	0xbe813584	-0.25236142
31	0x3ea24d6e	0.316997
32	0x3dfcdfef	0.123473994
33	0xbc083053	-0.008312303
34	0xbd28e626	-0.04123511
35	0x3f0badb5	0.5456193
36	0x3e6b3df5	0.22972853
37	0x3d4b3ab6	0.049616538
38	0xbde1b04e	-0.110199556
39	0x3e7fd3dd	0.24983163
40	0x3e826164	0.25464928
41	0x3e660d7e	0.22466084
42	0x3d4a2d9d	0.049359906
43	0x3f4d57a9	0.80211884
44	0xbeb2b374	-0.34902537
45	0x3eedcb5e	0.4644422
46	0xbe90bc04	-0.28268445
47	0x3d30f479	0.043201897
48	0xbe76cb81	-0.24101068
49	0x3e0fd3a9	0.14045586
50	0xbe92208a	-0.2854045
51	0x3e6b1585	0.22957428
52	0x3db40dca	0.087916926
53	0xbadf04ca	-0.0017014977
54	0xbd80b2bf	-0.06284093
55	0x3cb1b44f	0.021692423
56	0x3e8927f4	0.26788294
57	0x3f8e7fbb	1.113273
58	0x3dca683f	0.098831646
59	0x3e82346f	0.2543063
60	0x3d21e9a4	0.039529458
61	0x3cdcfa91	0.026974948
62	0xbd953339	-0.072851606
63	0x3e385f2f	0.1800506
64	0xbd2f10bb	-0.042740565
65	0x3e8e42e0	0.27785397
66	0x3d9c94b1	0.07645548
67	0x3ca323ff	0.019914625
68	0xbd5f0cd3	-0.05445559
69	0x3dee08e8	0.116227925
70	0x3f213009	0.6296392
71	0x3f837818	1.0271025
72	0x3ee7a590	0.45243502
73	0x3f4cb711	0.7996684
74	0x3edd2ba1	0.4319735
75	0x3f02fe84	0.5116961
76	0x3e1f8457	0.15577827
77	0x3e540559	0.20705165
78	0x3ebd170f	0.36931655
79	0x3f69ef69	0.91380936
80	0x3e4aa379	0.19788922
81	0x3e92cd3e	0.28672212
82	0x3eaaa65f	0.33330056
83	0x3ee58cd1	0.44833997
84	0x3eeeeb26	0.4666378
85	0x3ed5b244	0.41737568
86	0x3d4d2373	0.050082635
87	0xbca8c5a2	-0.020602051
88	0xbdc93ddf	-0.09826254
89	0xbdede7b4	-0.116164595
90	0xbcaa646e	-0.020799842
91	0x3e857f12	0.2607351
92	0xbe2483d9	-0.16065921
93	0x3dd7488f	0.10511886
94	0x3d8a6387	0.067572646
95	0xbd02d366	-0.031939887
96	0x3e5241d3	0.20532922
97	0xbcca81b0	-0.024720043
98	0x3f065104	0.5246737
99	0x3e826668	0.25468755
100	0xbd6116b5	-0.054953296
101	0x3e2d7c5c	0.1694197
102	0x3f046944	0.5172312
103	0xbd9c8d4f	-0.0764414
104	0x3dfced6c	0.12349972
105	0xbd266d62	-0.04063166
106	0xbe600bbd	-0.21879478
107	0x3e93a40c	0.28836095
108	0x3d580c34	0.052746013
109	0x3e950823	0.2910777
110	0x3e492860	0.19644308
111	0x3de85165	0.1134365
112	0x3ec7800f	0.38964888
113	0x3efa171c	0.48845756
114	0xbe0c4771	-0.13699128
115	0x3eb42a83	0.35188684
116	0x3cd81832	0.026378725
117	0xbd063d3d	-0.032773245
118	0xbe2e4791	-0.17019488
119	0x3e7fcac6	0.24979696
120	0x3edfc4b0	0.43704748
121	0x3d809c18	0.062797725
122	0xbd079189	-0.033097778
123	0x3e1cd0d7	0.15314041
124	0x3d8c2a3c	0.06843993
125	0x3e11e344	0.14246851
126	0x3e7faba7	0.24967824
127	0x3f8b8826	1.0900924
128	0xbac4dee3	-0.0015020039
129	0x3e928153	0.28614292
130	0xbe2a0b4f	-0.16605876
131	0x3e0e3ed9	0.13891162
132	0xbdc6c0b2	-0.097047225
133	0xbc05758e	-0.008145703
134	0xbe332e79	-0.17498197
135	0x3eb59eb0	0.3547263
136	0xbd44c71c	-0.048041448
137	0xbc844bae	-0.016149368
138	0xbd9d257b	-0.076731645
139	0x3bf4a340	0.00746575
140	0x3eb3250e	0.34989208
141	0x3f9982d0	1.1993046
142	0x3e87f797	0.26556084
143	0x3e8c321d	0.27381983
144	0x3e16d9db	0.14731543
145	0xbdb51b25	-0.08843068
146	0xbe28773f	-0.16451739
147	0x3e43d883	0.19125561
148	0xbe60cda8	-0.21953452
149	0x3daf28ae	0.08552681
150	0xbc93c816	-0.018039744
151	0xbb2e382e	-0.0026583779
152	0xba1ed69e	-0.0006059202
153	0x3e805dee	0.25071663
154	0x3f1611f9	0.58621174
155	0x3f55ff03	0.8359224
156	0x3ef76a17	0.48323128
157	0x3f531e0f	0.8246774
158	0x3ee88aa8	0.45418286
159	0x3ec87ac1	0.39156154
160	0x3eafd552	0.34342438
161	0x3ea99a9e	0.33125776
162	0x3e91560e	0.28385967
163	0x3f1ad7b4	0.60485387
164	0x3ea0bcb7	0.31393978
165	0x3ef36f2d	0.47545758
166	0x3ee96720	0.4558649
167	0x3f0af9b8	0.5428729
168	0x3ec92f57	0.3929393
169	0xbd644a66	-0.055735014
170	0xbd4dd93b	-0.050255995
171	0xbe8a09f5	-0.26960722
172	0xbf12da08	-0.5736394
173	0xbec79a8c	-0.38985097
174	0xbe7a14f0	-0.2442205
175	0x3e60dec9	0.21959986
176	0xbe8c992e	-0.27460617
177	0x3e8bf9cd	0.2733902
178	0xbd0f3c60	-0.034969687
179	0xbea697e9	-0.32537773
180	0xbd6a4b23	-0.057200562
181	0xbe44ee05	-0.19231422
182	0x3e9d1eb7	0.30687496
183	0x3e8603d2	0.2617479
184	0xbe7fd805	-0.24984749
185	0x3e9311da	0.28724557
186	0xbe71ad45	-0.23601253
187	0xbf5ec8d7	-0.8702521
188	0xbdd26d2b	-0.102747284
189	0x3dd183b7	0.10230201
190	0xbd15022d	-0.036379028
191	0x3e32c568	0.17458117
192	0x3d751c66	0.059841536
193	0xbe2c9d26	-0.16856822
194	0x3e8c95a5	0.2745792
195	0xbd4d08b4	-0.050057128
196	0x3defd09e	0.117097124
197	0x3ede41bd	0.4340953
198	0xbe1806c1	-0.14846326
199	0xbc927638	-0.017878637
200	0xbede4237	-0.43409893
201	0xbee02997	-0.4378173
202	0x3d755fc5	0.059905786
203	0x3e9eec91	0.3103986
204	0x3e592596	0.21205744
205	0xbd758fff	-0.05995178
206	0xbe759055	-0.2398084
207	0xbc89a8d8	-0.016804144
208	0xbee969f8	-0.4558866
209	0x3ea31c58	0.31857562
210	0xbbafd693	-0.0053661554
211	0x3f50d2cf	0.8157167
212	0xbe392478	-0.18080318
213	0x3ad36a6d	0.001612974
214	0xbf5e63d3	-0.8687107
215	0xbd2a3fb3	-0.041564655
216	0xbdb418d7	-0.087938
217	0xbe9461b2	-0.28980786
218	0xbee27130	-0.4422698
219	0xbb5c4bba	-0.0033614472
220	0xbe547fbf	-0.20751856
221	0x3c9de5bd	0.019274587
222	0xbe237dba	-0.1596593
223	0xbe2a3e8d	-0.16625424
224	0xbe94030c	-0.28908575
225	0x3f36964b	0.7132308
226	0x3deb60e4	0.1149309
227	0xbe9b3af6	-0.3031842
228	0xbe5b5339	-0.21418466
229	0x3ec15c4e	0.37765735
230	0xbf04973a	-0.51793253
231	0xbdb5c4ea	-0.08875449
232	0x3d33ec7d	0.043926705
233	0x3ebc4577	0.36771747
234	0x3d3400e0	0.043946147
235	0xbd37efdf	-0.044906493
236	0xbef03f9b	-0.46923527
237	0xbd7259e4	-0.059167758
238	0x3d9670df	0.07345747
239	0x3ef09619	0.46989515
240	0x3e81cfb6	0.25353783
241	0x3e9568b0	0.29181433
242	0x3ecf3dd6	0.40476865
243	0x3e92d182	0.28675467
244	0xbd0bd926	-0.034142636
245	0xbd0efd99	-0.03490982
246	0x3f00d04f	0.50317854
247	0x3f192fbb	0.59838456
248	0x3e20b071	0.15692307
249	0xbe62b8cd	-0.22140808
250	0x3e180966	0.14847335
251	0x3e2d5e21	0.16930439
252	0x3e9a7387	0.30166265
253	0x3f0df15f	0.5544643
254	0xbd15c6d0	-0.036566556
255	0xbe41ce0c	-0.18926257

0.bias f4 [64]
0	0x40359b2d	2.8375962
1	0x40392856	2.893087
2	0x401efd46	2.4842086
3	0x402494f9	2.5715926
4	0x402181bf	2.523544
5	0x40044d42	2.0672154
6	0x40071a90	2.1109962
7	0x3fbafb9b	1.4608034
8	0x40256993	2.5845687
9	0x401ddaec	2.466487
10	0x40233f94	2.5507555
11	0x403483c5	2.8205426
12	0x401716d3	2.360768
13	0x40342792	2.8149152
14	0x4029aabd	2.651046
15	0x402bc3d4	2.6838274
16	0x3fbcf056	1.4760845
17	0x402f1f7a	2.7362962
18	0x402aec53	2.670674
19	0xbdb30dbc	-0.08742854
20	0x3fc887be	1.5666425
21	0x402eca84	2.7311106
22	0xbec62d3e	-0.38706392
23	0x400fa377	2.244352
24	0x40292234	2.6427126
25	0x4020c05e	2.5117412
26	0x40378b73	2.8678863
27	0x3af6b956	0.0018823545
28	0x40202c9b	2.5027225
29	0x3ffada38	1.9597845
30	0x4007aaeb	2.119807
31	0x4032cbba	2.7936845
32	0x402befc1	2.6865084
33	0x40174d3e	2.3640895
34	0x4012a4ab	2.2913005
35	0x4031d2b9	2.7784865
36	0x401befe2	2.4365163
37	0x400377e4	2.0541925
38	0x4024da70	2.5758324
39	0x3fce0a64	1.6096921
40	0x3fcecc94	1.6156182
41	0xbf1d8b4c	-0.61540675
42	0x4035439b	2.8322513
43	0x40197c92	2.3982282
44	0x40253eaf	2.581951
45	0x40344409	2.8166525
46	0x3f4d77f3	0.80261153
47	0x403a466d	2.9105484
48	0x40248285	2.5704663
49	0x403240a4	2.7851954
50	0x3993f047	0.00028217045
51	0x391a3d61	0.0001470945
52	0x4024e455	2.5764363
53	0x40268c7b	2.6023242
54	0x40239656	2.5560508
55	0x40330a79	2.7975142
56	0x403ca693	2.947667
57	0x402ab0c0	2.667038
58	0x40357139	2.8350356
59	0x4026b8a4	2.6050196
60	0x3fbc84b3	1.4727997
61	0x403a906a	2.9150643
62	0x40228039	2.539076
63	0x4017a0f7	2.3691995

2.weight f4 [7, 64]
0	0x3f8a00bb	1.0781473
1	0x3fa39da3	1.2782482
2	0x3fef8b9f	1.8714484
3	0x3fab9d3b	1.3407358
4	0x3f9b973c	1.2155528
5	0x3fdfaf4d	1.7475373
6	0x3fba3619	1.4547759
7	0x3fbab79d	1.4587284
8	0x3fa5bdcf	1.294855
9	0x3fa310b7	1.2739476
10	0x3ff0a11d	1.8799168
11	0x3faf3b17	1.3689908
12	0x3fcafd85	1.5858618
13	0x3fad57b7	1.3542393
14	0x3fe5d760	1.7956352
15	0x3fd21cac	1.6415
16	0x3fbdbdbe	1.482353
17	0x3fc3f210	1.5308247
18	0x3fa9d9c4	1.3269582
19	0xc009d460	-2.1535873
20	0x3f9bc601	1.2169801
21	0x3ff0d5ba	1.8815224
22	0xbfc96ca5	-1.5736281
23	0x3fae30ae	1.3608606
24	0x3fa06a51	1.2532445
25	0x3fbd238c	1.4776473
26	0x3ff41235	1.9068056
27	0xbfd5ca4e	-1.6702363
28	0x3fcd5e21	1.6044351
29	0x3f023207	0.50857586
30	0x3fd6335e	1.6734426
31	0x3fa87190	1.3159657
32	0x3f91d2c3	1.1392444
33	0x3fedab1e	1.8567846
34	0x3fd0dc39	1.6317207
35	0x3fc64275	1.5489031
36	0x3fdbd303	1.7173771
37	0x3fa81801	1.3132325
38	0x3f9aa94b	1.2082914
39	0x3fc7ebbb	1.5618814
40	0x3f978395	1.1837031
41	0xbfbb9fdf	-1.4658164
42	0x3f999ae2	1.2000391
43	0x3fb5ac6e	1.4193246
44	0x3fa1d63d	1.2643505
45	0x3fc16a10	1.5110493
46	0x3ee97973	0.4560047
47	0x3f9e96c6	1.2389762
48	0x3f93eb57	1.1556195
49	0x3f98c304	1.1934514
50	0xbfcfb010	-1.6225605
51	0xbfbf161f	-1.4928626
52	0x3faf3fbf	1.3691329
53	0x4002909b	2.040076
54	0x40001d20	2.0017776
55	0x3fe6bde9	1.8026706
56	0x3f8be1f1	1.0928327
57	0x3fc083df	1.5040244
58	0x3fbe8972	1.4885695
59	0x3fcc9ab4	1.5984712
60	0x3fcad97e	1.5847623
61	0x3f97bf81	1.1855317
62	0x3fc55de5	1.5419279
63	0x3fa8cb00	1.3186951
64	0x3f887750	1.0661411
65	0x3f853bac	1.0408835
66	0x3fcf081d	1.6174351
67	0x3f929210	1.1450825
68	0x3fad968f	1.3561572
69	0x3f8871d2	1.0659735
70	0x3faacd28	1.3343859
71	0x3fc191d4	1.5122628
72	0x3f52c05d	0.82324773
73	0x3fa7111e	1.3052099
74	0x3fde8c41	1.7386552
75	0x3f84f923	1.038853
76	0x3fe98168	1.8242617
77	0x3fb3e49b	1.405414
78	0x3fbf0363	1.4922909
79	0x3fbac826	1.459233
80	0x3f43510e	0.76295555
81	0x3fa9dfc0	1.3271408
82	0x3fb5299a	1.4153321
83	0x3f141933	0.5785095
84	0x3ea9c362	0.33156878
85	0x3fe84742	1.8146746
86	0xbf195115	-0.59889346
87	0x3fb3b2ac	1.4038901
88	0x3fb68e55	1.4262186
89	0x3fd8731e	1.6910131
90	0x3fd9baa3	1.7010082
91	0x3f209db9	0.62740666
92	0x3fd5abb6	1.6693027
93	0x3f59adae	0.8503064
94	0x3ff4c25f	1.9121817
95	0x3f72fd70	0.94917965
96	0x3fa7185e	1.3054311
97	0x40043495	2.0657094
98	0x3fd303ed	1.6485573
99	0x3fb8034d	1.4376007
100	0x3fa32590	1.2745838
101	0x3fd305c0	1.648613
102	0x3f6ba074	0.9204171
103	0x3f9c04ca	1.2188962
104	0x3f979f94	1.1845574
105	0xbf36793d	-0.71278745
106	0x3f8185ba	1.0118935
107	0x3f812995	1.0090815
108	0x3fba0954	1.4534097
109	0x3f928b59	1.1448776
110	0xbed90e0e	-0.42393535
111	0x3f90e7fa	1.1320794
112	0x3faa1e25	1.3290449
113	0x3f8d84bb	1.1056131
114	0xbe97a4c4	-0.29617894
115	0x3f8f87d9	1.1213332
116	0x3fb9d568	1.4518251
117	0x3fb26422	1.3936808
118	0x3fd63cf0	1.6737347
119	0x3fce1471	1.6099988
120	0x3f898121	1.0742532
121	0x3fb49c28	1.4110155
122	0x3fa9c48b	1.3263105
123	0x3fc30214	1.5235009
124	0x3e3d59a7	0.18491231
125	0x3f8d5d2c	1.1044059
126	0x3fc54855	1.5412699
127	0x3f9e2db6	1.23577
128	0x3f8b56f5	1.0885912
129	0x3f95a4a8	1.1690874
130	0x3f9921c9	1.1963435
131	0x3faf5ba5	1.3699843
132	0x3fc8d480	1.568985
133	0x3f8a04dc	1.0782733
134	0x3f852fea	1.0405247
135	0x3d876bad	0.066123344
136	0x3f908fa1	1.1293832
137	0x3f84c3a0	1.03722
138	0x3ffba14e	1.9658601
139	0x3f9fe756	1.2492473
140	0x3fa793e8	1.3092012
141	0x3fb6a434	1.4268861
142	0x3fc2db92	1.5223258
143	0x3fc64d04	1.5492253
144	0x3edf2723	0.43584546
145	0x3f9326f6	1.1496265
146	0x3fd797a9	1.6843158
147	0x3f02e38a	0.5112845
148	0x3eabe57c	0.3357352
149	0x4001429f	2.0196912
150	0xbee05166	-0.43812102
151	0x3f5a7598	0.85335684
152	0x3f981fe4	1.1884732
153	0x3fddefd7	1.7338818
154	0x3fff9df9	1.9970084
155	0x3f0b30e0	0.5437145
156	0x3ffa99d4	1.9578195
157	0x3fb626a6	1.4230545
158	0x3fa027fa	1.25122
159	0x3f9e2b88	1.2357035
160	0x3fdc8bdd	1.7230183
161	0x3fc8e1b0	1.5693874
162	0x3f5a9beb	0.8539416
163	0x3fcc3f12	1.5956748
164	0x3ffc2454	1.9698586
165	0x3f7011f6	0.93777406
166	0x3f731319	0.94951016
167	0x3f83f305	1.0308539
168	0x3f9caed2	1.2240851
169	0xbf36326c	-0.7117069
170	0x3f8f72dc	1.1206927
171	0x3f5c4375	0.8604043
172	0x3fa90998	1.3206053
173	0x3fae0283	1.3594517
174	0xbe603b76	-0.21897683
175	0x3f887cd8	1.0663099
176	0x3f9da6c7	1.2316521
177	0x3f820172	1.0156691
178	0x3e9c5426	0.3053295
179	0x3f1fdd4b	0.6244704
180	0x3f9c13ef	1.2193583
181	0x3ff890ac	1.941915
182	0x3fbeeec1	1.4916612
183	0x3fee3362	1.8609431
184	0x3f7c4ee2	0.98557866
185	0x3fb90971	1.4456006
186	0x3fdbce78	1.7172384
187	0x3fd87046	1.6909263
188	0x3f91be46	1.1386192
189	0x3f7984d7	0.9746832
190	0x3fa19bc4	1.2625661
191	0x3f9f4163	1.244183
192	0x3f97c547	1.1857079
193	0x3f7eecc3	0.9958002
194	0x3fc4d845	1.53785
195	0x3fa63228	1.2984056
196	0x3f90335f	1.1265677
197	0x3f758f7b	0.9592206
198	0x3f9c43f5	1.2208239
199	0x3fa735b9	1.306327
200	0x3fa65392	1.2994254
201	0x3f896d98	1.073657
202	0x3fc99c70	1.5750866
203	0x3f94ed9d	1.1635014
204	0x3fb8c5f6	1.4435413
205	0x3fa19841	1.2624589
206	0x3fcad831	1.5847226
207	0x3fab4a73	1.3382095
208	0x3f897395	1.0738398
209	0x3f9ff9fe	1.2498167
210	0x3fb534e7	1.415677
211	0x3ed296d6	0.41130704
212	0x3f2f6bba	0.6852375
213	0x3fbbede3	1.4681972
214	0xbe8e32e8	-0.27773213
215	0x3f4aac54	0.791692
216	0x3faa0323	1.3282207
217	0x3fb7af4b	1.435037
218	0x3fc2149c	1.516254
219	0xbd8cb9c1	-0.06871367
220	0x3fbaccbc	1.459373
221	0x3f49883a	0.7872349
222	0x3fbbc385	1.4669043
223	0x3f6fc1a9	0.93654877
224	0x3f8b1cc7	1.0868157
225	0x3fad332d	1.3531243
226	0x3fab3b89	1.3377544
227	0x3fbbb324	1.4664044
228	0x3fb8d66e	1.4440439
229	0x3f3ca954	0.73695874
230	0x3f99f5bf	1.2028121
231	0x3eb9e829	0.36309937
232	0x3fad130d	1.3521439
233	0xbeb03c93	-0.34421214
234	0x3f8afad8	1.0857801
235	0x3fa5af3d	1.2944103
236	0x3faa62fa	1.3311455
237	0x3f9b4ae0	1.2132225
238	0x3f55cc20	0.83514595
239	0x3f829a90	1.0203419
240	0x3f982ddd	1.1888996
241	0x3f89facb	1.0779661
242	0x3f86c8fc	1.0530086
243	0x3c997163	0.018730825
244	0x3faa9ec7	1.3329705
245	0x3fc60d2b	1.5472769
246	0x3fdd969d	1.7311589
247	0x3fce8d82	1.6136935
248	0x3f8a1110	1.0786457
249	0x3fe577f3	1.7927231
250	0x3faf8356	1.3711956
251	0x3fa1598d	1.2605454
252	0x3f8fd0c8	1.123559
253	0x3f88bc45	1.0682455
254	0x3fb9b86b	1.4509405
255	0x3f880732	1.0627196

2.bias f4 [7]
0	0x3fcdb27b	1.6070093
1	0x3fafaa74	1.3723893
2	0x3fa4dd61	1.288006
3	0x3fb30e3d	1.398872
4	0x3fa522d9	1.290126
5	0x3fa3e40e	1.2803972
6	0x3fc84acd	1.5647827
