saved_models/PPO/using_uniform_for_matchmaking/model6.pth (torch, 48436 bytes, 7 tensors)

0.weight f4 [64, 84]
00000000: 22cf 54bc 4e18 083e 303b 503e 5c3a bc3e
00000010: be74 be3d ef09 39be 6286 61bc d189 f03d
00000020: 82ea 40bc 2d82 663d e388 e0bb 4e99 4bbd
00000030: a546 943d 9e6a 96be 2146 98bc 4a66 05be
00000040: 673e 063c 679c 4dbc ce80 49bd dc3c 2f3e
00000050: 9887 bebc 451a c83d 2ba9 62be fdac 793e
00000060: b727 cebe 5ccb 53be 5ca4 18be 00d2 3bbe
00000070: a5bb e23c d7e8 213e 1f58 26be 3fc1 f63d
00000080: 0de7 913c 2b75 6cbd 4d2d 3ebe 5549 c3bc
00000090: 3658 bb3d f2ae a4bd 9a37 a73e 00c6 ea3d
000000a0: f994 f73c b764 b4bc ff37 18bd fec1 4dbe
000000b0: 1402 3c3e 96b1 783e 0059 633e ea8f 8d3d
000000c0: 8bb3 d03e b1d4 ca3c c899 a9bd 9959 a5bd
000000d0: 9c8e d8bd 60c4 e3bd c2dc a63d 28bf 5abd
000000e0: 3961 403c d91e 01be 5aeb fa3d 1050 4b3e
000000f0: e07b 38be 435e 9cbe a129 07be 0be7 513d
00000100: e80f c1bd 9aed 1b3e dd1d 723e 5167 8d3a
00000110: 1a73 d43c 7cc2 563c c3b7 06bc cbb7 71be
00000120: 8311 0b3f eaee bb3c 28d3 483e 56a1 27bb
00000130: c3d6 fdbd b6df 1d3d f592 0f3e 8064 bd3d
00000140: 1c96 dc3a 3e3e c03c 8b95 f13c 987a 63be
00000150: 1139 683e 7901 89bb 8e22 0bbd 4ca7 3cbd
00000160: 53db 10be d2a4 1f3d b26d 4a3e a490 5ebe
00000170: 3f72 b43d dbb2 413e 318d 44be 302b 883e
00000180: 3abf 193e 42fa 803e 2bd2 2cbe 8a51 9ebe
00000190: 2776 be3b 0ada 0bbd 0390 55be a0fb 75bb
000001a0: 45fe 3abe 704b 9c3e e39b b8bd 51ef da3d
000001b0: ba4f b63d 070b 59b9 a86a d3bd bf3e 20be
000001c0: 1848 40be 57f7 b03e 2481 60bd 6c45 883e
000001d0: ae9e 833e a845 1e3d 82e8 acbd 7c9d f13c
000001e0: 9fde 9d3e f0c8 af3e 4345 53be b43a 69be
000001f0: 9f6e 84bd d323 87bd 76e0 4dbe 1fff 943c
00000200: 5bbc 723d c1b6 3d3e fc7c 8a3d ff68 65bc
00000210: fc1a c5bc 72d3 89bc db41 bcbd ec31 38bd
00000220: 132f 94be 7606 4c3c 86be 463d a010 7c3c
00000230: d253 8ebe d2ae a53e 02d8 123d 3926 843c
00000240: fd35 12bd 7f02 02be 2ba7 9a3c 3af4 5ebe
00000250: 479c 6bbe fea4 c3bc 2cbd 333e 7eb6 52bd
00000260: 7fa4 363e 655c 1a3e b4ef 163e d9ef e6bd
00000270: b903 acbe f869 433e 4476 19bc eb91 60be
00000280: d431 47be 911f dabd f5af 9f3e 6045 913d
00000290: 9b20 883e 8722 0bbe beca 313c eaea f4bd
000002a0: 0dda 853d 4304 583e 7cc7 c8bd fbcb b4bd
000002b0: fdd5 51be b062 dfbd b878 7f3e a99b 813e
000002c0: 578b 92be 64f5 773e 674b a2be 0c9a 953d
000002d0: 96dc 34be 8de1 7b3d b966 a93e 3ced 50bd
000002e0: 257d d23d 876b 853e 9c59 abbe 03ea ac3d
000002f0: dc18 dcbd 9b03 563e ec44 c73d 4d7d 1dbd
00000300: df64 2a3e 2b7d 1e3e 48ed 57bd 4b80 153e
00000310: 5f7a fcbc 9391 8bbe 77fb 3e3e 586f 5abe
00000320: 0696 dfbd c5a3 793e 53ec 933e b180 23bd
00000330: b5ab 003d ed7a f13c 9bfc 5f3d 4fc1 dd3d
00000340: bab8 a83e ace9 4cbd c687 49bd 54fd 12be
00000350: 10b4 94bd fc56 9f3c 58ec e33e 89cc a0bd
00000360: fc39 193d aadf e8bd 176a d1bd a0af 3f3d
00000370: 84da 92bd 2101 97bd cbfb 8dbe 0104 7a3e
00000380: 6378 0d3e 5507 5abe 501b 60be b02d 553d
00000390: b026 40bc e6c0 833d 969e 803c 97d9 903e
000003a0: 3169 3e3e 779f 383e 58b6 36be cbd9 e33d
000003b0: 618c 1ebd b5a2 85be 41f2 b73d 40b0 ac3d
000003c0: ebf6 643d 2d5b a4bd 7bca 253e c013 c0bc
000003d0: 44d5 0f3e 1b67 5abd 95e3 8b3e 3937 9cbe
000003e0: 642c 373e 7f9e 8dbe 5ae8 193e 13ca f8bd
000003f0: ae24 cf3c 2f3d 303d 01ba 75be f74c 7bbe
-0.012988837 0.13290522 0.20335078 0.36763275 0.092996106 -0.18070196 -0.0137649495 0.117450364
-0.011774661 0.05627649 -0.0068522557 -0.04970675 0.07240037 -0.29378217 -0.018588128 -0.13027301
0.008193589 -0.012549496 -0.049195103 0.1711306 -0.023258016 0.097706355 -0.22134845 0.24382396
-0.40264675 -0.20683044 -0.14906448 -0.18341827 0.027677367 0.15811478 -0.16244553 0.120485775
0.017810369 -0.057728928 -0.18571968 -0.023838678 0.09147684 -0.08041181 0.32659608 0.11463547
0.030222403 -0.02202068 -0.037162777 -0.20093533 0.18360168 0.24286494 0.2220192 0.06912215
0.4076198 0.024759622 -0.082812846 -0.0807373 -0.105740756 -0.1112144 0.08147575 -0.053404957
0.01174193 -0.12609424 0.12251921 0.1985476 -0.18016005 -0.30540666 -0.13199474 0.05124573
-0.09426862 0.15227357 0.23644204 0.0010788237 0.025933791 0.013107892 -0.008222523 -0.23605268
0.54323596 0.022941072 0.196118 -0.0025578341 -0.12394478 0.038543426 0.14020903 0.092476845
0.0016829404 0.02346718 0.029490253 -0.22214735 0.22678019 -0.0041810838 -0.0339685 -0.046057984
-0.14146166 0.038975544 0.19768408 -0.21734864 0.08810853 0.18915884 -0.19194485 0.2659545
0.15014353 0.25190932 -0.16877048 -0.30921584 0.0058124247 -0.034143485 -0.20855717 -0.0037534013
-0.18261059 0.30526304 -0.09014108 0.10690177 0.089019254 -0.0002069884 -0.103230774 -0.15648936
-0.18777502 0.34563705 -0.054810658 0.26615465 0.25707 0.038640648 -0.08442785 0.02949404
0.3083391 0.3433299 -0.2063189 -0.227763 -0.06466412 -0.0659863 -0.20105156 0.018188057
0.05926166 0.18526746 0.0676212 -0.014002084 -0.024060719 -0.016824458 -0.091922484 -0.044969484
-0.28942165 0.012452712 0.04852154 0.015384823 -0.27798325 0.3235994 0.035850532 0.016131507
-0.03569602 -0.12696265 0.01887854 -0.21772853 -0.23008834 -0.023882385 0.17552632 -0.05144357
0.17836188 0.15074308 0.14739877 -0.11276216 -0.3359659 0.19083393 -0.009366576 -0.21930663
-0.19452602 -0.10650552 0.31188932 0.0709331 0.26587376 -0.1358739 0.01085156 -0.11958869
0.065357305 0.21095376 -0.098036736 -0.08827969 -0.20491786 -0.10907495 0.24948394 0.25314072
-0.28621933 0.24214703 -0.31698152 0.07304773 -0.17662272 0.0614944 0.33086184 -0.051007494
0.10277776 0.260586 -0.33466804 0.08443072 -0.10746929 0.20899813 0.09729943 -0.038449574
0.16640042 0.15477435 -0.052716523 0.14599721 -0.03082007 -0.27259502 0.18650614 -0.21331537
-0.109172866 0.2437888 0.2889124 -0.03991765 0.031413753 0.02947756 0.054684263 0.10827886
0.32953435 -0.050027534 -0.04920175 -0.1435445 -0.07260907 0.019450657 0.44516253 -0.07851512
0.037408814 -0.113707855 -0.10225313 0.04679835 -0.07170585 -0.07373262 -0.27731165 0.2441559
0.13815455 -0.2129186 -0.21885419 0.052045524 -0.011727974 0.06433277 0.01570062 0.28291008
0.18594815 0.18029581 -0.17842996 0.11125525 -0.038708095 -0.26100698 0.08981753 0.084320545
0.05589954 -0.08025203 0.16190521 -0.023446918 0.14046198 -0.053320985 0.2732207 -0.30510882
0.17888027 -0.27659985 0.15030041 -0.121479176 0.025286045 0.0430271 -0.23996736 -0.24541079

0.bias f4 [64]
00000000: 2c44 923d 427b 9e3c de87 cb3c 2f24 cabc
00000010: 713d 9a3c b1d7 9cbd 15a8 0dba f0a4 ec3d
00000020: b9be 373e ec40 c7bb a92d 593c 5b11 39bc
00000030: dd4d 523b ca4c ab3c 4906 d73d 9abd 303e
00000040: 1d52 52bd 098c 5f3d cd06 553d 60c0 9dbd
00000050: 62aa adbd c35d 033d d345 91bd 01e7 d63d
00000060: bdc9 eb3d 3bf8 2fbd f136 0e3e fe37 ec3c
00000070: 5728 553d ba67 8c3d 481c febc 4c91 5f3d
00000080: a717 a83d 0fbf 4f3c 6c6f 80bd 1036 83bc
00000090: ac21 123b 507e d6bb 27e0 833d e929 be3c
000000a0: 1421 0d3d 7817 4bbc 7780 02bd caf3 71bc
000000b0: 3005 db3d 15d7 7bbb b923 8bbd 76d3 863c
000000c0: 71ec 083d cf3a 87bb b710 743d 0d6c b13c
000000d0: 3358 aabb cb37 0a3d 8d2c c73b 3c4a 203c
000000e0: 734c 7abc 7908 0b3c 4966 c73d cffe d5ba
000000f0: b6f7 9c3b e004 d73b e5ef e6bc 3b9c b3bc
0.07141909 0.019345883 0.02484506 -0.024675457 0.018828126 -0.07658327 -0.00054037693 0.11554897
0.17943849 -0.0060807373 0.013255515 -0.011295642 0.0032089867 0.02091064 0.10499246 0.17259827
-0.05134784 0.054576907 0.05200844 -0.07702708 -0.084797636 0.03207184 -0.07093396 0.10493279
0.11513088 -0.04296134 0.13888146 0.028835293 0.052040424 0.06855722 -0.031019345 0.054581925
0.08207636 0.012679829 -0.06271252 -0.01601699 0.0022297902 -0.0065458193 0.06439238 0.023213344
0.034455374 -0.012395732 -0.031860795 -0.0147675965 0.10694349 -0.003842776 -0.06793923 0.016458254
0.033428613 -0.0041268836 0.059586253 0.021657968 -0.0051985024 0.033744615 0.006078309 0.009783324
-0.015277016 0.008485907 0.09736306 -0.0016326549 0.0047902716 0.0065618604 -0.028190563 -0.021925082

2.weight f4 [7, 64]
00000000: 093f 053d 3b2f 11bd e3dd cdbd f7f9 e93e
00000010: d176 ddbd e34b 3e3d 390b 4e3e 3ef0 fabd
00000020: 534b 34be fdae 2f3e f549 0fbe 870e 923e
00000030: 95e9 09be 646f ff3d ce0a 9ebc 1f7e cabe
00000040: 3ee5 183d e2d9 853d 609c b93e 8ce1 37bd
00000050: 25d9 bf3d 33ab bb3e 6a7f 86be a835 e33c
00000060: 9427 173d 5c8a f2be ffa5 c0be a79f 6cbe
00000070: cd1e 84be 63a9 43bd 151a 783e 6f74 9b3e
00000080: 0cb0 f4be de2d 1d3e 8c2f d03c a756 a13e
00000090: 4556 373e 2960 4d3e dcae 2abf 7fa1 b03e
000000a0: 345f 6fbe eb7d 893e 4784 6e3e f4c1 51bc
000000b0: 846f 8fbd 400c 96bd 7b0b 203e e6a9 043f
000000c0: 8c2f eb3e 69ea 9d3e d86b 8e3d 243c f1bd
000000d0: 04ce 953d 34dd 51bd 3d6a 1cbe fc35 cbbe
000000e0: 25bc 43be 2b33 f6bd 3944 58be bbdf 993d
000000f0: 3e8c 5dbe f82c 84bd 16fd 2ebe a31b 953e
00000100: c433 17be d16f 2cbe 8bf0 dfbd b761 7bbe
00000110: b646 f83d 4711 c13c 9e4b 93bd 8b4f 773e
00000120: 6ccc f3be 062f 1e3e 116c aebe fe42 96be
00000130: 016d 083d e691 d4bc ba94 15bd e56b c93e
00000140: 516d fc3c 3948 6e3d 6f72 77be fbae 2fbe
00000150: f76d 69be 2048 413d 4a27 aa3e 632f 073e
00000160: c838 e1bd 9a7e 763d 479d a23e 43af 30be
00000170: 6c12 56bd c0e4 253d 54a6 edbe 00a5 aebe
00000180: 5604 183d 7944 86bb 5c46 263d 1b7f 6c3d
00000190: 54cf b8bd abbe 813e d2f3 133e 0155 d83e
000001a0: a631 823d 1f45 b93d 1bab e5bd bb7f 573e
000001b0: 640e c83e 30f6 363e 872c 963e 4c72 233e
000001c0: 3d11 423e aa22 e73e 8d9e 88bd b917 67be
000001d0: 9fd8 e0be 45ce e3bd a03a 1a3e 1249 7fbe
000001e0: 34fe 44be c6a9 ffbd 9122 9ebe 5c13 8d3e
000001f0: ca0e 3abc 8c15 a33e 8377 8ebd a811 8c3e
00000200: 4a66 c43d 83fc abbe 235b 0d3e 9d6e 2a3e
00000210: 76e6 bfbd bc41 bcbc 238c 9cbd dee2 99bd
00000220: 5d49 dbbe 505c 453e c06a 9d3e 2ecd 4cbe
00000230: 171c 883e 4998 3ebe d66b 05be a1ce a0be
00000240: 21d0 bcbe 82c3 8c3e f233 95bc 9217 aebd
00000250: b380 b83e 32a7 cebe c07a bebe bd7c 66be
00000260: 756f 473e 8698 333e f7ad 51be fdf6 09bd
00000270: 1099 55bd e013 14be bb36 663e 3e50 993e
00000280: b968 253d fb8a 69be e108 9a3e e50b 5cbd
00000290: 2c83 373e e15b e2bd a63d 8d3e 681b be3e
000002a0: 26de 8a3d f930 8b3e 3291 bb3d 5e73 853c
000002b0: bcf0 b13c dc1d 1d3e 6fe3 89be ff9e a4be
000002c0: d63f 4dbe 66b5 bc3d 4ee9 8dbe f70c 673c
000002d0: bef4 cebe 30a5 8bbe 1471 333d 375c 813e
000002e0: aaac a73e 390b 0d3e e9a8 833d baa3 f9bd
000002f0: 1208 8d3c d74a d2bd 0975 ea3e 9a6f 143e
00000300: d284 153e 8a12 933d a47d 02bd b3fd e3bd
00000310: a655 45bb 4a2b 9bbe a091 cf3e b03a da3b
00000320: 84d7 0f3e 6649 81be 909a 883e 36cc 1d3b
00000330: 3b96 c33e c810 8cbe 73f4 9cbd 8b46 213e
00000340: a5d2 333e 6a7e 603e 536d 113c 9988 b2bd
00000350: 8393 4a3e 6384 1ebd d304 253e 537e 483e
00000360: 53b6 413e 741a 81be 5e1e 033e eea3 77be
00000370: fb2e 83be 2fe0 1f3e fd86 213d 910d 483d
00000380: d649 973d 87b1 993d ea46 c0be c5d3 0cbf
00000390: ce0a 5e3e 4f7c 003c ad67 57be 8721 8fbe
000003a0: ec61 5d3e 1ef8 1fbf 2b9c 863d f3c6 963e
000003b0: 8bac be3e 439a c5be 185a 06bc 841d 403e
000003c0: adad b83d 6926 1e3e 601f 6a3e bb05 443e
000003d0: 947f 85be c090 30be 90e1 abbd 1f37 d83d
000003e0: a194 95be 5724 1d3e 1a1e 2d3d c861 d4be
000003f0: 63fc 003d 7b0e ecbe e772 93be 44dc 523d
0.032530818 -0.035445433 -0.10052087 0.4569852 -0.10813678 0.04645909 0.20121469 -0.12252854
-0.17606859 0.17156596 -0.13993056 0.28526708 -0.1346801 0.12472418 -0.019292261 -0.39549348
0.037327997 0.065356985 0.36252117 -0.044892833 0.09367589 0.36654052 -0.26269084 0.027735546
0.03690298 -0.47371185 -0.37626645 -0.23107778 -0.2580475 -0.04776896 0.242287 0.3036227
-0.47790563 0.15349528 0.025413297 0.31511423 0.17904003 0.20056213 -0.66673064 0.34498212
-0.23376161 0.2685388 0.23292647 -0.01280259 -0.07003692 -0.07326555 0.1562938 0.51821744
0.45934713 0.30842903 0.06954163 -0.11779049 0.07314685 -0.051236346 -0.15274902 -0.39689624
-0.1911474 -0.12021478 -0.21119775 0.07513376 -0.2163553 -0.064538896 -0.17088732 0.29122648
-0.14765841 -0.1683953 -0.10934552 -0.24548994 0.12122862 0.023567809 -0.07192157 0.24151437
-0.476169 0.15447626 -0.34066823 -0.29347986 0.03330708 -0.025948476 -0.03651879 0.3934013
0.030813845 0.058174346 -0.24164747 -0.17156594 -0.22795855 0.047187924 0.332331 0.1320167
-0.10997158 0.06017933 0.31760618 -0.17254357 -0.052263662 0.040501356 -0.4641596 -0.3411026
0.03711351 -0.004097518 0.040594444 0.057738405 -0.0902392 0.2534078 0.14448479 0.42252353
0.06357126 0.09046387 -0.112142764 0.21044819 0.3907348 0.1786735 0.29330847 0.1596157
0.18951888 0.45143634 -0.06670866 -0.22567643 -0.4391527 -0.11123327 0.15061426 -0.24930218
-0.19237596 -0.124835536 -0.30885747 0.27553833 -0.011356065 0.31852376 -0.06956389 0.2735722
0.095898226 -0.3359109 0.13804297 0.16643758 -0.09370129 -0.022980563 -0.076439165 -0.075139746
-0.4282941 0.19273496 0.30745506 -0.20000145 0.2658393 -0.1861278 -0.13029417 -0.31407645
-0.3687754 0.2749291 -0.018213246 -0.085005894 0.3603569 -0.40361935 -0.37203026 -0.22508521
0.19476111 0.17538652 -0.20476519 -0.033682812 -0.052147925 -0.14460707 0.22481816 0.29944032
0.040383074 -0.22806923 0.300849 -0.05372228 0.17921132 -0.11052681 0.27586097 0.37130284
0.06780653 0.271858 0.09158553 0.016290363 0.021721236 0.15343422 -0.2693133 -0.32152554
-0.20043883 0.092142865 -0.2771706 0.014102212 -0.40421098 -0.27274466 0.04380901 0.25265667
0.3274892 0.13773812 0.064287014 -0.121894315 0.017215762 -0.10268181 0.45792416 0.14495698
0.14601448 0.071812704 -0.0318581 -0.11132374 -0.0030110865 -0.30306464 0.4054079 0.006659828
0.14047056 -0.2525131 0.26680422 0.0024078018 0.38200554 -0.27356553 -0.076638125 0.15749566
0.17560823 0.21923223 0.008876163 -0.0871746 0.19782834 -0.038700473 0.16115122 0.19579439
0.18917207 -0.25215495 0.12804553 -0.24183628 -0.2562178 0.15612863 0.039435375 0.048841063
0.0738713 0.07504564 -0.37554103 -0.55010635 0.21683809 0.0078421375 -0.21035643 -0.27955267
0.21619385 -0.6248797 0.065727554 0.2944866 0.37241015 -0.38594255 -0.008200191 0.1876126
0.09017501 0.1544434 0.22863531 0.19142811 -0.26073897 -0.17242718 -0.08392632 0.105573885
-0.29214957 0.15345894 0.042265035 -0.4148085 0.031490695 -0.46104798 -0.287986 0.051479593

2.bias f4 [7]
00000000: a4c0 99bc 44c3 5bbc e833 52bd 8281 b73c
00000010: ba02 723d f139 84bc db0b 613c
-0.018768616 -0.013413254 -0.051319033 0.022400621 0.05908463 -0.01614091 0.013735737

0.weight f4 [64, 84]
00000000: 992a 953e 50f9 123e 84e3 923d 4fe1 3d3d
00000010: de4d 3bba 50c3 6a3e ceb0 a9bd ed99 14bd
00000020: e7ad 133e 6295 aabd 5f99 213a b84f ed3d
00000030: 045b 063e 14e8 7c3d 2b33 50be 3da2 c33d
00000040: 7725 a93d 9821 473e 0cfc 84be 61f3 0cbe
00000050: 3059 9e3e 4fc8 593e 4f09 a43c 161d d93c
00000060: d08e 8ebe 3582 453d 0e4e d93d 4ba1 2a3e
00000070: 6978 fd3d 5dff 72be 2c8e 423d acf0 a73d
00000080: 7870 223d 8a0f c0bd 2fa4 043c 25ce 813d
00000090: 9136 97bc a6b6 903e 62e5 88bd a69a a33d
000000a0: 6203 95be ba7e e4bd 9554 28be aff8 94bc
000000b0: a608 73bd ea33 79be 35f3 0d3e 2a26 5cbd
000000c0: 55b1 1c3e b93c 1dbe 951e 803d 37d1 1cbe
000000d0: 7cf8 213d 43d9 80be d8ee 863e 73e9 cb3d
000000e0: d702 1d3c 41d8 db3d 9189 a8bd 09cf 523d
000000f0: c174 2dbd 1957 32be f6f1 773d 2344 de3d
00000100: 8e98 3b3e 4de2 8a3c 8a87 603e 736a eebc
00000110: 784c f4bd 896e ba3e 185b b73c 7d1c 343d
00000120: 1a91 273e c971 85bc b34b 853e a7d8 b53c
00000130: ad18 3ebe d8ab 7d3d 5553 8e3d d0a7 d8bc
00000140: 6c79 763b 97bd 983d f545 afbe f9ec 96be
00000150: 416d 533e 9222 17bd a1ba 6d3e dc73 653d
00000160: d74e 193e 7fce 99be 8bc4 523c f6ec ea3d
00000170: 0b6f a73e 72ed 483e c81e 96bc 393d 3c3e
00000180: eab6 d03a e7eb 3abc 3d57 0e3e 95b0 c83c
00000190: 6400 f53e ce54 35be 39a0 ba3d cb6a 1b3e
000001a0: 9c13 253e f506 80be c7c4 28bd b7d6 3bbc
000001b0: f9d5 263e 07f7 853e 7342 1cbe bc46 5ebe
000001c0: f583 8fbe 2a1c 733d 3bb7 71bd a3a7 81bc
000001d0: 751e 1fbd 7e95 14bc 9d5d 4f3d f7f7 8fbd
000001e0: 9fb2 793e 2ebe 4b3d 043c ae3d e54c 5b3e
000001f0: 6780 c6bc be59 ba3d 6261 09be 21da 60be
00000200: a3ce 3f3e 20cb 553e 4375 b83c a1c6 7abc
00000210: 5713 82bb 6801 8a3e 7ac9 313e 58ec a0bd
00000220: 4275 0dbe d6e0 a9bd 397d 973e cd99 533e
00000230: 7f0c 843d 99fa b43d c78e d5bc 7758 cebc
00000240: 40cc 3a3d fc8a ffbd 7edf 9dbd 74ab 613e
00000250: fefc 853d 14a6 95be 64f3 99bd 893a d9bd
00000260: 3058 fd3d 75e0 dd3d de1a 0a3e 7ced 563d
00000270: 5c89 073d dc6b c33d ddf5 8f3e 4cea 4e3d
00000280: 5991 b63d 6a01 8c3c 5498 22bd 0e3a 1ebe
00000290: 4bd5 f6ba 5818 083d f5ed 63bd 7643 9dbd
000002a0: 9abb 0d3e 96fe f9bd c1a9 523c 3641 8b3d
000002b0: 0207 0fbd dfda ebbc 3b09 363e b37d 59be
000002c0: 37e5 0a3e 8584 e5bd 431c a2bc 04f2 543d
000002d0: ef25 04bd 1f52 a53e 35ee e5bd 96be 11be
000002e0: 76c2 a0bd 1ca6 3bbd 1988 443e f86e 15bc
000002f0: 234f a63d e224 263d 17d0 a03d f59c 93bc
00000300: ee2d 5e3e f0eb 343d b40c 523e acf1 ae3d
00000310: 4186 353e fef8 1a3d 21e0 0abd a3b9 30bd
00000320: bcd0 2c3e 7e19 86be bd48 9ebe ad9e 843e
00000330: c644 16be 8743 26bc e108 24be f2a5 fe3d
00000340: b3b3 8abd c0bb 423e a6a6 8cbe e85e eebd
00000350: 1220 a43d f9b5 ef3d 214e 373e 4abd 343e
00000360: 0a01 70bd cfba ae3c 163d 0b3e bacf 533e
00000370: 71ce d4bd c314 b13d 20c7 bcbd 9010 bfbe
00000380: 57c6 60be bdb1 313c 0661 92bd b605 e93d
00000390: 5db5 41be 1c7c a1bd ed26 9bbd 38c6 683e
000003a0: a8c6 a03d 29a7 ba3e a071 183d 8259 943d
000003b0: e6d0 4e3e 7a7f 55bd 84ca e23d d1f7 ee3d
000003c0: 77c0 b13d d72d 7d3e 598b 69bb b82f c13b
000003d0: 64d5 823e 7ed8 c23d 284b bdbd 9c91 883d
000003e0: 1d23 733d edab d33c 0d8a e83d bbd5 4b3e
000003f0: dae8 913e 1f95 4b3d 8c4c d63b 6575 82be
0.29134062 0.14352918 0.071723014 0.04635745 -0.0007145087 0.22926068 -0.08285676 -0.036279608
0.14421807 -0.08329274 0.00061645167 0.11587471 0.13120657 0.061744764 -0.20332019 0.09552429
0.08259099 0.19446409 -0.25973547 -0.13764717 0.3092742 0.21267818 0.02002397 0.026503127
-0.27843332 0.04821988 0.10610591 0.16663091 0.12376482 -0.23730226 0.047498867 0.082002014
0.03965804 -0.09377964 0.008095785 0.06338147 -0.018458636 0.2826435 -0.06684376 0.07988481
-0.29104143 -0.11156984 -0.16438515 -0.018184988 -0.05933442 -0.2433621 0.13862307 -0.053747334
0.15302022 -0.15355195 0.06255833 -0.15314184 0.039543614 -0.25165758 0.26354098 0.09956636
0.009583197 0.107346065 -0.08229364 0.051466975 -0.042347673 -0.17416038 0.060533486 0.1085284
0.18319914 0.016953612 0.21926704 -0.029103493 -0.11928648 0.36412457 0.022382304 0.04397248
0.16363946 -0.016289609 0.26034316 0.022198034 -0.185641 0.06193146 0.06949488 -0.026447207
0.0037608994 0.074580364 -0.3423306 -0.2947767 0.20647146 -0.036898203 0.23215725 0.056018695
0.14971481 -0.30040357 0.012864242 0.11470978 0.32701907 0.19621828 -0.018325225 0.1838273
0.0015923653 -0.011408783 0.13900466 0.024498263 0.4785186 -0.17708132 0.09112591 0.15177457
0.16120762 -0.25005308 -0.041203286 -0.011464766 0.16292562 0.2616503 -0.15259723 -0.2170667
-0.28030363 0.05935303 -0.059012633 -0.015827006 -0.038847405 -0.009068845 0.050626386 -0.070297174
0.24384545 0.049741916 0.08507541 0.21416052 -0.024231149 0.09099148 -0.13416055 -0.2195821
0.1873117 0.20878267 0.022516852 -0.015306146 -0.0039695906 0.26954198 0.17362013 -0.07857579
-0.13814262 -0.08294837 0.29587725 0.20664139 0.06447696 0.0883686 -0.026069058 -0.025188668
0.045604944 -0.12477681 -0.077086434 0.2203806 0.06542395 -0.2922827 -0.07517126 -0.10606868
0.12370336 0.108338274 0.13486812 0.052472576 0.03308998 0.09542057 0.28117266 0.05051641
0.089144416 0.017090518 -0.039696053 -0.15451834 -0.0018831877 0.03322634 -0.055646855 -0.07678883
0.13841096 -0.122067615 0.012857855 0.067995474 -0.034918793 -0.02879089 0.17776959 -0.21239357
0.13564001 -0.11206917 -0.019788867 0.051988617 -0.03226274 0.32289216 -0.11227075 -0.14232859
-0.078495905 -0.04581271 0.19192542 -0.009120695 0.08120563 0.040562518 0.0785219 -0.018019179
0.21697208 0.04417032 0.20512658 0.08542189 0.17726995 0.037835114 -0.033905152 -0.043145787
0.16876501 -0.26191324 -0.3091487 0.2590231 -0.14674672 -0.010147936 -0.16019012 0.12433995
-0.06772556 0.19016933 -0.27470893 -0.11639196 0.080139294 0.117046304 0.17900898 0.17650333
-0.05859474 0.021329312 0.13597521 0.2068471 -0.10390938 0.08646538 -0.092176676 -0.37317324
-0.2195066 0.010845599 -0.07147412 0.113780424 -0.18916841 -0.07885 -0.07575784 0.22731864
0.07850391 0.36455658 0.037217736 0.07243635 0.20196876 -0.052123524 0.11073783 0.11668361
0.08679288 0.24724518 -0.0035636036 0.005895581 0.2555343 0.09513949 -0.092428505 0.06668398
0.05935966 0.025838817 0.11354456 0.1990575 0.28497964 0.04970276 0.006539887 -0.2548019

0.bias f4 [64]
00000000: b7cc a8bb dbf1 12bc 65d2 783d 17db 7a3c
00000010: 5408 97bc 3de6 fe3c 46b3 d4bd 040b a33d
00000020: 909a 28bd fab2 353d 7434 0abd 6fec cc3d
00000030: 3bcf b03c bfdb feba 1aa2 423d f028 e93c
00000040: 4981 e93c aabe c5bd 2f49 dbbc cf61 99bc
00000050: c56c 0f3d 6f36 3e3c 0a91 cb3c e5b2 003d
00000060: 8587 8f3d 480e 1abc 17c5 c13d 75fe 983d
00000070: 661b dd3c 0d19 153d 05bb 803d f83a a33d
00000080: 9021 183d bf9a a73d fdaf 463d 0fdb 873d
00000090: 1fa2 59bd 9ebe b0bc c2a1 953d 55d2 943d
000000a0: 78da dc3d 4d63 d6bd 8c82 36bd bc22 cdbc
000000b0: 6cc0 873d 08ec 563d d1b6 c93d 8fbf 603d
000000c0: 9044 f93d 427a da3d c70f fd3c 3eb1 2a3d
000000d0: ddbb 18bd 0fa7 56bd 1015 9f3b d971 0c3d
000000e0: 9895 aa3d 5b89 a5bb 875a 99bd 6870 953c
000000f0: 1c8f 253d 550d 0b3d ffb2 a33d 7470 53bc
-0.005151357 -0.008968796 0.060747523 0.015311024 -0.018436588 0.031115646 -0.10385756 0.079610854
-0.041163027 0.04436014 -0.03374143 0.10006034 0.02158319 -0.0019444152 0.047517873 0.028461903
0.02850403 -0.09655507 -0.026768295 -0.018723397 0.03501584 0.011609658 0.024849433 0.031420607
0.0700827 -0.009402819 0.0946142 0.07470409 0.026990604 0.036400843 0.06285671 0.07970232
0.037141383 0.08183812 0.04850768 0.06633579 -0.053133126 -0.021575268 0.073062435 0.0726668
0.10783857 -0.10468159 -0.044558093 -0.025040977 0.066284984 0.05247119 0.098493226 0.054870185
0.121712804 0.1066785 0.030891312 0.041672938 -0.037288535 -0.052405413 0.004854806 0.03428826
0.08329314 -0.0050517744 -0.0748797 0.018242076 0.040419683 0.03394826 0.07993125 -0.012905229

2.weight f4 [1, 64]
00000000: 965c 503b 0c1a 9d3c e589 8ebd 1b1e a7bb
00000010: 9b6c 57be 15b9 2f3d 24c5 043e e4bd 06bc
00000020: 718b b73b 2af3 1b39 dac4 003c 44dc 4abc
00000030: 36ff d73c 3dcb 75bd d551 55bb c415 da3d
00000040: 43bf b03d 0f6e 69be aa3a 733c 87af 6b3c
00000050: 7a39 71bc 36b6 d33d d127 0d3e 336c 14bc
00000060: b506 6fbc 6076 483c 2013 babd b203 bebd
00000070: 4aa2 da3c a463 e6bb ed74 4abb 4b16 94bc
00000080: 13b1 f1bb d2d0 42be 6593 3a39 a74c e8bb
00000090: 8581 823d 336b 093c 7242 08bd a8e2 ebbb
000000a0: d2ad 06bc 9bb2 2a3e c14a 1a3c db8d 5a3b
000000b0: 544b 6fbc c8b1 903d c0d9 6cbc 7625 8cbc
000000c0: 08be 75bc fc8d 6ebe 7e93 dfbc 61c4 54bc
000000d0: c1f1 d63b cd1f 8ebc d186 613d c63a 14bc
000000e0: 1fc1 d1bb dbd7 063c 857e 913c 2bce 9f3d
000000f0: ab1a 49bc 60b1 b33b 9916 04bd cca6 443c
0.0031793467 0.01917746 -0.06959895 -0.0051000244 -0.21037523 0.042901117 0.12965828 -0.008223984
0.0056013395 0.00014872538 0.007859433 -0.012381617 0.026366811 -0.060008276 -0.0032549996 0.10648683
0.0863023 -0.2279589 0.01484553 0.014385111 -0.014723176 0.10337488 0.1378472 -0.009059
-0.014589001 0.012235254 -0.09085679 -0.092780486 0.026688714 -0.007030921 -0.0030892447 -0.018077036
-0.007375845 -0.19024971 0.00017793251 -0.007089216 0.0637236 0.008387375 -0.033266492 -0.0071986504
-0.008220153 0.16669695 0.009417237 0.0033348713 -0.014605362 0.07065159 -0.0144562125 -0.017107707
-0.01499892 -0.2329635 -0.02729201 -0.0129862735 0.006559581 -0.017349148 0.05506021 -0.009047216
-0.0064011957 0.008230175 0.017760525 0.07802995 -0.012274425 0.005483791 -0.032248113 0.012002658
