saved_models/DQN/using_glicko_for_matchmaking/model14.pth (torch, 49984 bytes, 8 tensors)

0.weight f4 [64, 84]
00000000: c040 80bd ea3b b23e 8786 cebd 2567 bb3e
00000010: a444 e73d 0786 883e b592 213f b96a 1a3f
00000020: d84c d73d d1cd 5bbe b854 f23c b5e9 be3e
00000030: 18fd bc3d bb59 4e3f 62ca 9a3e e4d0 22be
00000040: 13f9 51be 2a19 c7bd 14c6 4fbe 0eaf fa3e
00000050: a6ec 353f 718d 103f 0609 f73d ad40 df3d
00000060: 6f43 ab3e a90f d73e aed4 3dbe 683a 8f3f
00000070: 205e 74bd 65b4 c23e a0d0 c2bc a425 85be
00000080: 6cac 7c3e e20c 2dbe 4b4d 103f fe0e 323f
00000090: c2c6 873d b92d e63e 7d45 3c3e 0c8b 1b3f
000000a0: 7c50 8b3e b24d e6bd d75a 833e 2322 073f
000000b0: 486a 68be dac8 a43e ab71 91bd f1a8 e3bc
000000c0: 8b53 fb3e 4004 133f efd6 3e3e 9985 0e3e
000000d0: 4482 893d 1d72 a13e a7f8 4b3d b112 b23f
000000e0: 0cf5 b63e e6d1 683f 8867 8d3e dd05 3d3e
000000f0: f065 15be da92 08be 9a69 193f 6e4b 303f
00000100: 71ff 863e 0016 8b3e c7e3 8b3e 9e78 423e
00000110: d1b2 5c3d 153b 453f 3bb8 9b3f ebba 763f
00000120: 01f0 fc3f 2be0 9e3f 5ccc 083f 6256 e33e
00000130: 8c89 463f 1eb6 093f 19f8 b9bd 818b 8e3f
00000140: ba1d 343f 7ce0 843f 59e0 403f c204 1040
00000150: 4c4d dfbd 33b5 73be 7959 57be eb59 383f
00000160: 93d0 07be 47b7 623e bc97 003f c98d c73d
00000170: a9a6 cebd 3602 7a3e 5f7b 023e 4a0a f53e
00000180: 48f4 46be 544a 513f 31ba 8abd 59a6 15be
00000190: 7e9d 093e 2c0c c23d a0b4 0fbe 7e18 473c
000001a0: 09f0 f43d 2768 093f 810a c83e f995 f2bc
000001b0: dd9f f63e 4da3 c53e 4304 463e 0dd0 5d3f
000001c0: 1f7b 8abc 4b8f 74bd 5014 33be e32f 18bd
000001d0: 8ef5 87bd 208e 3abe 890e 0d3f c1a9 9c3e
000001e0: c78a 5cbd 9884 dd3e b4a4 a83e 41c2 6a3f
000001f0: b621 2e3e 9a0f a5be 6c88 21bf d0e4 f53e
00000200: ea35 9f3c c0cf c33e bab4 83be e5ce dabe
00000210: af2a 2d3f a0dc d53e 68c9 cd3d 1837 a93e
00000220: 3b9e ce3e 148b 153f 3121 02bd b710 8a3f
00000230: 6456 9f3e ffed 353d 9755 e43e 4352 323f
00000240: 4829 9fbe 5e52 36bf c595 173f 2d6e c33e
00000250: d4b1 b23d 8fdd 8dbb 6eb9 503e 303f 953e
00000260: 7095 793d 586e 7d3f 05d6 f03e 7099 003f
00000270: 1f3e f33f b1e6 9a3f 454a 783e e853 9dbf
00000280: 065c 313f 1aeb 003f f993 a2be 5851 f63e
00000290: 1646 933e b207 a33f 19cf 1e3f c9e8 f33f
000002a0: 7129 02be 173b 29bd de9d 923d cdcc 4b3f
000002b0: 8464 d0be bc7d 523e e62d fa3e 0f0f 283f
000002c0: 0825 11be 95e8 a43d 1250 853e 87cf 193e
000002d0: c4ef 32bf 9adf 003e f24f 81be da42 063e
000002e0: 7bd0 173e a8cf 383d 9601 c0be a6d7 19be
000002f0: 7f97 273f c641 f03e 5841 243f d155 343e
00000300: 28da d83d 962e 323f cc90 863e 23e0 40bf
00000310: 7fde 6d3e 5f12 83be 9f61 be3e b221 ac3e
00000320: 300e 2cbe 2389 4cbf 89ae e23e 3c6a 1c3f
00000330: 9bc2 043e fd97 383f 822e 933e 9e62 da3e
00000340: 453d 31bf ce30 89bd 9ac0 cbbe 1948 a63e
00000350: 2891 183d c6ba fd3e 0c45 2cbf 77f4 9cbe
00000360: 666e 543f 8e22 b23d 8aeb b93e 3640 c83e
00000370: 081b a1bc 131e 4b3f 12f5 a9bc f23b 38be
00000380: 7cce 953d 537b a03e 27da 8ebe 6712 313f
00000390: ea09 e5be 6089 56bf 16e5 3cbd 0f9b 0b3f
000003a0: 9401 99bd 085d d53e f225 993e 8bef 46be
000003b0: ab0e 91be acd9 323f 2d6a ad3e 8224 d23e
000003c0: b028 a63f 9da3 213f b52a 003f de8e 85bf
000003d0: 64e2 163f 4c83 9a3d d412 adbd f6fb 303e
000003e0: 8cb5 d33d e911 7a3f 3264 053f 6a00 e03f
000003f0: 307a 853d f3c7 6f3e e424 93be 4ef6 ac3e
-0.0626235 0.34811336 -0.10084253 0.3660213 0.11292389 0.26664755 0.6311448 0.60319096
0.10512704 -0.21465231 0.029581413 0.3728768 0.09227961 0.8060567 0.3023253 -0.15899998
-0.2050517 -0.097215965 -0.20290405 0.4896168 0.7106422 0.5646582 0.12062268 0.10901008
0.33449885 0.42004135 -0.18538162 1.1189699 -0.059660077 0.38028255 -0.02378112 -0.2600528
0.24675149 -0.16899446 0.5636794 0.69554126 0.06629707 0.4495676 0.18385883 0.60759044
0.27209842 -0.11245288 0.25655243 0.52786463 -0.22696793 0.32184488 -0.071017586 -0.027790518
0.49087176 0.5742836 0.18636678 0.13918151 0.06714299 0.31532374 0.04979768 1.3911954
0.3573383 0.9094528 0.2761805 0.18459268 -0.14589667 -0.1333727 0.5992676 0.68865097
0.2636676 0.27165222 0.27322218 0.18991324 0.05388147 0.7704328 1.2165598 0.96378964
1.9760743 1.2412161 0.5343683 0.44401842 0.7755363 0.53793514 -0.09080524 1.1136323
0.7035786 1.0381007 0.7534233 2.2502904 -0.10903415 -0.23799591 -0.21030225 0.72012204
-0.13263159 0.22140227 0.5023153 0.0974384 -0.10090382 0.24414906 0.12742375 0.47859412
-0.19429123 0.8175404 -0.067737944 -0.14614238 0.13438985 0.09474978 -0.14033747 0.0121518355
0.119598456 0.5367455 0.39070514 -0.029612528 0.4816884 0.3860115 0.19337563 0.86645585
-0.016904412 -0.059706967 -0.17488217 -0.037155043 -0.06638633 -0.18218279 0.55100304 0.30598262
-0.053843286 0.43265224 0.3293816 0.9170266 0.17005047 -0.32238466 -0.6309879 0.48026133
0.019434888 0.38244438 -0.2572382 -0.42735973 0.67643255 0.41769886 0.10048181 0.33049846
0.40355095 0.5841534 -0.031769935 1.0786351 0.31120598 0.044416424 0.4459655 0.6965677
-0.31086183 -0.7121943 0.59212905 0.38169995 0.08725324 -0.0043293904 0.20383236 0.2914977
0.06093353 0.98996496 0.47038284 0.5023413 1.9003333 1.2101651 0.24247082 -1.2291231
0.6928104 0.50358737 -0.3175352 0.48108935 0.2876441 1.2736723 0.62034756 1.9055415
-0.12711121 -0.041316118 0.07159017 0.79609376 -0.40701687 0.20555776 0.48863143 0.6564798
-0.14174283 0.08052174 0.2603765 0.15020572 -0.69897103 0.12585297 -0.25256306 0.1311144
0.14825623 0.04511991 -0.3750121 -0.1502367 0.6546554 0.4692518 0.64162207 0.17610861
0.10588485 0.69602334 0.26282346 -0.75342005 0.23229407 -0.25599954 0.37183854 0.33619457
-0.16802287 -0.79896754 0.44273785 0.610996 0.12964861 0.72106916 0.2874642 0.42653364
-0.69234115 -0.06698762 -0.3979538 0.3247688 0.037247807 0.4955656 -0.6729286 -0.30655262
0.82980955 0.08697997 0.36312515 0.3911149 -0.01966621 0.79342765 -0.020746741 -0.17991617
0.073147744 0.3134409 -0.27900812 0.69168705 -0.44734126 -0.8380337 -0.04611691 0.54533476
-0.07471004 0.4167254 0.29911762 -0.19427316 -0.28331503 0.6986339 0.33870068 0.41043478
1.2981167 0.6314028 0.50065166 -1.0434225 0.58939195 0.07544574 -0.08450857 0.17283615
0.10337362 0.9768358 0.5210601 1.7500126 0.06517446 0.23416118 -0.28739083 0.33781666

0.bias f4 [64]
00000000: 0c90 8340 87f3 6a40 4be8 7540 7ce9 47b9
00000010: f544 8c40 06cb 8c40 d818 9240 2d57 6e40
00000020: 52f6 9040 22fe 9140 6d60 8840 1a04 1bba
00000030: bc04 8c40 f447 8340 d4f7 eebb 9194 9240
00000040: 760d 8140 cd5b 9040 6c83 8840 5fa4 8a40
00000050: 1989 06be ece7 9340 f921 8540 8148 7940
00000060: 4644 5540 479a 8940 ffc0 8740 a32c 8e40
00000070: b4f1 6440 7fa4 8940 c218 8640 0d66 6f40
00000080: 947d 67be fadc 8e40 27dc e4bb 8310 9140
00000090: f8d8 6840 b02f 2440 6143 7940 fac0 8840
000000a0: 5b4e 9340 8d4c 3140 b99b 9740 e80d 8b40
000000b0: 3734 8a40 fd0e 9540 a624 9640 b9d4 8c40
000000c0: fc7d 8d40 fd8c 7c40 ec43 8240 fa0c 4db8
000000d0: c122 9240 c12e 9640 7ea9 9140 294d 8540
000000e0: f113 9040 92ef 8740 4103 4240 0728 9140
000000f0: 619b 8c40 271f 8d40 b69b 6f40 dbdb 7340
4.111334 3.6711137 3.842303 -0.00019065099 4.3834176 4.399783 4.5655327 3.7240708
4.5300684 4.562272 4.2617707 -0.0005913392 4.375578 4.1025333 -0.007292727 4.5806355
4.032893 4.511206 4.2660427 4.332565 -0.13138236 4.622061 4.160397 3.8950503
3.332292 4.3000827 4.242309 4.442949 3.5772524 4.30133 4.190522 3.7406037
-0.22606498 4.4644747 -0.006984252 4.5332656 3.6382427 2.5654106 3.8947375 4.2735567
4.603315 2.7702973 4.737759 4.3454475 4.318874 4.6580796 4.6919737 4.400967
4.421629 3.9461052 4.0707912 -4.8887894e-05 4.5667424 4.6932073 4.55194 4.165669
4.5024343 4.2479944 3.0314486 4.536136 4.393967 4.410053 3.7438788 3.810294

2.weight f4 [7, 64]
00000000: 7484 f63f 8028 0d40 4ee5 0a40 5eac be3f
00000010: 01a1 1340 6cbc 1e40 a4be 0940 0d30 1b40
00000020: 3d15 0440 bfb9 0340 0cab 0140 508b a93f
00000030: 9f65 1c40 2fbf 1c40 3a70 b53f 3365 e93f
00000040: dfa8 2440 d50e 0640 8e1e 2840 c725 0840
00000050: 4f80 de3f 7111 f03f a8b4 0340 63b7 1c40
00000060: c32e 0e40 1404 2340 d9c2 1340 8ae1 fc3f
00000070: d6c4 2640 5b4e 0040 e1b2 2040 9ab0 de3f
00000080: ec6e 3d3f 32e5 2340 ef33 8b3f afe6 ea3f
00000090: d996 0e40 30cd 1040 f44a 1540 6361 e83f
000000a0: 978d 0940 ffee f83f 7381 2840 5532 1a40
000000b0: 025f ec3f aa43 0f40 528d 0840 40b9 1640
000000c0: 0bd9 2340 7420 1140 07d3 1e40 812b 0f40
000000d0: 7a37 f73f 9819 1d40 66d2 f43f 4ba5 0c40
000000e0: 5b8e 0440 38e8 0a40 ffe0 0340 cefb 0140
000000f0: 54c5 f13f 709c 3140 e2c0 f73f 4bbf 1c40
00000100: 85a2 1c40 5ab3 2840 985c 5c40 6c08 0ac0
00000110: 5c35 4940 55fe 6240 7cb4 3140 7898 8240
00000120: 48b3 3640 8e80 2440 f6f4 2540 39db 03c0
00000130: f1c4 6340 0fe2 4740 4f1a 3cc0 d9f7 2f40
00000140: e486 6440 d580 4040 0021 7540 eddc 4c40
00000150: 67ff f7bf 9668 1540 8200 5740 0e22 3f40
00000160: 3d75 2a40 8da5 5240 508c 6240 42dd 2140
00000170: 0619 1c40 0344 3640 1b07 6640 a4fc 0b40
00000180: 1550 47c0 e574 3740 68f2 1dc0 9f10 2b40
00000190: 6f78 2f40 0c12 283e e83f 2040 ab5f fb3f
000001a0: 3370 2640 6395 8b3f 04c1 4d40 e74d 4d40
000001b0: a4f0 2f40 973a 3640 6e56 2340 2517 4d40
000001c0: 7e54 3d40 8254 1640 6cb2 7440 0ea2 f5bf
000001d0: a80c 2740 b34f 4640 16bc 2140 92be 4940
000001e0: 717f 2040 b744 4040 8662 d93f bb9f 0340
000001f0: 627f 0140 2d23 6840 0e98 b83f 1cdf 4b40
00000200: 84f3 1140 6583 1d40 20a2 1640 8dda d73f
00000210: b3db 1140 2db8 1640 0296 fd3f 9017 0e40
00000220: d273 0e40 1652 fe3f a5a2 0140 0b52 8c3f
00000230: 31dc 2040 1cce 2140 3697 913f 632d 0040
00000240: 0fb0 1940 e615 0340 a869 1740 47f3 1640
00000250: 6034 b03f fb15 0540 8bbe 1340 406f 0840
00000260: 69eb 0a40 80be 0240 c15a 0a40 ecf7 e33f
00000270: 7ce3 0540 d0a0 f33f 0853 1940 5ddd 0c40
00000280: c0f7 eb3f 02af 1540 e8fc 9e3f 85e3 0040
00000290: 388f d73f 64ef 1540 d7ef 1b40 fbcc fb3f
000002a0: 5632 0b40 129c 0740 5b7b 1840 f3af 2740
000002b0: a854 0a40 b0f6 0640 9169 0440 3e67 1340
000002c0: 77ff 1740 9372 0b40 e395 2640 cd55 bc3f
000002d0: 4884 0740 84fb 0d40 dbdf f03f 6e8f 1f40
000002e0: 50e2 0740 e74c 1140 d15a e53f 264d 0040
000002f0: 5d81 f63f 5437 2240 aba7 e83f a2ca 0940
00000300: f9f2 1040 6a42 1740 dbc5 1140 6673 0b40
00000310: ba70 2340 2dc3 3640 7af0 0b40 1b16 ef3f
00000320: 9650 1540 0424 0f40 c921 0340 4335 0140
00000330: e5c9 1e40 7171 2540 3ba7 f43f 74e1 0540
00000340: 2b20 2240 035a fa3f 40e7 2640 77c7 0040
00000350: d0eb 9e3f 9185 0840 cc43 2a40 f245 0d40
00000360: 89be 0d40 5910 1340 8e85 1940 e3e7 0440
00000370: 532c 0540 f18b f73f 7469 2440 09c6 0940
00000380: f94a ac3f 72e3 2d40 8aca c23f 878c 0a40
00000390: 155d 0440 2495 f43f 0d1e 2540 f231 0440
000003a0: cb58 1640 f0b2 f93f 25f6 2640 81c7 1840
000003b0: 0769 f43f 7b87 1040 94b2 0740 9ac4 1a40
000003c0: ac7f 1840 de5c 1240 8840 1640 6789 0840
000003d0: 43f6 1040 b68e 1840 03bc 0740 cac0 0940
000003e0: a36f f63f d949 1740 eee6 d43f 628d fc3f
000003f0: 1c82 0740 f010 3840 55f1 ee3f 51ee 2140
1.9259171 2.205597 2.1702456 1.4896352 2.306702 2.4802504 2.1522608 2.4248078
2.0637963 2.058212 2.0260649 1.324564 2.4437025 2.449169 1.4174874 1.8234009
2.572807 2.0946553 2.626865 2.1273057 1.7382907 1.8755323 2.0579014 2.448693
2.221604 2.547124 2.3087676 1.9756329 2.605764 2.0047824 2.510918 1.7397645
0.7399738 2.560864 1.0875224 1.8351649 2.227957 2.2625237 2.3326998 1.815472
2.149267 1.9447936 2.632901 2.409322 1.8466494 2.238505 2.1336255 2.3550568
2.5601223 2.2676058 2.48163 2.2370303 1.9313805 2.454687 1.9126709 2.1975887
2.0711887 2.1704235 2.0606077 2.030994 1.8888345 2.7751732 1.9355738 2.4491756
2.4474194 2.6359468 3.4431515 -2.156764 3.1438818 3.5467732 2.776641 4.081112
2.8546925 2.5703464 2.5930762 -2.0602553 3.5588953 3.1231725 -2.9391057 2.7495024
3.570733 3.0078633 3.8301392 3.2009842 -1.9374818 2.3345084 3.359406 2.9864535
2.6634057 3.2913544 3.539814 2.5291295 2.4390273 2.847901 3.5941837 2.187295
-3.1142628 2.8665097 -2.4679203 2.6728895 2.7417257 0.16413134 2.5039005 1.963857
2.600598 1.0904964 3.2149057 3.2078798 2.7490625 2.847326 2.5521502 3.2045376
2.958282 2.348908 3.82339 -1.919008 2.6101475 3.0986145 2.5271049 3.1522565
2.5077784 3.004194 1.6983192 2.0566242 2.0233998 3.627147 1.4421403 3.1854925
2.280488 2.4611447 2.3536453 1.6863571 2.2790344 2.3549912 1.9811404 2.2201881
2.225819 1.9868801 2.025552 1.0962538 2.5134394 2.528205 1.1374271 2.0027702
2.4013708 2.0482116 2.3658237 2.3585985 1.3765984 2.0794666 2.3085048 2.1317902
2.1706183 2.0428772 2.1617892 1.7810035 2.0920095 1.9033451 2.3956928 2.201011
1.8434982 2.3388066 1.2420931 2.0138867 1.6840582 2.3427362 2.4365137 1.967193
2.1749473 2.1189008 2.382529 2.620114 2.161417 2.1088066 2.0689433 2.3031764
2.3749673 2.178868 2.6028984 1.4713684 2.1174488 2.2184763 1.8818315 2.4931293
2.123188 2.2703187 1.791834 2.0047088 1.9258229 2.534627 1.8176168 2.1529927
2.2648299 2.3634286 2.2777011 2.1789184 2.5537553 2.8556626 2.1865525 1.8678621
2.3330436 2.2365732 2.048937 2.0188758 2.4810727 2.585049 1.9113535 2.0918856
2.5332134 1.9558719 2.6078644 2.0121744 1.2415714 2.1331522 2.660388 2.2073941
2.2147543 2.2978728 2.3987765 2.0766532 2.0808303 1.9339582 2.5689363 2.152712
1.346038 2.7170072 1.521806 2.164827 2.0681813 1.9108014 2.5799592 2.0655484
2.3491695 1.9507732 2.6087735 2.3871768 1.9094552 2.258269 2.1202745 2.4182496
2.3827925 2.2869182 2.3476887 2.1333864 2.2650306 2.3837104 2.1208503 2.152392
1.9252819 2.3638823 1.6632974 1.9730647 2.1173162 2.8760338 1.8667399 2.5301707

2.bias f4 [7]
00000000: ec56 0840 b0e4 5440 1883 0440 96e0 0840
00000010: 8361 0b40 366b 0a40 5ede 1d40
2.1303053 3.326458 2.0705013 2.1387076 2.1778266 2.1627936 2.4666972

0.weight f4 [64, 84]
00000000: d768 58bd bd13 b03e df4c f7bd 3523 b13e
00000010: b491 fa3d 8bbb 883e 7f24 1e3f 2287 153f
00000020: aefd d93d e9b8 60be 62a5 193d e8ef b43e
00000030: c844 9e3d a9e4 463f c264 983e 7a8a 1bbe
00000040: fb41 6bbe 9ba4 c8bd b038 46be 23cb f93e
00000050: 5675 303f f716 0d3f e0fa e83d b6ef d93d
00000060: 2484 a33e 4f72 d43e 1475 50be 2310 8b3f
00000070: 142d 4bbd edd5 c03e edad 3bbd a222 8bbe
00000080: 0b19 7c3e 40e4 23be 60ee 0c3f 3a5a 2b3f
00000090: 28fd 833d 7d10 e23e d655 343e 9989 163f
000000a0: 6808 803e 00af 15be d000 7f3e 2a0e 053f
000000b0: 1d4f 7cbe 38c0 993e 1033 79bd 2d8f afbc
000000c0: a40a f23e fde3 0d3f 60ff 373e bee0 073e
000000d0: 5961 3f3d ef1a 973e 43e3 de3c 6207 ae3f
000000e0: ed73 b23e 5d37 603f 7cec 743e b420 233e
000000f0: 60ee 0dbe 994a 10be 0b7b 163f e0bc 283f
00000100: 8da2 813e 99b5 833e 47de 803e b487 283e
00000110: 37a5 243d 2f4e 3c3f 0ebe 983f 4b01 6b3f
00000120: 97ac f63f ae89 9a3f 39f0 053f 4aa2 d43e
00000130: 4ef9 3f3f e5b2 013f 3628 c9bd 4914 8a3f
00000140: b457 2d3f 857e 803f 6630 393f 1f0d 0d40
00000150: 7d09 cbbd 0d87 77be 35d0 6bbe 5d4f 333f
00000160: 68c8 fcbd ac9e 623e 6685 fa3e 434e a13d
00000170: ab33 cdbd de43 743e ee3c 0a3e 6a5e eb3e
00000180: c28f 57be 08e5 493f 9ece 92bd 3fcf 0ebe
00000190: 2e97 e03d 56fd bf3d 0c74 06be fed3 273c
000001a0: a926 ca3d 070a 063f 7765 c43e efa0 02bd
000001b0: a335 ef3e f03e c23e 4264 333e 305e 553f
000001c0: 2880 f2bb 65e3 80bd 54e3 49be 3e23 48bd
000001d0: 8683 89bd daba 31be b5bf 093f 0d9e 8f3e
000001e0: f707 64bd 4b62 d93e 4012 a43e e8c7 653f
000001f0: 440c 173e 2132 b6be 2a23 23bf f3d1 f13e
00000200: 84c4 8ab9 2bb9 b83e 2734 7dbe a677 d7be
00000210: 1393 283f 57ca cb3e a72a c03d 54bb a53e
00000220: a244 c43e e50e 103f 4b4b 5cbd 2dee 853f
00000230: f12a 9b3e 7dc7 3c3c 8546 d13e 9fd0 2b3f
00000240: c17e 9bbe c753 38bf 9eb9 143f d5ab b43e
00000250: 5ff1 9d3d cf28 93bc b87d 3a3e d4f5 873e
00000260: c511 423d 6d7f 743f 00ee e43e 7fe2 e93e
00000270: 6409 ed3f ca99 963f 061c 6d3e 95fd a0bf
00000280: 0ce5 2a3f a026 f23e ae31 a6be e690 e43e
00000290: f2f6 853e 4b9c 9e3f 0a56 173f 4805 ee3f
000002a0: 07b6 f2bd c0be 38bd 0f95 543d 6cba 463f
000002b0: 0199 cbbe d257 533e 7855 f43e 7ca0 233f
000002c0: b358 10be b5f9 973d 096c 893e 6353 063e
000002d0: ba84 36bf 4983 c73d dc59 83be 854a 0c3e
000002e0: e52e 003e 457c 3d3d a971 bbbe 723c 1bbe
000002f0: 6983 223f 0ead ea3e 8471 223f 9b09 303e
00000300: e565 bb3d f399 303f 6169 7b3e 710e 49bf
00000310: 6e71 773e 3b01 85be be91 b43e 7c5b a63e
00000320: a38b 2cbe d253 4abf 9113 dd3e 3037 163f
00000330: 11d2 013e 4d5e 363f 8daa 8e3e 2c85 d03e
00000340: 5a9a 36bf cd52 cdbd 518e cfbe 0984 a23e
00000350: b959 c53c 216e f33e 84ce 29bf 69a1 99be
00000360: 8f2f 503f 1a1e 8c3d dc61 b63e 095d c43e
00000370: ad52 22bd 9be2 453f 5ffe 30bd aa5c 55be
00000380: 8ab0 843d f5b9 8f3e c452 9fbe b5fa 2a3f
00000390: 2b02 e1be 726b 58bf 0777 6abd 3dc5 043f
000003a0: 7146 adbd 5748 cd3e fb48 8e3e d43c 5fbe
000003b0: 9c78 98be c6b5 2a3f 30df a13e 59ea ba3e
000003c0: bcff 9f3f 236b 193f 30e6 fa3e f025 89bf
000003d0: a35b 103f 7795 403d d33c bbbd 376d 0e3e
000003e0: f017 9f3d c4d4 713f 2711 fb3e e635 da3f
000003f0: 93ab 8c3d b247 683e e6b0 9cbe e5f5 a33e
-0.052834358 0.3439006 -0.12075209 0.34597173 0.12234822 0.26705584 0.6177444 0.5840932
0.10644089 -0.21945538 0.037511237 0.35339284 0.07727963 0.7769266 0.29764372 -0.15189543
-0.22974388 -0.09797021 -0.19357562 0.48787794 0.6892904 0.55113167 0.113759756 0.10641424
0.31936753 0.4149346 -0.20357162 1.08643 -0.049603537 0.37663212 -0.045820165 -0.2717486
0.24618928 -0.16005039 0.5505123 0.6693455 0.0644477 0.44153205 0.17610869 0.5880371
0.25006413 -0.14617538 0.24902654 0.5197474 -0.24639554 0.30029464 -0.060839713 -0.021430576
0.47273743 0.5542601 0.17968512 0.13269326 0.046723697 0.29512736 0.027207976 1.3596003
0.3485407 0.8758448 0.23918337 0.15930444 -0.13860464 -0.14090957 0.587815 0.659132
0.2531933 0.25724486 0.25169584 0.16458017 0.040196624 0.735568 1.1933 0.9179885
1.927142 1.2073267 0.52319676 0.41530067 0.74989784 0.50663596 -0.09822123 1.078744
0.6771195 1.0038611 0.72339475 2.2039258 -0.09913919 -0.24172612 -0.23028643 0.70042974
-0.12342912 0.22130841 0.489299 0.07876255 -0.100196205 0.23854014 0.13499805 0.4597047
-0.21050933 0.788651 -0.07168315 -0.13946246 0.10966335 0.09374492 -0.13130206 0.010243414
0.09870655 0.5235905 0.38358662 -0.03189176 0.4672061 0.37938643 0.17518714 0.83346844
-0.0074005313 -0.06293372 -0.19715625 -0.048861735 -0.06714539 -0.17356434 0.53808147 0.2805027
-0.05567166 0.42457804 0.32045174 0.8975816 0.14750773 -0.3558512 -0.6372553 0.4723049
-0.00026467827 0.36078772 -0.24726926 -0.42083472 0.6584942 0.3980281 0.09383135 0.32369483
0.38333613 0.5627273 -0.053782742 1.046331 0.303062 0.011522171 0.40874115 0.67115206
-0.30370143 -0.72002834 0.5809573 0.35287347 0.077120535 -0.017963795 0.1821202 0.2655474
0.047380228 0.95506936 0.4471283 0.45680615 1.8518491 1.1765683 0.23155221 -1.2577387
0.6675575 0.47295094 -0.32459778 0.446418 0.26164967 1.2391447 0.5911566 1.8595362
-0.11851125 -0.04510379 0.051899966 0.7762821 -0.3976517 0.2063897 0.47721457 0.63916755
-0.14096336 0.07420675 0.26840237 0.13117747 -0.71296275 0.097418375 -0.25654495 0.13700302
0.12517889 0.04626109 -0.36610153 -0.15159777 0.63481766 0.45835155 0.6345446 0.17191164
0.09150294 0.6898491 0.24551918 -0.7853766 0.24164364 -0.259775 0.35267442 0.32491672
-0.16850142 -0.7903415 0.4317899 0.5867796 0.1267779 0.7123764 0.27864495 0.40726602
-0.7132927 -0.100255586 -0.40538266 0.3174136 0.024090635 0.4754496 -0.6633074 -0.3000596
0.8132257 0.06841679 0.35621536 0.3835223 -0.039629627 0.772989 -0.043211337 -0.2083613
0.06478985 0.2807156 -0.31117833 0.667888 -0.43946967 -0.8453895 -0.05724242 0.5186346
-0.08460701 0.40094253 0.27790055 -0.21800548 -0.29779518 0.66683614 0.3161559 0.36506918
1.2499919 0.599291 0.49003744 -1.0714703 0.56389827 0.04701754 -0.09142461 0.1390885
0.077682376 0.9446528 0.49036524 1.7047698 0.06868663 0.226836 -0.30603713 0.3202354

0.bias f4 [64]
00000000: d600 8240 21da 6740 32d8 7240 ca13 e3b9
00000010: 8dba 8a40 0843 8b40 ce8b 9040 5145 6b40
00000020: ed69 8f40 536f 9040 80d1 8640 1680 f9b9
00000030: 987c 8a40 bebd 8140 d97d b6bb 7207 9140
00000040: 280a 7f40 bad0 8e40 96fb 8640 9d1a 8940
00000050: b9b2 f4bd de57 9240 8798 8340 1f32 7640
00000060: 6d2b 5240 1e10 8840 e939 8640 2f9e 8c40
00000070: 25d6 6140 5718 8840 0b91 8440 ff43 6c40
00000080: 6982 56be 4451 8d40 9e6b 9fbb e482 8f40
00000090: 89bf 6540 ae06 2140 7728 7640 312d 8740
000000a0: cac0 9140 951c 2e40 4112 9640 1b84 8940
000000b0: 71a7 8840 e682 9340 ba96 9440 d04a 8b40
000000c0: 17f3 8b40 5c6d 7940 18bc 8040 9502 973a
000000d0: a594 9040 a1a4 9440 821a 9040 bdc2 8340
000000e0: 1485 8e40 9964 8640 3cda 3e40 9b95 8f40
000000f0: f907 8b40 8a97 8b40 a868 6c40 46c8 7040
4.062602 3.6226885 3.7944455 -0.00043311558 4.3352723 4.3519325 4.517066 3.6761057
4.4816804 4.5135894 4.2130737 -0.00047588412 4.327709 4.054412 -0.0055692014 4.532159
3.984995 4.4629793 4.218211 4.2844987 -0.11948151 4.573226 4.112369 3.8468091
3.2839005 4.2519674 4.194569 4.3943095 3.5286953 4.252971 4.1427054 3.6916502
-0.20948185 4.41617 -0.004865124 4.484728 3.5898154 2.5160327 3.8462198 4.2242665
4.554784 2.7204945 4.6897283 4.297376 4.2704396 4.609729 4.6433992 4.3528824
4.373424 3.8972998 4.0229607 0.0011521155 4.518145 4.6450963 4.503236 4.117522
4.453745 4.19978 2.98207 4.4870124 4.344723 4.3622484 3.6938877 3.7622237

2.weight f4 [7, 64]
00000000: 4a20 f23f dfd4 0a40 269f 0840 9b82 ba3f
00000010: df4a 1140 f86a 1c40 938d 0740 4eb0 1840
00000020: 9ad6 0140 5789 0140 87ef fe3f 6b61 a53f
00000030: f016 1a40 6769 1a40 0a36 b13f 2d07 e53f
00000040: 564e 2240 07d9 0340 f2ca 2540 f4e7 0540
00000050: d949 da3f 1bb8 eb3f e773 0140 2457 1a40
00000060: 52e4 0b40 42b3 2040 af81 1140 367f f83f
00000070: c470 2440 9534 fc3f 9656 1e40 2d4d da3f
00000080: 160b 353f 9fa3 2140 c72c 873f 5f7d e63f
00000090: 7e32 0c40 618e 0e40 8dfe 1240 ff10 e43f
000000a0: 5e54 0740 2080 f43f a53a 2640 78e8 1740
000000b0: e6f1 e73f d313 0d40 3b64 0640 d675 1440
000000c0: d897 2140 29da 0e40 4b67 1c40 b6e9 0c40
000000d0: 49dc f23f 40e4 1a40 f26d f03f 485a 0a40
000000e0: f960 0240 f7ab 0840 ae8d 0140 f7a5 ff3f
000000f0: b870 ed3f bb43 2f40 3972 f33f 3563 1a40
00000100: a1b7 1940 2cc5 2540 bb65 5940 643e 09c0
00000110: 2345 4640 cf0c 6040 5bcd 2e40 aa1f 8140
00000120: 66c9 3340 1f99 2140 6c0d 2340 4d5b 03c0
00000130: bcd6 6040 08ef 4440 8379 3bc0 a910 2d40
00000140: ed8c 6140 de97 3d40 a82f 7240 46f2 4940
00000150: b21f f5bf d083 1240 450d 5440 b62d 3c40
00000160: e07a 2740 d4b1 4f40 f29e 5f40 43f5 1e40
00000170: a226 1940 1a5a 3340 d517 6340 1612 0940
00000180: bae7 45c0 c08a 3440 9b34 1dc0 f528 2840
00000190: b578 2c40 313b f83d 4c53 1d40 c79c f53f
000001a0: 4e88 2340 80d1 853f 65d6 4a40 9762 4a40
000001b0: 6805 2d40 5053 3340 6072 2040 ae2a 4a40
000001c0: 666a 3a40 d35f 1340 eebd 7140 f0db f4bf
000001d0: 5926 2440 1767 4340 23d6 1e40 e0c7 4640
000001e0: cf99 1d40 755a 3d40 0375 d33f c5bf 0040
000001f0: c43c fd3f 7132 6540 72e0 b23f fae8 4840
00000200: 39ba 0f40 493f 1b40 7257 1440 1561 d33f
00000210: 1599 0f40 4679 1440 6433 f93f 3aae 0b40
00000220: 693f 0c40 88eb f93f 02d4 fe3f 58d8 873f
00000230: 909a 1e40 b98f 1f40 f538 8d3f 14f4 fb3f
00000240: a476 1740 fbdf 0040 e327 1540 96b9 1440
00000250: bec1 ab3f 58e7 0240 6c7b 1140 2a2b 0640
00000260: 2ea2 0840 707f 0040 261e 0840 3097 df3f
00000270: 69a1 0340 a635 ef3f 3814 1740 81a0 0a40
00000280: 3f74 e73f 5c76 1340 15a8 9a3f fb61 fd3f
00000290: 2b2a d33f 0db5 1340 20b8 1940 3b6e f73f
000002a0: 6301 0940 f059 0540 5b46 1640 fc6d 2540
000002b0: 411c 0840 10c4 0440 be3b 0240 8b2d 1140
000002c0: 9ac7 1540 1d38 0940 ff43 2440 cbe2 b73f
000002d0: ed52 0540 8bca 0b40 0080 ec3f 954f 1d40
000002e0: 17af 0540 0212 0f40 25d9 e03f bf3f fc3f
000002f0: b124 f23f c4f5 1f40 8445 e43f 9a87 0740
00000300: 3a89 0e40 d6c6 1440 b43c 0f40 662f 0940
00000310: 33e0 2040 0533 3440 4193 0940 2e6a e93f
00000320: a2e5 1240 95c2 0c40 febf 0040 32eb fd3f
00000330: 0c4e 1c40 f6e3 2240 7043 f03f e282 0340
00000340: 3663 1f40 4197 f53f e252 2440 6cb2 fc3f
00000350: 17d0 9a3f 5f2a 0640 dcc9 2740 b6b2 0a40
00000360: f440 0b40 d974 1040 911a 1740 898c 0240
00000370: d8af 0240 fed8 f23f ace8 2140 616a 0740
00000380: e5a6 a73f a76f 2b40 5c9c be3f 6028 0840
00000390: bca3 0140 50ca ef3f 53a4 2240 0bde 0140
000003a0: b0f3 1340 57ea f43f 457f 2440 3f4c 1640
000003b0: 8595 ef3f 3929 0e40 2a5f 0540 1d53 1840
000003c0: 1d17 1640 b4d7 0f40 e289 1340 fe2d 0640
000003d0: 539d 0e40 9829 1640 ff5b 0540 d32b 0740
000003e0: c2bb f13f bbdf 1440 ace2 cf3f b7e0 f73f
000003f0: d22b 0540 4c84 3540 c254 ea3f b557 1f40
1.8916104 2.1692426 2.1347136 1.4571108 2.2701948 2.4440289 2.118016 2.3857608
2.0287232 2.0240076 1.9916848 1.2920355 2.40765 2.4126832 1.3844616 1.7892815
2.5360312 2.0601213 2.5905118 2.0922823 1.7053787 1.841556 2.022699 2.4115686
2.1858106 2.510941 2.2735403 1.9413822 2.5693827 1.9703547 2.4740348 1.7054802
0.7072004 2.5256116 1.056054 1.800701 2.1905818 2.22744 2.2967865 1.7817687
2.1145244 1.9101601 2.5973294 2.3735638 1.8120697 2.204335 2.0998676 2.3196921
2.5248928 2.2320654 2.4438045 2.2017646 1.8973476 2.4201813 1.8783553 2.1617603
2.0371687 2.135496 2.0242724 1.9972523 1.8550024 2.738509 1.9019233 2.412305
2.4018328 2.5901594 3.3968341 -2.144433 3.0979698 3.5007818 2.731284 4.0351152
2.8091674 2.5249708 2.5476942 -2.0524476 3.5131063 3.0770893 -2.9292915 2.7041419
3.5242264 2.9623942 3.7841587 3.1554122 -1.9150298 2.2892952 3.31331 2.94029
2.6168747 3.2452288 3.4940763 2.4837196 2.392983 2.8023744 3.5483296 2.1417289
-3.0922685 2.8209686 -2.4563358 2.6274998 2.6948674 0.12120665 2.458209 1.918847
2.5551944 1.0454559 3.1693356 3.1622674 2.703455 2.80196 2.506981 3.158855
2.912744 2.3027236 3.7772174 -1.912962 2.5648406 3.053167 2.4818199 3.1059494
2.4625127 2.958646 1.6520084 2.0117047 1.9784169 3.5812037 1.3974745 3.1392198
2.2457411 2.4257376 2.3178372 1.6514002 2.2437184 2.319902 1.9468808 2.182509
2.1913702 1.9525003 1.990845 1.0612898 2.4781837 2.4931471 1.1033007 1.9683862
2.3666162 2.0136707 2.3305595 2.3238273 1.34185 2.04537 2.273158 2.0963845
2.1348987 2.0077782 2.12684 1.7468014 2.0567267 1.8688247 2.360609 2.1660464
1.808235 2.304099 1.2082545 1.9795526 1.6497244 2.3079255 2.401863 1.9330515
2.1407096 2.0836143 2.3480442 2.584838 2.1267245 2.0744667 2.0348964 2.2684047
2.3403077 2.14405 2.5666502 1.4366087 2.0831864 2.1842372 1.8476562 2.4579823
2.0888116 2.235474 1.7566267 1.9706954 1.8917447 2.4993753 1.7833714 2.1176515
2.2271256 2.324636 2.23808 2.143518 2.513684 2.815614 2.1496127 1.8235528
2.2952657 2.1993763 2.0117183 1.9837401 2.4422636 2.5451636 1.877058 2.0548635
2.4904304 1.9186784 2.5675588 1.974195 1.2094754 2.0963361 2.6216955 2.1671576
2.1758394 2.2571318 2.3609965 2.0398276 2.0419827 1.8972471 2.5298262 2.1158679
1.3097807 2.6786897 1.4891467 2.1274643 2.0256186 1.8733616 2.5412796 2.0291774
2.3117485 1.9134015 2.570268 2.3484037 1.8717505 2.221266 2.0839334 2.3800728
2.3451607 2.2475405 2.3052907 2.0965571 2.2283523 2.3462887 2.08374 2.1120498
1.8885424 2.3261554 1.624105 1.9365453 2.0807996 2.8361998 1.8307116 2.4897282

2.bias f4 [7]
00000000: 3353 0640 6b19 5240 6697 0240 e27f 0640
00000010: a55e 0940 1667 0840 4862 1b40
2.098828 3.2828014 2.0404906 2.1015553 2.1464016 2.1312919 2.4278736
