saved_models/PPO/using_melo_for_matchmaking/model11.pth (torch, 48448 bytes, 7 tensors)

0.weight f4 [64, 84]
00000000: 3bd9 8b3c 5923 163e 3f67 7cbd f6ab babc
00000010: ff57 a53d b7c0 27be f207 a23e da1c 1abe
00000020: b55e 203e fb52 f83d 7b2b 623e 88d7 56bd
00000030: 3f3f 033d 7494 cb3d 8fd6 f43d 6641 483c
00000040: 9246 973d 1ca2 aebc 9d65 92be 7276 6cbe
00000050: 9454 62be ff64 91be f16a 01be d6ed 993e
00000060: 2c48 e9bd 13e5 523e 0b66 103d 67c8 c43e
00000070: 74c4 a5bd 16c2 9c3e c989 cdbd e69b 5cbd
00000080: d918 9c3e 4677 84bd fdda 88be 16db eabc
00000090: 992f 43bd fd71 2b3e 7353 c53e 4ef5 333d
000000a0: 03fe 06be 20e0 33bd f507 943c 9417 343b
000000b0: eb1a 243e 89fb 2a3d 6631 fb3d ed7d 0cbd
000000c0: f85d 9cbe 67e1 cf3d 05fa 2ebe 2e8e 19be
000000d0: 5896 a4bd 63cd a73d 3574 9e3e df6c 6d3e
000000e0: 6d02 d8bc 13d3 0c3d fc5a 80be cd18 643b
000000f0: be19 4dbe f621 303d 3935 debd c80b 173e
00000100: b4cd ad3d f794 84be 79fb c0bc 9fcc 89bd
00000110: a793 ddbd 8d00 963e 9c33 2c3c 0f0f 53be
00000120: 058b f1bb abe7 adbe 8e3d e93d 1622 c13c
00000130: 1bcf 843b 96d6 12bd 2803 1fbe e5a9 313e
00000140: d337 20bc 8917 823c 4fdf 403b 5c90 5abe
00000150: e42c b8bc 2f12 d03b 0d63 d7bc c0ba b8be
00000160: 5491 a93e 86b8 4ebe 5b40 80be 3d19 513e
00000170: a6f5 55be 0bc6 f5bd 1f3d b2bc f3de a33d
00000180: 9858 a93c 16b0 9d3d a905 063f c946 b63d
00000190: 54a5 bb3d d0a5 98be ab16 173d 336f 83bc
000001a0: b971 20bc e929 73be 1d10 02bc 8536 3abd
000001b0: 0a27 99be 1ab6 a53d 07ab 563e d114 bd3c
000001c0: 33ea 5c3e c8d2 3c3e 1080 a03c f59c 863d
000001d0: 78d5 70bd 0b11 bebe 4e2e 693e ca96 d4bc
000001e0: a80b 97bd 8a7a 3e3d eb3e b03e 9a89 46bb
000001f0: e92d b43d 98c6 733d 709c 553d fc9e 5dbe
00000200: 137c 90bd 4a4b 4b3e dc03 383d 662a 26be
00000210: d00e c9bd 09cc e03c 290f 09bd c8eb e53d
00000220: d88b d6bd 8bec ac3c 04e0 14bc 2935 853e
00000230: c7a8 a53e d279 4fbd 1fa4 3cbe 3c05 c63d
00000240: a2c1 573e 383d c5be 3094 e5ba 68f5 23be
00000250: 8f0c 813d 0ed5 ba3d 4678 d7bd d31f ad3d
00000260: f613 66be 329b dcbd 6be4 a43e 83ab b53d
00000270: aaba 89bc a9ca 273d 0b3b b63d bb3b 19be
00000280: 06e3 493e cd94 0f3e f258 3a3c df6d 233e
00000290: e4d8 3f3e 7b3d 623e 1202 303d 6a19 e23d
000002a0: 65e2 d63d 3aed 983e da09 4abe 18c7 903c
000002b0: 089c 9c3e 7694 863d 66c7 423d 529a 9d3e
000002c0: c214 04bd 41cd 23be cd68 5e3e c641 88bd
000002d0: f6dc 2c3e 0016 9bba d6d0 c3bd c36a 13be
000002e0: 0c21 94bc cf04 32be 9b12 d6bc 8023 e93d
000002f0: 0a1b a73d 9ae4 003d a451 60bd c9cc 663d
00000300: c903 e53c 8dbd d83d 94aa 04bd ae11 5bbd
00000310: e9e9 193e 04f5 80bd 55dc 8d3c a7b9 a33e
00000320: abff 92be 5d9f 073e 0edf 953d 3b3a c9bc
00000330: bc76 943d e356 d13c f184 0b3e 065d 033e
00000340: e8be 2d3b fd15 9c3e f001 6fbd 4048 7e3e
00000350: 08d5 813d 6866 763d 91c3 643e 8e11 35be
00000360: 56e0 a23d 7b75 aa3e 95b6 3d3e edbe 8ebe
00000370: 0e2c 793d abc0 a9bd e693 623e 7493 ef3d
00000380: 9d43 aebd a987 543d bcb5 65be f123 133e
00000390: f7f4 da3d a036 773c e8c6 ffbd 9bdb dbbc
000003a0: 4796 dd3d 9367 f9bd b2d8 ab3d b999 83bd
000003b0: b34d dd3d b0fd 073e e3fc 4f3e 7998 533e
000003c0: ff0b 9dbe 4262 90be f4e4 813d de08 203e
000003d0: feca afbd 42db 0abe b6bc adbd 37ee 04be
000003e0: bd4d 81be c058 5bbe e8f5 a43e 42db 43be
000003f0: c150 a33d a0b9 c5bd f55d 7fbd eae3 c9bd
0.017071357 0.14661922 -0.0616219 -0.022787075 0.080734245 -0.16382109 0.31646687 -0.15050068
0.15661128 0.12125202 0.22086899 -0.05245164 0.032042738 0.099404246 0.11954986 0.012222623
0.07386507 -0.021317534 -0.2859315 -0.23092058 -0.22102576 -0.28397366 -0.12638451 0.30064267
-0.11390719 0.20595197 0.035253566 0.38434145 -0.08094111 0.30616826 -0.10036046 -0.053859614
0.30487707 -0.06468062 -0.26729575 -0.028668921 -0.047652815 0.16742702 0.3854023 0.043935113
-0.13182835 -0.043914914 0.0180702 0.0027479874 0.16025893 0.04174379 0.122652814 -0.03429978
-0.30540442 0.10150414 -0.17087562 -0.14995643 -0.08036488 0.08193471 0.30948034 0.23186062
-0.026368344 0.034380984 -0.25069416 0.0034804821 -0.20029351 0.043001138 -0.10849995 0.14750588
0.084865004 -0.258949 -0.023557412 -0.067284815 -0.10819178 0.29297295 0.0105103515 -0.20611213
-0.0073713087 -0.3396581 0.11388694 0.023575824 0.004053009 -0.035849176 -0.15528548 0.17349966
-0.0097789345 0.015880363 0.0029429977 -0.21344131 -0.022482343 0.006349824 -0.026292348 -0.3607998
0.3311869 -0.20187578 -0.250491 0.20419784 -0.20894489 -0.12000664 -0.02175766 0.080015086
0.020672128 0.07699601 0.52352387 0.0890022 0.09162393 -0.29814005 0.036886852 -0.016044235
-0.009792739 -0.23746456 -0.007938412 -0.04546215 -0.29912597 0.08091374 0.20963679 0.023081215
0.21573715 0.18439782 0.019592315 0.06572906 -0.05879733 -0.37122378 0.2277157 -0.025950808
-0.0737527 0.04650358 0.34423003 -0.003029442 0.08797819 0.059515566 0.052151144 -0.21642679
-0.07054915 0.19852939 0.044925556 -0.16227111 -0.098172784 0.027441042 -0.033461723 0.11226612
-0.10475892 0.021108886 -0.009086613 0.2601712 0.3235533 -0.050653286 -0.18421982 0.09668967
0.21069959 -0.3852327 -0.0017515477 -0.16011584 0.063012235 0.09122668 -0.10520987 0.084533356
-0.22468552 -0.10771789 0.3220552 0.08870604 -0.016812641 0.040964756 0.0889798 -0.14964192
0.19715509 0.14021607 0.011373745 0.15959881 0.18735081 0.22093765 0.042970724 0.110400036
0.104924 0.2986849 -0.1973032 0.01767306 0.30587792 0.065712854 0.047553442 0.307818
-0.03224636 -0.15996267 0.21719666 -0.0665317 0.16881165 -0.0011832118 -0.09561317 -0.14396195
-0.018082164 -0.17384647 -0.026131919 0.11383724 0.08159454 0.03146801 -0.05476536 0.056347642
0.027955906 0.10583029 -0.03238924 -0.053483658 0.15030636 -0.06296733 0.017316977 0.3197758
-0.28710684 0.13244386 0.07317935 -0.0245639 0.07249209 0.025554126 0.13624932 0.12828454
0.0026511494 0.30485526 -0.058351457 0.24832249 0.063394606 0.060156256 0.22340228 -0.17682478
0.07952945 0.33292755 0.18526681 -0.2788004 0.06083303 -0.082887016 0.22126731 0.11698046
-0.0850899 0.051887188 -0.22432607 0.1436918 0.106912546 0.015088707 -0.1248911 -0.026838114
0.10819679 -0.12177958 0.08390941 -0.06425805 0.108058356 0.13280368 0.20311312 0.20663632
-0.30673215 -0.28199965 0.063424975 0.15628383 -0.085836396 -0.13560203 -0.084832594 -0.12981497
-0.25254622 -0.21420574 0.32218862 -0.19126609 0.07974387 -0.09654546 -0.062345464 -0.09857924

0.bias f4 [64]
00000000: c94f 73bc 99b3 2bbb 0ca1 713a 48ab dd3d
00000010: a841 f6bb ea63 36bc 40a7 4f3d f18c 873d
00000020: 20bf bc3c 237b 203d 4d53 1f3c 7e22 22bd
00000030: 9183 c539 a923 023e 974b 083e 0c02 c33b
00000040: f9d0 b93c d4ba 563c 753d 853d 91ac 8cbc
00000050: a9e2 ccbc 0553 5d3d f24c 99bd 126b a2bb
00000060: a2fb 383d 2507 b5bd 2435 79bc 484f 663c
00000070: 277d 313c 35fe a9bd 4b2c 593d d13f 883d
00000080: ad0f 993d f632 13bd 3a99 b2bc 935c d9bc
00000090: 01c6 5d3d e2a7 123c 08cf 773d 949a 52bd
000000a0: 37ac d7bc d6c1 00bd 4f5b a63d 4857 f2bc
000000b0: 27cc 053d eaff ab3d 2c21 52bc 31e7 813c
000000c0: 0597 113e 54dc 723d 183e c0bc 797c 933b
000000d0: 12b9 283d 7ccf c23d e81b 5abd 80cc 85bd
000000e0: 12c3 2ebd 10a7 1abd 6535 0f3e 288e 503d
000000f0: 6e28 883d 4c85 28bd 9a89 8c3c c46f 1c3d
-0.014850565 -0.0026199578 0.0009217418 0.10823685 -0.007515151 -0.01113222 0.05069661 0.06618679
0.023040354 0.039179932 0.00972445 -0.039583676 0.00037672793 0.12708916 0.13310085 0.0059511717
0.022682654 0.013106067 0.065058626 -0.01717213 -0.025010424 0.05403425 -0.07485379 -0.0049566114
0.04516185 -0.08839253 -0.015210424 0.014056988 0.010833061 -0.08300439 0.053020757 0.06652797
0.07473693 -0.035937272 -0.02180158 -0.0265334 0.05414391 0.008951159 0.060500175 -0.05141695
-0.026327236 -0.031434856 0.081228845 -0.029582635 0.032665398 0.08398421 -0.012825292 0.015857311
0.14217766 0.059292153 -0.023467109 0.0045009223 0.04119212 0.09512231 -0.05324927 -0.06533146
-0.042666502 -0.03775698 0.13985212 0.05091682 0.06648336 -0.041142747 0.017155457 0.038192526

2.weight f4 [7, 64]
00000000: 2a4f f7bc f5c5 b1be 4e11 98bd 5781 08bd
00000010: 8f1e 3bbe 8f78 133e bca9 7abd f345 b2bc
00000020: 36f2 b0be f2e1 8f3e d32c 4d3e 71bc c33d
00000030: a391 163e b61e 09be d047 f83e e5f9 5d3b
00000040: cc04 2ebd 32a6 71be 300a 8d3e d0b0 d53d
00000050: dac9 0abe 21d8 36be f670 263d e9e9 2a3e
00000060: 5fbd 433e fd1d 9abe 5bf9 1dbe f3ca 0abe
00000070: 9912 f8bd 3ab2 2fbe 79a5 cf3e 2618 4fbe
00000080: d816 6fbe 5308 f83c 5877 323d d6c7 cdbd
00000090: 184d 8bbd 89c3 abbd bd84 af3e 5d97 f1bd
000000a0: a56c dbbe c0af 6fbe 0f7d 5d3e cbcc 91be
000000b0: 08c1 a3bd 2d6e 723e a251 bdbe a4ba 0abd
000000c0: 71b8 eebe 681f dc3d 1b16 7bbd f591 12bf
000000d0: 76e4 ae3c 9589 bebd a59f 0b3e 0067 77bd
000000e0: 41c9 493d 1b66 5bbd f8de a73e e5a1 a8be
000000f0: c616 763e 18ea 563e 2b65 b3be b13b eabe
00000100: 3a1c cdbd ad61 0fbe 8dec 0e3e a270 1f3e
00000110: b7b5 15bd 7c78 35be 2229 16bf faa9 f2bd
00000120: 1fe7 7a3e 2b31 00be d69f cbbe 6808 03be
00000130: c883 b63e 29ee e83d 3c8c 993d 1da4 76be
00000140: 7a9a a43e ab02 e3bd a2ad 5ebc 3ba3 81be
00000150: 7d86 e8bd 3c51 dd39 297e 0c3e 88f5 1bbe
00000160: 877b 6abd a52c f8bd d927 71be b884 08bc
00000170: 2538 2bbe e400 7fbd 8618 18be 87f8 e93d
00000180: 91b8 933d 9164 923e 51c4 94be 9c99 cbbd
00000190: 1a39 153d 0c35 c0be 6f07 c0be 542a 953e
000001a0: 1fd9 90be d5fc 01be 5e2a 403e e39c 2cbd
000001b0: 6953 ddbd 3dfa 563e 9ea8 1a3d 4e4d 0ebd
000001c0: 6939 733e 59b0 b93d 21dd 013d 1a3c d0be
000001d0: b969 053d 15bf e43c 4822 1ebe 0c77 03bf
000001e0: b60d 05bd d62a 9ebe 6fea cebd 4c2b e6bd
000001f0: a84c b13e 6912 0e3b a9f4 e43d 75e4 523e
00000200: 6141 ad3d f316 f2bd 3b7a 78be 64aa 1abf
00000210: 16f1 1fbe 805f 54be 38ab ab3a d15f 053e
00000220: 94a3 19be 39af 71bd c75a d5bd 247c 453e
00000230: 2c6c 433e db69 8bbe 70e7 f6be eb64 78be
00000240: 835d 8dbd 3df5 563e cc5e 5fbe a93a ba3b
00000250: 1ee5 acbd 9aee c3be 66ae a5bd 951d d63e
00000260: 8c67 123e a18f 26bd df39 2abe 086d 3abc
00000270: 7562 383e 83d1 993e be21 11be bc6c 52be
00000280: ba2a f0be 3aed a9bd 454a 933d 35dc 7b3e
00000290: e38d 173e 3a4f 1abf bb54 0a3d 575e 9d3b
000002a0: c1e5 2d3e 9ce8 9e3d 1f6b 14bd 47f2 133e
000002b0: 1e12 01be 3187 9dbe 9d17 c4bc a0a1 52be
000002c0: 82ed cfbe dc87 4dbd 0f62 13bd bdfc 9ebd
000002d0: 2fd6 09be 68ed 1b3e cda0 8d3e 4b29 42be
000002e0: b78c 943d 64a2 783e e99a 48bb 11d2 d1bd
000002f0: 47d4 f03e 9722 373e f535 18bb d7b9 acbd
00000300: d3cf 4e3e 3110 483e c544 c6be 0345 153c
00000310: 6330 9a3e 2ec9 bebe cec5 d5be 5ec7 9ebe
00000320: 3e29 2b3d 6233 b7be 8c95 463d d6ca 8bbd
00000330: 4b00 273e fb36 33be f9c5 be3d f591 73be
00000340: 8d84 003c 6daa 6e3e 1f9a 813d 6eb8 653d
00000350: 34fd 6e3e 1665 c9be 0a62 df3d 1eae 693d
00000360: 9403 afbd 0517 25bc 8aa7 053d f5a5 af3d
00000370: 4f06 3abe e952 03be 4638 fabc a273 7f3d
00000380: 0877 813e e886 f93d 94c8 643e 41de f7be
00000390: 65ae a63c 4868 11bd eb03 52bd b5db 2dbe
000003a0: cde5 c4bc d4fb 103e 32e7 54be eefc b2be
000003b0: 8c23 e8bd cc25 89be 31a1 623d a277 d73b
000003c0: 64e1 953e 1c6b 6fbe 8b38 8bbe e7c0 363e
000003d0: befa 913d 7c5c 57be be95 723d 53c2 4b3e
000003e0: 64d5 6b3e 65a0 0f3e 63ce 47be 09ed 29be
000003f0: 3814 13be 44b5 69be 3272 55be a7cc 42bd
-0.030189116 -0.34721342 -0.074251756 -0.033326473 -0.18273376 0.14401458 -0.061197028 -0.02176187
-0.34559792 0.2810207 0.2003663 0.09557427 0.14703993 -0.13390622 0.4849229 0.0033870873
-0.042485043 -0.23598555 0.27546835 0.10434115 -0.13553563 -0.17855884 0.04063507 0.16690792
0.19115208 -0.30101004 -0.15427153 -0.13553981 -0.12112922 -0.17157832 0.40555933 -0.20224056
-0.23348558 0.030277407 0.043570846 -0.10047881 -0.06801814 -0.08386905 0.3428096 -0.117964484
-0.42856327 -0.23406887 0.21629737 -0.28476557 -0.07995802 0.23674841 -0.36976343 -0.0338694
-0.46625093 0.10748178 -0.06130038 -0.5725396 0.021349173 -0.093035854 0.13635118 -0.060400963
0.049264196 -0.053564172 0.327873 -0.32936016 0.24032125 0.20987737 -0.35038123 -0.45748666
-0.100151494 -0.14002104 0.13957424 0.1557031 -0.03655025 -0.17721742 -0.58656514 -0.11848827
0.24502228 -0.12518756 -0.39770383 -0.12796175 0.35647416 0.113735504 0.07497451 -0.24086042
0.32149106 -0.11084493 -0.013591202 -0.25319847 -0.113537766 0.0004221293 0.13720001 -0.15230381
-0.05724671 -0.1211789 -0.23550357 -0.008332424 -0.16720636 -0.06225671 -0.14853105 0.11424356
0.072129376 0.2859235 -0.29056028 -0.09941408 0.03643141 -0.37540472 -0.3750567 0.29133856
-0.2829065 -0.12694104 0.18766162 -0.042141806 -0.10806925 0.20993896 0.037758462 -0.034741692
0.23752369 0.09066839 0.031705026 -0.40670854 0.032571528 0.027923146 -0.15442765 -0.51353526
-0.03248378 -0.30892056 -0.101033084 -0.11238727 0.34628797 0.0021678454 0.11179478 0.20594962
0.08459736 -0.118207835 -0.24265377 -0.60416245 -0.1561931 -0.20739555 0.0013097292 0.13024832
-0.15003806 -0.059004996 -0.10417705 0.19285637 0.19084233 -0.272292 -0.48223448 -0.24257247
-0.069026016 0.20991988 -0.21813506 0.0056832624 -0.08442138 -0.38267976 -0.080899045 0.41819444
0.14297312 -0.04066432 -0.16623639 -0.011378534 0.18006308 0.30042657 -0.14173028 -0.20549291
-0.46907598 -0.082972005 0.071919 0.24595721 0.14800219 -0.6027714 0.03377221 0.004802506
0.16982175 0.077592105 -0.03623497 0.1444789 -0.12604567 -0.30767205 -0.023937041 -0.20569468
-0.40610892 -0.050178394 -0.035982188 -0.0776305 -0.13460611 0.15227282 0.27661744 -0.18961065
0.07253402 0.24280697 -0.0030609912 -0.10245145 0.47036955 0.17884289 -0.002322552 -0.08433884
0.20196466 0.19537427 -0.38724342 0.009110692 0.3011504 -0.37262863 -0.41752476 -0.3101148
0.04178738 -0.3578139 0.048482463 -0.06825797 0.16308706 -0.17501442 0.09315104 -0.23786147
0.007844103 0.233072 0.063282244 0.05608409 0.23338777 -0.39334935 0.10907371 0.057050817
-0.08545604 -0.010076289 0.03263048 0.08576576 -0.18166469 -0.12824596 -0.030544411 0.062366135
0.25286126 0.121839345 0.2234214 -0.48411754 0.02034683 -0.03549984 -0.051273268 -0.16978343
-0.024035359 0.14158565 -0.20791319 -0.34958595 -0.11334905 -0.2678665 0.055329505 0.0065755406
0.29273522 -0.23380703 -0.27191576 0.17847024 0.071279034 -0.21031374 0.059224837 0.19898348
0.23030621 0.1402603 -0.19512324 -0.16594328 -0.14363182 -0.22823054 -0.20844343 -0.047558453

2.bias f4 [7]
00000000: 387b 5e3d e669 d63c 5d2e 55bd 66b4 65bc
00000010: 953c d03b 8092 5bbc 5481 72bb
0.05431673 0.026173543 -0.05204617 -0.014020061 0.006354878 -0.013401628 -0.0037003355

0.weight f4 [64, 84]
00000000: 459e b2bb 1d2a de3d 7a78 9cbe 85e6 2a3e
00000010: e590 1ebe cd45 8cbd dc33 f0bd 5b9e 003e
00000020: 5980 613d 635c 8abb 4861 553d fb4b ab3c
00000030: 7f04 14bd f97f 303d d7c5 733d 07fa 77bd
00000040: f756 bcbe c692 4d3d 2cb7 1cbe 3c97 7fbe
00000050: 44a4 5f3e 5ee8 d03b c244 283e 0b19 c53d
00000060: f0e2 9f3c 9e0e abbe d677 87be 0d1b a7bd
00000070: 7864 af3d d344 b4bd d60d 34be 37be 183e
00000080: 3863 4ebe 842e 3fbd 6831 3bbc 5ec3 d5bc
00000090: b7b1 61be cd23 96bd 6286 b63c b585 4ebb
000000a0: 8273 8abe 4d21 c0bd f55d d53d fab6 e2bc
000000b0: 4ecb 01be 4249 843d 231d 93be 67b7 533e
000000c0: c6fb 40bd 10dc 403e 15d2 a6bd 3131 88bd
000000d0: 1a53 46be 128f 00bd 0613 573e 3d5b 33be
000000e0: dedc 923e 7808 88bb fa9d 7fbd be56 88bd
000000f0: b7a2 e83c 816d 95be d3e5 153d 4211 12bd
00000100: 6b98 15be f0c4 883c d6d6 503d 3a13 f4bd
00000110: 8eeb 1cbd b6c6 65bd 68db e33c c6d5 833e
00000120: 0d40 803e 117c 35bd c347 d33a f456 db3d
00000130: a01a 523e 1743 cb3d 58ef 87be e8d4 2ebe
00000140: d882 a9be 1004 8ebd 930f 6f3d d693 88be
00000150: 094d fabd 130b 57be 971b 333a 2f8c c43d
00000160: 45c4 973c 1524 f43d 64fa 6dbd 5504 fd3c
00000170: dcd8 ccbd dcd3 5abd 7321 4d3d 178f 4b3c
00000180: 79bf 643e 3ede 27be ba99 5cbb 444f 78be
00000190: e3b6 97bd 4da3 68be 6966 403d 8b72 c8bb
000001a0: 5607 10bd 4f82 02be 8d60 343e 0b10 96be
000001b0: a335 e43c b5b5 e93d 0443 a4bd 7089 8abe
000001c0: 9397 943e e0f9 f83d 7464 8e3d 8ec9 303e
000001d0: 1580 9fbe 4cfa 143d 9463 fdbc 748a fa3b
000001e0: 9474 913e 3998 113e 6b5c 8bbc ac57 063e
000001f0: 64b0 853c 9bfc 2cbc c20d 6b3c 083b 74be
00000200: ce4c 4e3e 6c42 edbd b0b9 c3bd 34b9 b93d
00000210: 4462 9c3e aa48 abbd 4a65 1f3e 0f9b 773b
00000220: 41bf 763d b537 b4bc a879 59be 60b3 5b3d
00000230: 821f 2c3c d2a4 d03d c987 dabd 3fff 5d3d
00000240: c9fc 5fbd e599 c03c 9f0d 4dbe 5d3e cbbc
00000250: 058f db3d 0a08 e63d 259c f1bd 935b 1cbe
00000260: 0a3c fa3d 3f64 54bd 4536 ba3e f8ec 0c3e
00000270: f9cf de3d 665a 283c d4c0 e6bb 9eeb 053e
00000280: 92df 0c3e 4a06 2c3e 300c 143e 3829 473e
00000290: 8b37 8a3d 352c c73d a012 0c3e 8fdb e83d
000002a0: 54b6 5c3e 5445 1c3d d38b 10be 97dd 0cbe
000002b0: 8c9f 3dbe fa03 a43e 29e2 13bd cea3 7f3e
000002c0: 9fff 97be 3151 00bd fa56 93bd 9a72 4cbe
000002d0: 1fca 99be 4667 5a3e 309d 49be b750 10be
000002e0: 26ca ad3d 4928 2f3d cc83 e93d 0e42 1c3e
000002f0: 71d8 c83e f9b1 1f3d f09f fcbd 527c 45bd
00000300: 12df ac3d 5a62 22bb a4c6 c1bd 9649 c6bd
00000310: 535c 963d 9ef1 4abc 41f5 bebd 7a42 7cbd
00000320: 45c2 213e ffb4 87be fd61 24bd 75ee ecbb
00000330: 145b 243d cb6b fc3d 5381 e4bb e4c7 583d
00000340: 00cd 513e 4ed3 0a3e f65d b4bd 1f88 d9bc
00000350: 16b9 d6bd afe6 183e 3c50 3fbe d651 40be
00000360: 0a65 78bd 150a 38be 9fb8 3f3e 6cca 5fbe
00000370: 8f03 b6bd 1956 3abb 76e9 b03c bbfa 093e
00000380: 34dd 423d c7de 24be a5dc 7e3e 1cd6 d0be
00000390: 7ae2 813d 37e3 97bb 1fe4 653e 6b15 a9bd
000003a0: 75e1 98bd ac9a 41bd 7b41 e6bd cc27 10be
000003b0: 1673 00be 6d49 12be 52b3 3e3e 1dea 62be
000003c0: 7ffe 8a3e 7405 9abc 31a0 99bd 88be ebbc
000003d0: 5e53 31be 6819 223e 51de 5e3d 7387 c03d
000003e0: e260 73bd aaf7 663e e26f 493e e8bd 743d
000003f0: 272d 93bd 7ed8 b23d 49fc 42be 1ee2 dbbd
-0.005450996 0.10847876 -0.30560666 0.16689499 -0.1548496 -0.06849251 -0.117286414 0.12560408
0.055054042 -0.004222439 0.052094728 0.020910254 -0.0361371 0.043090794 0.059514847 -0.06054118
-0.367851 0.050188802 -0.1530425 -0.24960035 0.21840006 0.0063753566 0.16432479 0.09623917
0.019517392 -0.3340959 -0.26458615 -0.081594564 0.08564085 -0.0880219 -0.17583403 0.14916311
-0.20155036 -0.04667522 -0.011425354 -0.026094135 -0.22040449 -0.07331047 0.022280876 -0.00315128
-0.2704125 -0.093813516 0.104183115 -0.02767514 -0.12675211 0.06459285 -0.28733167 0.20675431
-0.04711511 0.18833947 -0.08145539 -0.066500075 -0.19367638 -0.031386442 0.2100335 -0.17515273
0.28684133 -0.0041514 -0.062406518 -0.0665717 0.028397901 -0.29185107 0.03659613 -0.03566099
-0.14608924 0.01669547 0.050986134 -0.1191773 -0.03831058 -0.05609771 0.027814582 0.25749034
0.25048867 -0.044307772 0.0016119409 0.10709944 0.20517969 0.09924906 -0.26549792 -0.17073405
-0.33107638 -0.069343686 0.058364462 -0.2667529 -0.122217245 -0.21000318 0.00068324193 0.095970504
0.018526206 0.119209446 -0.05810012 0.030885855 -0.100023 -0.0534247 0.050080728 0.012424252
0.22338666 -0.16393372 -0.0033660964 -0.24248987 -0.0740793 -0.22718544 0.046972666 -0.00611717
-0.035163246 -0.12745021 0.17614956 -0.29309115 0.027857607 0.11411611 -0.08020595 -0.27057981
0.29021892 0.12157035 0.06952754 0.17264387 -0.31152406 0.036371514 -0.030931272 0.0076458994
0.28409255 0.14218225 -0.017011842 0.13119382 0.016319461 -0.010558273 0.014346542 -0.23850644
0.20146486 -0.115849346 -0.095569015 0.09068528 0.3054372 -0.08363469 0.15565982 0.003778163
0.060240988 -0.02199922 -0.21237814 0.053637862 0.010505559 0.10187687 -0.1067043 0.0541985
-0.054684434 0.023510883 -0.20024727 -0.02481001 0.10720638 0.11232002 -0.1179736 -0.15269308
0.12218483 -0.051853415 0.3636953 0.13762271 0.108795114 0.010275459 -0.00704203 0.13078162
0.1375716 0.16799274 0.14457774 0.19449317 0.06748875 0.09725229 0.1367898 0.113700025
0.21553928 0.038152054 -0.14115839 -0.13756405 -0.18517894 0.32034284 -0.036104355 0.2496483
-0.2968721 -0.03132743 -0.07194324 -0.19965592 -0.3003702 0.21328458 -0.19688869 -0.1409329
0.084858224 0.04276303 0.114020914 0.15259573 0.39227632 0.038988087 -0.12335193 -0.048214264
0.08440985 -0.002477786 -0.09461716 -0.09682004 0.07341828 -0.012386708 -0.09324122 -0.061586834
0.15796764 -0.26505277 -0.04013251 -0.0072305747 0.04012592 0.123252474 -0.0069734245 0.052925006
0.20488358 0.13557169 -0.08806984 -0.026554165 -0.10484521 0.14931749 -0.1868295 -0.18781218
-0.060643233 -0.17972596 0.18722771 -0.21854562 -0.088873975 -0.0028432666 0.021595698 0.13474552
0.047574237 -0.16100608 0.24888857 -0.40788352 0.06342025 -0.0046352404 0.22450303 -0.08256038
-0.074648775 -0.047266647 -0.11242958 -0.14077681 -0.12543902 -0.14285822 0.18623093 -0.2215962
0.2714729 -0.018801428 -0.07501257 -0.028777376 -0.17316958 0.15830004 0.054411236 0.09400835
-0.059418567 0.22555414 0.19671586 0.05975142 -0.071863465 0.08732699 -0.19041552 -0.10736488

0.bias f4 [64]
00000000: b4d0 9c3d 8045 3d3c 41e4 0ebd 9d10 d23d
00000010: aba8 30bd d282 d23d 59ae b1bd 990b 623d
00000020: cace c13d 31a1 8ebb 983f 713c 7e3d 0a3e
00000030: ef0d 233d 267a adbc 6eef 0dbc da5c 67bc
00000040: 4a10 79bc fef4 a4bd 9bc5 a63d bae7 9b3b
00000050: 4157 a93d 5599 843d 9510 42bd ee5b e53d
00000060: d8f0 a7bd f22a 2a3c 8017 b33b 0e9d a53d
00000070: 03b0 96bc fece eb3b 7e4e a03d b1b0 87bd
00000080: c6a5 a9bc 3ba9 c83d bdc4 5fbc 53fc b23d
00000090: 889b aabd 8910 ab3c c706 b6bd 78a8 973c
000000a0: d075 233d 2819 e9bc 9dec 623d 0579 bdbc
000000b0: 8c90 e1bc 6edb 1c3e d7a9 ad3d 2c37 7dbd
000000c0: 0fa7 08bb 00ff 22bd f8ca 0dbd b778 8cbd
000000d0: 9436 c1bd de29 1a3c 9261 a5bc 4e3c 65bc
000000e0: 8090 443d 2f08 15bd 0193 75bd b3d1 6f3d
000000f0: 0d28 163e 7f01 b23d 1a4c f73d e68b 803d
0.076569945 0.011552215 -0.03488565 0.10257075 -0.043129604 0.10278858 -0.08675832 0.05518684
0.0946327 -0.0043527116 0.014724635 0.1350002 0.03980821 -0.021176409 -0.0086630415 -0.014121259
-0.0152016375 -0.08054541 0.08143159 0.0047578486 0.082685955 0.06474558 -0.047379095 0.11199175
-0.08200234 0.0103862155 0.005465448 0.080865964 -0.018394476 0.0071963063 0.07827471 -0.06625498
-0.02070893 0.09797903 -0.013657746 0.08739533 -0.083304465 0.020881908 -0.088880114 0.01851295
0.039907277 -0.028454378 0.055401433 -0.023128996 -0.027534746 0.15318081 0.0847966 -0.061820194
-0.0020851528 -0.03979397 -0.034617394 -0.06858962 -0.09434238 0.009409396 -0.020188127 -0.013991429
0.04798937 -0.036384758 -0.059954647 0.058549594 0.14663716 0.086916916 0.12075062 0.062766835

2.weight f4 [1, 64]
00000000: b494 3f3c 11b3 84bd bda3 55bc c6ae 273d
00000010: 843f 0bbc 6e68 663c df99 5bbd ead6 613e
00000020: 4a79 843d 171c 593d 4b1b 60bc 1af2 4e3c
00000030: 6881 303d 4953 dc3a a5aa 5d3b 65af 48bc
00000040: 287c b6bc 1b5c 1cbe 0984 6e3c b188 303d
00000050: e5aa 653c 06df e93c bb99 823c f979 293d
00000060: 5b4b 5bbd 3f1f d1bb ddff bf3d fd28 983c
00000070: 40c1 9c3c 5f72 3d3d 2564 c93b 7981 893b
00000080: df49 c43b 0ad6 0e3c be7d a8bc 609f a83c
00000090: ff78 623d a01e cfbc d357 cfbd e786 8dbd
000000a0: 4f41 7f3c 5f84 b7bb b1a7 fe3b 47ca debc
000000b0: 0d5c 73bc 342e d03b db2a 563c 225a e3bc
000000c0: c1ed ca3b 00ff 37bc 8e64 9bb9 8bc4 41bd
000000d0: 1327 013e 0783 943c 9060 54bc 4826 5c3c
000000e0: f30f bd3c 77e2 17bc f51c 2a3d 49d7 3f3c
000000f0: 7080 a13c 49ea 343d 4d4f 893c 0fde f03d
0.011693168 -0.06479467 -0.0130395265 0.04093816 -0.00849903 0.014062984 -0.05361354 0.2205464
0.064684466 0.053005304 -0.013678382 0.012630964 0.04309216 0.0016809489 0.0033823636 -0.012248849
-0.022276 -0.1526951 0.014557847 0.04309911 0.014017795 0.028548729 0.015942445 0.041376088
-0.05353866 -0.0063818987 0.09374974 0.018574232 0.019135118 0.04625165 0.0061459714 0.0041963425
0.0059902514 0.008718023 -0.020567771 0.020583808 0.055291172 -0.025283158 -0.10124173 -0.06910496
0.015579536 -0.0056004967 0.007771455 -0.027196063 -0.01485349 0.006353164 0.013071741 -0.02775294
0.0061928933 -0.01123023 -0.00029638823 -0.04730658 0.12612562 0.018128885 -0.012962475 0.013436861
0.023078894 -0.009270302 0.04153152 0.011709043 0.019714564 0.044168744 0.016761446 0.11761104
