saved_models/PPO/using_melo_for_matchmaking/model9.pth (torch, 48436 bytes, 7 tensors)

0.weight f4 [64, 84]
0	0xbd8fea1e	-0.07027076
1	0x3e59bc54	0.21263248
2	0xbd53ab0c	-0.051676795
3	0xbcc06b9d	-0.023488814
4	0xbd8249c2	-0.063617244
5	0x3e0079bb	0.12546436
6	0xbe96575f	-0.29363534
7	0x3d167d93	0.03674085
8	0x3efb7b55	0.49117532
9	0x3e16a8f4	0.14712888
10	0xbd06e3e9	-0.032932196
11	0x3e11d0c0	0.14239788
12	0x3e0e7c08	0.13914502
13	0x3d14879b	0.036262136
14	0xbda958d8	-0.08268899
15	0xbe934bd2	-0.28768784
16	0xbe48af5a	-0.19598141
17	0x3d52a7f9	0.051429722
18	0x3e8488ed	0.25885716
19	0xbe395ac9	-0.18101038
20	0xbe1e6207	-0.15467082
21	0x3e0d0837	0.13772665
22	0xbd93af9e	-0.07211231
23	0xbcf7c1f5	-0.030243853
24	0x3b91c325	0.004448312
25	0xbe642347	-0.22279082
26	0xbdf95fe1	-0.121764906
27	0xbd600d46	-0.05470016
28	0xbdae7528	-0.085184395
29	0x3dc00435	0.093758024
30	0x3d773e5c	0.060362205
31	0xbdd65d38	-0.10466999
32	0xbd896e55	-0.06710497
33	0xbe50028c	-0.20313472
34	0xbd3eec54	-0.0466121
35	0x3e9f8eee	0.31163734
36	0xbdf623d6	-0.12018554
37	0xbe8dc0f7	-0.27686283
38	0xbe6b522f	-0.2298057
39	0xbe1ce7e9	-0.15322842
40	0xbe785746	-0.24252042
41	0xbe0ca700	-0.1373558
42	0x3d87a6f3	0.0662364
43	0xbc155ad6	-0.009115895
44	0xbe1beaa0	-0.15226221
45	0xbd40b3f8	-0.04704663
46	0xbc1ecd9b	-0.009692575
47	0x3e8c566e	0.2740969
48	0x3e0a9ae7	0.13535653
49	0xbd2e85f1	-0.042608205
50	0xbea682fe	-0.32521814
51	0x3e609b6b	0.21934287
52	0x3e9ac677	0.30229542
53	0xbcff3224	-0.031151839
54	0x3e13b72f	0.14425348
55	0x3db7390e	0.08946429
56	0x3e5ab1c8	0.2135688
57	0xbe0dad66	-0.13835678
58	0xbd107a27	-0.035272744
59	0xbd873a8b	-0.06602963
60	0x3d241f5f	0.04006898
61	0xbd387237	-0.0450308
62	0x3eb71902	0.35761267
63	0x3e7542c2	0.23951247
64	0x3e97298e	0.2952389
65	0x3e8ada28	0.27119565
66	0xbce43195	-0.027855674
67	0xbe4498ee	-0.19198963
68	0x3e5b3e48	0.21410477
69	0x3e10a992	0.14127186
70	0x3dadae4f	0.08480512
71	0xbcd4e602	-0.025988583
72	0xbc5e2ab5	-0.013559987
73	0x3d7b2f70	0.061324537
74	0xbdb0acba	-0.08626695
75	0x3d3eb815	0.046562273
76	0xbe84efbf	-0.25964162
77	0xbde5487a	-0.111954644
78	0xbe2fb6aa	-0.17159525
79	0x3cdfc716	0.027316611
80	0x3e3be92b	0.18350665
81	0xbe80f3ee	-0.25186104
82	0xbd5df528	-0.054188877
83	0xbe369552	-0.17830399
84	0xbd71237a	-0.058871724
85	0x3d74eee7	0.059798148
86	0xbe488938	-0.19583595
87	0xbd28c98a	-0.041207828
88	0x3d031333	0.03200073
89	0xbe677799	-0.22604217
90	0xbb87e443	-0.004147084
91	0xbcddc40b	-0.02707102
92	0x3e0b619e	0.13611457
93	0xbdf75a31	-0.120777495
94	0xbe2c12b2	-0.16804007
95	0x3d2fb432	0.042896457
96	0x3ddb6c15	0.107139744
97	0x3e598c97	0.21245037
98	0x3d88e4b3	0.06684246
99	0x3e326a8c	0.17423457
100	0xbde6ed35	-0.112757124
101	0x3be284ac	0.0069127884
102	0xbdab1368	-0.08353311
103	0xbe90712c	-0.28211343
104	0x3c8a731e	0.016900595
105	0x3e2438c8	0.16037285
106	0xbcb8c99a	-0.022557069
107	0xbc3cb963	-0.011518809
108	0x3dc366e7	0.095411114
109	0x3e51c97e	0.2048702
110	0xbe2c2c27	-0.16813718
111	0xbe20e9d0	-0.15714192
112	0xbe9f8ac6	-0.31160563
113	0xbdc61d62	-0.09673573
114	0xbe540da5	-0.2070833
115	0x3c01c994	0.007921595
116	0xbe3789d3	-0.1792367
117	0x3cc0baba	0.023526538
118	0x3c660d22	0.014041217
119	0x3d9a5fce	0.075378045
120	0x3c3b1f06	0.011420971
121	0xbc77926e	-0.015110595
122	0xbe0581fe	-0.1303787
123	0xbe1b55a8	-0.15169394
124	0x3e2ca8a4	0.16861206
125	0xbdc68e70	-0.096951365
126	0x3db1233d	0.08649299
127	0x3e32fd8d	0.17479534
128	0x3e9a4bc0	0.30135918
129	0x3e981606	0.29704303
130	0xbe8720b9	-0.26392153
131	0x3e6eadb1	0.23308446
132	0x3e8f6e8d	0.2801403
133	0x3d7163d1	0.058933083
134	0xbe1d1cc2	-0.15343001
135	0xbdc02366	-0.09381752
136	0x3e91410f	0.28369948
137	0xbe1637e0	-0.14669752
138	0x3dd66fd7	0.104705505
139	0x3e7b4c47	0.24540816
140	0xbd02e2c0	-0.031954527
141	0xbd9b2b54	-0.075766236
142	0x3e4f7e27	0.20262967
143	0xbe99aba0	-0.30013752
144	0xbbe96444	-0.0071225483
145	0xbdd8c8bf	-0.10585164
146	0xbea113d9	-0.31460455
147	0x3d36b81e	0.04460918
148	0x3d1dddcc	0.0385416
149	0x3d150560	0.03638208
150	0x3e4f036d	0.2021615
151	0xbe24a2bc	-0.16077703
152	0x3d120815	0.03565224
153	0xbe0ade70	-0.13561416
154	0xbdf1c784	-0.11805633
155	0x3e25a876	0.16177544
156	0xbe9d4500	-0.30716705
157	0xbddd671f	-0.108106844
158	0xbc88256e	-0.01661941
159	0x3e7b1573	0.24519901
160	0xbece2999	-0.40266111
161	0x3c20d40a	0.009816179
162	0xbd902677	-0.070385866
163	0x3dd534ea	0.10410483
164	0x3d6e221c	0.058137998
165	0x3ef7dd2d	0.4841093
166	0x3e0b63ba	0.13612261
167	0xbdcc8a79	-0.09987349
168	0x3e6c6842	0.23086646
169	0xbd91cbd3	-0.071189545
170	0xbe456448	-0.19276536
171	0x3ec6511b	0.38733754
172	0x3c8bdf30	0.017074198
173	0x3e22ec4d	0.15910454
174	0x3e224740	0.15847492
175	0xbe0930cd	-0.13397522
176	0x3d430389	0.047610793
177	0xbe877857	-0.26459
178	0xbe5478db	-0.20749228
179	0xbd846739	-0.06465001
180	0x3ea87a2c	0.3290571
181	0x3e55bd40	0.20872974
182	0x3ec60b8e	0.3868069
183	0xbcdc5ac1	-0.026898744
184	0x3d8eb76b	0.06968578
185	0x3d9d58d4	0.07682958
186	0x3e5d3654	0.21602756
187	0x3e02f7ac	0.12789792
188	0x3b84b64a	0.004050051
189	0xbe06970a	-0.13143554
190	0x3e350688	0.17678273
191	0x3e3c568f	0.18392394
192	0xbe2cae6b	-0.1686341
193	0xbe514b83	-0.20438962
194	0xbdae5c34	-0.0851368
195	0xbe1a3c3b	-0.15062039
196	0x3ed83731	0.42229608
197	0x3dea39f7	0.11436837
198	0xbdc53e6e	-0.09631048
199	0x3dbda5cd	0.092601396
200	0x3dfab0f5	0.12240783
201	0x3d85bb16	0.065298244
202	0xbdd18774	-0.10230914
203	0x3e08163b	0.1328973
204	0x3e025d5d	0.12730928
205	0x3e62c265	0.22144468
206	0xbd8fc0f3	-0.07019224
207	0x3d5d1d9b	0.053983312
208	0x3dbf656e	0.09345518
209	0xbbfdca23	-0.007745044
210	0x3d5ed5c4	0.05440308
211	0x3c88ac37	0.016683681
212	0xbcc9952a	-0.02460726
213	0xbe812fa1	-0.2523165
214	0x3e60966f	0.21932386
215	0xbe597ef0	-0.21239829
216	0xbddba0de	-0.10724042
217	0x3caa6f00	0.020804882
218	0x3d121b6e	0.03567069
219	0xbcf2349f	-0.029566107
220	0x3dd1e36b	0.10248455
221	0x3d68b063	0.05680884
222	0xbe196d9f	-0.14983223
223	0x3e111d2b	0.14171283
224	0xbed386de	-0.41313833
225	0xbdaab6b9	-0.08335633
226	0xbdcb3ed4	-0.09924093
227	0xbe1e1181	-0.15436365
228	0xbe84e831	-0.25958398
229	0xbdb59c37	-0.08867686
230	0x3e2b34cc	0.16719359
231	0xbe8d5c68	-0.27609563
232	0x3cac1d44	0.021010049
233	0xbd492d36	-0.049115382
234	0xbe7f6e12	-0.24944332
235	0xbd5c7acf	-0.053828057
236	0x3e09b3ec	0.13447541
237	0xbeec13a3	-0.46108732
238	0xbcf1e305	-0.029527197
239	0xbdb3ffba	-0.0878901
240	0xbd61888f	-0.055061873
241	0x3e0f2853	0.13980226
242	0xbbd229ef	-0.0064136903
243	0x3c99f9a3	0.018795794
244	0xbc87b96c	-0.016567908
245	0xbdcdfee2	-0.10058381
246	0xbd4bbbb9	-0.049739573
247	0xbe1e4840	-0.15457249
248	0xbd9f696f	-0.07783782
249	0x3e5aca6d	0.21366282
250	0xbb260ac8	-0.0025336016
251	0x3db7dd7c	0.08977792
252	0xbd0508ca	-0.032479085
253	0xbd93213f	-0.071840756
254	0x3e955069	0.2916291
255	0x3e1087bc	0.14114279

0.bias f4 [64]
0	0xbcda8615	-0.026675263
1	0xbd2af5df	-0.041738387
2	0xb9ba29b0	-0.00035507744
3	0xbac79030	-0.0015225466
4	0x3d74250d	0.059605647
5	0xbc1648cb	-0.009172629
6	0xbc1328d2	-0.0089819
7	0x3bdff799	0.006834936
8	0xbd1fc690	-0.039007723
9	0xbc8b14f9	-0.016977774
10	0xbd9a3689	-0.07529933
11	0x3c3402c5	0.010986988
12	0x3d4840c6	0.048889898
13	0x3d2a86d5	0.041632492
14	0xbc2fbf5e	-0.010726778
15	0x3dae9fda	0.08526583
16	0xbd0440fd	-0.03228854
17	0x3e412165	0.18860395
18	0x3d24be8f	0.040220793
19	0xbd4f3592	-0.050588198
20	0x3ce5af54	0.028037705
21	0xbcbd4b4a	-0.02310719
22	0x3d7538b4	0.05986853
23	0x3e4a1e15	0.19738038
24	0x3b897a97	0.004195522
25	0x3d0c8063	0.034302127
26	0x3d559bda	0.052150585
27	0x3c9024e5	0.017595718
28	0xbcc18df6	-0.023627263
29	0xbdf037d8	-0.11729401
30	0x3bf54ae8	0.007485736
31	0x3d91d353	0.07120385
32	0x3dfc5c22	0.123222604
33	0x3def0838	0.116714895
34	0x3ae98aa7	0.0017817811
35	0x3d5919a3	0.053002965
36	0x3dd6820c	0.10474023
37	0x3badc32b	0.005302807
38	0x3df47d71	0.119379885
39	0xbd8d6fdf	-0.06906103
40	0xbd714cad	-0.058911014
41	0x3e03eb63	0.12882762
42	0xbce1ef8e	-0.027580049
43	0x3d911efd	0.07085989
44	0x3d394bf5	0.045238454
45	0x3d3485f9	0.04407308
46	0xbd4408fb	-0.047860127
47	0x3d6b93dd	0.05751406
48	0x3d33e28d	0.043917228
49	0x3ca3a06d	0.019973958
50	0xbd8fe9b1	-0.07026995
51	0x3d403cc5	0.046932954
52	0x3d269ce7	0.040676977
53	0xbd34b127	-0.04411426
54	0x3dc32268	0.09528047
55	0x3e4ced26	0.2001234
56	0xbd83724f	-0.06418287
57	0x3d94eac7	0.07271343
58	0xbca8ee1c	-0.020621352
59	0xbcfefa96	-0.031125348
60	0xbc993a55	-0.018704573
61	0xbdcad749	-0.09904344
62	0xbdc23095	-0.094819225
63	0x3d864288	0.065556586

2.weight f4 [7, 64]
0	0x3e03ae04	0.1285935
1	0x3f11f774	0.5701821
2	0xbdc3fcfd	-0.09569738
3	0x3d5a85e4	0.053350344
4	0xbdfa40e5	-0.12219409
5	0xbe5da978	-0.21646678
6	0xbe2a1378	-0.16608989
7	0x3dbdca9b	0.092671596
8	0x3e4d7241	0.20063116
9	0x3ec0e739	0.3767641
10	0xbd0a0ebd	-0.03370546
11	0xbe911446	-0.2833578
12	0x3eace447	0.33767912
13	0xbd95b14d	-0.07309208
14	0x3cf5c9fa	0.030003536
15	0x3de934ef	0.113870494
16	0x3ea03bbf	0.31295583
17	0xbe8c0869	-0.27350166
18	0x3d9b7dfa	0.075923875
19	0xbe4a3ae9	-0.19749035
20	0x3e92b67c	0.2865485
21	0x3dc7ca60	0.09755397
22	0x3e28c4d4	0.16481334
23	0xbd724d92	-0.059156008
24	0xbe34cbe1	-0.17655899
25	0x3d7097be	0.058738463
26	0x3e260385	0.1621228
27	0x3d7ebdf3	0.06219287
28	0xbe5c66a8	-0.21523535
29	0xbdee5806	-0.11637883
30	0xbee7f59b	-0.4530457
31	0x3e8f18ed	0.27948704
32	0xbdc3ae09	-0.09554679
33	0x3e8622d3	0.26198444
34	0xbdb706d7	-0.089368515
35	0x3d9922a1	0.07477308
36	0xbe5aca65	-0.2136627
37	0x3d87ccc1	0.066308506
38	0x3ca371f5	0.0199518
39	0xbe6cb750	-0.23116803
40	0xbcf61cc5	-0.030043015
41	0x3daebf41	0.085325725
42	0xbe879d25	-0.2648708
43	0xbde3f1ff	-0.111301415
44	0x3e96eb08	0.2947619
45	0x3d7bee29	0.061506424
46	0x3e321652	0.17391327
47	0x3e8ddcd1	0.27707532
48	0x3dcfa7b1	0.101394065
49	0x3eb5c8eb	0.3550485
50	0x3db36df1	0.08761204
51	0xbe952661	-0.29130843
52	0x3e733ae1	0.2375293
53	0x3df78d45	0.12087492
54	0xbdd2cfb1	-0.1029352
55	0x3ec5c3d6	0.38625973
56	0xbc768431	-0.015046165
57	0xbdca6b3b	-0.09883734
58	0xbe94d26a	-0.29066783
59	0x3f0628c4	0.52405953
60	0xbddb47ec	-0.107070774
61	0xbe7fd4f5	-0.2498358
62	0xbe97ddcd	-0.29661408
63	0x3de1bd6f	0.1102246
64	0x3d2af553	0.041737866
65	0xbe2e7f2d	-0.17040701
66	0xbe1eeaa1	-0.15519191
67	0x3d0a4b36	0.033763133
68	0x3e9eff0f	0.3105397
69	0x3eb9c5a3	0.36283597
70	0x3c83af85	0.016074905
71	0x3e90c068	0.28271794
72	0x3ee6a46a	0.45047313
73	0xbd818d6c	-0.06325802
74	0x3dc31bd3	0.095267914
75	0x3e6ef8bd	0.23337074
76	0xbe99abe2	-0.3001395
77	0x3e5a3330	0.21308589
78	0x3eb1e00d	0.3474125
79	0x3de8fb1a	0.11376019
80	0xbdff9d72	-0.12481202
81	0x3e49effb	0.19720452
82	0x3e7346ae	0.23757431
83	0x3cda7766	0.026668262
84	0xbe90c18b	-0.28272662
85	0x3e28f236	0.16498646
86	0x3dc07dce	0.09398995
87	0xbdcbda7b	-0.09953781
88	0xbd822db3	-0.06356373
89	0x3e38a78f	0.18032669
90	0xbe929b41	-0.28634074
91	0xbe8491fd	-0.2589263
92	0x3e383eed	0.17992754
93	0x3cd97939	0.026547061
94	0x3e548f37	0.20757757
95	0xbe83d898	-0.25751185
96	0xbc58b62d	-0.013227028
97	0xbef1a6fd	-0.47197714
98	0xb9871c1c	-0.0002577015
99	0x3e8f8baf	0.28036258
100	0xbee68f7b	-0.45031342
101	0xbe925ac7	-0.28584883
102	0xbe178066	-0.14795074
103	0x3e276065	0.16345365
104	0x3c0a98a6	0.008459246
105	0xbe466d2c	-0.19377583
106	0xbe8d36a2	-0.27580744
107	0x3ee1acf9	0.4407728
108	0xbbab1b37	-0.00522175
109	0xbe192430	-0.1495521
110	0x3e898239	0.26857165
111	0xbe095334	-0.13410646
112	0xbd8480d3	-0.06469884
113	0x3db098ae	0.08622871
114	0x3e2f8f3e	0.17144486
115	0x3e1079bc	0.14108938
116	0x3db1cbdc	0.08681461
117	0x3f12b2e4	0.57304215
118	0xbe8443ef	-0.2583308
119	0xbe632952	-0.22183731
120	0xbdf15131	-0.11783064
121	0xbe2ac0eb	-0.16675155
122	0xbdf3a3c8	-0.11896473
123	0x3c6412e1	0.013920517
124	0x3e22726e	0.15863964
125	0xbe84f3d7	-0.25967285
126	0x3e0d0145	0.13770016
127	0x3e9b2352	0.30300385
128	0xbe12220c	-0.142708
129	0x3c249b41	0.010046781
130	0x3e0b0499	0.13575973
131	0xbdc9ad9a	-0.09847565
132	0x3e62526a	0.22101751
133	0xbdfcf49f	-0.12351345
134	0x3e74820d	0.23877735
135	0xbeb4d416	-0.3531806
136	0xbd309fc4	-0.043121114
137	0xbe559195	-0.20856316
138	0xbc8ab536	-0.016932111
139	0x3f389831	0.72107226
140	0xbeab61c4	-0.33473027
141	0xbe47b14c	-0.19501227
142	0xbe43bcc1	-0.19114973
143	0x3e3dcfd7	0.18536316
144	0xbe8983f7	-0.26858494
145	0xbcbf17d0	-0.023326784
146	0x3e42c62f	0.19020914
147	0xbe694943	-0.22781853
148	0x3d6ebcea	0.05828563
149	0x3daf1d90	0.085505605
150	0xbd29b3a4	-0.041431084
151	0x3ef3a1f2	0.47584492
152	0xbe14b65e	-0.14522693
153	0xbeb73167	-0.35779878
154	0x3eacea19	0.33772352
155	0xbe752114	-0.239384
156	0xbea6ea16	-0.32600468
157	0xbdffa399	-0.12482376
158	0x3c74c93d	0.014940557
159	0x3eead93c	0.45868862
160	0x3de2fc1f	0.110832445
161	0x3ddb7757	0.10716122
162	0x3e3f15fd	0.18660732
163	0x3d96c9c9	0.07362706
164	0x3e115c56	0.1419538
165	0xbcfc63d9	-0.03080933
166	0xbc2d0597	-0.010560415
167	0xbecf95c8	-0.40543962
168	0xbdf5f0c2	-0.120088115
169	0x3d603e69	0.05474702
170	0xbea20fa0	-0.31652546
171	0x3eb82fa8	0.3597386
172	0x3db03ce6	0.086053655
173	0xbdae71c0	-0.0851779
174	0x3e3dbeed	0.18529864
175	0x3def9217	0.11697786
176	0x3e4919f0	0.196388
177	0xbe20720a	-0.15668502
178	0xbe5bf628	-0.2148062
179	0x3e26b82b	0.16281192
180	0xbe5d8121	-0.2163129
181	0xbe48b927	-0.1960188
182	0x3dd5d8ed	0.10441766
183	0x3e0fa74b	0.14028661
184	0x3d663534	0.056203082
185	0x3de8d86d	0.11369405
186	0x3e0c535b	0.13703673
187	0xbe660453	-0.22462587
188	0xbdd62481	-0.10456181
189	0xbe87b7af	-0.26507327
190	0xbdfb250d	-0.12262926
191	0x3dd49816	0.103805706
192	0x3f006687	0.50156444
193	0xbbc4f735	-0.0060109147
194	0xbdb1686c	-0.08662495
195	0xbee001b2	-0.43751293
196	0x3e84e1e5	0.25953594
197	0x3eaebfed	0.34130803
198	0xbe4bd15d	-0.19904085
199	0xbea5b31d	-0.32363215
200	0xbdec2b10	-0.11531651
201	0x3ec110d2	0.37708145
202	0x3e5b6f3f	0.21429156
203	0x3e3aaf3a	0.18230906
204	0xbd8fc6f7	-0.070203714
205	0x3e8ae4e3	0.27127752
206	0xbeba133c	-0.363428
207	0x3cac4569	0.021029191
208	0x3d9ca8b1	0.07649363
209	0x3e064dfb	0.13115685
210	0xbbd4996d	-0.0064880163
211	0x3de910ae	0.113801345
212	0xbd11bc2a	-0.035579838
213	0xbe8090d7	-0.25110504
214	0x3c8a8389	0.016908424
215	0x3e4fadfb	0.20281212
216	0xbcec23c5	-0.02882565
217	0x3dbcbbe3	0.09215524
218	0xbccafdbf	-0.024779199
219	0xbd9b6588	-0.07587725
220	0xbe214ec5	-0.15752704
221	0x3d9c3828	0.076278985
222	0xbece84e9	-0.40335777
223	0xbe58eee4	-0.2118488
224	0x3ed669ff	0.41877744
225	0x3b1818b2	0.002320808
226	0xbdc37949	-0.09544618
227	0x3ee87e62	0.45408922
228	0x3e8d90ce	0.2764954
229	0x3dedb146	0.11606078
230	0x3eaf5752	0.34246308
231	0x3e4305f0	0.19045234
232	0x3ee3e6c2	0.44511992
233	0x3ec013fa	0.3751524
234	0x3e69d030	0.22833323
235	0xbe07b59a	-0.13252869
236	0xbe4e9d9f	-0.20177315
237	0x3e6e2380	0.2325573
238	0xbe1cd8ae	-0.15317032
239	0xbe6371f7	-0.22211443
240	0xbd88eebc	-0.0668616
241	0xbdf17773	-0.11790361
242	0xbc79d43f	-0.015248357
243	0xbe366efc	-0.17815775
244	0xbe24c9ef	-0.16092657
245	0xbeaa7dad	-0.33299008
246	0x3e123ab0	0.142802
247	0x3e0e805f	0.13916157
248	0xbe1f80b7	-0.15576445
249	0x3dea899d	0.11452029
250	0xbd1054d4	-0.03523715
251	0x3d045a43	0.032312643
252	0xbe9e7eaa	-0.30956012
253	0xbe6e66df	-0.2328143
254	0x3d85bff0	0.0653075
255	0x3e831405	0.2560121

2.bias f4 [7]
0	0x3d094e85	0.033522148
1	0xbbff2eab	-0.0077875457
2	0x3d7efb6e	0.0622515
3	0x3d2471e4	0.040147677
4	0x3cd89cc5	0.026441941
5	0xbd5f07af	-0.054450687
6	0xbdc40987	-0.0957213

0.weight f4 [64, 84]
0	0xbd7a96a2	-0.06117881
1	0xbe8c1564	-0.2736007
2	0x3cb386fc	0.021914952
3	0x3e56db6d	0.20982142
4	0x3e2c43c1	0.16822721
5	0x3e90fba2	0.2831698
6	0x3e5be20e	0.21472952
7	0xbdbec4f7	-0.09314912
8	0xbc9abd62	-0.018889133
9	0xbce1db8b	-0.027570507
10	0x3e8b1e82	0.27171713
11	0xbd243ffb	-0.04010008
12	0x3d54e062	0.0519718
13	0xbe083c02	-0.13304141
14	0xbcdd409e	-0.027008351
15	0xbe0c898e	-0.13724348
16	0xbe6fb829	-0.23410095
17	0x3e4972eb	0.19672744
18	0x3ea06136	0.31324166
19	0xbe034e7a	-0.12822905
20	0xbdb073e9	-0.08615858
21	0x3ccbd148	0.024880067
22	0xbce59596	-0.02802543
23	0xbe16e88e	-0.1473715
24	0xbe07a48b	-0.13246362
25	0xbd92e27d	-0.071721055
26	0xbe6cb6d1	-0.23116614
27	0x3d3c5dd2	0.04598791
28	0xbdbdb452	-0.09262909
29	0xbe671c16	-0.22569308
30	0x3d4960b2	0.04916448
31	0x3d978a99	0.07399482
32	0x3e46be39	0.19408502
33	0x3ebebe36	0.37254494
34	0xbc851131	-0.016243549
35	0x3c035505	0.008015876
36	0x3db02a9c	0.08601877
37	0xbe1556f1	-0.14583947
38	0xbd950fd1	-0.07278407
39	0xbca0f301	-0.019647123
40	0x3dec0082	0.11523534
41	0x3deae4dc	0.11469433
42	0xbe3370ba	-0.1752347
43	0xbd2c838f	-0.04211765
44	0x3d5e76ff	0.054312702
45	0xbb9c0e8c	-0.0047624763
46	0xbd9af083	-0.07565405
47	0xbae7fe6b	-0.0017699724
48	0x3dc2289a	0.094804004
49	0xbc8d1e99	-0.017226504
50	0xbd87d647	-0.06632667
51	0x3e771ab8	0.24131286
52	0x3e05d79b	0.13070528
53	0x3dd17a38	0.102283895
54	0x3e0700dc	0.13183922
55	0x3d72337a	0.059131123
56	0x3da9e7fa	0.08296199
57	0x3e85b8b2	0.26117474
58	0x3e23de73	0.16002826
59	0x3e6506dc	0.22365898
60	0x3c9d3298	0.019189164
61	0xbd7121ae	-0.05887001
62	0x3e6178b3	0.220187
63	0xbdda3fc3	-0.10656693
64	0x3dbba0fd	0.091615655
65	0x3d3c652c	0.045994923
66	0x3dfaec3a	0.12252088
67	0x3e4807e9	0.19534267
68	0x3cf6d87b	0.030132523
69	0xbdb98ac2	-0.09059669
70	0x3e860157	0.26172897
71	0xbd1c7ff5	-0.038207967
72	0x3e8c6762	0.27422625
73	0x3ddf29b9	0.1089663
74	0xbddbdb13	-0.107351445
75	0xbd03096e	-0.031991415
76	0xbe4fcdd2	-0.20293358
77	0xbd9ae099	-0.0756237
78	0xbd719ad9	-0.058985565
79	0xbd8b4422	-0.06800105
80	0xbc2fdff8	-0.010734551
81	0x3e673368	0.22578204
82	0xbe26199c	-0.16220707
83	0x3daafd84	0.083491355
84	0xbe21662f	-0.15761636
85	0x3e7d22b2	0.24720266
86	0x3caff2e4	0.021478124
87	0x3dab60e7	0.08368092
88	0xbe084ef3	-0.13311367
89	0xbd57c010	-0.0526734
90	0xbb51b218	-0.0031997021
91	0xbe2d6bb9	-0.16935624
92	0x3cf9b1b9	0.030480253
93	0x3e2b8d58	0.16753137
94	0xbe2b7fae	-0.16747925
95	0xbe0d2edb	-0.13787405
96	0x3e51b4ac	0.20479077
97	0x3cf887a0	0.030338109
98	0xbe586ce4	-0.21135288
99	0x3c87ee07	0.016592992
100	0xbe013992	-0.12619618
101	0x3ebe15b5	0.37125936
102	0x3c8e0273	0.017335152
103	0xbe95ca57	-0.29255936
104	0xbd4f3b2c	-0.05059354
105	0x3e130f8c	0.143614
106	0x3ded6a61	0.11592556
107	0x3da8ef51	0.08248771
108	0xbe02eb12	-0.12784985
109	0x3d49420d	0.049135257
110	0xbe381072	-0.17975023
111	0x3e2ae7b6	0.16689953
112	0x3dc4b5b1	0.096049674
113	0xbe23f56b	-0.16011588
114	0x3d794fc5	0.06086709
115	0xbe07b545	-0.13252743
116	0x3c5d08f2	0.013490902
117	0x3ddc0ff1	0.10745228
118	0xbe334be6	-0.17509422
119	0x3c992407	0.018693937
120	0x3d303d81	0.043027405
121	0xbd5d67fa	-0.054054238
122	0x3dc4affb	0.09603878
123	0xbd9b40a3	-0.07580688
124	0x3cf5f455	0.030023733
125	0x3c875554	0.01652018
126	0x3e0a2b4c	0.13493079
127	0x3e97336d	0.29531422
128	0x3d818cd9	0.06325693
129	0xbd06246c	-0.03274958
130	0x3eae5e4d	0.3405632
131	0x3d78f421	0.060779694
132	0xbda770e7	-0.08175831
133	0x3d8ebb45	0.069693126
134	0x3e89e787	0.26934454
135	0xbe8964c8	-0.26834702
136	0xbdd45379	-0.10367484
137	0x3e18e313	0.14930372
138	0xbaa9c216	-0.0012951519
139	0x3c42e3c9	0.0118951285
140	0x3e54d5e3	0.20784716
141	0xbe19ad38	-0.15007484
142	0xbe433795	-0.19064172
143	0xbd3df4f6	-0.04637619
144	0x3da1b591	0.07895959
145	0xbdf59e29	-0.11993057
146	0xbbd2c5e9	-0.006432284
147	0xbe38b75f	-0.180387
148	0x3d024fe8	0.031814486
149	0x3e0654aa	0.13118234
150	0xbd2e734a	-0.042590417
151	0xbe97396e	-0.29536003
152	0xbbc7a91e	-0.0060931584
153	0xbd05b406	-0.032642387
154	0xbe3bf289	-0.18354239
155	0xbd83c70a	-0.06434448
156	0x3e55d968	0.20883715
157	0xbe93c6e8	-0.2886269
158	0xbca57ea8	-0.020201996
159	0x3e6ec3ab	0.23316829
160	0xbd2cc61c	-0.04218112
161	0x3df041bc	0.11731288
162	0x3dd854a7	0.10563021
163	0xbe186ea3	-0.14885955
164	0xbe103f33	-0.14086609
165	0x3e4e2e82	0.20134929
166	0xbd779eb5	-0.06045409
167	0xbdf91d25	-0.12163762
168	0x3e12d9c9	0.14340891
169	0x3cc846ce	0.024447825
170	0xbe335864	-0.17514187
171	0x3e9885e6	0.29789656
172	0xbefb92d5	-0.4913546
173	0x3c571451	0.013127402
174	0xbcc69ba8	-0.024244145
175	0xbdb40ab8	-0.08791107
176	0xbd86f3a6	-0.06589441
177	0xbdc4a954	-0.09602609
178	0x3c2e0694	0.010621686
179	0xbe702756	-0.23452505
180	0xbe36a398	-0.17835844
181	0xbe64910f	-0.2232096
182	0x3dfc5043	0.12319996
183	0xbe59290e	-0.21207067
184	0xbd635e25	-0.055509705
185	0x3d843f2f	0.06457364
186	0x3d7e8f19	0.062148187
187	0x3e68aa9f	0.22721337
188	0xbd7cbfca	-0.06170634
189	0x3d471289	0.04860166
190	0xbe3d0124	-0.18457466
191	0xbcea0d1e	-0.028570708
192	0x3e4daeb5	0.20086177
193	0x3de56407	0.11200719
194	0x3e02e4e4	0.12782627
195	0x3d89320d	0.066989996
196	0xbe6861fd	-0.2269363
197	0x3e12027c	0.1425876
198	0x3e84b43d	0.2591876
199	0xbe4c8e8a	-0.1997625
200	0xbc8aa4c5	-0.016924271
201	0x3d9f6c1e	0.077842936
202	0x3ccf2711	0.025287183
203	0xbc0d813e	-0.008636771
204	0xbd86e5a3	-0.065867685
205	0x3ce208ea	0.027592141
206	0xbdc48166	-0.09594993
207	0x3db2ebc3	0.08736374
208	0x3e26b2af	0.162791
209	0xbc0ae3d9	-0.008477175
210	0xbe396c4a	-0.18107715
211	0xbdb02800	-0.086013794
212	0xbce4e369	-0.027940469
213	0x3d331a51	0.04372627
214	0xbd813d48	-0.063105166
215	0xbd313266	-0.043260954
216	0xbe24c9b6	-0.16092572
217	0x3b6905f7	0.0035556534
218	0xbd8591e5	-0.06521968
219	0x3c683c8c	0.014174592
220	0xbe00d8e6	-0.1258274
221	0x3960095a	0.00021365788
222	0x3e003a43	0.12522225
223	0x3c66fd75	0.014098515
224	0xbdce48b3	-0.1007246
225	0xbdad28d1	-0.08455051
226	0xbd80e044	-0.06292775
227	0x3deeeacf	0.1166588
228	0xbe4a8e95	-0.19780953
229	0x3d0ac544	0.033879533
230	0xbd6992db	-0.057024818
231	0xbdb4ee8d	-0.088345625
232	0xbe18baa1	-0.14914943
233	0xbe35b8fd	-0.17746349
234	0xbe3a25ba	-0.18178454
235	0xbd50b221	-0.050951127
236	0xbde6d99f	-0.11271977
237	0x3dafb4a2	0.08579375
238	0xbe40eff5	-0.18841536
239	0xbe242c9b	-0.1603264
240	0x3e5b9707	0.21444331
241	0xbdbfa23e	-0.09357117
242	0x3d87e7e8	0.066360295
243	0x3d344e48	0.044019967
244	0xbcd2472e	-0.025668707
245	0x3d51eb32	0.05124969
246	0x3e11beb1	0.14232899
247	0xbe075a40	-0.13218021
248	0x3d35fd8b	0.04443125
249	0xbddcab0e	-0.107748136
250	0x3c01d165	0.007923459
251	0xbe3ce434	-0.18446428
252	0xbe311f7e	-0.1729717
253	0x3d342e7d	0.043989647
254	0xbd93bd4e	-0.072138414
255	0x3e953506	0.29142016

0.bias f4 [64]
0	0x3dbae91e	0.09126495
1	0xbd2f8607	-0.042852428
2	0xbd9a4fe1	-0.07534767
3	0x3c2f8bb8	0.010714464
4	0x3d55b9d4	0.052179173
5	0xbd81681c	-0.063186854
6	0xbccb9c4e	-0.024854805
7	0xb9a651e4	-0.00031723
8	0x3d82ad47	0.06380706
9	0x3d91a295	0.07111088
10	0xbc798572	-0.01522957
11	0xbda543ac	-0.08069548
12	0xbd981d88	-0.07427508
13	0x3e098a32	0.13431624
14	0x3e1017cb	0.14071576
15	0x3d704bce	0.058666043
16	0x3cc386cc	0.023867987
17	0x3da0911c	0.078401774
18	0xbd9ccbac	-0.07656035
19	0x3d6247d2	0.055244274
20	0xb79101dc	-1.7286213e-05
21	0xbcbd33bb	-0.023095956
22	0xbd685ebf	-0.056730982
23	0xbda2ad69	-0.079432316
24	0x3db552fa	0.08853717
25	0x3da8142a	0.08206971
26	0x3cdafd78	0.026732191
27	0x3d8494d0	0.06473696
28	0x3da48f9b	0.08035203
29	0x3d719eb5	0.058989245
30	0x3d8e6c88	0.069542944
31	0x3d1fefd8	0.039047092
32	0x3d6c9951	0.0577634
33	0x3da302a4	0.07959488
34	0x3c902d33	0.017599678
35	0xbd509980	-0.05092764
36	0x3d621197	0.055192556
37	0x3e3ded6d	0.18547602
38	0xbca33fe4	-0.019927926
39	0x3dbe9626	0.09305982
40	0x3d9a639d	0.07538531
41	0xbd08d8c7	-0.03340986
42	0x3db2f53d	0.08738182
43	0xbd93199c	-0.07182619
44	0xbc5c7b77	-0.013457171
45	0x3d871496	0.06595723
46	0xbd495ac3	-0.049158823
47	0x3d226c54	0.03965409
48	0xbd847a3d	-0.064686276
49	0x3ddaa7f7	0.10676568
50	0x3d0cfa04	0.03441812
51	0x3a34a0dd	0.00068904256
52	0xbcc92c63	-0.024557298
53	0xbd4c6dd1	-0.049909417
54	0x3ce52dce	0.027975943
55	0x3d20fef4	0.039305642
56	0x3dd15082	0.10220434
57	0x3b58159c	0.0032971865
58	0xbc7cf9c9	-0.015440413
59	0x3d73a202	0.059480675
60	0x3d3c7f48	0.046019822
61	0x3dae3f6b	0.0850819
62	0x3d8d1e3b	0.06890532
63	0xbdb648e6	-0.08900623

2.weight f4 [1, 64]
0	0x3cebd5fa	0.028788555
1	0xbc622555	-0.013802846
2	0xbe0771e7	-0.13227044
3	0xbce24a95	-0.027623454
4	0x3cf15a2a	0.029461939
5	0x3d5e6a33	0.0543005
6	0xbb2510b7	-0.0025186965
7	0xbd3eda8f	-0.046595152
8	0x3d382156	0.044953667
9	0x3d0e2420	0.03470242
10	0xbc7ac30a	-0.01530529
11	0xbcbbf870	-0.022945613
12	0xbcd9fd1d	-0.026609952
13	0x3d256d76	0.040387593
14	0x3cd5ddf8	0.02610682
15	0x3cc6c0dc	0.024261884
16	0xbdd95c53	-0.106133126
17	0x3cfd5b6b	0.03092738
18	0xbd4b3070	-0.04960674
19	0x3ca411ec	0.020028077
20	0xbd172f5b	-0.036910396
21	0xbc7b212e	-0.015327735
22	0xbc1afa58	-0.009459101
23	0xbd2bce5e	-0.041944854
24	0x3ddb36aa	0.10703786
25	0x3d05d78d	0.03267627
26	0x3c5e0eae	0.013553305
27	0x3d13e33b	0.036105376
28	0x3d7d778b	0.061881583
29	0x3c2c527a	0.010517711
30	0x3d02b146	0.031907342
31	0xbcaab3c5	-0.020837674
32	0x3d0e0ee6	0.034682177
33	0x3cc8f1bc	0.02452933
34	0xbd43026a	-0.047609724
35	0xbbfc52af	-0.0077002863
36	0x3c9b5487	0.018961204
37	0x3c244d51	0.010028199
38	0xbc279682	-0.010228755
39	0x3ce706e2	0.028201524
40	0x3cc3a05b	0.023880174
41	0xbcda46f2	-0.026645157
42	0x3d143b8f	0.036189612
43	0xbd53ebf6	-0.0517387
44	0xbc82ea0c	-0.015980743
45	0x3cdfb1cf	0.027306465
46	0xbd2be9a9	-0.041970883
47	0x3e03bf3e	0.12865922
48	0xbd4fd98f	-0.05074459
49	0x3cfcfaf1	0.030881377
50	0x3cb1ac55	0.02168862
51	0xbce0c2e4	-0.027436681
52	0xbd0e8844	-0.03479792
53	0xbb2757fc	-0.002553462
54	0x3cd4d023	0.025978154
55	0x3d649ca5	0.05581345
56	0x3d0754c9	0.03303984
57	0xbe103233	-0.1408165
58	0xbbfd06b1	-0.007721745
59	0x3d3ecb47	0.04658058
60	0x3cc21786	0.023692857
61	0x3cd8e394	0.026475705
62	0x3cd739f5	0.026272753
63	0xbcc48228	-0.023987845
