saved_models/DQN/using_elo_for_matchmaking/model3.pth (torch, 49972 bytes, 8 tensors)

0.weight f4 [64, 84]
00000000: 501e afbd b315 b43e 1ba9 993c 2929 f53c
00000010: fdf7 46be 2280 9a3e 2371 e43e 31f9 b83e
00000020: 41d0 1b3e 818b 443d 4e12 d93c 0ecd 423e
00000030: b60b 0abe f4df 313d f440 993d 0c11 893d
00000040: 034e 0dbe 78ac 29bd fcfd aabd 6e61 d23d
00000050: 6b16 ce3e ed1d f43e 189b 133c 37e4 593e
00000060: 3de0 3e3d 4cb1 debd de47 883d 63ff 2a3c
00000070: b25e 073e 917f 1ebd c775 e63c 6495 b3b9
00000080: 339e c3bd f4e8 213d 3b3f 5e3e c687 b03e
00000090: a642 abbd 7d4b 53be 7bd1 c8bd 4e9b fa3d
000000a0: 91dd 80be 6215 4d3e 4343 1a3e 7665 a7ba
000000b0: 4f59 703e c6db e3be 7e7e dcbe cec3 e53d
000000c0: 394c 993e 90c4 293f fe9b d2bc 40bc eaba
000000d0: a790 c2bd ae68 cd3d e065 e4bc 26e4 c93e
000000e0: eb3f 37be 9699 893e e435 753e 9340 ef3d
000000f0: 6b93 c9bd 4820 fc3d ae36 8d3e 7c43 0d3f
00000100: 8ee8 0e3e 2afd 41bd 3bbe 0dbe 3f53 5b3e
00000110: 7271 aebc a5d9 093f d28d 9d3e af89 983e
00000120: 2033 b13e cc39 7e3e 5386 323f 34f1 f93e
00000130: 5a6f d23e 6e5f 813f 94bb 773d c2a4 8b3e
00000140: 29b4 4f3e 1905 6e3f ba5b 993e 1741 643f
00000150: 4bda babe e173 c53e 52af 91be 71b5 24be
00000160: c864 b0bd 8674 ed3d e6f3 0d3e a25b c43d
00000170: 8368 5a3e 2b3d 8fbd cedc 6ebe b330 a3be
00000180: 00cd 37be 6371 db3d fcc4 99be 4bc8 75bd
00000190: 2823 0bbf 6f18 66be 3ad4 6dbd ddb3 573e
000001a0: 762f 2a3e 403f f83e fc69 f53d bdd4 3dbe
000001b0: 5800 dabe 4011 13bf c5b3 09bd 8ef5 d0bd
000001c0: 501d 5cbe 0923 d1bd deac 0ebe cacc cabe
000001d0: 4d05 7ebe 5fd3 0b3e 29fb dd3e 8c64 1b3e
000001e0: 638b 1bbe a65f 7d3d 6a3a c2be acd2 1cbf
000001f0: 3c68 cbbd 0068 24bc 6a2e a9be 8eae 713d
00000200: 120a 9d38 1ee8 e3be 7ba9 eebe 8602 643d
00000210: c26f 813e 0cd4 173f 5e8c d13c 8a87 10bf
00000220: c12d c4be da53 29bf 31fa 153e 0c7a 5abe
00000230: 69cd 83be 0b13 6d3e 9cd5 bf3c e6e2 a63d
00000240: 650c d23d 4fe9 ce3d e413 f13d 2415 0f3f
00000250: b534 7f3e 0d83 c4be a011 bdbe a4a8 99be
00000260: 9c53 40be b1ae 253e 75d1 803e ca06 8e3e
00000270: 3b2b 693e 20ba 2a3d 1277 db3e 5e62 f13e
00000280: 10a3 483d 1e6b 6c3f c081 243e ab2e 113e
00000290: 3799 fbbe 1def 2f3f 1141 c4bb ef65 3f3f
000002a0: 608e 1fbe 3c9d bd3e 3ac7 6bbe a8b3 4e3d
000002b0: 45c7 96be bb21 ab3e d7ff cf3d 7339 963e
000002c0: 2a86 0e3e 8cd0 b93c 4f97 3b3e 3816 00be
000002d0: 8656 82be d0b6 b23e 5f93 c2bd 8805 dd3c
000002e0: a03b d03d 9a40 453c 4b9e 8bbd cf3e bc3d
000002f0: 4522 a33e d59f f03e a15f e43d b3e4 0d3e
00000300: 7d4f fc3d 4512 fd3d 1d85 833e 4d92 59be
00000310: 013b 143d 8f34 383d 7342 ae3c b29a b43d
00000320: eec7 d83d 5d14 873d c674 9a3e 3706 473e
00000330: c5be 163d bdf2 c7bd 53ae 32bd 0041 d33d
00000340: fa8f efbd c14d 4b3e a3d3 09bd 0a15 a3bd
00000350: 5487 8a3e b45f e8be 3d54 81be e609 653e
00000360: 1e69 013e 18d1 bb3e 3bcc 963d add2 89be
00000370: a519 483e 4920 063e ee91 003c 347c 853e
00000380: 63cd 75be ab9b 733d 9392 293e 2332 9c3e
00000390: de42 35be 0ab0 1f3e b857 c03e 87f4 e43e
000003a0: 4424 893e 887c 2bbe 57ce 863d 2712 ae3e
000003b0: 3bc7 833e ff33 a33e 0ad5 193e b6eb cd3e
000003c0: e07e e23e 8bed 203e e214 d33e 92b2 9a3e
000003d0: 8e1e a63e 1dde 753f 3dde ca3e bc21 483e
000003e0: 8c39 be3d b5fa 563f d2c2 f03e 79b0 8a3f
000003f0: c748 31be 5797 ed3e 5fa8 cebd c83c 163e
-0.085507035 0.35172805 0.018757394 0.029926853 -0.19430538 0.30175883 0.44617566 0.36127618
0.15216161 0.047984604 0.026497986 0.19023535 -0.1348103 0.04342647 0.07483092 0.066927046
-0.1379929 -0.041424245 -0.08349225 0.102724895 0.4025148 0.47679082 0.009009145 0.21278463
0.04660057 -0.108736604 0.066543326 0.0104368655 0.13219717 -0.038695876 0.028132332 -0.00034252845
-0.095516585 0.039528802 0.21703808 0.34478587 -0.083623216 -0.20634265 -0.0980558 0.12236653
-0.25169042 0.20027688 0.15064721 -0.0012771327 0.23471569 -0.4450361 -0.43065256 0.112189874
0.29940966 0.66315556 -0.025709148 -0.0017908886 -0.095002465 0.10029732 -0.027880609 0.39431876
-0.17895477 0.2687499 0.23946339 0.116822384 -0.09842571 0.12310845 0.2758078 0.551811
0.139559 -0.047360577 -0.13842098 0.21418475 -0.02129433 0.53847724 0.30772263 0.29792544
0.34609318 0.24826735 0.6973621 0.48816836 0.4110058 1.0107248 0.060481623 0.27274138
0.2028357 0.9297653 0.29952794 0.8916182 -0.3649467 0.3856497 -0.2845407 -0.1608484
-0.086129725 0.11594491 0.13862571 0.0958779 0.2132893 -0.06994089 -0.23326418 -0.31873092
-0.17949295 0.10714986 -0.300331 -0.060005467 -0.5435052 -0.22470258 -0.058063723 0.21064706
0.16619667 0.48485756 0.119831055 -0.18538184 -0.42578387 -0.57448196 -0.033618707 -0.10203086
-0.21495557 -0.102117606 -0.13933131 -0.39609367 -0.2480671 0.1365485 0.43355682 0.15175074
-0.1518989 0.061858796 -0.3793519 -0.6125896 -0.099319905 -0.010034561 -0.33043224 0.05900436
7.488219e-05 -0.4451303 -0.46613678 0.05566647 0.25280577 0.5930793 0.025579628 -0.56456816
-0.38316157 -0.6614357 0.14646222 -0.2133562 -0.25742653 0.23151796 0.023417287 0.08148746
0.1025627 0.10103094 0.11771372 0.55891633 0.2492245 -0.38381234 -0.3692751 -0.30011475
-0.18781894 0.1617992 0.25159803 0.27739555 0.22770397 0.04168141 0.4286428 0.4714536
0.048983634 0.9235095 0.1606512 0.14177959 -0.4914033 0.6872423 -0.005989202 0.74764913
-0.15581656 0.37034023 -0.23025218 0.050464302 -0.29448906 0.33424172 0.101562195 0.29340705
0.13918367 0.02268245 0.18319438 -0.12508476 -0.25456637 0.349051 -0.09500765 0.026980177
0.101676226 0.012039328 -0.06817301 0.09191667 0.31862083 0.46996942 0.11151052 0.13856773
0.12319849 0.12357 0.25687495 -0.21247216 0.036189083 0.044972 0.02127192 0.08818568
0.105850086 0.06595681 0.30167216 0.19435965 0.036803026 -0.097630955 -0.04362328 0.10315132
-0.11697383 0.1985388 -0.033649098 -0.07962997 0.27056372 -0.45385516 -0.2525958 0.22367057
0.12637755 0.36682963 0.073631726 -0.26918545 0.19541033 0.13098253 0.007847292 0.26071322
-0.2400413 0.05947463 0.1655982 0.30507 -0.17701289 0.15594497 0.37566924 0.4471781
0.2678548 -0.16746724 0.06582325 0.33998224 0.25737938 0.31875607 0.15022674 0.40218896
0.44237423 0.15715615 0.4122687 0.30214363 0.32445186 0.9604204 0.3962268 0.19544119
0.0928832 0.839763 0.47023636 1.0835105 -0.17312919 0.46404526 -0.10090708 0.14671624

0.bias f4 [64]
00000000: 6cad 4f40 29b3 4640 f822 3c40 7cef 5640
00000010: 643e 4d40 29c2 6ebe ee41 2f40 4e50 aebe
00000020: 0d15 4b40 1bbf 4540 6eab acbe 8b99 3340
00000030: dce1 543f 1286 4640 8a77 3040 873e 3240
00000040: f682 4f40 a955 4740 0021 5940 34ce 4a40
00000050: 5b8f 1840 f964 2640 2a12 4940 d953 5540
00000060: 13f3 ed3f 3ccf 4540 c444 a3be 6e32 2140
00000070: 3866 5140 5d18 4e40 948d e7be 34a7 4040
00000080: 609c 09be ddf4 fa3f de10 5240 b7cd 2340
00000090: b20b 30be 69c0 05be 1bfb 4540 f5c2 4340
000000a0: 1b83 eb3f a85c 5040 cf91 2340 80ad 4740
000000b0: 7971 3140 b645 623e bb4d 5040 4490 4e40
000000c0: 5724 5940 9ae9 4740 558c 5440 f5e5 4f40
000000d0: 2859 383f e60d 2240 ceb0 1a40 faf8 4740
000000e0: abfb 983f 7f2d 5740 9c32 3340 646e 3040
000000f0: 172c 3f40 c8d1 2c40 a555 4f40 fecc 5940
3.2449598 3.104685 2.9396343 3.358367 3.206933 -0.23316254 2.738399 -0.34045643
3.1731598 3.0897892 -0.3372454 2.8062465 0.83157134 3.101933 2.757296 2.7850664
3.2423682 3.1146033 3.3926392 3.1688356 2.3837497 2.599913 3.1417336 3.3332427
1.8589805 3.0907736 -0.31888402 2.518703 3.271864 3.220237 -0.45225203 3.0102053
-0.13438559 1.9605976 3.2822795 2.5594308 -0.17191961 -0.1306168 3.0934513 3.0587742
1.8399385 3.2556553 2.5557745 3.1199646 2.7725508 0.22096905 3.2547443 3.2275553
3.392843 3.123633 3.3210652 3.2484105 0.7201104 2.5320983 2.4170413 3.1245713
1.1951803 3.3621519 2.799964 2.7567377 2.987066 2.700304 3.2396023 3.4031367

2.weight f4 [7, 64]
00000000: 66fb 9d3f 6fbb d13f dd9b 8f3f 0403 a23f
00000010: a478 a63f d153 e83e 224e b23f fa8e 0bbe
00000020: 1f12 ba3f e762 953f 2486 383f 2236 a63f
00000030: de71 ae3f 2bba ab3f cb28 b83f c8d2 dc3f
00000040: 0e3a b63f 6973 8f3f b775 f13f d4dd a13f
00000050: b4bd 9b3f df06 ad3f 4231 8b3f 8486 d23f
00000060: 131e c43f 1fe3 c13f 4318 1b3f 78cc 9e3f
00000070: dd31 8f3f ebde bc3f 8deb 173f 46e3 dc3f
00000080: dd78 3b3f 69fa 973f bf7f c83f 9957 a63f
00000090: 49dd fe3e 3c03 2f3f f07a aa3f d157 c93f
000000a0: 9126 aa3f ee6c f43f c211 cb3f 9a5d c33f
000000b0: 70be 8b3f c932 7e3e cc48 943f c109 a63f
000000c0: 2382 a73f 132f c83f ba8a 9e3f 0458 a73f
000000d0: 29ca 4b3f 1243 473f b4eb d03f e61a d53f
000000e0: 96ab 963e 0229 9f3f d618 a83f c92b d93f
000000f0: 1836 9b3f ff15 bd3f 285c ab3f 0d82 b63f
00000100: c524 c43f 30a0 f23f 947c 9d3f 22fa bc3f
00000110: f6ec b83f cd4f 36bf 2b9d c73f f9ec 85be
00000120: 3caa d93f f7af 813f 81f4 87bf 617a b33f
00000130: 0860 f23e 1530 bf3f 9fbd 9b3f 21b5 d43f
00000140: 845e ca3f b4d7 9c3f 746f 0740 07bb a33f
00000150: 1801 803f 6283 c33f d332 aa3f 32ee 0240
00000160: 0635 963f 3df7 ee3f 53c4 533e ed8b b43f
00000170: 659b be3f 1aef e03f 5a90 94bf 193e f73f
00000180: 45dc b33e 02c3 c23f b385 ed3f 8a84 c83f
00000190: 0be6 33bf c51c cabe 2548 d33f 771b 0640
000001a0: 0ad1 5a3f 8606 0540 b537 e63f 7a2b e13f
000001b0: 0ab2 973f bb14 b1bd aba4 a53f 566e ad3f
000001c0: f685 b63f 157c 0540 0882 bc3f f19f b63f
000001d0: ee2e 3bbd 2147 9f3f bb26 0940 e2b1 0240
000001e0: 4c13 dd3e 39bc b83f cda1 c53f fdbd 0540
000001f0: 69ae 973f ab1b b63f e3f0 b83f 36b3 bb3f
00000200: f16e d13f a7f7 0940 e47f ca3f eab8 ce3f
00000210: a602 b63f 519e dbbf 33a3 a43f cb87 c6bf
00000220: 3770 0240 bc56 923f 1c91 0ebf cbee 0840
00000230: 27a0 e9be 623b c23f 5173 e03f 4d35 f63f
00000240: 98d2 f23f b4bf 893f 685a 1e40 195d c43f
00000250: 4e35 813f bb81 8c3f 01a3 8f3f 723c 0540
00000260: 9ff1 4f3f f463 0b40 40b2 b3bf 54ac d63f
00000270: 6505 ce3f 04a0 fa3f ebd6 acbe 6a33 0040
00000280: d6ae eebf fac9 f93f bf6c 0640 c95c c73f
00000290: 52ee dfbf 36ee c1bf c71d f63f 0618 1340
000002a0: f808 b13f fff9 1540 fe99 0540 a3e8 ee3f
000002b0: a531 593f aef6 d0be 9c7d db3f cfd1 b73f
000002c0: 07d4 c73f 0c23 0640 4327 ce3f 11d8 b43f
000002d0: 2fc2 ac3f b8a5 5a3f 452c 0f40 041a 0640
000002e0: cce1 7cbd f8f4 d33f f177 963f c27c fe3f
000002f0: 61cb e93f a964 c93f e77d bd3f 9dae e33f
00000300: cb9d bc3f be69 f43f bade a43f 7869 a83f
00000310: 52a1 9f3f b5f0 a23e bd58 c73f f4f3 61bd
00000320: 2768 cf3f 3c61 a43f 0c87 85be 53bf ba3f
00000330: 1207 c43f 4b91 af3f 2857 993f 2c07 ca3f
00000340: 7c35 b63f 5fb8 913f 9a25 f23f 6131 a93f
00000350: 102f db3f 4e5a af3f 5bfe aa3f 709d f33f
00000360: e782 de3f c788 e13f 16da 7bbf fe56 c13f
00000370: 4d92 b53f 758f d03f 7dcc 7abf e85b df3f
00000380: b587 b5bd 96f1 d03f b8a8 df3f 7ac0 da3f
00000390: bdc1 3b3e 0631 0bbf b41c d43f b14b f33f
000003a0: 1442 d13f e4ff 0940 c26a a23f e1c4 db3f
000003b0: 33c5 ab3f f3cc 123f 99cf 9d3f 54d4 b13f
000003c0: dcdc b03f e28b ea3f b09e b83f 94e7 a93f
000003d0: ea03 6b3f bbfe ab3f 84d3 ae3f c65d e83f
000003e0: 3b73 913f 4044 c93f f2b1 933f afbd b73f
000003f0: f9b9 ad3f 32b3 e63f a9fc bd3f 31ef ac3f
1.2342346 1.6385325 1.1219441 1.265717 1.3005567 0.45376447 1.3930094 -0.1362876
1.453678 1.1670808 0.7207968 1.298527 1.36285 1.3416189 1.4387449 1.7251825
1.4236467 1.1207095 1.8864049 1.2645822 1.2167268 1.3517722 1.0874407 1.6447301
1.5321678 1.5147437 0.60583895 1.2406149 1.1187092 1.4755529 0.59343797 1.7256858
0.732313 1.1873294 1.5663985 1.2995483 0.49778202 0.6836431 1.3318768 1.5729924
1.329302 1.9095743 1.5864794 1.526294 1.0917492 0.2482406 1.1584716 1.2971727
1.308659 1.5639366 1.2386086 1.3073735 0.79605347 0.77836716 1.6321931 1.6648834
0.29427785 1.243439 1.3132579 1.6966487 1.2125883 1.4772338 1.3387499 1.4258438
1.5323721 1.8955135 1.2303643 1.4763834 1.4447315 -0.71215516 1.5594839 -0.26157358
1.7005076 1.0131825 -1.0621492 1.4021722 0.4733889 1.4936548 1.2167243 1.6617776
1.5810094 1.2253327 2.1161776 1.2791451 1.0000334 1.527447 1.329676 2.0457883
1.1734931 1.8669201 0.2068036 1.4105202 1.4891173 1.7572968 -1.1606553 1.9315826
0.3512899 1.5215762 1.8556427 1.5665448 -0.7027289 -0.39475074 1.6506392 2.0954263
0.8547522 2.0785232 1.798575 1.7591393 1.1851208 -0.08646532 1.2940878 1.3549297
1.4259632 2.0856984 1.4727182 1.426756 -0.045699053 1.2443582 2.142989 2.042107
0.43178785 1.4432441 1.5440003 2.089721 1.1850101 1.4227194 1.4448513 1.4664066
1.6361982 2.1557405 1.5820279 1.6150181 1.4219558 -1.7157689 1.2862304 -1.5510191
2.038099 1.1432719 -0.5569017 2.1395748 -0.4563 1.5174372 1.7535192 1.9235016
1.8970518 1.0761628 2.474268 1.5340911 1.0094392 1.0977091 1.122162 2.0818143
0.8122806 2.1779757 -1.4038773 1.677134 1.6095396 1.9580083 -0.3375772 2.003138
-1.8647106 1.9514763 2.1003873 1.5575191 -1.7494605 -1.5150821 1.9227837 2.2983413
1.3830862 2.3433836 2.087524 1.8664745 0.84841377 -0.40813202 1.7147708 1.4360904
1.5611581 2.095889 1.6105732 1.4128438 1.349676 0.85409117 2.237077 2.0953379
-0.061738774 1.6559134 1.1755353 1.9881823 1.8265191 1.5733844 1.4804047 1.7787663
1.4735655 1.909477 1.2880471 1.3157187 1.2471106 0.3182427 1.5573956 -0.055164292
1.620366 1.2842174 -0.26079595 1.4589638 1.5314658 1.3716215 1.1979723 1.5783439
1.4235072 1.138439 1.8917725 1.3218194 1.7123737 1.3699434 1.3358873 1.9032421
1.7383698 1.7619866 -0.9837965 1.5104673 1.4185272 1.629378 -0.97968274 1.7449923
-0.08863775 1.6323726 1.7473364 1.7089989 0.18335624 -0.5437168 1.657126 1.9007474
1.634829 2.1562433 1.268883 1.7169458 1.3419555 0.5734398 1.2328979 1.3892922
1.3817401 1.8323939 1.4423428 1.3273797 0.9180285 1.3437113 1.36583 1.8153617
1.136329 1.5723953 1.153868 1.4354762 1.3572379 1.8023436 1.4842731 1.3510495

2.bias f4 [7]
00000000: 1b3d b93f 762d e33f fed2 e53f edf9 c13f
00000010: a315 a13f 77d2 9f3f 292e c33f
1.4471773 1.7748249 1.7955015 1.5154396 1.2584728 1.2486104 1.5248462

0.weight f4 [64, 84]
00000000: 1124 a0bd 3bf0 b23e 163e ca3c 3e92 f13c
00000010: 9ff8 44be f624 943e ef86 e43e 000e b03e
00000020: e096 203e d9a0 513d b589 2e3d 9339 433e
00000030: 065b 03be 345f 1f3d 5f87 a53d 5a10 8d3d
00000040: be64 04be 4682 18bd 318f a9bd 66d2 d63d
00000050: 9d22 ce3e b0c0 eb3e 5df3 423c 6e12 653e
00000060: 4341 473d 322d c8bd c434 893d 4c13 833c
00000070: fd94 0e3e 3944 12bd 8bf6 0e3d 7ee7 c43b
00000080: 8456 c4bd 2710 3a3d cbc3 5b3e 2be7 ac3e
00000090: 138d 92bd 1a8d 50be 95d9 b6bd ce2d 033e
000000a0: f639 7fbe 64ab 4e3e 1aa2 183e b263 813b
000000b0: ac3a 6d3e 1633 debe 93dc dabe 9f64 003e
000000c0: 7bf8 973e aebb 253f a3de 97bc 49b3 e53b
000000d0: f940 b5bd 8d02 e43d 692d 09bd fcc9 cb3e
000000e0: 0a8f 31be 3a08 863e 1c95 723e 1bb8 e13d
000000f0: 6cfc cfbd 170f 003e 79a6 8c3e fcdc 063f
00000100: d5ad 063e aad9 12bd eca8 f9bd e34a 573e
00000110: 8dfe b2bc 02a2 073f f7ed 983e 0f9e 913e
00000120: 50c7 a63e 72f4 723e f420 2a3f b32d f73e
00000130: 76e3 ce3e 4a2a 793f 9bb8 683d 00ee 803e
00000140: ed89 523e 0a0a 643f 02a1 973e 4787 5a3f
00000150: 464d b7be 8189 c43e 77a2 8ebe b3db 24be
00000160: a6b4 abbd e0ed d33d 1313 0e3e 0f4c a23d
00000170: d8d8 5e3e eb0b 88bd 04f3 5dbe e8c4 a2be
00000180: 6755 31be 8350 d13d b483 96be 4b85 6fbd
00000190: dc17 09bf db32 62be 1aad 68bd 31d5 593e
000001a0: 7cfb 2a3e 9124 f03e db9c fc3d cace 32be
000001b0: 1cbe d8be fa68 10bf 10e6 09bd 2afa c5bd
000001c0: bc20 55be 7fcf cabd 0c78 07be 7cba c7be
000001d0: 9b13 7ebe ba27 123e 4ca6 dc3e f7fc 143e
000001e0: 73fc 0ebe 2095 833d 2116 bebe eb3e 1bbf
000001f0: 4c4b c7bd 8924 0fbc fff1 a9be 0190 833d
00000200: 4bdf 3fbb 928b debe 5685 ecbe 5b24 8d3d
00000210: 717e 803e 76ce 133f 4a56 033d 7f68 0ebf
00000220: b1a8 c1be 3a99 26bf e458 103e b412 57be
00000230: b300 81be 8f54 663e 5241 a73c 3480 993d
00000240: dca0 cd3d f666 d33d 1811 ee3d b3d9 083f
00000250: d69e 763e ca0d bfbe f22a b5be 0db0 9bbe
00000260: 91a2 41be 6d3f 1d3e e8ed 783e 2864 873e
00000270: 36f1 533e 61f3 fa3c 594d cb3e 64b5 ee3e
00000280: 6aa0 2b3d 03fa 623f 9c08 213e 0e25 f73d
00000290: 9e8c fabe 8b1a 263f 0e7e 20bc 78c6 353f
000002a0: 4b97 17be b7da bc3e a7b6 65be ed3a 4e3d
000002b0: 877b 95be 2990 a43e d9ea d03d 6ffd 8d3e
000002c0: 7da1 123e a31f d63c bf0e 4c3e b889 ffbd
000002d0: e096 7ebe 230b b03e 94ac b4bd 460e ee3c
000002e0: 8a52 e03d d674 863c 5e4b 88bd 6b7e c13d
000002f0: fbec a33e 1fb3 e83e 5303 ed3d 35f2 193e
00000300: 44f5 ff3d b201 093e 955d 833e 7af6 53be
00000310: d379 303d 4f7c 483d 9a15 e83c b84c c23d
00000320: 3023 d93d 4960 953d ea39 993e 713f 413e
00000330: 0052 4d3d 8459 c3bd d44b 11bd becf de3d
00000340: 981a ecbd 3ea7 4c3e 4fa4 0dbd 30c1 97bd
00000350: fedc 883e 7dbf e2be ff1c 7dbe 2981 733e
00000360: 2755 003e b1c8 b33e ac84 a33d 636d 85be
00000370: 7f60 4d3e 6f12 113e af7c 1c3b e296 873e
00000380: 560d 70be fc0d 5c3d 45cb 263e a1e6 983e
00000390: 85c7 34be 57ca 223e 0883 bf3e d29e d83e
000003a0: 46b2 843e f743 20be 520f a73d 3174 ac3e
000003b0: f452 833e c5d4 9f3e ab7d 113e a3b9 c73e
000003c0: 48b8 d73e f90b 153e 7de3 c33e a003 993e
000003d0: a16e a23e e152 6c3f c169 c93e 6f55 323e
000003e0: a92a c33d f90e 4d3f c425 ef3e f5d0 853f
000003f0: 0718 29be d765 ec3e 9cfd c2bd 8bd2 153e
-0.07819379 0.34948906 0.024687808 0.029488679 -0.19235466 0.2893445 0.44634196 0.3438568
0.15682554 0.051178787 0.042611796 0.19064932 -0.12827691 0.038909152 0.080824606 0.068878844
-0.12929055 -0.037233613 -0.08279265 0.10489349 0.40260783 0.46045446 0.011898843 0.22370312
0.048646223 -0.09774245 0.06699517 0.016000412 0.13924022 -0.035709593 0.03490309 0.0060090413
-0.09586814 0.04542556 0.21461408 0.33770117 -0.07155814 -0.20366326 -0.08928219 0.12810442
-0.24924454 0.20182568 0.14905587 0.003948652 0.23166913 -0.4339835 -0.4274641 0.12538384
0.29681763 0.647395 -0.018538779 0.007009898 -0.08850283 0.11133299 -0.033490572 0.3980254
-0.17339721 0.2617815 0.23689693 0.110214435 -0.101555675 0.12505756 0.2747076 0.52680945
0.13152249 -0.035852112 -0.121904224 0.21024661 -0.021849895 0.5298158 0.29869053 0.28440902
0.32573938 0.23726061 0.6645653 0.48277053 0.40407914 0.97330153 0.05681668 0.2518158
0.20560427 0.8907782 0.29615027 0.85362667 -0.35801142 0.38386157 -0.27858326 -0.16099434
-0.08384065 0.103481054 0.13874464 0.07924663 0.21762407 -0.06642898 -0.21674734 -0.31790853
-0.17317735 0.102204345 -0.29397357 -0.058476727 -0.5355203 -0.22089712 -0.056805708 0.21272732
0.16697496 0.46902898 0.12334605 -0.17461696 -0.42332542 -0.5641018 -0.03366667 -0.09666856
-0.20813268 -0.09902858 -0.13229388 -0.39009464 -0.24812166 0.14272967 0.43095624 0.14549623
-0.13963489 0.06424928 -0.37126258 -0.6064288 -0.097311586 -0.008736738 -0.3319244 0.06423951
-0.002927738 -0.4346586 -0.46195477 0.068917 0.25096467 0.5773691 0.032064714 -0.556282
-0.37824014 -0.65077555 0.14096409 -0.21003228 -0.25195846 0.22493194 0.02041689 0.07495156
0.10040447 0.103223726 0.11624354 0.5345718 0.24084029 -0.37315208 -0.35384327 -0.30407754
-0.1890967 0.15356226 0.24309504 0.264436 0.20697483 0.03063363 0.3970745 0.46622765
0.04190103 0.8866274 0.1572594 0.120676145 -0.48935407 0.6488425 -0.009795679 0.71005964
-0.14803807 0.36885616 -0.22432958 0.050349165 -0.29195806 0.32141235 0.10201044 0.27732417
0.14319415 0.026138132 0.199275 -0.1247744 -0.24862242 0.34383497 -0.08821979 0.02905954
0.10953243 0.016413134 -0.06655 0.094479404 0.3201674 0.4544916 0.115729 0.15033801
0.124979526 0.13379553 0.25657335 -0.20699492 0.04308493 0.048946675 0.028330613 0.09487289
0.106024146 0.072937556 0.29926997 0.18871857 0.05012703 -0.09538558 -0.035472706 0.108794674
-0.1152851 0.19985673 -0.034580525 -0.074098945 0.26731104 -0.4428672 -0.24718092 0.2377974
0.12532483 0.35114053 0.079842895 -0.26060018 0.20056342 0.14167188 0.0023878028 0.26482302
-0.23442587 0.053724274 0.16288479 0.29863456 -0.17654236 0.15897499 0.37404656 0.4230867
0.25917262 -0.15650927 0.08157219 0.33682397 0.25649226 0.31217018 0.14208095 0.39008817
0.42132783 0.14555348 0.38259497 0.29885578 0.31725028 0.92313963 0.39338496 0.17415403
0.09529621 0.8010097 0.467085 1.0454394 -0.16513072 0.46171448 -0.095210284 0.14631097

0.bias f4 [64]
00000000: 352b 4c40 8d3b 4340 5d99 3840 546c 5340
00000010: efb7 4940 5500 6bbe 9ebb 2b40 b00b acbe
00000020: d198 4740 1233 4240 0662 a8be 161d 3040
00000030: d790 493f f404 4340 64f4 2c40 efc2 2e40
00000040: c705 4c40 4fc5 4340 5cae 5540 2148 4740
00000050: 3407 1540 1cdb 2240 5087 4540 72dc 5140
00000060: e7e6 e63f 3257 4240 5c37 a2be 00ae 1d40
00000070: 29e2 4d40 089d 4a40 1c40 e2be 262e 3d40
00000080: 6b5d 13be c7df f33f f098 4e40 9d4a 2040
00000090: 0f0c 28be 564f 06be cf7e 4240 124c 4040
000000a0: 6668 e43f 77e8 4c40 c60e 2040 3732 4440
000000b0: aae1 2d40 ff7a 513e dbc9 4c40 770b 4b40
000000c0: c2a2 5540 ae6f 4440 eb09 5140 9c60 4c40
000000d0: e0fd 293f c77a 1e40 f330 1740 9780 4440
000000e0: 5236 923f 81ad 5340 cda8 2f40 18ef 2c40
000000f0: c7a9 3b40 3750 2940 8bd1 4b40 694e 5640
3.1901371 3.0505097 2.8843606 3.3034868 3.1518514 -0.22949345 2.6833262 -0.33602667
3.1187022 3.034367 -0.32887286 2.7517753 0.78736633 3.0471773 2.7024164 2.7306478
3.1878526 3.0589178 3.338767 3.1137774 2.3285646 2.5446234 3.0863838 3.27908
1.8039216 3.036572 -0.3168286 2.463745 3.2169287 3.1658344 -0.44189537 2.9559417
-0.14391105 1.9052666 3.2280846 2.504554 -0.1641085 -0.13116202 3.0389898 3.004643
1.784436 3.2016885 2.5009017 3.0655649 2.7168984 0.20457076 3.1998203 3.1725748
3.338059 3.0693164 3.2662303 3.1933966 0.6640301 2.4762437 2.3623626 3.0703485
1.1422827 3.3074648 2.7446778 2.7020931 2.9322374 2.645521 3.1846645 3.3485358

2.weight f4 [7, 64]
00000000: 3104 9a3f 8664 cd3f 869e 8b3f 8326 9e3f
00000010: 4d95 a23f 3406 dc3e 5e3b ae3f 90a0 20be
00000020: cbee b53f af9c 913f 122e 333f 18fe a13f
00000030: 23f9 a93f 6ad2 a73f c339 b43f 6d84 d83f
00000040: 7838 b23f 85ac 8b3f 9503 ed3f 73f9 9d3f
00000050: f0d4 973f 43fd a83f 4d60 873f 7b4f ce3f
00000060: 0acd bf3f ec8a bd3f 27de 143f 89ad 9a3f
00000070: bd40 8b3f 0ed3 b83f d582 123f c68c d83f
00000080: ab21 343f 5f72 933f 702f c43f 8c4f a23f
00000090: a722 f33e 42f8 283f ed83 a63f 6de7 c43f
000000a0: 18bd a53f 5bd8 ef3f 15a3 c63f 332e bf3f
000000b0: 70ef 873f baad 613e e965 903f d62f a23f
000000c0: f0a6 a33f e2bb c33f 7bab 9a3f c975 a33f
000000d0: 21ba 423f 8979 3f3f 551d cc3f a7bb d03f
000000e0: 88b4 873e 603e 9b3f 8536 a43f 4da1 d43f
000000f0: c73a 973f a4aa b83f 6b77 a73f 8b9a b23f
00000100: fcf9 be3f b102 ed3f 6257 983f 34ea b73f
00000110: c0e6 b33f 92e7 36bf 9451 c23f 91d0 87be
00000120: eb28 d43f 83ef 793f cdc7 84bf e31d ae3f
00000130: 415f df3e b413 ba3f 7ea9 963f 6348 cf3f
00000140: 142c c53f abfd 973f 4395 0440 b2b8 9e3f
00000150: 44f4 753f c157 be3f ec47 a53f e22a 0040
00000160: 01e9 903f d75b e93f 0aa4 593e a73a af3f
00000170: 877a b93f 1ca1 db3f 2bde 90bf 418d f13f
00000180: 6031 ac3e aaf2 bc3f 0305 e83f eb20 c33f
00000190: 2cdf 34bf 6d26 c7be 4ef3 cd3f 453c 0340
000001a0: 7c1f 503f 9d28 0240 2f68 e03f aebf db3f
000001b0: eadc 923f d080 d4bd 1493 a03f 6e70 a83f
000001c0: 088c b13f d69b 0240 ea68 b73f a9a8 b13f
000001d0: 6a5f b2bd 183c 9a3f af26 0640 21c3 ff3f
000001e0: d385 cb3e 73a5 b33f 9a81 c03f 4fdc 0240
000001f0: 1587 923f f698 b03f 6add b33f 829d b63f
00000200: b2a4 cb3f eaf0 0640 2ba0 c43f 8ef4 c83f
00000210: 8b51 b03f dfcf d6bf 1cfb 9e3f 1c38 c1bf
00000220: 83cd fe3f d6f9 8c3f b39a 07bf 71db 0540
00000230: 9ca1 efbe 4590 bc3f d07c da3f 1439 f03f
00000240: 34e3 ec3f 5459 843f 7944 1b40 48a0 be3f
00000250: b0b4 773f d101 873f ff3a 8a3f fb3b 0240
00000260: 5813 453f 5f59 0840 e57e aebf 03bc d03f
00000270: 193e c83f a1aa f43f cda1 a0be 1d6a fa3f
00000280: 06f8 e8bf ef6f f33f 3569 0340 4e7e c13f
00000290: 5d31 dbbf 74d8 bcbf 6e2d f03f 0501 1040
000002a0: f701 ab3f 77e5 1240 ee71 0240 3807 e93f
000002b0: 1ff1 4e3f afe8 c8be eca6 d53f f12e b23f
000002c0: a020 c23f ab17 0340 cf62 c83f a52f af3f
000002d0: cf46 a53f 8e22 503f 5101 0c40 8613 0340
000002e0: b6de b4bd 3b2d ce3f 48e1 903f 6f50 f83f
000002f0: 3ed1 e33f 7584 c33f acd0 b73f bcdb dd3f
00000300: b12a b83f c07b ef3f 5172 a03f 7617 a43f
00000310: f34f 9b3f ddbe 983e 53dd c23f bc7b 97bd
00000320: ad77 ca3f 6c42 a03f b09f 7dbe b81f b63f
00000330: b26e bf3f ae24 ab3f f704 953f 663f c53f
00000340: f3d3 b13f 097e 8d3f 352f ed3f b4e2 a43f
00000350: fabd d63f 56dd aa3f afb9 a63f b2bc ee3f
00000360: eab7 d93f 98c8 dc3f 8d65 7cbf ade4 bc3f
00000370: 6d38 b13f 44e9 cb3f e1fc 76bf 0e8d da3f
00000380: 4a5c e7bd e0ca cb3f a0dd da3f 8837 d63f
00000390: baf8 2a3e d1f1 0dbf ee8e cf3f 2a32 ee3f
000003a0: ac65 cc3f 7865 0740 1314 9d3f 7e13 d73f
000003b0: 6c8e a73f d17f 0b3f 5073 993f 3394 ad3f
000003c0: 219c ac3f b36b e53f 764d b43f 289d a53f
000003d0: d646 633f 41af a73f 169d a93f 178d e33f
000003e0: 3bed 8c3f afec c43f 0e4c 8f3f e9ab b23f
000003f0: 535c a93f 88ca e13f 029f b93f 7c94 a83f
1.2032529 1.6046302 1.0907753 1.2355503 1.2701813 0.42973483 1.3611867 -0.1568625
1.4213499 1.1375941 0.6999217 1.2655668 1.3279155 1.3111088 1.4080127 1.6915413
1.3923483 1.0912024 1.8516718 1.2341751 1.1861858 1.3202289 1.0576264 1.6118006
1.4984448 1.480802 0.5815148 1.2084209 1.0879132 1.4439409 0.57230884 1.6917961
0.70363873 1.1519278 1.5326977 1.2680526 0.47487375 0.6600381 1.300901 1.5383126
1.2948332 1.8737901 1.5518519 1.4935974 1.0619946 0.22038928 1.12811 1.2670848
1.278532 1.5291712 1.2083582 1.277032 0.7606526 0.7479482 1.5946451 1.6307267
0.26504922 1.212841 1.2829138 1.6611725 1.1814812 1.4427075 1.3083318 1.3953413
1.4920039 1.8516446 1.1901667 1.4368348 1.4054794 -0.714471 1.5181146 -0.2652631
1.6574987 0.9763109 -1.0373474 1.3602871 0.4362736 1.4537263 1.1770475 1.6193966
1.5404077 1.1874288 2.0716102 1.2400115 0.96075845 1.487053 1.2912574 2.0026174
1.1321107 1.8231152 0.21253982 1.3689774 1.4490517 1.7158542 -1.13178 1.8871232
0.3363142 1.4761555 1.812653 1.5244421 -0.70653033 -0.38896504 1.6089876 2.0505536
0.8129804 2.0337288 1.7531794 1.7167871 1.1473668 -0.103761315 1.2544885 1.3159311
1.3870859 2.0407615 1.4328892 1.3879596 -0.08709605 1.2049589 2.096111 1.9981424
0.39750537 1.4034866 1.5039551 2.0446966 1.1447474 1.379668 1.4051945 1.4266818
1.5909636 2.1084542 1.5361379 1.5699632 1.3774885 -1.6782187 1.2420382 -1.5095248
1.9906467 1.1013744 -0.5297043 2.0915186 -0.46802986 1.4731528 1.706934 1.8767419
1.8506837 1.0339761 2.4260542 1.4892664 0.9676008 1.0547429 1.0799254 2.034911
0.7698264 2.1304548 -1.3632475 1.6307377 1.5643951 1.9114572 -0.31373444 1.9563633
-1.8200691 1.9018534 2.0532963 1.511667 -1.712444 -1.4753556 1.8763864 2.2500622
1.3359975 2.2952554 2.0382037 1.8205328 0.8083667 -0.39240023 1.6691566 1.3920575
1.5166206 2.0483196 1.5655154 1.3686415 1.2912234 0.81302726 2.1875803 2.0480666
-0.08831541 1.6107553 1.131875 1.9399546 1.7798231 1.5274798 1.4360557 1.7332683
1.4388028 1.870964 1.2534887 1.281966 1.2133774 0.29833117 1.5223793 -0.07396647
1.5817772 1.252027 -0.24767947 1.422843 1.4955657 1.3370569 1.164214 1.5409973
1.3892807 1.1054088 1.8530031 1.2881684 1.6776726 1.3348796 1.3025416 1.8651335
1.7009251 1.7248716 -0.98592454 1.4757286 1.3845345 1.5930562 -0.9647961 1.7074296
-0.112968996 1.5921288 1.7098885 1.6735697 0.16696444 -0.5544711 1.6215494 1.8609059
1.5968528 2.1155682 1.2271751 1.6802824 1.3090339 0.5449191 1.1988316 1.3560852
1.3485147 1.7923492 1.4086139 1.2938585 0.8877996 1.3100358 1.3251064 1.7777432
1.1009897 1.538473 1.1195085 1.3958713 1.32313 1.7639933 1.450165 1.3170314

2.bias f4 [7]
00000000: 9d58 b53f a6b6 dd3f c6c5 df3f 6059 bd3f
00000010: 3278 9d3f 17b5 9c3f 5773 be3f
1.4167668 1.7321365 1.7482231 1.47929 1.2302306 1.2242764 1.4878949
