saved_models/DQN/using_elo_for_matchmaking/model2.pth (torch, 49972 bytes, 8 tensors)

0.weight f4 [64, 84]
000000 d1 40 d0 bc 26 63 a6 be 80 7e de be bc 62 e8 3d
       -0.025421532 -0.3249752 -0.43455887 0.11346957
000010 c9 de 3a 3e 25 36 31 3f f0 d6 f8 3b 35 df ad 3d
       0.18249048 0.69223243 0.007593982 0.08489839
000020 b1 3a 83 be e5 cb ef be 9a ee 76 3e ec a9 c6 be
       -0.25630715 -0.46835247 0.24114457 -0.38801515
000030 86 59 1f bf 2c c4 9f 3e da d6 f3 bd 04 e1 07 bf
       -0.62245977 0.31204355 -0.11906214 -0.5307772
000040 da 24 c9 be e3 bb 31 bd a6 93 43 be 7e f8 8a bd
       -0.39285928 -0.043392073 -0.19099292 -0.067856774
000050 6e e2 a6 bd bc 0b 10 3d ba d2 14 bf 40 b2 94 be
       -0.08148657 0.03516744 -0.58134043 -0.29042244
000060 ab 61 69 3e e4 d6 13 bf 01 79 4b be 1d 14 e1 3d
       0.22791164 -0.5774977 -0.19870378 0.109901644
000070 8e 88 00 be 65 5c 97 be 6b 61 7d bd 49 d5 4e bf
       -0.12552091 -0.2956268 -0.061860483 -0.807942
000080 4d e9 02 3e c5 b7 22 3f 73 d1 49 3e 6e e4 bc 3d
       0.1278431 0.6356166 0.19708805 0.09223257
000090 bb 5f 89 bf 67 db b3 bd e0 7f da ba e8 aa 0c bd
       -1.073234 -0.08782082 -0.001667019 -0.034342676
0000a0 c8 09 23 be 6f d8 01 3e 73 b4 fc bd e5 93 1e bf
       -0.159217 0.12680219 -0.123391055 -0.6194442
0000b0 04 d9 c8 be 21 59 be be bb de c9 be c0 ec f2 3d
       -0.3922807 -0.37177375 -0.39427742 0.11861563
0000c0 c7 49 6f be 47 7c a6 3e 6c 9c 40 be 9b 91 11 bd
       -0.23367988 0.3251669 -0.1880967 -0.03553925
0000d0 80 8d af be 05 50 52 3e 82 a9 3f bf 4f 05 bb ba
       -0.34287643 0.20538338 -0.74868023 -0.001426855
0000e0 48 9d 8b be 07 99 e5 be f6 77 54 be 55 47 e5 be
       -0.27268434 -0.44843313 -0.20748886 -0.44780985
0000f0 34 07 a3 be 67 ae a5 bc 1f f0 51 be 7c a4 3a be
       -0.31841433 -0.020224763 -0.20501755 -0.18226808
000100 a9 14 9f bd 69 15 f4 bd 5e e9 e5 be 95 1d 11 3f
       -0.077676125 -0.11918146 -0.44904608 0.56685764
000110 4d c4 b5 bd dd d2 76 be a3 35 72 3e de 24 37 bf
       -0.08875332 -0.24103875 0.23653273 -0.7154063
000120 81 bc 17 3e f4 97 df bd 81 33 08 bf 95 67 49 3e
       0.14818002 -0.10917655 -0.5320359 0.1966842
000130 24 1c 13 be b7 46 e0 be 24 89 80 3e 16 a5 e5 be
       -0.14366204 -0.4380395 0.2510463 -0.44852513
000140 c1 f0 2f bd dc cd a9 3f f6 7c 11 be 40 c3 80 3e
       -0.04295421 1.3265948 -0.14207825 0.25148964
000150 9d e4 d6 3e 57 58 26 bd c6 8b 40 bd 17 44 8b 3e
       0.41971293 -0.04061159 -0.0470083 0.27200386
000160 b1 2e 76 bd 70 27 21 3f 29 e2 98 3c 0e 98 5a 3b
       -0.060103122 0.629508 0.018662529 0.0033354792
000170 33 6c 29 3e cb c5 1e 3f 78 15 9c 3e 10 c1 a7 3d
       0.16545181 0.6202056 0.3048513 0.081911206
000180 16 c5 02 bf 19 d3 c3 3e 9a 02 24 3e 1d 5e 5d 3e
       -0.5108198 0.38246992 0.16016617 0.21617933
000190 a1 bd b0 be 70 95 b3 3e 03 2c ce 3c c2 a7 47 be
       -0.34519675 0.3507495 0.02516747 -0.19497588
0001a0 63 9e e8 bd cf 68 11 3e ae 9c ae be 05 48 00 3f
       -0.11358335 0.14200138 -0.34103912 0.50109893
0001b0 bd 64 df 3e 1d de 82 ba 32 ef 08 be de 3e 8d 3e
       0.43631545 -0.0009984408 -0.13372496 0.27587026
0001c0 a6 63 2c 3c 7e 89 a6 3e f3 d1 86 bc 00 e8 81 3d
       0.010521805 0.32526773 -0.016457533 0.063430786
0001d0 d2 3b 06 3e 24 bb 55 3f 54 be 03 3e bd 5b 47 3d
       0.13108757 0.8348868 0.12865573 0.048671473
0001e0 09 29 5d be 8d 75 9f 3e 5e fb 64 3e 24 40 00 3f
       -0.21597685 0.31144372 0.22361514 0.5009787
0001f0 0f 71 e7 bd 58 e1 b4 3e 59 a8 3b 3e 07 b7 16 3e
       -0.11300861 0.35328174 0.18325938 0.14718257
000200 f7 51 94 be c2 6a 0e bd ab 7d b9 3a b4 95 a0 3e
       -0.28968784 -0.03476978 0.0014151832 0.31364214
000210 47 1d 00 3b fe c5 58 bc 10 e9 ac 3e 67 b6 5c 3e
       0.00195487 -0.013230799 0.33771563 0.21553956
000220 c0 b0 8e 3e 0a d4 da 3e b9 a1 36 3d 0b 4e 76 3e
       0.27869225 0.42739898 0.044587824 0.24053209
000230 11 bf 8b 3e b0 30 86 3c 8c ea 30 3e 05 00 b0 be
       0.2729421 0.016380638 0.17276973 -0.34375015
000240 35 a9 14 3e 1f 85 36 3e 20 17 04 bd e5 55 8c bd
       0.14517672 0.17824219 -0.032248616 -0.068523206
000250 75 d5 23 bc 3a 2f e2 3e e4 e5 7a 3e f2 43 28 3f
       -0.009999623 0.44176656 0.24501759 0.65728676
000260 49 0e ee 3e 10 68 78 3e 1a d5 d5 3e 8e bf 0b 3e
       0.46495274 0.24258447 0.41764146 0.13647291
000270 3f 0e 04 3f 57 ed 42 3e ec eb 6c 3e b7 f5 bf 3e
       0.5158424 0.1903585 0.23136872 0.37492153
000280 35 f1 35 3e e0 50 6b 3e f1 86 d8 3e 39 5a dd 3c
       0.17767794 0.2298007 0.42290452 0.02702056
000290 8d c5 a6 3e b7 73 aa 3f 0f 36 2e 3f da a4 65 3f
       0.32572594 1.3316563 0.68051237 0.8970467
0002a0 bd 3f 86 3d 4c bf 49 be 52 26 8d be 74 2d 96 3d
       0.06555126 -0.1970188 -0.275683 0.07332888
0002b0 f2 5e 2f be d3 9e f4 3e 39 6e ba bd 04 c8 00 bd
       -0.17126063 0.47777423 -0.091030546 -0.03144075
0002c0 45 f4 06 be ae 33 cd 3e ba 09 a5 3e fb eb 9a bd
       -0.13179119 0.4007849 0.32233983 -0.07564541
0002d0 41 75 45 bf fb e0 30 3e 27 d9 49 be 0f 21 84 bd
       -0.7713204 0.17273323 -0.19711743 -0.06451618
0002e0 8b e1 1b bf 75 a3 10 be 6d 81 89 bc fc 2e 94 be
       -0.60891026 -0.14124854 -0.016785348 -0.28942096
0002f0 63 42 a9 bd 4c b2 bd 3c 15 cb f3 be 0f dc 52 3e
       -0.082646154 0.023156308 -0.47615877 0.20591758
000300 a3 3b da 3d ef 73 8d be f4 a8 d4 bd f1 a6 bb bd
       0.10655906 -0.27627513 -0.10383788 -0.09162701
000310 a3 48 ac bc e9 84 18 bf 53 33 b6 be a0 8c ce be
       -0.02103073 -0.59577805 -0.35586032 -0.40341663
000320 1a a8 14 be 58 fe 40 3f 0e e2 b5 bd ad 3d 6d be
       -0.1451725 0.753881 -0.08881007 -0.23168059
000330 d3 c7 65 be f5 40 40 3e d4 32 25 3d fd 82 75 bd
       -0.22439508 0.18774779 0.040331677 -0.059939373
000340 c6 d5 f2 bd a1 f8 68 bd af 3e 52 3d 40 80 cb 3d
       -0.1185718 -0.056877736 0.05132931 0.09936571
000350 d6 e7 16 bd f6 e7 1f bf 44 24 64 bd 96 63 97 3d
       -0.03684219 -0.6246332 -0.055698648 0.073920414
000360 ad e4 c2 bd 8d b8 c2 3d 95 18 55 3e 1d 07 2c be
       -0.09516273 0.095078565 0.20810159 -0.16799589
000370 58 76 b4 be 25 eb eb 3d 85 e1 94 be ae 66 a6 3e
       -0.3524654 0.1151946 -0.29078308 0.32500213
000380 69 0e b2 bd a5 b9 0c be bf 41 c7 bd 41 12 63 be
       -0.08694155 -0.13742693 -0.09729337 -0.22174932
000390 7a 02 db be e7 15 da 3e 89 bf d8 3c f6 26 f0 bd
       -0.42775327 0.42594835 0.026458519 -0.11726181
0003a0 5e ff 89 be e0 11 37 3e 41 43 da be a4 8a f2 3e
       -0.26952642 0.17877913 -0.42629436 0.473714
0003b0 6f 34 4e 3e 81 fe 30 3e 20 ba 23 3f 1b 9e 88 bf
       0.2013719 0.17284586 0.6395588 -1.067325
0003c0 f6 29 ba 3e 42 d9 ca 3d c1 85 8b be a9 eb f0 3e
       0.3636014 0.0990472 -0.27250484 0.47054794
0003d0 e2 f1 fb bd 1d a2 8c be 4b 6b b2 3e 64 54 e7 be
       -0.12301995 -0.27467433 0.34847483 -0.45181572
0003e0 91 e2 2a 3d 6f 9d 8d 3f af f7 97 3e 6d 8d 19 3f
       0.041719977 1.106367 0.29681155 0.59981424
0003f0 be 61 8a 3e a1 82 45 be 4d b1 9c be f4 b2 86 be
       0.27027696 -0.19288112 -0.3060402 -0.26308405

0.bias f4 [64]
000000 a9 fd 1b 40 ef 1c 22 40 64 30 22 40 59 24 0f 40
       2.4373572 2.533016 2.5342035 2.2365935
000010 68 47 23 40 6b bb 20 40 84 b1 dc 3f 7c 21 2d 3f
       2.5512333 2.511439 1.7241673 0.6762922
000020 27 b6 11 40 17 98 17 40 33 92 24 40 74 4e f8 3f
       2.2767427 2.3686578 2.5714233 1.9398942
000030 3b 2d 98 3f 0a ec 04 40 7d b0 10 40 08 87 26 40
       1.1888803 2.0769067 2.260772 2.6019917
000040 68 29 91 b9 f8 14 0d 40 97 84 34 3f f5 6a 0e 40
       -0.00027687405 2.2044048 0.70514816 2.2252781
000050 7c b2 15 40 97 f8 2c 40 2e 29 25 40 fe 06 1f 40
       2.3390188 2.7026727 2.5806384 2.4848018
000060 82 28 28 40 97 3c 2c 40 ec 2f f7 3f 6f de e9 3e
       2.6274724 2.691198 1.93115 0.45677516
000070 2e 10 21 40 d6 2b 0d 40 7a 2a 0b 40 e8 aa 26 40
       2.5166125 2.2058005 2.1744676 2.6041813
000080 38 99 c5 3e 89 94 27 40 33 71 26 40 95 ee 2b 40
       0.3859346 2.6184409 2.6006591 2.686437
000090 18 e4 92 38 2f 83 1f 40 76 cb 0e 40 cb 63 2c 40
       7.004308e-05 2.4923818 2.2311683 2.6935909
0000a0 1f aa 08 40 55 b4 25 40 58 15 24 40 74 c2 0f 3f
       2.1353834 2.5891316 2.5638027 0.56156087
0000b0 e1 65 00 40 61 22 13 40 d6 6b 21 40 05 33 10 40
       2.0062182 2.2989733 2.5222068 2.253114
0000c0 b1 d5 fb 3f 86 cb 25 40 b0 a0 1d 40 0f 13 18 be
       1.9674588 2.590547 2.4629326 -0.1485102
0000d0 10 5c 29 40 fd 67 17 40 dd f6 25 40 15 af 11 40
       2.646244 2.365722 2.5931923 2.2763112
0000e0 b5 cf 23 40 dc a1 14 40 4a 9a 1b 40 98 eb 22 40
       2.5595524 2.322379 2.431292 2.5456295
0000f0 50 62 75 be 94 94 0c 40 57 35 12 40 ab ed d5 ba
       -0.23963284 2.1965685 2.2845056 -0.0016321441

2.weight f4 [7, 64]
000000 d4 1c e5 3f 80 0c 8b 3f 70 15 cb 3f 6d 72 d5 3f
       1.7899423 1.086319 1.5865917 1.6675545
000010 28 e7 81 3f f8 32 dc 3f 12 a2 88 3f 82 bb 80 3e
       1.0148668 1.7203054 1.067446 0.25143057
000020 4c 59 8d 3f 18 7d 85 3f 69 8d d5 3f db f0 8f 3f
       1.1042876 1.04288 1.668378 1.1245378
000030 e6 78 a0 3f 27 17 db 3f a6 ea bb 3f b4 da 04 40
       1.2536895 1.711644 1.4680984 2.0758486
000040 50 6b ad bf 88 46 90 3f 9a 6a 3c 3d 74 f1 69 3f
       -1.3548374 1.1271524 0.0460001 0.91384053
000050 9f 03 81 3f c5 c1 9b 3f 09 bb 70 3f 56 f3 dd 3f
       1.007923 1.2168509 0.94035393 1.7339885
000060 98 c7 94 3f 4e 1b 91 3f 88 b7 94 3f eb 7a 3d bf
       1.1623411 1.1336458 1.1618509 -0.7401568
000070 1a 94 e0 3f bc 14 20 3f e2 c3 ee 3f 90 fc bb 3f
       1.7545197 0.6253164 1.8653529 1.4686451
000080 ae 7d e9 be 4b 94 9f 3f 1e fb f5 3f 32 37 a6 3f
       -0.45603698 1.246713 1.921726 1.2985594
000090 dd 5f 84 bf f2 cf fc 3f 35 0f b1 3f 17 e8 97 3f
       -1.0341755 1.975096 1.3832766 1.1867703
0000a0 f0 36 81 3f be 35 b2 3f b2 70 b0 3f de 6f 97 be
       1.009489 1.3922651 1.3784392 -0.29577535
0000b0 83 10 9c 3f 47 e2 bb 3f 34 fd 91 3f b8 a1 ac 3f
       1.2192539 1.4678429 1.1405396 1.3486853
0000c0 c1 0f 5e 3f b2 8f 8a 3f ba 96 8d 3f ee 2a bc bd
       0.8674279 1.0825102 1.1061623 -0.09187876
0000d0 bf 96 86 3f c4 b3 b5 3f 01 b9 9b 3f de 78 cf 3f
       1.0514754 1.4195485 1.2165834 1.6208761
0000e0 49 99 53 3f a0 8a da 3f c0 eb bb 3f 27 c4 c5 3f
       0.8265577 1.7073555 1.468132 1.5450486
0000f0 b5 36 8a bd c3 d5 f1 3f dc 95 e0 3f 20 18 32 bf
       -0.06748716 1.889336 1.7545733 -0.6956806
000100 d6 f7 c7 3f 19 c6 79 3f ff 58 b3 3f 8a db db 3f
       1.5622509 0.975679 1.4011534 1.7176373
000110 44 e6 81 3f 05 b0 b3 3f 6e 29 40 3f 60 86 74 3e
       1.0148396 1.4038092 0.75063217 0.23879385
000120 4f 25 4d 3f 50 99 90 3f b2 ca a0 3f d9 1f 9a 3f
       0.80135053 1.1296787 1.2561858 1.2040969
000130 be 6c b2 3e d3 33 c8 3f 11 99 ac 3f aa c2 c3 3f
       0.3484859 1.5640815 1.3484212 1.5293782
000140 55 bd 6f 3f 4a 24 85 3f 2a f0 d3 3e 43 13 8f 3f
       0.9364827 1.04017 0.41394168 1.1177753
000150 99 a6 87 3f 65 32 80 3f e8 19 80 3f 2b 68 c5 3f
       1.0597717 1.0015379 1.0007906 1.5422415
000160 b6 08 8a 3f 46 2f 6c 3f 43 4c 7d 3f 38 c4 a1 3f
       1.0783908 0.92259634 0.9894449 1.2638006
000170 27 74 9e 3f 7d f2 93 3f fc b8 b8 3f 01 06 bf 3f
       1.2379197 1.1558377 1.4431453 1.4923707
000180 5b f6 2b 3e b5 95 71 3f 81 af bf 3f ad 5c 9c 3f
       0.16793196 0.9436906 1.4975435 1.2215782
000190 10 72 ae 3b 50 6e c8 3f 12 ba b7 3f 47 66 80 3f
       0.005323656 1.5658665 1.4353659 1.0031213
0001a0 86 e8 8c 3f 2d c1 b6 3f 26 c5 6f 3f 54 c0 0c 3f
       1.100846 1.4277703 0.936602 0.5498097
0001b0 75 26 9e 3f 56 59 b5 3f f9 48 85 3f 0d 18 8d 3f
       1.2355486 1.4167888 1.0412894 1.1022965
0001c0 89 cc 26 3f fb 15 83 3f f2 67 75 3f 1b 72 2e 3f
       0.65155846 1.0241083 0.9586173 0.6814286
0001d0 9c 9b 86 3f fa 80 6c 3f ef 60 62 3f 07 29 a2 3f
       1.0516238 0.923843 0.8842916 1.266877
0001e0 72 c8 81 3f ab 0b d0 3f 62 a4 a2 3f 9b 8a a4 3f
       1.0139296 1.6253561 1.2706416 1.2854799
0001f0 7d b8 78 bc 1d cc d5 3f 48 8b ba 3f ef 52 38 3f
       -0.015180704 1.6702915 1.4573755 0.72001547
000200 fa c1 00 40 b0 40 97 3f a7 5c dd 3f c2 ea f8 3f
       2.0118394 1.1816616 1.72939 1.9446642
000210 81 4e 85 3f 3a e8 c6 3f 0c a4 91 3e c0 17 89 3f
       1.0414582 1.553962 0.2844547 1.0710373
000220 5e 85 54 3f 15 2e 81 3f 0c 80 b4 3f 7d 17 ca 3f
       0.83016 1.0092188 1.4101577 1.5788418
000230 90 33 bf 3f 31 af a4 3f 81 51 bd 3f 4c 04 d6 3f
       1.4937611 1.2865964 1.4790498 1.6720061
000240 1e 05 a4 bf 59 a8 8c 3f 5a 69 be 3f 01 f2 35 3f
       -1.2814062 1.0988876 1.4875901 0.71072394
000250 19 67 92 3f 15 d0 aa 3f 6c 54 8a 3f be a9 ce 3f
       1.1437713 1.3344752 1.0807014 1.6145551
000260 64 b0 76 3f 93 db 91 3f e5 14 44 3f 7f d7 08 be
       0.963629 1.1395134 0.7659438 -0.13363455
000270 8d 60 b6 3f 38 48 81 3f 2f 69 ea 3f c8 87 cd 3f
       1.4248215 1.0100164 1.831335 1.6057062
000280 aa 71 77 3f ed c0 78 3f 07 99 ec 3f af 28 94 3f
       0.9665781 0.9716938 1.84842 1.1574916
000290 26 11 a2 bf 72 77 dd 3f c4 ae f1 3f 0c c2 9b 3f
       -1.2661483 1.7302077 1.8881459 1.2168593
0002a0 b5 f0 8e 3f 41 36 9f 3f 99 52 a1 3f 46 a5 d6 be
       1.1167208 1.2438432 1.2603332 -0.4192297
0002b0 5c 29 94 3f b7 8e fb 3f 73 d3 7e 3f cf c5 b6 3f
       1.1575122 1.9652928 0.99541396 1.4279116
0002c0 ea 6b 88 3f 02 a2 8f 3f 07 77 a4 3f 76 ee 54 3f
       1.0657933 1.1221316 1.2848824 0.8317636
0002d0 c3 73 87 3f 72 16 89 3f 4e 86 9f 3f 32 73 a9 3f
       1.0582203 1.0709975 1.2462862 1.323828
0002e0 67 ea 6a 3f 46 a2 c8 3f 4d 00 d3 3f 98 90 be 3f
       0.9176392 1.5674522 1.6484467 1.4887877
0002f0 f6 15 91 bf 9e 70 b0 3f e7 45 ed 3f 38 3c c3 bf
       -1.1334827 1.3784368 1.8536958 -1.5252752
000300 4a f5 84 3f 86 44 47 3f bf 45 b8 3f 37 94 98 3f
       1.0387356 0.77838933 1.4396285 1.1920232
000310 a0 2e 70 3f fd ab a3 3f 68 f4 11 3f 64 d2 8d 3f
       0.93821144 1.2786862 0.5701356 1.1079831
000320 93 9c 21 3f d3 0d a5 3f d3 7b b2 3f 8b d4 9c 3f
       0.6312954 1.2894844 1.3944038 1.2252363
000330 cd 1c 57 3f bf 33 8b 3f aa c6 84 3f b9 c5 aa 3f
       0.8402832 1.0875167 1.0373127 1.334159
000340 bb 62 c6 3e 6f 72 92 3f f0 2a 44 3e fe f9 90 3f
       0.387472 1.1441172 0.19157004 1.1326292
000350 9a 35 9a 3f bf 96 91 3f f1 49 83 3f 93 4e a0 3f
       1.2047608 1.1374129 1.025694 1.2523979
000360 3d 9c 78 3f bd 0c 79 3f 08 aa 6c 3f 00 58 55 3f
       0.971134 0.9728506 0.9244695 0.833374
000370 9b cc c4 3f c9 67 66 3f ff 41 9c 3f f5 a7 9d 3f
       1.5374941 0.90002114 1.220764 1.2316881
000380 6b bb 01 3f 54 48 86 3f 3f 16 a0 3f 74 f0 93 3f
       0.506766 1.0490823 1.2506789 1.1557755
000390 e6 95 0b 3f 08 d6 96 3f 37 33 ac 3f 32 52 8f 3f
       0.545256 1.1784067 1.345313 1.1196959
0003a0 bf 24 8a 3f 6f 19 a5 3f 4e 19 52 3f 79 e2 8c 3f
       1.0792464 1.2898387 0.8206986 1.1006614
0003b0 44 06 81 3f 59 36 af 3f 07 8e 76 3f 05 cd 9c 3f
       1.0080037 1.368846 0.96310467 1.2250067
0003c0 84 2f 81 3f 55 ad 8a 3f e4 d4 4a 3f 82 96 43 3e
       1.0092626 1.0834147 0.79231095 0.19100383
0003d0 11 2c 8d 3f e7 27 51 3f 38 eb 85 3f fb a3 8e 3f
       1.1029073 0.8170151 1.0462408 1.1143793
0003e0 d4 d1 66 3f ab 28 5c 3f 29 e8 87 3f 70 68 c2 3f
       0.9016392 0.85999554 1.0617725 1.5188122
0003f0 2c cd 9c be 56 40 6f 3f ad ee 86 3f e9 b2 b6 3e
       -0.30625284 0.93457544 1.0541588 0.35683373

2.bias f4 [7]
000000 12 66 ca 3f 1c b0 a0 3f 1c c7 b2 3f 7e 21 59 3f
       1.5812399 1.2553744 1.3967013 0.8481673
000010 b6 ed 8d 3f cd a5 7f 3f 3d 36 ab 3f
       1.1088169 0.99862367 1.3375927

0.weight f4 [64, 84]
000000 9d d0 02 bd 92 ab a9 be e0 ff dc be 9e 0a ef 3d
       -0.03193723 -0.3313871 -0.43163967 0.11671947
000010 dd 5d 38 3e 99 42 2e 3f 53 00 a8 3a 6e 2d b1 3d
       0.18004556 0.6807037 0.001281748 0.08651243
000020 58 f7 7e be 47 7c ee be fd 28 78 3e bc 10 c3 be
       -0.24899042 -0.4657919 0.24234386 -0.38098705
000030 84 db 1c bf 41 a9 a0 3e bf 02 01 be 73 ca 07 bf
       -0.61272454 0.3137913 -0.12598704 -0.5304329
000040 1f db c8 be c2 1f 42 bd d7 65 48 be 32 48 9a bd
       -0.39229676 -0.047393568 -0.19570099 -0.075333014
000050 6b 18 a2 bd ad 03 06 3d cb e6 13 bf 4d 4d 92 be
       -0.079148136 0.03271835 -0.5777404 -0.285746
000060 1b 6f 6f 3e b8 c8 13 bf 87 e1 4b be b1 03 ee 3d
       0.23382227 -0.5772815 -0.1991025 0.11621798
000070 f0 14 fb bd d1 b1 9c be 4d 48 7e bd 5f b9 4c bf
       -0.12259853 -0.30604413 -0.06208067 -0.79970354
000080 40 4b ee 3d 07 22 21 3f d1 bb 44 3e 50 ca cb 3d
       0.116354465 0.62942547 0.19212271 0.099506974
000090 a5 d2 87 bf 62 78 b4 bd cc ff 34 3a 32 be ef bc
       -1.0611159 -0.08812024 0.0006904572 -0.029265497
0000a0 af 61 17 be 84 48 ff 3d 64 5d f6 bd e7 13 1d bf
       -0.14783357 0.12465003 -0.120295316 -0.61358494
0000b0 19 d4 c7 be 04 2c bb be 4d 65 cb be c5 c6 f2 3d
       -0.39029005 -0.3655702 -0.39725724 0.118543185
0000c0 b1 86 66 be 85 11 a7 3e 5f d9 36 be c8 1b 25 bd
       -0.22512318 0.32630554 -0.17856358 -0.040309697
0000d0 6a 5d aa be 20 de 50 3e ac 07 3e bf e5 88 01 3c
       -0.33274394 0.20397234 -0.74230456 0.007906173
0000e0 ca 4c 87 be b5 a1 e7 be c1 c2 4f be 59 18 e5 be
       -0.26425773 -0.4524056 -0.20289136 -0.44745138
0000f0 4a 6c a1 be 4b 9f 56 bc 41 40 4c be b3 9d 34 be
       -0.3152793 -0.013099502 -0.19946386 -0.17638282
000100 48 62 9a bd f2 12 06 be 35 8d df be 76 fd 0d 3f
       -0.07538277 -0.13093165 -0.4366242 0.55464876
000110 dc ee 9e bd 1b b9 75 be e2 0c 6c 3e 9d 2d 39 bf
       -0.077604026 -0.23996393 0.2305179 -0.72335225
000120 a6 02 12 3e de df ea bd 3a e8 08 bf bf 18 46 3e
       0.14258823 -0.114684805 -0.5347935 0.19345377
000130 2d 9c 17 be f2 06 dd be 01 65 74 3e ed a6 ef be
       -0.1480567 -0.4316936 0.23866655 -0.46807042
000140 be 5b 3a bd 11 ff a5 3f e3 c0 1a be b8 d1 73 3e
       -0.04549765 1.2968465 -0.15112643 0.2381047
000150 02 6e d4 3e bc 69 34 bd f6 37 4b bd 49 e8 8a 3e
       0.4149018 -0.04404615 -0.049613915 0.27130345
000160 21 b2 7c bd 6c ed 1e 3f c4 bf 3d 3c 33 ed 11 3c
       -0.061693314 0.6208103 0.011581365 0.00890665
000170 23 6b 2c 3e 14 30 1d 3f 11 02 9c 3e e2 69 a8 3d
       0.16837744 0.61401486 0.30470327 0.082233205
000180 d0 76 00 bf e8 ac c2 3e 46 a3 1b 3e 8d ea 5b 3e
       -0.50181293 0.38022542 0.15199003 0.21476193
000190 08 05 b0 be df 48 b0 3e 48 a1 a7 3c 8f a1 4e be
       -0.3437884 0.34430596 0.020462647 -0.20178817
0001a0 74 35 dc bd 00 48 0e 3e 6c 2e a9 be 1f c7 fc 3e
       -0.10752383 0.13894653 -0.3304323 0.49370667
0001b0 5f 39 e0 3e e5 bc 41 bb e3 b5 07 be 2e 49 8f 3e
       0.4379377 -0.0029562053 -0.13252978 0.2798552
0001c0 19 1a 55 3c 76 8f a2 3e 03 5d 8f bc 9d 1b 80 3d
       0.01300671 0.31750077 -0.017500406 0.06255267
0001d0 b1 a8 fa 3d f5 23 54 3f 42 18 fb 3d 47 bf 6f 3d
       0.122392066 0.82867366 0.12260486 0.058532026
0001e0 f1 e8 59 be c2 1d 9e 3e cf de 66 3e 02 a6 00 3f
       -0.21280266 0.30882078 0.22545932 0.5025331
0001f0 db ad d5 bd 62 36 b4 3e ea e4 3c 3e 3f 94 16 3e
       -0.10433551 0.3519774 0.18446699 0.14704989
000200 80 04 95 be e7 ad 01 bd ec a3 b1 bb 9d 64 a1 3e
       -0.29104996 -0.031659987 -0.0054211523 0.31522074
000210 42 78 20 3c 2c fb ea bb 0a 5f af 3e ad c1 55 3e
       0.009794297 -0.0071710553 0.34252197 0.20874663
000220 1b 43 90 3e 53 ce d9 3e f2 a9 41 3d 25 9e 7b 3e
       0.28176197 0.42540225 0.047281213 0.24572046
000230 f4 0b 8e 3e 2f cf 10 3c 92 b3 31 3e 3a 57 b0 be
       0.27743495 0.008838459 0.17353657 -0.3444155
000240 02 69 14 3e 0c d1 3c 3e fb d6 ed bc 9c 7d 7e bd
       0.14493182 0.1843912 -0.029033175 -0.06213151
000250 63 70 16 bc 83 ca db 3e 5c 8d 82 3e 36 1e 25 3f
       -0.0091820685 0.42927942 0.25498474 0.64499223
000260 c6 24 f0 3e 37 41 74 3e 3b ff d0 3e 23 c6 04 3e
       0.46903056 0.23853002 0.40819725 0.12966208
000270 0d 1a 02 3f 50 fa 3c 3e 29 3c 67 3e 67 04 bd 3e
       0.50821 0.18454862 0.22581543 0.3691742
000280 99 2f 2f 3e 07 33 70 3e ff 40 d3 3e 61 d7 b1 3b
       0.17108001 0.23456965 0.41260526 0.0054272865
000290 64 43 a5 3e 11 b6 a6 3f d7 88 2b 3f 7f 2c 61 3f
       0.32277977 1.3024312 0.67005676 0.8795852
0002a0 e9 f2 74 3d 74 0c 4a be 11 00 8d be 36 01 95 3d
       0.05980197 -0.19731313 -0.27539113 0.072756216
0002b0 40 ad 30 be b4 6d f0 3e 2a fe c7 bd 34 08 d9 bc
       -0.1725359 0.46958697 -0.09765275 -0.02649317
0002c0 67 8a 05 be de 96 c9 3e e0 d6 a4 3e 78 93 9a bd
       -0.13041078 0.39372915 0.32195187 -0.07547659
0002d0 af 74 42 bf d5 e6 2e 3e 94 e4 4f be 61 1c 87 bd
       -0.75959295 0.17080243 -0.2030204 -0.0659721
0002e0 d8 c0 1b bf 45 06 16 be c6 9e a8 bc f7 95 97 be
       -0.6084113 -0.14650829 -0.020583522 -0.29606602
0002f0 70 8e 9d bd 95 ed a2 3c 2e 79 ef be c8 bc 4b 3e
       -0.076931834 0.019888679 -0.4677214 0.19896233
000300 e7 11 de 3d 3d 04 8e be d7 2d d2 bd 85 4a af bd
       0.10843258 -0.2773761 -0.102626495 -0.08559135
000310 3f b5 97 bc 27 60 1a bf a4 d8 b6 be 49 cd ce be
       -0.018519042 -0.60302967 -0.3571216 -0.40390995
000320 f9 53 1d be bc 96 3f 3f 59 ca c0 bd 64 36 64 be
       -0.15364064 0.7483938 -0.09413595 -0.22286373
000330 96 74 61 be 48 a7 3b 3e 7a fa 2e 3d 00 5b 68 bd
       -0.2201713 0.18325531 0.04271934 -0.05672741
000340 4f 7c e1 bd da 95 69 bd 6a d1 59 3d de 96 ca 3d
       -0.11010038 -0.057027675 0.05317823 0.09892057
000350 e4 53 1f bd 85 8e 1e bf 4c 58 80 bd 11 8e 9c 3d
       -0.038898364 -0.6193622 -0.06266841 0.076442845
000360 44 91 b4 bd 47 92 c7 3d 9a 27 59 3e b1 30 32 be
       -0.0881677 0.09744697 0.21206513 -0.17401387
000370 4f 8d b1 be 65 74 e8 3d ac 59 92 be 8e 4d a9 3e
       -0.34678122 0.113503255 -0.2858404 0.33066982
000380 34 ed a7 bd 22 f6 14 be 24 7f c3 bd c4 ca 63 be
       -0.0819954 -0.14547017 -0.095457345 -0.22245318
000390 e2 17 db be 72 f7 dc 3e 9e 6a ea 3c 9d 18 e8 bd
       -0.4279166 0.43157536 0.028615292 -0.113328196
0003a0 52 87 89 be a8 46 2a 3e 4c 47 d5 be 0a 0d ec 3e
       -0.26861054 0.16628516 -0.41655958 0.46103698
0003b0 6d 0f 54 3e 28 f8 2d 3e 0f 28 21 3f bf 7c 89 bf
       0.2070901 0.16989195 0.6295175 -1.0741194
0003c0 3f 92 b6 3e 3b 1b bd 3d fd 55 8e be 9b 00 ee 3e
       0.35658452 0.092337094 -0.2779998 0.46484837
0003d0 2d 92 04 be f1 61 8a be 9a e1 ac 3e ad 2f f2 be
       -0.12946387 -0.27027848 0.3376587 -0.47302
0003e0 00 9c 16 3d 80 e8 89 3f 7c 7e 92 3e c4 6a 15 3f
       0.036769867 1.0774078 0.28612125 0.58366036
0003f0 2f 1e 85 3e ac 3f 47 be 63 e3 9a be 1f e1 84 be
       0.2599959 -0.19457883 -0.30251607 -0.25953004

0.bias f4 [64]
000000 36 03 19 40 82 24 1f 40 c5 3e 1f 40 9d 24 0c 40
       2.390821 2.4866033 2.4882061 2.1897347
000010 e3 4f 20 40 31 d2 1d 40 17 ce d6 3f 8f d0 20 3f
       2.504876 2.465954 1.6781644 0.62818235
000020 b8 bc 0e 40 6b a3 14 40 50 a4 21 40 1c 62 f2 3f
       2.2302685 2.3224742 2.5256538 1.8936191
000030 5c f8 91 3f bd e6 01 40 4f c0 0d 40 1f 94 23 40
       1.1403918 2.0297081 2.2148626 2.5559156
000040 e8 ad 0f ba 06 1a 0a 40 bb d6 28 3f 00 74 0b 40
       -0.0005480931 2.1578383 0.6595265 2.178955
000050 7d bd 12 40 99 07 2a 40 8b 2f 22 40 41 19 1c 40
       2.2928154 2.6567137 2.5341518 2.4390414
000060 82 32 25 40 67 47 29 40 f1 30 f1 3f 8e 63 e1 3e
       2.5812078 2.644983 1.8843061 0.44021267
000070 0f 1f 1e 40 34 33 0a 40 38 32 08 40 78 bf 23 40
       2.4706457 2.1593752 2.128065 2.5585613
000080 c1 2b b1 3e 56 9c 24 40 07 6f 23 40 5c 00 29 40
       0.34603694 2.572042 2.5536516 2.640647
000090 cc bd 08 ba 67 90 1c 40 64 cd 0b 40 66 72 29 40
       -0.000521627 2.4463136 2.184411 2.6476073
0000a0 18 ae 05 40 0d c6 22 40 17 24 21 40 d4 49 0a 3f
       2.0887508 2.543338 2.5178277 0.540189
0000b0 bc d2 fa 3f 29 23 10 40 57 71 1e 40 84 42 0d 40
       1.9595561 2.252146 2.4756677 2.2071848
0000c0 db e4 f5 3f ef d7 22 40 12 a8 1a 40 29 65 17 be
       1.9210466 2.5444295 2.4165082 -0.14784683
0000d0 0f 6a 26 40 bb 6f 14 40 cc 00 23 40 4a c1 0e 40
       2.6002233 2.3193195 2.5469236 2.2305474
0000e0 e9 d3 20 40 53 af 11 40 38 ac 18 40 3d 02 20 40
       2.512934 2.276326 2.3855114 2.5001366
0000f0 8c 9f 71 be 61 9d 09 40 12 43 0f 40 b1 b1 b6 ba
       -0.23596019 2.1502306 2.2384686 -0.0013938454

2.weight f4 [7, 64]
000000 ae 3a e0 3f 84 b4 87 3f ff eb c6 3f 4c cc d0 3f
       1.7517908 1.0601964 1.554077 1.6312346
000010 c9 a4 7d 3f 39 e4 d7 3f da 76 85 3f fa 56 6c 3e
       0.9907957 1.6866523 1.0426896 0.23080054
000020 c5 dc 89 3f 7c 57 82 3f ce a9 d1 3f 62 fb 8b 3f
       1.0770499 1.0182948 1.6379945 1.0936091
000030 d4 c9 9a 3f 30 85 d6 3f b9 17 b8 3f de 80 02 40
       1.2092843 1.6759396 1.438224 2.0391154
000040 b0 8c a9 bf ff e5 8c 3f 8b c4 59 3c 03 45 64 3f
       -1.324606 1.1007689 0.013291488 0.89167804
000050 3a b0 7b 3f 5f 52 98 3f 6a 5f 6a 3f b0 a5 d9 3f
       0.98315775 1.1900138 0.9155184 1.7003689
000060 ce 7b 91 3f c3 c8 8d 3f f2 48 91 3f dd a3 39 bf
       1.1365907 1.1076893 1.1350386 -0.7251566
000070 cf 1a dc 3f 44 4f 1a 3f 52 dd e9 3f b2 21 b8 3f
       1.7195681 0.602772 1.8270667 1.4385283
000080 ac d2 e5 be bc 34 9c 3f 41 14 f1 3f 5e cb a2 3f
       -0.44887292 1.2203593 1.8834306 1.2718313
000090 ff e9 80 bf 3e 24 f8 3f 09 90 ac 3f 99 88 94 3f
       -1.007141 1.938606 1.3481456 1.1604186
0000a0 ea 01 7c 3f c4 9d ae 3f 8b b7 ac 3f 9e f9 93 be
       0.9844042 1.3641896 1.3493513 -0.2890138
0000b0 1d 56 98 3f 94 2b b7 3f 07 a5 8e 3f b9 c8 a8 3f
       1.190128 1.4310174 1.1144112 1.3186256
0000c0 72 b9 57 3f 2a 3e 87 3f 0f 04 8a 3f ec 78 a5 bd
       0.8426734 1.0565846 1.0782489 -0.08079705
0000d0 55 7c 83 3f 4e d1 b1 3f 2e 32 98 3f a4 59 cb 3f
       1.0272318 1.3892 1.1890314 1.5886731
0000e0 03 e5 4d 3f e9 fa d5 3f b9 b3 b7 3f b5 e1 c1 3f
       0.8042757 1.6717197 1.4351722 1.5147005
0000f0 f3 25 72 bd 7a 07 ed 3f 37 e0 db 3f c1 41 2b bf
       -0.059118222 1.8517907 1.71778 -0.6689721
000100 28 38 c4 3f 07 e0 73 3f 5c f9 af 3f 14 13 d8 3f
       1.5329638 0.95263714 1.3747973 1.6880822
000110 50 ff 7d 3f 7f 06 b0 3f bb 05 3a 3f ae 9f 5f 3e
       0.992177 1.3751982 0.72664994 0.21838257
000120 44 1a 47 3f 98 79 8d 3f 8a 63 9d 3f 6b e1 96 3f
       0.77774453 1.1052732 1.2296002 1.1787542
000130 da 92 a2 3e 92 33 c4 3f 48 1a a9 3f be e0 bf 3f
       0.31752664 1.5328238 1.3211145 1.4990461
000140 40 f5 69 3f 44 07 82 3f 8f 96 c5 3e b6 fe 8b 3f
       0.91389847 1.0158467 0.3859143 1.0937107
000150 60 a5 84 3f f1 96 7a 3f 64 33 7a 3f 97 d6 c1 3f
       1.0362968 0.9788657 0.97734666 1.5143613
000160 e9 fe 86 3f ca 73 66 3f 3d 4c 77 3f fb a5 9e 3f
       1.0546542 0.9002043 0.96600705 1.2394403
000170 6e bd 9a 3f ce b2 90 3f 5c d5 b4 3f de a3 bb 3f
       1.2089059 1.1304567 1.4127612 1.4659383
000180 71 91 1b 3e 76 be 6b 3f 9b 07 bc 3f 8b 51 99 3f
       0.151922 0.92087495 1.4689821 1.197801
000190 c5 6b 34 bc 8b 95 c4 3f 30 f1 b3 3f 4c e2 7a 3f
       -0.011012022 1.5358137 1.405798 0.9800155
0001a0 7e e4 89 3f f1 7b b3 3f 6d c7 69 3f 09 e0 07 3f
       1.0772855 1.4022199 0.91319925 0.53076226
0001b0 c0 f2 9a 3f d3 c2 b1 3f 9b 48 82 3f 58 04 8a 3f
       1.2105331 1.3887581 1.0178407 1.0782576
0001c0 c4 50 21 3f 91 18 80 3f 52 5b 6f 3f 03 db 2a 3f
       0.63013864 1.0007497 0.9349872 0.66740435
0001d0 c0 a7 83 3f 8c 77 66 3f e4 7a 5c 3f 84 e7 9e 3f
       1.0285568 0.90026164 0.86125016 1.2414403
0001e0 29 b6 7d 3f e5 0d cc 3f e4 3c 9f 3f 9b 56 a1 3f
       0.9910608 1.594174 1.2440457 1.2604555
0001f0 93 ae ba bc 93 b7 d1 3f 28 e3 b6 3f 3c 55 32 3f
       -0.022788322 1.6384147 1.4288073 0.6966131
000200 22 65 fc 3f 5e 47 93 3f 8f ad d8 3f 97 bd f3 3f
       1.9718363 1.1506155 1.6927966 1.9042233
000210 df 8c 81 3f e3 66 c2 3f 73 da 83 3e d5 22 84 3f
       1.0121115 1.5187649 0.257526 1.032313
000220 f0 87 4c 3f d0 ad 7a 3f bb 26 b0 3f 70 75 c5 3f
       0.79894924 0.97921467 1.376182 1.5426464
000230 98 81 b9 3f c4 b1 9f 3f 11 f7 b8 3f 35 33 d1 3f
       1.4492674 1.2476125 1.4450399 1.6343752
000240 b6 75 a2 bf 79 a1 88 3f f7 61 b8 3f 3b e9 2e 3f
       -1.2692173 1.0674278 1.4404896 0.6832463
000250 31 74 8e 3f c4 c5 a6 3f 0a 7f 86 3f a5 08 ca 3f
       1.1129209 1.3029103 1.0507519 1.5783888
000260 8b 32 6f 3f 86 02 8e 3f ed 5e 3c 3f ac 33 10 be
       0.934365 1.109452 0.73582345 -0.14082211
000270 14 bb b1 3f 7d d7 7a 3f ea 70 e5 3f 47 3c c9 3f
       1.3885217 0.9798506 1.7925084 1.572152
000280 15 16 71 3f a8 26 71 3f c9 7d e7 3f 37 4a 90 3f
       0.9417432 0.9419961 1.8085262 1.1272649
000290 de 00 a0 bf fb a2 d8 3f 36 b9 ec 3f 24 de 97 3f
       -1.2500265 1.6924738 1.8494022 1.1864667
0002a0 b2 08 8b 3f ad 32 9b 3f 03 40 9d 3f eb 3c da be
       1.0862029 1.212484 1.228516 -0.42624602
0002b0 e5 fb 8f 3f 32 5a f6 3f 65 fa 76 3f fd 80 b2 3f
       1.1248747 1.9246275 0.9647582 1.3945614
0002c0 be 5e 84 3f b5 b9 8b 3f 36 60 a0 3f 8d 2d 52 3f
       1.0341413 1.0916048 1.2529361 0.82100755
0002d0 1e b0 83 3f 97 f9 84 3f fc 7c 9b 3f 93 45 a5 3f
       1.0288122 1.0388669 1.2147517 1.2911857
0002e0 9b 9f 63 3f e2 f9 c3 3f b1 75 ce 3f 60 57 ba 3f
       0.88915414 1.5310633 1.6129667 1.4557915
0002f0 a5 1d 8f bf 27 b9 ab 3f f6 53 e8 3f fd c3 c0 bf
       -1.1180922 1.3415879 1.8150623 -1.5059811
000300 49 e6 81 3f 6f df 41 3f 8e 64 b5 3f 59 8c 95 3f
       1.0148402 0.7573156 1.4171312 1.1683456
000310 86 d9 6a 3f d6 b8 a0 3f 07 66 0c 3f 88 1b 8b 3f
       0.91738164 1.2556407 0.5484318 1.0867777
000320 49 06 1c 3f 42 54 a2 3f cf 91 af 3f a1 c3 99 3f
       0.6094709 1.2681963 1.3716372 1.2012826
000330 63 55 50 3f 3c 2d 88 3f 4e d0 81 3f d9 98 a7 3f
       0.8138029 1.0638804 1.0141695 1.309352
000340 3d 0b be 3e 61 ac 8f 3f 53 62 2a 3e a0 40 8e 3f
       0.3711795 1.1224481 0.1663907 1.1113472
000350 80 7e 97 3f a8 e1 8e 3f 5d 94 80 3f 9f 44 9d 3f
       1.183548 1.1162615 1.0045277 1.2286566
000360 e8 34 73 3f 21 b1 73 3f 84 20 67 3f be 48 50 3f
       0.95002604 0.9519215 0.9028399 0.81360996
000370 25 9f c1 3f 57 eb 60 3f f8 04 99 3f 85 b2 9a 3f
       1.5126692 0.878591 1.1954641 1.208573
000380 ee 22 f9 3e 16 98 83 3f 11 fe 9c 3f 65 2f 91 3f
       0.48659462 1.0280788 1.2265035 1.1342589
000390 17 00 07 3f 66 bb 93 3f aa 12 a9 3f 20 9f 8c 3f
       0.5273451 1.1541564 1.3208821 1.0986061
0003a0 05 65 87 3f 11 42 a2 3f e3 86 4c 3f a5 50 8a 3f
       1.0577704 1.2676412 0.7989332 1.0805861
0003b0 0d 7f 7c 3f 3a 13 ac 3f 76 23 71 3f b8 fc 99 3f
       0.98631364 1.3443367 0.94194734 1.2030249
0003c0 c1 b6 7c 3f 7c eb 87 3f 7e 52 45 3f 44 ff 37 3e
       0.9871636 1.0618739 0.77079 0.1796847
0003d0 58 81 8a 3f 9b 5e 4b 3f c0 34 83 3f c8 b2 8b 3f
       1.0820723 0.7944123 1.0250473 1.0913935
0003e0 57 83 61 3f 36 ee 55 3f 57 d5 84 3f b0 6f bf 3f
       0.88091034 0.83566606 1.0377606 1.4955959
0003f0 40 d2 9e be 40 af 68 3f 61 01 84 3f b3 48 ae 3e
       -0.31019783 0.9089241 1.0312921 0.3403984

2.bias f4 [7]
000000 00 11 c6 3f ac 3f 9d 3f d3 76 ae 3f d3 c0 53 3f
       1.5473938 1.2285056 1.3630012 0.827161
000010 86 a5 8a 3f 86 b2 79 3f 07 d5 a7 3f
       1.0831764 0.9753803 1.3111886
